models/0-1/guerrilla_model_weights.pth (torch, 162024 bytes, 6 tensors)

layer1.weight f4 [128, 82]
00000000: 85f3 d041 d477 d740 bbdf 0d41 095d 0841
00000010: 5c37 0541 ee5b 8440 b010 5741 a6f3 2541
00000020: 2e21 0441 23f1 2741 ce3d e941 577a 2241
00000030: a02e b540 f02e 2841 b5a2 c441 5f7b a741
00000040: 30e4 2141 7f25 4f41 a61b 9b41 eb20 cf41
00000050: 4c6b 1541 b0c3 5b40 8f4a 9b41 0f54 3141
00000060: f951 1b41 29fe 4a41 091e 5741 1244 2e41
00000070: ad7e 3041 6128 15c0 2471 2b41 ff51 2f41
00000080: cd3f e840 2227 ca41 0774 ce41 bcf1 dc41
00000090: 6b17 dc41 20c8 d541 1d2b c841 a17f bb41
000000a0: 5442 ca41 488f d441 45f5 f940 a04f dc41
000000b0: 72d3 e141 ca97 db41 ffc8 de41 641b 1141
000000c0: 7870 e341 8523 e341 eb43 e341 91e8 dd41
000000d0: c2dd e941 e5f4 e141 7be3 d641 e0fe d441
000000e0: c6de c541 a1b6 cc40 65ce b041 6ba3 ed41
000000f0: 66c9 e741 363e 1a41 cfc3 c341 b13b f940
00000100: 8ad8 d541 a16b cf41 aa2d e941 24d5 e441
00000110: b4eb d441 6196 d541 60dc b241 e80f da41
00000120: ab06 d841 ccc9 db41 6ffd db41 9375 cf41
00000130: a8e2 d441 6811 d641 f186 c941 f8b8 cb41
00000140: d124 d641 45a7 db41 50e8 d041 6595 d940
00000150: b0ca 0d41 f76e 0641 bb01 0741 8bba 8140
00000160: da27 5641 367f 2241 8525 0641 a59d 2741
00000170: 57f3 e941 9d04 2541 2851 b340 7457 2a41
00000180: 120a c641 6043 a841 7039 2441 941f 4f41
00000190: 3ed6 9b41 3c6c d041 2b66 1241 c5b9 5840
000001a0: ed1a 9c41 d371 3041 23ea 1b41 4898 4a41
000001b0: d006 5841 6eae 2e41 b55f 3041 44ef 0cc0
000001c0: db43 2c41 13bb 3241 08c1 e540 24b0 c941
000001d0: 5b5c cd41 da43 db41 1aa0 db41 fb78 d641
000001e0: b361 c741 eadb b841 7bf2 cb41 5d58 d441
000001f0: 4699 f540 4a12 dc41 ea03 e341 9d86 dc41
00000200: 7a25 de41 440c 0f41 0391 e241 e4c6 e141
00000210: 4974 e241 cb34 dd41 106e e841 4cf8 df41
00000220: cdda d541 b697 d241 feeb c341 80c1 c940
00000230: f079 b041 c443 ed41 0c96 e641 63e7 1841
00000240: ae19 c341 5d62 f640 9a64 d541 1fb4 ce41
00000250: 2187 e741 da7b e241 2ae0 d441 4c60 d641
00000260: 5245 b241 f3fd da41 ad55 d841 96be da41
00000270: 7439 d941 37fe ce41 ef26 d441 e562 d541
00000280: f77c c941 c15a cb41 a263 d541 464f da41
00000290: 0940 d141 9612 dd40 d5f6 0e41 c751 0941
000002a0: 0dd0 0541 9bb6 8440 44ad 5641 3e3d 2541
000002b0: c509 0741 b3ba 2841 e46f ea41 0dd4 2441
000002c0: c9df b640 6d38 2a41 e21c c541 80dc a841
000002d0: 5752 2641 8437 5041 4e41 9c41 983d d041
000002e0: 2690 1041 ca85 6140 aeb6 9b41 aab1 3141
000002f0: e774 1e41 6d07 4b41 f2d1 5641 192a 3041
00000300: 0922 3141 d907 06c0 bb10 2b41 1768 3141
00000310: 8bf2 ec40 a5e2 c941 d23f cc41 2c3f dc41
00000320: 3302 db41 ee00 d741 83d4 c741 7e1d b941
00000330: e363 ca41 ea41 d441 73f5 f440 9e5a db41
00000340: b472 e241 18de dc41 c0e8 dd41 666a 1041
00000350: 43e8 e141 0af9 e241 ef41 e341 e141 dd41
00000360: 8268 e941 8830 e141 330e d541 960d d341
00000370: 0bc7 c441 46f7 cb40 d410 b041 13df ed41
00000380: 26cb e641 9673 1741 4181 c341 73a8 f940
00000390: ab31 d541 74f7 ce41 28bb e641 21de e241
000003a0: 915e d441 8f0d d641 9d18 b341 a0cc da41
000003b0: 2280 d841 2b0f db41 e3a7 d941 f40d cf41
000003c0: f9fa d341 548c d541 762c c841 9918 ca41
000003d0: 06af d541 d9b9 d941 3067 d041 939a d340
000003e0: 2094 0e41 9a9f 0a41 61cf 0441 6c3e 8e40
000003f0: 0189 5741 6092 2441 90cc 0541 19ac 2541
26.118906 6.7333775 8.867122 8.522714 8.326015 4.136222 13.441574 10.3719845
8.2581005 10.496371 29.155178 10.154868 5.6619415 10.511459 24.579447 20.93524
10.11821 12.946654 19.3885 25.891073 9.338696 3.4338188 19.411406 11.083022
9.707513 12.687051 13.444833 10.891619 11.030927 -2.3305895 10.715122 10.957519
7.257788 25.269108 25.806654 27.618034 27.511435 26.722717 25.021051 23.437319
25.282387 26.569962 7.81119 27.53888 28.228245 27.449116 27.848143 9.069187
28.429916 28.392344 28.408163 27.738558 29.23328 28.244577 26.861074 26.62445
24.733776 6.3972936 22.100779 29.704794 28.97334 9.640188 24.47061 7.7885365
26.730732 25.927553 29.147297 28.604073 26.61509 26.698427 22.357605 27.257767
27.003256 27.473534 27.498747 25.93241 26.610672 26.7585 25.19089 25.465317
26.767977 27.456675 26.113434 6.7994866 8.861984 8.402091 8.4379225 4.0540214
13.384729 10.156057 8.38416 10.475987 29.243818 10.313626 5.603657 10.646351
24.754917 21.032898 10.264023 12.9452095 19.47961 26.052849 9.149943 3.3863385
19.513147 11.027789 9.744662 12.662178 13.501663 10.917585 11.023366 -2.2021036
10.766566 11.170672 7.1798134 25.211006 25.670095 27.40813 27.453175 26.809072
24.922705 23.10738 25.493399 26.543146 7.67496 27.50893 28.376911 27.56573
27.7683 8.940495 28.320807 28.222115 28.30678 27.650778 29.053741 27.996239
26.731836 26.324078 24.49023 6.3048706 22.05954 29.658089 28.823265 9.556491
24.387539 7.699507 26.674122 25.83795 28.94098 28.310474 26.609455 26.79702
22.283848 27.373999 27.041834 27.34306 27.153053 25.874128 26.51901 26.673288
25.186018 25.419313 26.673649 27.288708 26.156267 6.908519 8.935262 8.582465
8.363294 4.1472907 13.417301 10.327452 8.439885 10.545581 29.304634 10.30177
5.7148175 10.638776 24.639103 21.107666 10.3951025 13.013554 19.531887 26.030075
9.0351925 3.5237908 19.4642 11.105875 9.903541 12.689313 13.426256 11.010278
11.070809 -2.094229 10.691585 11.087913 7.4046073 25.235666 25.531162 27.530846
27.376074 26.875454 24.978765 23.1394 25.298773 26.532185 7.654962 27.419247
28.306007 27.608444 27.738647 9.025976 28.238409 28.371601 28.407194 27.657167
29.17603 28.148697 26.631933 26.381634 24.597189 6.3739347 22.008217 29.733923
28.849194 9.465719 24.438112 7.8018126 26.649252 25.870827 28.841385 28.358461
26.546175 26.75662 22.387018 27.349915 27.062565 27.382406 27.206976 25.881813
26.497545 26.69352 25.02171 25.26201 26.71046 27.215746 26.050385 6.612619
8.911163 8.663965 8.30063 4.44512 13.470948 10.285736 8.362442 10.354516

layer1.bias f4 [128]
00000000: 021f e141 a17d de41 2f7a df41 b6f8 de41
00000010: ecf4 de41 63bc de41 2a53 df41 cbb3 de41
00000020: 87c9 df41 b27e df41 2238 df41 5e28 df41
00000030: 1741 df41 f9a7 df41 caf0 de41 e8da df41
00000040: bbe1 df41 a15a df41 5c27 df41 d0a9 df41
00000050: d0b3 df41 03a3 df41 f1a9 df41 aa78 df41
00000060: 4b7c df41 17da de41 e348 df41 d27b df41
00000070: 37a1 df41 6ce4 df41 c636 df41 6a14 df41
00000080: 47c0 de41 cb59 df41 feb3 8740 93fb de41
00000090: 9105 df41 81f6 df41 0afc df41 6212 df41
000000a0: 945c de41 8b8e df41 3221 df41 8c8c df41
000000b0: 7a51 df41 a058 df41 d10c df41 6f6e 8b40
000000c0: 6303 df41 f360 df41 abd9 de41 f5f6 df41
000000d0: df6e df41 919c df41 40c3 df41 3c1e df41
000000e0: e9ee de41 cc2e df41 e082 de41 4e58 df41
000000f0: 1a13 df41 8074 df41 b2e4 de41 4997 de41
00000100: 36a1 de41 0a93 de41 f7a3 df41 0b60 df41
00000110: 8c04 7a40 ca90 df41 a7d0 de41 2bff de41
00000120: 6600 e041 c95a df41 0bab df41 a2bb de41
00000130: a082 df41 c2d4 de41 e73a df41 ae3c df41
00000140: 6e22 df41 764b df41 4939 df41 d17e df41
00000150: 3d27 df41 08e0 df41 4637 df41 e38a de41
00000160: 2634 df41 c320 df41 2bf9 de41 16a2 8a40
00000170: 63f1 de41 e02f df41 cf33 df41 9280 df41
00000180: 04ce df41 30f1 df41 30f5 de41 0c0d df41
00000190: 9e93 df41 28e4 9140 fe1e df41 d1b2 df41
000001a0: a93e df41 6bf0 de41 8f21 df41 71c6 df41
000001b0: c041 df41 cef5 de41 6e9a df41 1451 df41
000001c0: e076 df41 1a01 df41 f145 df41 86b1 df41
000001d0: ce97 de41 b60d df41 b29f df41 f1f2 df41
000001e0: 5aa1 df41 d09f df41 90ca de41 7ecc de41
000001f0: 6cc5 df41 9eab df41 6fb4 df41 adec 8d40
28.14014 27.811342 27.93466 27.87144 27.86959 27.841986 27.915607 27.83779
27.973402 27.936863 27.902409 27.89471 27.906782 27.957018 27.867573 27.981888
27.98522 27.919252 27.894218 27.957916 27.9628 27.954596 27.95798 27.933918
27.93569 27.85649 27.91059 27.93546 27.953718 27.986534 27.901745 27.884968
27.843885 27.918844 4.2407217 27.872839 27.877718 27.995363 27.998066 27.883976
27.795204 27.944601 27.891209 27.943626 27.914783 27.918274 27.881258 4.3572307
27.876654 27.922338 27.856283 27.995584 27.929136 27.951448 27.970337 27.889763
27.866655 27.89785 27.813904 27.918118 27.884327 27.931885 27.861668 27.82387
27.828716 27.821796 27.955061 27.921896 3.9065275 27.945698 27.851881 27.874594
28.000195 27.919329 27.958517 27.841618 27.938782 27.853886 27.90376 27.904629
27.891811 27.911846 27.902971 27.936922 27.89416 27.98439 27.901989 27.817816
27.900463 27.890997 27.871664 4.332286 27.867865 27.898376 27.900297 27.937778
27.975594 27.992767 27.86972 27.88137 27.947079 4.559101 27.890133 27.962313
27.905596 27.867392 27.891386 27.971895 27.907104 27.870022 27.950405 27.914589
27.933044 27.875538 27.909151 27.961681 27.824123 27.881695 27.952976 27.993624
27.953785 27.953033 27.848907 27.84985 27.971397 27.958797 27.963102 4.435141

layer2.weight f4 [128, 128]
00000000: 6aaa ea41 5504 ed41 a1c4 ec41 6f1d eb41
00000010: b79c ec41 80cd ec41 edce eb41 b4bb ec41
00000020: 2dce ec41 4323 ed41 64cb eb41 ef2d ec41
00000030: 3702 ec41 d663 ed41 4e9a ee41 b05c ec41
00000040: f496 ec41 e505 ed41 5593 ec41 990e ec41
00000050: 8c29 ec41 5964 ec41 04d6 eb41 49bf eb41
00000060: c326 ec41 4ca7 ec41 f727 ec41 939d ec41
00000070: 2cc5 ec41 321c eb41 00cc eb41 510a ec41
00000080: 0216 ec41 420c ed41 4696 97c1 e728 ed41
00000090: d3cc ec41 8437 ec41 4716 ec41 35dc eb41
000000a0: 913d ec41 23b2 eb41 36d2 ec41 c444 ec41
000000b0: 1d25 ed41 9c1e ec41 8088 ed41 9044 97c1
000000c0: b5b6 eb41 4af3 eb41 2365 eb41 d872 ec41
000000d0: b40b ed41 366d ea41 8c60 ec41 42d3 eb41
000000e0: 03c3 ec41 0a5b ed41 d614 ed41 3398 ec41
000000f0: ceb0 ec41 15d2 ec41 23fb ec41 dfd0 ec41
00000100: 1c53 ed41 2331 ed41 adbf ec41 23b0 eb41
00000110: 9fda 98c1 924b ec41 f7f3 ec41 96c2 ec41
00000120: 6d07 ed41 1130 ec41 d296 eb41 a1f6 ec41
00000130: ae29 ec41 b6e1 eb41 d088 eb41 ab80 ec41
00000140: 91f4 eb41 cf3b ed41 7272 ec41 57a7 ec41
00000150: 7de8 eb41 0164 ec41 71fb ec41 18e3 ec41
00000160: f03d ee41 54a1 ec41 2580 eb41 c139 97c1
00000170: 0a19 ec41 3ac6 ec41 5ad2 ec41 4d47 ec41
00000180: 299e ec41 6678 ec41 5ce7 ec41 830a ec41
00000190: 75c2 eb41 9fc0 9ec1 4118 ec41 5245 ed41
000001a0: b3f9 ec41 8656 ed41 7fee ec41 8673 ec41
000001b0: 72fd eb41 6184 ec41 14b0 eb41 b8b3 ec41
000001c0: df1c ec41 5126 ec41 4e7c ec41 df5b ec41
000001d0: 72a3 ec41 a83c ec41 035c ed41 8eb4 ec41
000001e0: 8820 ec41 86f2 eb41 a85b ed41 72f5 eb41
000001f0: 9ac7 ec41 50eb eb41 9cfc eb41 f425 95c1
00000200: dda3 e941 4b58 ed41 d8d3 eb41 6977 eb41
00000210: 4184 ec41 ae0b ec41 e7dc ea41 def3 ec41
00000220: 5210 ed41 d31a ec41 1555 ec41 5503 ec41
00000230: 894a eb41 7bc3 ec41 d516 ef41 53ee eb41
00000240: 4253 ec41 cb7a ec41 46c4 ec41 cd49 ec41
00000250: 358d eb41 146f ec41 27f5 eb41 c861 eb41
00000260: 1b70 ec41 7b92 ed41 bdd1 eb41 acfe eb41
00000270: 4733 ec41 048e eb41 0cf9 eb41 a5e3 eb41
00000280: 0542 ec41 6f46 ec41 dbf7 96c1 faf3 ec41
00000290: 6b52 ed41 208e eb41 09b4 eb41 11b4 eb41
000002a0: 112e ed41 7ad1 eb41 cbb8 ec41 d88f eb41
000002b0: eec5 ec41 613a ec41 8867 ed41 4f0f 95c1
000002c0: fb9e eb41 0730 eb41 bb9d eb41 c9a8 eb41
000002d0: e56c ed41 43f3 ea41 69dd eb41 f90b eb41
000002e0: be32 ec41 fa47 ec41 dd5a ed41 31f2 eb41
000002f0: aedf ec41 3276 ec41 8c84 ec41 1b00 ec41
00000300: c377 ec41 ec02 ed41 8a5c ec41 cff9 ea41
00000310: 683d 99c1 2c47 ec41 300e ed41 1da8 eb41
00000320: b1ea eb41 4762 ec41 f59c ea41 4977 ec41
00000330: c081 eb41 2b90 ec41 e55f eb41 1f00 ec41
00000340: c54f ec41 0932 ed41 ed8c ec41 ca70 ed41
00000350: 3b15 eb41 68dd ec41 afd1 eb41 5609 ec41
00000360: 9006 ef41 5f00 ed41 580e eb41 ca05 97c1
00000370: 03bf eb41 4584 ed41 7b37 ed41 043b ec41
00000380: 9bff eb41 5d1e ed41 d3d6 ec41 e41a eb41
00000390: 116d eb41 fea7 9fc1 7507 eb41 a603 ed41
000003a0: f95b ec41 4a9b ec41 39d9 ec41 f6a1 ec41
000003b0: 96dc eb41 0f18 ec41 9553 ec41 6882 eb41
000003c0: 2a69 eb41 1aa8 ec41 484f ec41 8a12 ed41
000003d0: c97c ec41 decb ec41 d859 ed41 d4c3 ec41
000003e0: 48c8 eb41 7c3b eb41 d5a6 ec41 8314 ec41
000003f0: 8b9f ec41 dcca ea41 d369 ec41 e8a8 94c1
29.33321 29.627115 29.59601 29.389372 29.57652 29.600342 29.476038 29.591652
29.600672 29.642218 29.474312 29.522429 29.501081 29.673748 29.825344 29.545258
29.573708 29.627878 29.57194 29.507128 29.520287 29.548998 29.4795 29.468401
29.518927 29.581688 29.519514 29.57694 29.596275 29.388767 29.47461 29.505037
29.510746 29.630985 -18.948376 29.644972 29.600012 29.527107 29.510878 29.482523
29.530062 29.46198 29.602642 29.533577 29.643122 29.514946 29.69165 -18.908478
29.464212 29.493793 29.424383 29.556076 29.630714 29.303326 29.547142 29.478153
29.59522 29.669453 29.635174 29.574316 29.58633 29.60258 29.622625 29.601988
29.66558 29.648993 29.593592 29.461004 -19.106749 29.5369 29.619123 29.595013
29.628626 29.52347 29.448643 29.620424 29.520351 29.48521 29.441803 29.562826
29.494417 29.654203 29.555882 29.581709 29.48852 29.54883 29.622774 29.610886
29.780243 29.578773 29.43757 -18.9032 29.512226 29.59679 29.60271 29.534815
29.577227 29.558788 29.612968 29.505133 29.46995 -19.844053 29.511843 29.658848
29.621923 29.667248 29.616453 29.556408 29.498753 29.564638 29.460976 29.587753
29.514097 29.51871 29.560696 29.544859 29.579807 29.529617 29.669928 29.588161
29.515884 29.49342 29.669754 29.494846 29.597462 29.489899 29.498344 -18.643532
29.205011 29.668112 29.47844 29.433306 29.564577 29.505703 29.357862 29.619076
29.632969 29.513098 29.541544 29.501627 29.411394 29.59545 29.886148 29.49137
29.540653 29.559958 29.595837 29.536036 29.443949 29.554237 29.494703 29.422745
29.554739 29.696524 29.477411 29.499352 29.525038 29.444344 29.496605 29.486155
29.532236 29.534391 -18.871023 29.61913 29.665243 29.444397 29.462908 29.462923
29.647493 29.477283 29.59023 29.445236 29.596645 29.528505 29.675552 -18.632475
29.452627 29.39845 29.452017 29.457415 29.678171 29.36878 29.48311 29.380846
29.524776 29.535145 29.669367 29.493258 29.609219 29.557713 29.56472 29.500051
29.558477 29.626427 29.545185 29.371977 -19.154984 29.534752 29.631927 29.457087
29.489595 29.547987 29.32664 29.558245 29.438354 29.570395 29.421824 29.50006
29.53895 29.649431 29.568811 29.680073 29.385366 29.608109 29.477385 29.504559
29.878204 29.625181 29.382004 -18.877827 29.468267 29.689585 29.65209 29.528816
29.499807 29.639826 29.604895 29.38813 29.428255 -19.957027 29.378641 29.626781
29.544909 29.575825 29.606066 29.579082 29.482708 29.511747 29.540812 29.438675
29.42635 29.58208 29.538712 29.634052 29.56093 29.599545 29.668869 29.59562
29.472794 29.404045 29.58146 29.510015 29.577902 29.349052 29.551672 -18.582474

layer2.bias f4 [128]
00000000: f78f be41 e73b bf41 f7eb bd41 4d20 bf41
00000010: 6f3c be41 4f33 bf41 5f1b bd41 c88a be41
00000020: 4a32 bf41 7feb be41 9464 be41 37b4 bf41
00000030: 2fad bf41 29b8 bd41 6f87 be41 48a7 be41
00000040: bf05 be41 93e5 be41 9ffc be41 efac be41
00000050: 35a7 be41 42be c041 221e bf41 8fd5 be41
00000060: 6e6f c041 d0cd be41 3fda be41 2c58 bf41
00000070: 2742 bf41 87ed bd41 6a4a be41 8f4c be41
00000080: 90f9 be41 d53d be41 373d be41 11a4 be41
00000090: e57b be41 f87d be41 9211 bf41 210d bf41
000000a0: 45d5 be41 0a4b c241 8260 c041 d147 be41
000000b0: ffb4 bf41 e82a be41 262d bf41 ff3d be41
000000c0: b743 bf41 0c4c be41 ee16 bf41 ca31 bf41
000000d0: 9492 c041 77c0 be41 a922 bf41 c2a1 be41
000000e0: b293 be41 6ff2 bf41 c7e7 bf41 88a7 be41
000000f0: 1246 c141 c2ba be41 2376 bf41 5963 bf41
00000100: 76f1 be41 e024 bf41 ff6f be41 2f8e be41
00000110: 778e be41 a5ec be41 775c be41 cfa3 bf41
00000120: 970e bf41 c644 bf41 9273 be41 6fb9 be41
00000130: 4ce8 be41 1753 be41 afa6 be41 a4d1 be41
00000140: 6d79 be41 1bc3 be41 efc5 be41 da9e bc41
00000150: 081d bf41 4796 be41 92e5 be41 ab5a e93c
00000160: 3192 be41 72cd bf41 d8b6 be41 6fe5 bf41
00000170: dde6 be41 57ae be41 6f1d bf41 56cd be41
00000180: 07db be41 6f36 bf41 ef74 bf41 52cb bf41
00000190: ffa1 be41 a0ac be41 4f4c bf41 4b40 be41
000001a0: 0f84 bd41 c144 36bd 1aad be41 a735 bf41
000001b0: 9f6f be41 e78c be41 d6f0 be41 53b5 02bd
000001c0: 0a9d be41 b3b8 be41 efde be41 4c47 bf41
000001d0: e659 be41 e709 bf41 fa38 bf41 8789 bd41
000001e0: f93c be41 f01d be41 007d be41 214c be41
000001f0: dbcf bd41 5d6e be41 86c0 be41 8c3f bd41
23.820295 23.90425 23.740217 23.890772 23.779509 23.900053 23.638365 23.817764
23.899555 23.864988 23.79911 23.962996 23.959562 23.714922 23.81613 23.83168
23.752806 23.862097 23.87335 23.83444 23.831644 24.0929 23.889713 23.854277
24.054409 23.850494 23.856565 23.918053 23.9073 23.74098 23.786335 23.787382
23.871857 23.780191 23.77989 23.83011 23.810495 23.811508 23.88358 23.88141
23.854136 24.28664 24.047123 23.785067 23.963377 23.77095 23.897045 23.780272
23.908064 23.787132 23.886196 23.899311 24.071571 23.843977 23.891924 23.828983
23.822117 23.993376 23.988173 23.831802 24.159214 23.84119 23.932684 23.92351
23.8679 23.893005 23.804686 23.819426 23.819563 23.86555 23.795149 23.954985
23.882124 23.90858 23.80643 23.840544 23.863426 23.790571 23.831388 23.852364
23.80929 23.845266 23.846647 23.577564 23.889175 23.823378 23.862095 0.028485617
23.821383 23.975315 23.83928 23.987028 23.862726 23.835127 23.889372 23.850262
23.856947 23.901579 23.932096 23.974277 23.8291 23.83429 23.91226 23.781393
23.689482 -0.044499163 23.834522 23.901197 23.804502 23.8188 23.867596 -0.031911206
23.82668 23.840185 23.858854 23.909813 23.793896 23.879835 23.90282 23.692152
23.779772 23.764618 23.811035 23.787172 23.726492 23.803888 23.844006 23.656029

layer3.weight f4 [98, 128]
00000000: fea0 4040 b384 3e40 7f37 3d40 28df 3e40
00000010: dbe4 3d40 6a9d 3b40 e802 4240 c155 3c40
00000020: 1a01 3940 7558 3f40 4d66 4340 a4ef 3d40
00000030: 0bbb 3940 88c8 4240 00b6 3a40 4df9 3f40
00000040: 068a 3940 9855 3a40 40c2 3b40 9ffa 3c40
00000050: e667 3e40 0fb7 3740 62ec 4040 4a3e 3c40
00000060: 000b 4040 108f 3a40 f715 3d40 2894 4040
00000070: c929 3d40 cf0c 4040 fe89 3a40 e2dc 3c40
00000080: 2f67 3d40 4d0c 4240 00e8 3f40 2c2a 3d40
00000090: 880c 3f40 0280 3c40 f4a8 3c40 1894 3c40
000000a0: 7b6d 3b40 9b51 3a40 f4ad 3940 2417 4140
000000b0: 097e 3f40 263c 3f40 41b1 3d40 dce1 3b40
000000c0: 0ff4 3e40 6f3d 3f40 1e42 3e40 fdc0 4140
000000d0: 26b8 3840 247a 4040 d7fe 3d40 b72f 3b40
000000e0: 5303 3d40 5e35 3a40 50ca 3940 5de5 4040
000000f0: eb0f 4340 0c06 3d40 47b3 3f40 a998 3f40
00000100: 0238 3f40 81b8 3a40 7709 4040 4e29 4040
00000110: ccfa 3a40 35c0 3840 aeeb 3f40 088d 3c40
00000120: 6740 3840 ea00 4140 5ce5 3b40 9f49 3b40
00000130: 28df 3c40 6f44 3a40 364c 3f40 0185 3e40
00000140: b557 4140 4b47 4040 7260 3e40 c603 3d40
00000150: fb3e 4040 7d8f 3e40 ab21 3940 c2c8 a03b
00000160: 92d1 3b40 2cdf 3c40 3aad 4040 546c 3940
00000170: f748 3e40 456c 4140 ff53 3e40 0ca7 4040
00000180: 78d4 4040 1bd5 4040 2c32 4040 d4f2 3940
00000190: 3c21 3c40 ac5b 4040 a260 3a40 2c72 3a40
000001a0: 7366 3e40 4f01 40bd a4c4 3c40 ecde 4040
000001b0: 96b9 3840 b67d 3940 199c 3d40 4c7c 3fbd
000001c0: 5ed8 3940 2bac 3a40 b77f 4140 7f4e 3f40
000001d0: ff1c 3d40 0470 3840 d7e7 3f40 330d 3d40
000001e0: a1cc 3e40 16b7 3b40 7e8a 3840 e9bd 3d40
000001f0: 2e1b 3f40 b6ca 3f40 139c 3b40 431e 4340
00000200: b2d0 8140 0567 8140 be14 7e40 4fe6 8140
00000210: abd3 7e40 cf28 8140 d684 8140 73ff 8040
00000220: 5494 8040 420c 8240 496b 8140 bd18 8240
00000230: a5b6 8140 9194 8140 7492 7d40 6f2d 8140
00000240: eccc 8140 10ba 8140 c599 8140 e324 7e40
00000250: 0a3e 8240 a234 8040 c28d 8240 a90e 8340
00000260: 8bca 7e40 223c 8040 34a4 8040 518e 8240
00000270: 321e 8240 471d 8240 1c58 8040 5f9f 8240
00000280: 09ed 8040 4fcf 8140 59da 8140 bf2f 7e40
00000290: d3e4 8040 68c9 8240 701b 8240 def6 7f40
000002a0: 435f 8340 8a3a 7d40 545a 7e40 3e4d 8040
000002b0: a65f 8140 30bd 8140 4bf5 7d40 1bfc 7e40
000002c0: fa68 7e40 5c8f 8040 f6d9 8140 eab8 8040
000002d0: 4ae8 8040 1853 8240 273e 8040 ae10 8040
000002e0: 69e9 7e40 7c99 7d40 278a 8240 dd00 8140
000002f0: d0bb 9340 0e3f 8240 cc24 8240 dce9 8140
00000300: 229a 8240 8a8f 8240 ff55 7f40 7d86 8140
00000310: d7c2 8040 7182 7e40 bb00 8040 6df8 7e40
00000320: 5da0 8140 e5a1 8240 211e 8140 be11 8040
00000330: 550a 8140 ec16 8040 0a6a 8140 0628 8040
00000340: 7207 8340 ec2b 7e40 a3fa 8040 324f 8340
00000350: a8ff 8040 e642 8240 4b7b 8040 872c 1ebb
00000360: 30c3 8040 9c41 8040 d6aa 8140 4784 8040
00000370: b2e6 7f40 88f7 8240 c643 8040 9cf2 7e40
00000380: 4aee 7e40 5090 8140 3097 7f40 130a 7f40
00000390: f261 8240 aa8c 7f40 eb66 8040 e73a 8240
000003a0: 2494 8140 6755 16bd b45d 8040 51a2 8040
000003b0: 3e4b 8140 af0c 7f40 d3d7 8040 0506 28bd
000003c0: 722f 8040 d034 8040 e546 8240 cd74 8040
000003d0: 1d49 8040 f7a1 8040 0733 8440 c37a 8240
000003e0: 63f8 8140 efe3 8240 4909 8240 bab9 8140
000003f0: d5d7 7f40 8283 7e40 22dc 8040 c48e 8140
3.0098262 2.9768493 2.9565122 2.9823704 2.9670932 2.9314828 3.0314274 2.942734
2.8906922 2.989774 3.053119 2.9677515 2.9020412 3.0434895 2.9173584 2.999591
2.8990493 2.9114742 2.933731 2.9527967 2.9750915 2.870548 3.0144277 2.9413018
3.0006714 2.9149818 2.9544656 3.0090427 2.9556754 3.0007818 2.9146724 2.9509816
2.9594228 3.0320008 2.9985352 2.955699 2.9851398 2.945313 2.947812 2.946539
2.9285572 2.9112308 2.9012423 3.0170374 2.9920676 2.9880462 2.9639437 2.9356604
2.9836462 2.9881246 2.9727855 3.027404 2.8862395 3.0074549 2.9686792 2.9247873
2.953328 2.9095073 2.9029732 3.0139992 3.0478466 2.953494 2.9953172 2.9936926
2.9877934 2.9175112 3.0005777 3.002521 2.9215574 2.8867314 2.9987597 2.9461079
2.8789308 3.0156808 2.935874 2.9263685 2.9511204 2.9104269 2.9890265 2.976868
3.0209782 3.0043514 2.9746366 2.9533553 3.003844 2.9775078 2.89268 0.0049067447
2.9346662 2.9511213 3.010573 2.8972368 2.9732034 3.0222332 2.9738767 3.0101957
3.012968 3.013007 3.0030622 2.905446 2.9395285 3.0055952 2.912148 2.9132185
2.975003 -0.046876248 2.949502 3.013606 2.8863273 2.8982978 2.9626524 -0.046749398
2.903831 2.9167583 3.02342 2.989166 2.9548948 2.881837 2.9985254 2.9539306
2.9812396 2.9330497 2.883453 2.9647162 2.986034 2.9967475 2.931401 3.048722
4.0567255 4.0438256 3.970016 4.059364 3.9816692 4.0362315 4.0474653 4.031183
4.0181065 4.0639963 4.0443463 4.06552 4.0535455 4.0493855 3.9620638 4.036796
4.056265 4.0539627 4.0500207 3.9710014 4.070073 4.006425 4.0798044 4.0955396
3.9811122 4.0073404 4.0200443 4.0798726 4.066186 4.066074 4.0107555 4.0819545
4.028935 4.056556 4.057904 3.9716642 4.0279326 4.0870857 4.0658493 3.9994426
4.1053786 3.956698 3.9742632 4.009429 4.042926 4.054344 3.9680965 3.9841373
3.9751573 4.0175 4.0578566 4.0225725 4.0283556 4.0726433 4.007587 4.002036
3.9829962 3.962493 4.0793643 4.0313554 4.6166763 4.070197 4.066992 4.0597973
4.081315 4.080022 3.9896238 4.047667 4.023784 3.9767115 4.000089 3.9839127
4.0508256 4.0822625 4.034928 4.002166 4.032511 4.002798 4.044194 4.0048857
4.094659 3.9714308 4.0305953 4.1034174 4.031208 4.0706663 4.0150504 -0.0024135427
4.0238266 4.008009 4.052104 4.016147 3.9984555 4.092716 4.008273 3.9835577
3.983294 4.0488663 3.9936028 3.98499 4.074456 3.9929605 4.012563 4.06969
4.0493336 -0.03670254 4.0114384 4.019814 4.040435 3.9851491 4.0263457 -0.041021366
4.0057917 4.006447 4.071154 4.014258 4.008925 4.019771 4.131229 4.0774856
4.0615706 4.090324 4.0636334 4.0539217 3.9975483 3.9767766 4.0268717 4.0486774

layer3.bias f4 [98]
00000000: 574e 8f3f 50cf 0240 63da 0640 460d ab40
00000010: aee7 3640 eab2 6940 d3db f340 74bc 0240
00000020: 66ff c93f d05d 493f e4f4 9540 b419 a63f
00000030: 6d24 d140 6603 2840 0cad d040 0d17 da3f
00000040: 6119 9b40 fa68 c03f d50d bc40 3f3f c83f
00000050: c695 2540 dcbd 2840 5e09 c140 b66b 023f
00000060: c0e6 a83f 9236 9840 c6a0 a040 4386 1140
00000070: bd75 ea3f 637c 923f 7360 cf3f 112e 1c40
00000080: fa9f 6f40 9f19 7740 799b 913f 63f3 833f
00000090: 0e30 2140 b344 8340 c5b3 3f3f b969 8640
000000a0: 0db7 4640 c1bd aa3f 28ac 9b40 42db a4c0
000000b0: 811a 7740 3e0e 0d40 1490 6140 2307 8140
000000c0: d434 5440 3fcb 8040 e11e 1740 057b 8a3f
000000d0: b281 ac40 03f0 3940 c88b 8a41 042f 1641
000000e0: e1a6 8340 10b1 9d40 4da7 2540 9dab 3a40
000000f0: 3a3e 2e40 363d ba40 1360 ba40 cb1f 1a3f
00000100: 321d b03f 5232 bb40 1af9 8541 66e9 bd40
00000110: 5b95 3a3f b3e9 2940 22c7 973f 2db0 6040
00000120: e316 5040 b3b7 8540 1517 ab40 0899 6a40
00000130: ce88 b13f 86e0 da3f ab4c c840 91d6 a940
00000140: 930f c640 31f9 0f40 ebfb 3b40 fb93 ba40
00000150: d952 5040 d780 4740 a2af 1440 728c d540
00000160: 6806 c840 c3c3 9e3f 9794 9f40 40d7 c93f
00000170: 8cef c040 e7fd bd40 b74b 5f40 107f 8640
00000180: d4b1 9740 33ba 4f40
1.1195782 2.0439034 2.1070793 5.3453703 2.8578906 3.651545 7.620584 2.0427523
1.5781066 0.7865877 4.686144 1.2976594 6.5356965 2.6252074 6.521124 1.7038285
4.846848 1.5032036 5.8766885 1.5644301 2.5872664 2.636588 6.0323935 0.50945604
1.3195419 4.7566614 5.0196257 2.2738197 1.8317181 1.144421 1.6201309 2.4403117
3.7441392 3.8609388 1.1375571 1.0308651 2.518558 4.102136 0.7488368 4.2004056
3.1049225 1.3339158 4.864765 -5.151765 3.8609927 2.2039943 3.5244188 4.032121
3.3157244 4.0248103 2.3612597 1.0818793 5.390832 2.9052742 17.318253 9.386478
4.114121 4.927864 2.5883362 2.9167244 2.722548 5.819972 5.824228 0.6020476
1.375891 5.8498926 16.746632 5.934741 0.7288415 2.6548889 1.1857646 3.510753
3.251397 4.178674 5.3465676 3.6655903 1.3869874 1.7099769 6.259359 5.307442
6.189401 2.2495844 2.9372509 5.830564 3.2550566 3.1172388 2.3232198 6.673394
6.250782 1.2403492 4.9868884 1.5768814 6.0292416 5.937244 3.4889963 4.2030106
4.7404575 3.2457397
