models/62/guerrilla_model_weights.pth (torch, 198120 bytes, 6 tensors)

layer1.weight f4 [128, 82]
00000000: 3cfb 9341 5a65 9541 027c f53f f827 843f
00000010: f2f6 7e3f 945c 9541 d39c 8e41 dcc5 663f
00000020: efe3 7b3f 105f 8d41 c20e 8f41 99a2 21bd
00000030: dbba 93bd a325 4940 b0e9 8d41 b607 8841
00000040: 9557 973d b3ca 5d3f a3b9 8641 454a 6541
00000050: f855 ab3d bcba 073f eb84 11bd c5f5 6641
00000060: 39f8 67bd fa37 9f3d 1db7 9e3d ec12 02bc
00000070: 061b a13d 2ea6 293c bf34 383d a5b3 88bd
00000080: b98a 903d 29e0 6240 1b7c 8541 d9c7 8441
00000090: baa9 9541 e4ab 9541 7854 9541 9c37 9541
000000a0: 5a19 9441 9821 9441 7cc4 9441 f674 9441
000000b0: 82c8 9441 8015 9541 eea2 9441 609b 9441
000000c0: ec5f 9541 70aa 9441 5899 9341 9232 9441
000000d0: 0cc2 9441 4e0a 9541 8af8 8f41 a7f0 9441
000000e0: 1c0e 9441 ecf2 9441 d233 9441 0e59 9441
000000f0: d004 9541 79ee 9441 a69b 9441 c091 9441
00000100: 28a3 9441 f816 9541 489b 9441 c6b0 9541
00000110: 2f2e 9541 7857 9441 929f 9441 c20b 9541
00000120: aa6e 9541 dff2 9341 62ec 9441 ce95 9341
00000130: 164f 9541 d801 9541 1e95 9541 beec 9441
00000140: 20d6 9441 40ee 9441 a8b2 9441 4e83 9441
00000150: 8f68 fc3f 2059 833f a788 743f 4a2d 9541
00000160: d90e 8e41 1fbe 6b3f abe2 893f 425e 8e41
00000170: cfe9 8e41 1a7e 393d ce7a 74bd 4015 4640
00000180: 9455 8e41 f06e 8741 1d1e 873b 6c31 5a3f
00000190: 8d7b 8641 a810 6741 c34a a23d 7662 dd3e
000001a0: 58b5 683d d3cb 6741 ed09 973d 9dfd 1d3d
000001b0: 7237 09bb 65f6 243c 6af9 6b3d 18cb dbbc
000001c0: 100d 9dbd 9270 ecbc 2717 2f3d cd6e 6240
000001d0: db2a 8541 804c 8541 66d5 9441 3aec 9441
000001e0: 9485 9441 4e2a 9541 3cb2 9441 1c6b 9441
000001f0: 523d 9541 cebf 9441 603c 9541 1c90 9441
00000200: 5ed2 9441 2093 9441 1278 9541 ac9e 9441
00000210: 3d60 9441 385f 9541 1687 9441 3e44 9441
00000220: 1140 8f41 3511 9441 fa0d 9441 ae92 9441
00000230: 0281 9541 b862 9541 d058 9441 4a6c 9441
00000240: a27f 9541 7234 9541 1c98 9441 400b 9541
00000250: 9a9c 9441 c836 9541 dde5 9341 784a 9541
00000260: 0e4e 9541 6021 9441 0607 9541 83bc 9441
00000270: 1c2c 9541 c6ce 9341 4289 9441 b08f 9541
00000280: 642f 9541 8647 9441 b6c0 9441 5cd1 9541
00000290: ecea 9341 56d4 9441 7ac2 f23f 13d6 753f
000002a0: 4c59 743f 7894 9441 a5ac 8e41 745e 5e3f
000002b0: 89b3 8b3f 669b 8e41 0e7f 8e41 bae5 6abd
000002c0: 67b4 86bd 518b 4840 9f17 8d41 f942 8741
000002d0: 5a6b db3c 588e 7d3f 8289 8641 a7e9 6541
000002e0: eb49 343d 0475 043f 25f2 43bb c8f3 6641
000002f0: 41f3 fd3b 1728 b2bd 7262 d53c 2016 683d
00000300: b12a 94bd 7a11 72bd d191 94bd 45fb 8b3d
00000310: 60de 533d 60ba 5f40 60e1 8441 a307 8541
00000320: 2df2 9441 3c58 9441 8047 9541 98a6 9441
00000330: b2d9 9441 382e 9541 6a11 9441 a61a 9541
00000340: bc4c 9441 f4f3 9441 281f 9541 fa34 9541
00000350: e24f 9441 904a 9541 3c5a 9341 f892 9441
00000360: a22a 9541 7288 9441 bf07 9041 5ce4 9341
00000370: ec2c 9441 7a58 9441 32b6 9441 0e66 9441
00000380: 5adc 9441 777c 9441 5e41 9441 22c5 9341
00000390: d69e 9441 9606 9541 4032 9441 e688 9541
000003a0: 999e 9341 ac77 9441 d03d 9441 14b1 9341
000003b0: 1099 9441 9a5b 9441 f492 9441 9c44 9341
000003c0: 24f4 9341 5235 9541 7496 9441 f045 9541
000003d0: be68 9441 f256 9441 625f 9541 623f 9541
000003e0: e7a7 ed3f 9977 8e3f bf50 7d3f d69d 9541
000003f0: a9c4 8d41 8783 763f e0a6 6d3f 1352 8e41
18.497673 18.674488 1.9178469 1.0324697 0.9959556 18.670204 17.826574 0.9014566
0.98394674 17.671417 17.882206 -0.039461706 -0.07213374 3.1429222 17.739105 17.003765
0.07389752 0.8663742 16.840643 14.330632 0.083660066 0.5301931 -0.03552715 14.435002
-0.056633208 0.077743486 0.0774977 -0.007939082 0.078664824 0.010354562 0.044972178 -0.066748895
0.07057709 3.5449317 16.685598 16.597582 18.707874 18.708931 18.666245 18.652153
18.512379 18.516403 18.59594 18.55711 18.597904 18.635498 18.579556 18.575867
18.671837 18.583221 18.449875 18.524693 18.59475 18.630032 17.996357 18.617506
18.50689 18.618614 18.525303 18.543484 18.62735 18.616442 18.576 18.571167
18.579666 18.636215 18.57582 18.711315 18.64755 18.54271 18.577915 18.630741
18.679035 18.49359 18.615421 18.448147 18.663616 18.6259 18.697811 18.615597
18.604553 18.616333 18.587234 18.564114 1.9719409 1.0261574 0.95521015 18.647114
17.75725 0.92086977 1.0772299 17.796024 17.864164 0.045286275 -0.05968743 3.095047
17.791786 16.929169 0.004123463 0.8523166 16.810328 14.441566 0.07924416 0.43239182
0.056813568 14.487262 0.0737494 0.038571943 -0.002093759 0.010068511 0.057610907 -0.026830241
-0.07668507 -0.028862271 0.04274669 3.5380127 16.645926 16.662354 18.604198 18.615345
18.565224 18.645657 18.587029 18.5523 18.654942 18.593655 18.65448 18.570366
18.602718 18.571838 18.683628 18.577477 18.546991 18.671494 18.56596 18.533321
17.906282 18.508402 18.506824 18.57162 18.687992 18.673203 18.543365 18.552876
18.68732 18.650608 18.574272 18.630493 18.576466 18.651749 18.487238 18.661362
18.663113 18.516296 18.62843 18.592047 18.646538 18.475964 18.56702 18.69516
18.64814 18.534924 18.594097 18.727226 18.489708 18.60368 1.89656 0.96029776
0.95448756 18.572495 17.8343 0.86862874 1.0914165 17.825878 17.812038 -0.05734799
-0.06577378 3.1335032 17.636534 16.907701 0.026784588 0.99045324 16.817142 14.369544
0.044015806 0.5174105 -0.0029898968 14.434517 0.0077499454 -0.08699053 0.026047919 0.056661725
-0.07234705 -0.0590987 -0.07254375 0.06835035 0.051725745 3.4957504 16.610046 16.628729
18.61825 18.543083 18.659912 18.581345 18.606297 18.647568 18.508503 18.638012
18.537468 18.619118 18.640213 18.650867 18.539005 18.661407 18.41906 18.571762
18.645817 18.566624 18.003782 18.486504 18.521935 18.543201 18.588963 18.549831
18.607594 18.560774 18.531918 18.471256 18.577557 18.628216 18.524536 18.691845
18.45244 18.558434 18.530182 18.461464 18.574738 18.544727 18.571754 18.4085
18.49421 18.651035 18.573463 18.65915 18.551144 18.542454 18.671574 18.655949
1.8566865 1.1130248 0.98951334 18.702068 17.721025 0.96294445 0.92832756 17.790075

layer1.bias f4 [128]
00000000: 52d4 9441 7a1a 9441 fc24 9441 8640 9541
00000010: 884d 9541 423d 9441 607c 9441 5479 9441
00000020: 0e2a 9441 8025 9441 6e38 9441 7438 9541
00000030: 6ae5 9341 8204 9541 000e 9441 6c1a 9441
00000040: 3a37 9541 9adb 9441 9cec 9341 ba8b 9341
00000050: cc00 9541 8e52 9541 c0e4 9341 425f 9441
00000060: 62e0 9341 6243 9441 9a8a 9441 40ab 9441
00000070: d6eb 9441 624b 9441 1a8a 9441 98cb 9441
00000080: 92f9 9341 ae4b 9541 cadd 9341 9c07 9541
00000090: 9401 9441 203a 9541 086c 9441 eafb 9441
000000a0: 828e 9441 b8d6 9341 a285 9441 dc79 9441
000000b0: ce32 9541 4ead 9441 125e 9441 909d 9441
000000c0: a814 9441 e6bb 9441 0e9c 9441 dedc 9441
000000d0: 1e1b 9441 c036 9541 f8dd 9441 1ac9 9441
000000e0: c66e 9441 ae2c 9541 aa06 9541 aaf5 9341
000000f0: a044 9441 b833 9441 7cc9 9441 2eab 9441
00000100: b666 9441 a60c 9441 30e4 9441 6cfd 9341
00000110: d8ce 9441 7056 9441 022c 9441 6405 9441
00000120: 6ef2 9441 5a42 9541 2808 9541 5e0d 9441
00000130: 9298 9441 9818 9541 e63e 9441 cc24 9441
00000140: d278 9441 a0fa 9341 b8f9 9441 5066 9441
00000150: 443c 9541 fea7 9441 a8fd 9441 1cf2 9341
00000160: 3ac3 9441 06cb 9441 c01a 9441 0a7d 9441
00000170: 4efd 9441 c2f8 9441 664b 9541 6c2f 9541
00000180: facc 9441 18cc 9441 bef7 9341 2050 9441
00000190: 9801 9441 b20d 9441 9e2d 9441 00e2 9341
000001a0: fa7f 9441 bcf3 9441 84e0 9341 06e5 9441
000001b0: 6cfd 9441 a08a 9441 da39 9541 8c94 9441
000001c0: be02 9541 ee3c 9441 ae1a 9541 7afb 9341
000001d0: 6a15 9541 6037 9441 f077 9441 08c1 9441
000001e0: 94e7 9341 f0c3 9441 660f 9541 2426 9441
000001f0: 788e 9441 38bb 9441 ca60 9441 846a 9441
18.603672 18.512928 18.518059 18.656506 18.662857 18.529911 18.56073 18.559242
18.520535 18.51831 18.527554 18.652565 18.487019 18.627201 18.506836 18.512901
18.651966 18.607227 18.490532 18.443226 18.62539 18.66531 18.486694 18.546513
18.484562 18.532902 18.567677 18.583618 18.615154 18.536808 18.567432 18.599411
18.49686 18.661953 18.483295 18.628716 18.50077 18.653381 18.55275 18.623005
18.569584 18.479843 18.56525 18.559502 18.649807 18.584621 18.545933 18.576935
18.510086 18.591747 18.576199 18.607845 18.51324 18.651733 18.608383 18.598194
18.554089 18.646816 18.628254 18.494953 18.533508 18.525253 18.598381 18.583584
18.550152 18.506176 18.61142 18.498741 18.600998 18.542206 18.521488 18.502632
18.618374 18.657398 18.628983 18.506527 18.574497 18.637009 18.530712 18.517967
18.558994 18.497375 18.621933 18.549957 18.654427 18.582027 18.623856 18.493217
18.595325 18.599133 18.513062 18.561054 18.623684 18.621464 18.661816 18.648155
18.600086 18.599655 18.495968 18.539124 18.500778 18.506687 18.522274 18.485352
18.562489 18.61901 18.484627 18.611828 18.623741 18.567688 18.653248 18.572533
18.626339 18.52975 18.638027 18.497791 18.635456 18.527039 18.558563 18.594254
18.488075 18.595673 18.632519 18.518623 18.569565 18.591415 18.54726 18.55201

layer2.weight f4 [128, 128]
00000000: 2e1f 9541 d4f9 9441 e0bd 9541 9ce4 9441
00000010: 0a6e 9541 92c5 9441 6805 9541 3ae4 9541
00000020: 0070 9541 c87e 9541 981f 9541 6216 9541
00000030: d8d0 9541 a2e4 9541 7a75 9541 5821 9541
00000040: 967c 9541 926e 9541 0eed 9441 5a30 9541
00000050: cae2 9541 0697 9541 6afe 9441 163e 9541
00000060: 2c6c 9541 d2a1 9541 c892 9541 2ec2 9541
00000070: 3a85 9541 ded9 9441 3014 9541 688d 9541
00000080: c09a 9541 7059 9541 ded7 9541 b412 9541
00000090: ea7e 9541 5e43 9541 c05d 9541 902a 9541
000000a0: 9801 9541 aacc 9541 60af 9541 40b5 9541
000000b0: 52af 9541 0409 9541 8496 9541 4cdb 9541
000000c0: 8c84 9541 7e07 9541 74eb 9541 b4b1 9541
000000d0: d025 9541 8c85 9541 06ba 9541 48dc 9441
000000e0: 30f1 9441 569b 9541 1640 9541 1ca5 9541
000000f0: e61f 9541 5898 9541 b807 9541 64be 9541
00000100: 02c2 9541 66bd 9541 30d5 9441 b694 9541
00000110: cc84 9541 f6fa 9441 7efc 9441 e20e 9541
00000120: ca4d 9541 c0d5 9541 865f 9541 12de 9541
00000130: ccf6 9441 5acd 9541 dad1 9541 b6d6 9541
00000140: 9ae3 9541 f261 9541 4c5d 9541 08ab 9541
00000150: 92be 9541 46e6 9441 b42f 9541 1c96 9541
00000160: f8fa 9541 8661 9541 7849 9541 829a 9541
00000170: fce1 9441 508a 9541 b452 9541 7c4f 9541
00000180: 8410 9541 384e 9541 7838 9541 b2d0 9541
00000190: c2ad 9541 bac2 9541 b46b 9541 2008 9541
000001a0: 1e12 9541 0457 9541 8af1 9541 eaab 9541
000001b0: 3864 9541 c4da 9541 60e9 9441 4025 9541
000001c0: d634 9541 e8e1 9541 4221 9541 f254 9541
000001d0: 58c4 9541 c2ab 9541 64bd 9541 804f 9541
000001e0: c67a 9541 fe46 9541 b28e 9541 806c 9541
000001f0: 586a 9541 ece3 9441 fe03 9541 14f6 9441
00000200: 0498 9441 4476 9541 b22f 9541 c891 9541
00000210: fcdb 9441 4886 9541 dacd 9441 d817 9541
00000220: 5880 9541 02fc 9441 1a04 9541 74bd 9441
00000230: 645f 9541 2eab 9441 2eea 9441 88f6 9441
00000240: 0c91 9441 5418 9541 040a 9541 f060 9541
00000250: e2b4 9541 bca6 9541 6201 9541 9e96 9541
00000260: 882b 9641 86b0 9541 1234 9541 e631 9541
00000270: eac1 9441 7e74 9541 ba93 9541 3cc4 9541
00000280: 42a3 9441 20ea 9441 b6ac 9541 4c03 9541
00000290: ae5f 9541 984a 9541 cad9 9441 5c4b 9541
000002a0: 54f3 9441 986d 9541 f80d 9541 a209 9541
000002b0: 62b6 9441 e0a7 9441 d877 9541 7a09 9541
000002c0: e621 9541 f6ab 9541 8885 9541 2a86 9541
000002d0: dc14 9541 2841 9541 4c8e 9541 e87b 9541
000002e0: bc72 9541 cc6c 9541 e84f 9541 7a4f 9541
000002f0: 8ae1 9441 2acf 9441 28ad 9541 929c 9541
00000300: 3281 9541 5cd8 9441 889c 9541 6c32 9541
00000310: 0aac 9541 0667 9441 645f 9541 ea48 9541
00000320: 44ea 9541 643c 9541 6e7e 9441 e481 9541
00000330: 5c3c 9541 2c3f 9541 4419 9541 2ca7 9441
00000340: bc85 9541 308f 9441 f010 9541 8c01 9541
00000350: fc80 9541 aa76 9541 685b 9541 6042 9541
00000360: 0608 9541 aac9 9441 ec79 9541 cc24 9541
00000370: ce73 9541 96a0 9441 9018 9541 e2dd 9441
00000380: 7852 9541 4cf1 9441 00ec 9441 0808 9541
00000390: 6aec 9441 96e0 9441 a0e3 9541 8af0 9441
000003a0: e48f 9541 5614 9541 ca33 9541 c68a 9441
000003b0: 2a51 9541 4ee7 9441 42cc 9441 ac15 9541
000003c0: b0bc 9441 3099 9541 40e1 9441 9eec 9441
000003d0: 64b3 9441 163a 9541 d42a 9541 02fc 9441
000003e0: 5e21 9541 9aa3 9541 30ce 9441 a2aa 9541
000003f0: f289 9541 b811 9541 2252 9541 a05e 9541
18.640224 18.621986 18.717712 18.611626 18.67873 18.59647 18.62764 18.736439
18.679688 18.686905 18.640427 18.63593 18.726974 18.736637 18.682362 18.641281
18.685833 18.67899 18.61575 18.64861 18.735737 18.698742 18.624226 18.655315
18.677818 18.704014 18.69667 18.719814 18.690052 18.60638 18.634857 18.694046
18.700562 18.66867 18.730404 18.634132 18.68697 18.657894 18.670776 18.645782
18.625778 18.724934 18.710632 18.713501 18.710606 18.629402 18.698494 18.732079
18.68972 18.628658 18.739967 18.71177 18.643463 18.690208 18.715832 18.60756
18.617767 18.700848 18.656292 18.70562 18.640575 18.699387 18.628769 18.717964
18.71973 18.71748 18.604095 18.697613 18.689842 18.62254 18.623287 18.632267
18.662983 18.72937 18.671642 18.733433 18.620506 18.72527 18.727467 18.72984
18.736134 18.672825 18.670555 18.708511 18.718052 18.612438 18.648293 18.698296
18.747543 18.672619 18.660873 18.700443 18.610344 18.692535 18.665382 18.66381
18.633064 18.663193 18.652573 18.726902 18.709843 18.720081 18.67759 18.628967
18.633846 18.667488 18.742939 18.708942 18.673935 18.73182 18.613953 18.643188
18.650799 18.735306 18.64124 18.666477 18.720871 18.708866 18.717476 18.663818
18.684948 18.659664 18.694675 18.677979 18.676926 18.61129 18.62695 18.620155
18.574226 18.682747 18.648289 18.696182 18.607414 18.690567 18.600513 18.636642
18.687668 18.62305 18.627003 18.592506 18.671577 18.583584 18.614346 18.620377
18.570824 18.636879 18.62989 18.672333 18.713322 18.706413 18.625675 18.698544
18.771255 18.711193 18.650425 18.649364 18.594685 18.68188 18.697132 18.720818
18.579716 18.614319 18.709332 18.62661 18.671719 18.661423 18.606342 18.661797
18.618813 18.678513 18.63182 18.629704 18.589054 18.58197 18.683517 18.629627
18.641552 18.708965 18.6902 18.69051 18.635185 18.656815 18.69448 18.685501
18.681023 18.678123 18.664017 18.663807 18.610126 18.601154 18.709549 18.70145
18.688084 18.605644 18.701431 18.64962 18.709003 18.550304 18.671577 18.660603
18.739388 18.654488 18.561733 18.688423 18.654472 18.655846 18.637337 18.581627
18.6903 18.569916 18.63327 18.625755 18.68798 18.682941 18.669632 18.65741
18.628918 18.598469 18.684532 18.642967 18.681545 18.578411 18.636993 18.608341
18.665268 18.61782 18.615234 18.628922 18.615437 18.609661 18.736145 18.61745
18.69526 18.63493 18.650288 18.56776 18.66463 18.612942 18.599735 18.635582
18.592133 18.699799 18.609985 18.615536 18.587593 18.653362 18.645912 18.62305
18.641293 18.704884 18.600677 18.708317 18.692356 18.633652 18.665104 18.671204

layer2.bias f4 [128]
00000000: 7e3d 9541 a93d 9541 5860 9541 87bf 9541
00000010: e57b 9541 a959 9541 5140 9541 db72 9541
00000020: ef17 9641 0337 9641 a2cd 9541 5b37 9541
00000030: c3ec 9541 e50c 9641 7097 9541 0d52 9541
00000040: 069f 9541 e91f 9641 a6a9 9541 dc3e 9641
00000050: 1a56 9541 565f 9541 1e33 9641 e8ef 9541
00000060: 88d2 9541 8ae5 9541 c79b 9541 cf0d 9641
00000070: 908a 8cbc 764f 9541 f486 9541 3fda 9541
00000080: 1c0c 9641 f7c7 9541 7eab 9541 be98 9541
00000090: dc28 9541 cc08 9641 fd57 9541 3432 9641
000000a0: 4ca4 1cbd d32e 9541 d27a 9541 7d07 9641
000000b0: d04e 9541 1aa6 9541 8223 9541 f461 9541
000000c0: ebfb 9541 b185 9541 f9e2 9541 f4c9 9541
000000d0: e43b 9641 b73c 9541 6fc9 9541 a7d5 80bd
000000e0: de2c 9641 d27f ffbc ce37 9541 74a4 9541
000000f0: 83d5 9541 af3d 9541 c233 85bd 8f94 9541
00000100: 6c84 9541 0326 33bd c8fd 9541 eb23 9641
00000110: e45f 9541 8328 9641 01d9 9541 7761 9541
00000120: c1fe 9541 a752 9541 da3e 9641 890a 9641
00000130: cfdd 9541 cc0d 9641 2cba 9541 2cef 9541
00000140: da62 78bd 460c f7bc ae3f 9541 1ebb 9541
00000150: 75ec 9541 2114 9641 d135 9641 76ce 9541
00000160: dfb4 9541 e556 9541 63a2 9541 e9c4 68bc
00000170: 9632 9641 0b61 9541 6203 9641 abcf 9541
00000180: 8417 9641 dbb0 403d 91f5 9541 9b5e 9541
00000190: c892 9541 74b4 9541 5ebe 13bd cf21 9641
000001a0: 545c 9541 f9a4 15bd 0e10 9641 6c5a 9541
000001b0: 26ec 9541 ba2d 9641 9175 9541 0e61 9541
000001c0: 09b7 9541 244f 9641 054a 9641 3d0d 9641
000001d0: faf7 9541 0d0d 9641 9526 9641 bb17 9641
000001e0: cef6 9541 a3cc 9541 2e3c 9641 c0f9 9541
000001f0: 1755 9541 3335 88bd d48d 9541 966b 9541
18.655025 18.655107 18.672043 18.71852 18.685495 18.66878 18.656404 18.681082
18.761686 18.776861 18.725407 18.652029 18.740606 18.756296 18.698944 18.665064
18.702648 18.765581 18.707836 18.780693 18.667042 18.67155 18.77496 18.742142
18.727798 18.73708 18.701063 18.756742 -0.017155915 18.6638 18.690895 18.731565
18.755913 18.72264 18.708736 18.699581 18.64495 18.754295 18.667963 18.774513
-0.038242623 18.647863 18.68497 18.753656 18.663483 18.706104 18.642338 18.672829
18.748007 18.690279 18.735826 18.72361 18.779243 18.654646 18.723356 -0.06290751
18.771908 -0.03118888 18.652248 18.7053 18.729254 18.655119 -0.06504013 18.697538
18.68966 -0.043737423 18.748917 18.767538 18.671822 18.769781 18.730959 18.67259
18.749392 18.665358 18.78069 18.755144 18.733305 18.756737 18.715904 18.741783
-0.060641147 -0.03015722 18.656094 18.716366 18.740458 18.759829 18.776278 18.725811
18.713316 18.667429 18.70429 -0.014207103 18.7747 18.672384 18.751652 18.7264
18.761482 0.047043663 18.744905 18.671194 18.69667 18.713112 -0.03607022 18.766508
18.670082 -0.036534283 18.75784 18.669151 18.740307 18.772327 18.682405 18.67239
18.714373 18.788643 18.786142 18.756464 18.746082 18.756372 18.768839 18.761587
18.74551 18.72492 18.779385 18.746948 18.666548 -0.06650772 18.694252 18.677532

layer3.weight f4 [168, 128]
00000000: e6b7 d53f 24f1 d03f 9d50 d53f 7bd7 db3f
00000010: 743e db3f 3839 d73f d59f e13f 0660 d03f
00000020: 8cc6 db3f 87b2 d73f e96e db3f 4b08 d53f
00000030: 70c2 de3f 4417 d73f 7709 d03f e3fd de3f
00000040: 8d7e e13f 231c db3f 6311 d03f 7197 df3f
00000050: a229 d63f 2792 d93f 28f1 d53f 0ea6 d63f
00000060: 2de5 d23f 13e9 e13f 5996 e03f c335 db3f
00000070: 064b 3c3d 7bde df3f fdce db3f 795c db3f
00000080: abf5 cf3f 9352 d83f 1f42 d43f 90b2 dc3f
00000090: a45e db3f 5cfc df3f bf2f d03f f1ff dd3f
000000a0: f2df 4d3d ed1d d13f f458 d23f 9a95 d13f
000000b0: b97a d53f a5a7 d03f 2114 db3f d957 cf3f
000000c0: 697c d03f 3ef6 d03f 1092 d53f 5fb4 de3f
000000d0: 8b69 da3f 6f06 dc3f cad2 dc3f 37f8 903d
000000e0: 703d d33f 8218 703d e544 d23f 0241 da3f
000000f0: 029e d43f e45c d53f e8f1 a5bc 697a d53f
00000100: 130f da3f d782 2fbc 1090 df3f bb1a db3f
00000110: 59ec d93f 2b71 d03f bef7 dc3f a0a9 d23f
00000120: a547 d93f d627 d03f eefe d93f 5c55 d13f
00000130: 12a8 d83f 0851 df3f b592 e13f 92f3 da3f
00000140: 6a21 823d f503 2cbd c69c da3f 6304 d53f
00000150: de33 db3f 0fb3 df3f 79e4 df3f 9f52 d23f
00000160: 269a dc3f 2783 d43f f031 da3f b979 5cbd
00000170: 8b77 d33f c46f d03f 1131 d43f dcff d63f
00000180: fc6b d73f caeb ecbc fa3f e03f 77ce df3f
00000190: a61c df3f 3aa2 de3f f14c 91bc e4f6 df3f
000001a0: 31ec d63f 0be5 39bd 29b7 d53f 237f d73f
000001b0: a0d7 de3f 9845 dd3f 6030 df3f 58b4 d83f
000001c0: aacb db3f cdbc d53f 536f d33f e4f8 d23f
000001d0: 7809 df3f 9522 d13f 7b17 da3f e58d de3f
000001e0: 2082 d63f 40ff d13f 6d1a de3f f71f d73f
000001f0: 205f dd3f 579c 10bc 1bb9 d23f 6155 da3f
00000200: a3f5 c83e 7109 cc3e 8b70 e23e 8fe6 fb3e
00000210: 5bd5 043f 8895 fa3e dd9d cd3e d5f1 043f
00000220: 7355 ea3e 3ec1 ce3e 428b 023f 2c24 e93e
00000230: cf0f f63e 1694 de3e 4521 e23e d987 d83e
00000240: 98be e93e 97af eb3e bb14 ee3e 6713 dc3e
00000250: dee2 e53e 9002 fc3e cce1 fc3e 04d6 e93e
00000260: e6c6 d23e 2fb4 d13e 29f2 d13e 2c66 e73e
00000270: a12e 803d 3a6b cb3e 2b89 f63e 4a2a 063f
00000280: e6f8 cb3e 172c ea3e 1dbb dd3e cf32 e63e
00000290: 035c f43e 5b62 f23e aa77 c83e 8f54 cd3e
000002a0: 7aac 85bd 04d5 fd3e 6b73 ed3e 9077 c73e
000002b0: eb32 ef3e 7274 fb3e 0d02 e83e 2ec9 e73e
000002c0: 0137 fd3e 6d11 d83e 0024 ef3e 9811 e93e
000002d0: 5bde e03e 8394 043f a6f4 d23e a310 193d
000002e0: 1bed ef3e 3a85 28bd fc87 dc3e 4e17 ca3e
000002f0: e677 d13e ee65 c53e 7d4b 0ebd 2ccd f63e
00000300: 5dcf d13e 4dbc 983c 6aa6 fa3e 7e74 f83e
00000310: f353 e83e 43d8 ed3e 7760 f63e 123b c63e
00000320: af8d 033f bf8e f53e 4ee1 ff3e 9cdd 043f
00000330: 753b c43e 8773 c63e 24f1 d63e 05ef da3e
00000340: 799b 7dbd 7ae1 f3bc 1b33 ce3e 2a2e cf3e
00000350: 1b9b 053f 3ff2 043f 95ca d93e 8a07 e33e
00000360: 5c1b df3e 03b1 023f 503c e33e 1b39 32bd
00000370: 42a6 f83e 37e6 033f 16d2 fb3e b158 c43e
00000380: 2607 d93e 247b 4ebd 425c f93e 16ab fe3e
00000390: a085 ef3e 0ccd ce3e ba4f 533d 6058 d03e
000003a0: 9e46 fc3e eef1 73bd 57b0 d03e 00a8 fa3e
000003b0: 3b1d eb3e 4ad4 dd3e 7df8 fc3e b175 cf3e
000003c0: 973b fe3e f8fc 053f 3a1b c63e 15b6 cc3e
000003d0: 2446 d33e c742 003f 5ec3 cd3e ede4 033f
000003e0: bb96 e63e 7f3c fa3e bb7c f43e e74e f03e
000003f0: 321e e83e 5a41 5dbd 5283 f83e 78dc d03e
1.6696746 1.632359 1.6665226 1.7175134 1.7128434 1.6814337 1.7626902 1.6279304
1.7169967 1.6851357 1.7143222 1.6643156 1.7403088 1.6803975 1.6252888 1.742123
1.7616745 1.7117962 1.6255306 1.7468091 1.6731455 1.6997727 1.671422 1.6769426
1.6476189 1.7649254 1.7545882 1.7125782 0.045969985 1.7489771 1.7172543 1.7137595
1.6246847 1.69002 1.6582679 1.7241993 1.7138257 1.7498889 1.6264571 1.7343732
0.0502624 1.6337258 1.6433396 1.637378 1.6678077 1.6301161 1.7115518 1.6198684
1.6287967 1.6325147 1.66852 1.7398795 1.7063459 1.7189463 1.7251828 0.07078593
1.6503124 0.058617122 1.6427275 1.7051089 1.661072 1.6668973 -0.020256951 1.6677982
1.703585 -0.010712347 1.7465839 1.7117532 1.7025253 1.6284536 1.7263105 1.6458015
1.6974989 1.6262157 1.7030923 1.6354175 1.6926291 1.7446604 1.7622896 1.7105582
0.063540295 -0.04199596 1.7079093 1.6641964 1.7125204 1.7476519 1.7491599 1.6431464
1.7234542 1.6602525 1.704649 -0.05382702 1.6520857 1.6284108 1.6577474 1.6796832
1.6829829 -0.028921027 1.7519524 1.7484883 1.7430618 1.7393258 -0.017736884 1.749722
1.679083 -0.045384448 1.6696521 1.6835674 1.7409554 1.7286863 1.7436638 1.6930037
1.7171528 1.6698242 1.6518348 1.6482205 1.7424765 1.6338679 1.7038416 1.7387053
1.6758461 1.6406021 1.7351815 1.680663 1.7294655 -0.008826337 1.646274 1.7057306
0.39249906 0.39850953 0.44226488 0.4919934 0.51888055 0.48942208 0.40159503 0.51931506
0.45768318 0.40381807 0.5099374 0.4553541 0.48058936 0.43472356 0.44166008 0.42291144
0.45653224 0.46032402 0.4650019 0.42983553 0.44899648 0.49220705 0.4939102 0.45671093
0.41167372 0.40957782 0.41005066 0.45195138 0.06258894 0.39730245 0.48151526 0.5240828
0.39838332 0.45736763 0.4330682 0.4496064 0.4772645 0.47340664 0.39153796 0.40103576
-0.06527038 0.4957658 0.4637712 0.38958406 0.46718535 0.49112278 0.45314065 0.45270675
0.49456027 0.42200795 0.46707153 0.45521235 0.43919644 0.5178911 0.41202277 0.03736938
0.46860585 -0.04114268 0.43072498 0.39470905 0.40911788 0.3855433 -0.03473996 0.4820341
0.40978518 0.018644476 0.4895509 0.48526376 0.45376548 0.46454057 0.48120472 0.38716942
0.51388067 0.4796047 0.4997658 0.5190065 0.38326612 0.38760015 0.4198085 0.42760482
-0.06191585 -0.029770602 0.40273365 0.40464908 0.521898 0.5193214 0.4253737 0.4434169
0.4357556 0.5105135 0.44381952 -0.04351149 0.48564345 0.51523155 0.4918372 0.38348916
0.42388266 -0.050410405 0.487032 0.49739903 0.46781635 0.40390813 0.051589705 0.40692425
0.49272627 -0.059556894 0.40759537 0.489563 0.4592074 0.43326026 0.49408332 0.4051948
0.49654838 0.52339125 0.38692647 0.39982668 0.4126445 0.50101894 0.40188116 0.5152119
0.45036873 0.4887428 0.47751412 0.46935198 0.45335537 -0.054017402 0.4853769 0.40793204

layer3.bias f4 [168]
00000000: d82e 083f e2d1 ff3e 8ce0 003f 3b88 8141
00000010: e33a a03f fabe 063f d7ca 1c40 3a10 d83f
00000020: 11b7 1440 b3c6 0d40 ce24 083f a47a e03e
00000030: af22 4c3f be3a d83e 475f 0f40 dcb5 1d3f
00000040: dc53 933f a21b fd3e 33a1 0a3f 8572 8840
00000050: e7e3 ea3e 3424 c13f 468b 4840 3c71 373f
00000060: d54c 8541 8034 0f3f 2dd2 663f 8d18 083f
00000070: dc9d 4a3f 42a8 3c3f 850f 8541 abf1 4c40
00000080: a7fd e93f 6ea2 173f 2a2a 8641 9d64 283f
00000090: 62f4 a63f fe57 af3f 264a 8541 d3c6 193f
000000a0: 413f a53f 00a3 ff3f 2284 8541 f0d6 073f
000000b0: 88fa f73f c214 2c3f 6687 313f af75 093f
000000c0: b79a 633f 53c7 3e3f 74c6 8541 74d5 0c3f
000000d0: 674f 8541 11c3 c63e 60ec bb3f 3724 1340
000000e0: 3b68 8540 1ea7 483f f82b 4f40 0905 ad3f
000000f0: e1c5 003f 92ff 043f f1eb 853f 51e3 473f
00000100: 90e2 673f 3f3b 303f 8c66 333f 3ac9 8541
00000110: 31c2 413f 7d7d 063f 05fb 233f e98d 633f
00000120: 802f 2c40 385f 6240 574c b33f bfb8 9d40
00000130: 3800 f540 6b2a a53f b65d 0740 6fe7 1a3f
00000140: 5c42 ee3f b104 b63f 10cf e53f 1562 3b3f
00000150: ee54 8441 b4fb 8c3f e576 8541 8f0b 6b3f
00000160: eb94 0240 a820 d33f d7e5 583f 2f11 853f
00000170: c6c1 023f 822d 8541 bed1 fc3e eab2 4f3f
00000180: 5446 223f 8a89 993f 1725 2f3f 14b4 303f
00000190: 8876 6d40 cadf 713f 725b 1f41 0e5f c53e
000001a0: 6ced 653f 884d 8541 25ae 533f 8ab4 3b3f
000001b0: 7f2c 943f 560d df3f 3a41 973f aba5 8c3f
000001c0: 7747 1f3f f52f 8641 1b10 0f3f 2368 2b3f
000001d0: a578 f73f b0c0 8740 a07e 4e3f 4503 8441
000001e0: bea5 113f d984 c73f b52d e23f 7538 f63f
000001f0: 0466 e640 01f8 133f 0b31 6a3f f690 8541
00000200: 71e6 da3f 9813 2e3f eba1 1f3f 4340 6c3f
00000210: 2c22 433f c36f 1b3f 25c3 8541 74aa 5d3f
00000220: 59da 243f 3b9e 823f d698 3f3f d73c 273f
00000230: dd7a 0f3f c949 303f 980a 9340 16fe cf3f
00000240: 6878 df3e 55e6 6340 d967 433f ac00 b23f
00000250: 00b6 823f 9463 7f40 9159 273f c23d 543f
00000260: c669 343f 93ba 0d3f 6913 213f 4099 843f
00000270: 26ac a440 0625 113f a450 8441 e132 0140
00000280: e6fb dd3e a31f 0540 d369 8641 8e23 293f
00000290: 0009 9a3e 5acc 293f aec0 8441 6acd 003f
0.5319648 0.49964815 0.5034263 16.191519 1.2517971 0.5263516 2.4498804 1.6879952
2.3236735 2.2152526 0.5318116 0.43843567 0.7974042 0.42232317 2.2401903 0.6160562
1.1509967 0.49435145 0.5415222 4.2639794 0.45877 1.5089173 3.1335006 0.71657157
16.662516 0.55939484 0.9016445 0.5316246 0.79147124 0.7369424 16.632578 3.2022502
1.8280534 0.59232223 16.770588 0.65778524 1.304333 1.3698728 16.661205 0.60069007
1.2909929 1.9971619 16.689518 0.53062344 1.9373331 0.67219174 0.69347227 0.53695196
0.8890795 0.74522895 16.7219 0.55013204 16.66377 0.388207 1.4681511 2.2990854
4.1689734 0.7838 3.2370586 1.3517162 0.5030194 0.5195247 1.0462629 0.7808123
0.9058008 0.688404 0.7007835 16.723255 0.7568694 0.5253523 0.640549 0.8888841
2.6903992 3.5370617 1.4007672 4.928802 7.6562767 1.290357 2.1150947 0.6050939
1.8614001 1.4220182 1.7953815 0.73196536 16.54147 1.1014314 16.683054 0.9181451
2.0403392 1.6494341 0.8472571 1.0395869 0.51076925 16.64722 0.4937877 0.81132376
0.6338856 1.1995099 0.6841597 0.6902478 3.7103596 0.944821 9.9598255 0.38549083
0.898154 16.662857 0.826876 0.73322356 1.1576079 1.7425945 1.181678 1.0988058
0.6221842 16.773417 0.5588395 0.66955775 1.9333693 4.2422714 0.80661964 16.501596
0.5689353 1.5587417 1.7670199 1.9235979 7.199953 0.578003 0.91481084 16.695782
1.7101575 0.6799865 0.6235644 0.92285556 0.7622402 0.6071741 16.720285 0.86588216
0.6439567 1.0204538 0.74842584 0.6532721 0.5604685 0.6886259 4.595043 1.6249416
0.4364655 3.5609334 0.76330334 1.3906455 1.0211792 3.9904528 0.6537104 0.82906735
0.704739 0.55362815 0.6292024 1.0359268 5.146014 0.5669712 16.539375 2.0187304
0.43356246 2.080056 16.801672 0.6606988 0.3008499 0.6632744 16.594082 0.50313437
