models/0/guerrilla_model_weights.pth (torch, 198120 bytes, 6 tensors)

layer1.weight f4 [128, 82]
00000000: a1db a641 9549 a741 a8b8 1c40 27d9 863f
00000010: 5140 8b3f 6bfa a641 3f3b a541 ec0d 2940
00000020: 6fca 823f e094 8b40 8ffb a541 2da9 7dbd
00000030: 4619 ddbc c3f2 6a3f ee6e a641 a600 a741
00000040: 495f 203f b98d 4640 4fc4 a641 3b82 a741
00000050: 2fd4 e83c 4580 a63f 3654 edbc b133 a741
00000060: 47d0 24bd db76 96bd 363c 8e3c 1d4d 4a3d
00000070: dae5 303d 7f77 ba3e 9209 ab3d d0e9 24bd
00000080: d71b 853d c3ef 9940 6ffa a741 6ae8 a641
00000090: c243 a741 1b35 9241 86c9 a641 a9d2 a741
000000a0: 85f3 a641 d9cd a741 073d a741 ae9b a741
000000b0: b3c1 a641 4fc8 a741 9630 7d41 e231 a741
000000c0: 98b9 a541 3dad a641 1977 a741 b891 a641
000000d0: eef3 a641 ccb0 a641 4269 a741 7e55 a741
000000e0: 0b83 a641 426a a641 6f67 a741 0a9e a741
000000f0: 2e7e a741 5e2a 8b41 b6fa a641 9c10 a741
00000100: ac51 a741 49b8 a641 3db7 a641 4d5b a741
00000110: 97a5 a741 6b61 a741 7ff8 a641 0ddd a641
00000120: 730d a741 fa1a a741 78d1 a741 6fe5 a641
00000130: ad8d a741 0861 a641 431d a741 b0f5 a641
00000140: 7c95 a741 a5ea a641 b1f0 a641 e6c4 a741
00000150: 6fc5 1f40 675f 893f a4f3 8c3f 133d a741
00000160: 8414 a541 a5f4 2740 8a0a 863f 3636 8940
00000170: 3b10 a641 d24c a53c 729b 6fbd 25b9 863f
00000180: 005f a641 a1fd a641 2352 3e3f 520f 4640
00000190: 1a22 a741 b495 a741 5880 abba 60d6 a23f
000001a0: 7a6d 54bd 4507 a741 f129 0cbd 3787 ae3d
000001b0: 59f6 e7bc 6bb5 aebd 9043 8e3c 5d24 883e
000001c0: a013 ad3d 82c4 753b 5eab 973d d06c 9b40
000001d0: c8f5 a641 7672 a741 c054 a741 ebed 9241
000001e0: 9500 a841 79e0 a641 4ad4 a741 8531 a741
000001f0: fd5a a741 c4fc a641 8d6c a741 20f6 a641
00000200: f0e0 7c41 689c a641 7cc5 a541 199e a741
00000210: 8245 a741 44dc a641 abf2 a641 693a a741
00000220: b57e a741 6489 a741 bb35 a741 b8ee a641
00000230: 1f5c a741 05b4 a641 55b2 a641 18d1 8a41
00000240: 1dcf a641 792f a741 529d a641 1aaf a741
00000250: c2c6 a741 8c0f a741 4138 a741 b5cf a641
00000260: 4074 a741 9292 a741 4ed1 a741 77c4 a641
00000270: e700 a841 fba6 a641 b849 a741 4579 a741
00000280: af5c a741 da7c a741 938e a741 38ed a741
00000290: 7486 a641 c28e a641 cc80 2440 6a86 963f
000002a0: 820b 823f c845 a741 b6e2 a441 6b6c 2440
000002b0: 540f 823f 2e8e 8940 bd21 a641 be9a b13d
000002c0: 9448 623d 04ce 823f cfa6 a741 20f1 a641
000002d0: 1c80 3f3f 38cc 4c40 d952 a741 6869 a641
000002e0: 0213 edbb 2b4f a13f 5544 ac3d 3780 a741
000002f0: 59cc a43d 0b3b 7fbd 32d7 ddbc 079f 27bc
00000300: e0ff 4e3d 6fe5 623e c638 fe3c 9019 7d3d
00000310: afe8 4abd 85a6 9840 99b3 a741 6203 a741
00000320: 58f2 a641 bfce 9241 42ca a741 8077 a741
00000330: e7c3 a741 4fb0 a641 9fb0 a641 651c a741
00000340: 74d3 a741 19fb a641 63a2 7c41 3117 a741
00000350: bbcf a541 2b49 a741 d485 a641 9cc0 a641
00000360: bad5 a741 67fe a741 2a6d a741 173e a741
00000370: e516 a741 7ba8 a741 b84b a741 3ab8 a741
00000380: 967c a741 fa54 8b41 0084 a741 bfdf a641
00000390: c32a a741 7299 a741 2a9f a641 ea04 a741
000003a0: 9e50 a741 7742 a741 f15a a741 b567 a641
000003b0: db37 a741 efc2 a641 5256 a741 93a4 a741
000003c0: 368b a641 2bbd a641 86af a641 c662 a741
000003d0: fc93 a741 7ef6 a741 6d61 a641 1fcd a741
000003e0: 2575 2340 c011 8c3f 6827 8b3f 0d55 a741
000003f0: 8671 a541 bd65 2c40 0205 6d3f 5298 8d40
20.85724 20.910929 2.4487705 1.053502 1.0879003 20.872274 20.653929 2.6414747
1.0218028 4.361923 20.747831 -0.061928917 -0.02698959 0.91776675 20.804165 20.875317
0.62645394 3.1024 20.845854 20.93859 0.02842149 1.3007895 -0.028970819 20.90024
-0.04023769 -0.07346889 0.017362695 0.049389947 0.043187954 0.36419293 0.08351435 -0.040262043
0.06499451 4.810518 20.997282 20.863483 20.908085 18.27593 20.8484 20.977861
20.868906 20.975512 20.904799 20.951015 20.84458 20.972807 15.824362 20.899357
20.715622 20.834589 20.933153 20.821152 20.869106 20.836327 20.926395 20.916744
20.813986 20.801884 20.925505 20.952168 20.936611 17.395687 20.872417 20.88311
20.914879 20.839983 20.839472 20.91958 20.955854 20.922567 20.871336 20.857935
20.881567 20.888172 20.97728 20.862028 20.944178 20.797379 20.889288 20.869965
20.94799 20.864573 20.867525 20.971142 2.4964254 1.073224 1.1011853 20.904821
20.635017 2.624307 1.0471966 4.2878675 20.757925 0.020178232 -0.058497854 1.0525252
20.796387 20.873842 0.7434408 3.094685 20.891651 20.948097 -0.0013084514 1.2721672
-0.051862217 20.87855 -0.034219686 0.08521884 -0.02831571 -0.085306965 0.0173662 0.26590243
0.08451009 0.003750116 0.074057326 4.857033 20.87001 20.93089 20.916382 18.36617
21.000284 20.859606 20.978657 20.89918 20.919428 20.87342 20.928003 20.870178
15.804916 20.82637 20.721428 20.952196 20.90894 20.857552 20.86849 20.90352
20.936869 20.942085 20.901236 20.866562 20.919981 20.8379 20.837076 17.352097
20.85113 20.89818 20.826817 20.960499 20.97205 20.882591 20.902468 20.85142
20.931763 20.946568 20.9772 20.84593 21.00044 20.831533 20.910995 20.934214
20.920256 20.935963 20.944616 20.99083 20.81565 20.819706 2.5703611 1.175977
1.0159762 20.909073 20.610699 2.5691173 1.0160928 4.298606 20.766474 0.08672093
0.055244997 1.0219121 20.95645 20.867737 0.74804854 3.1999645 20.915453 20.801468
-0.007234932 1.2602285 0.08411471 20.937605 0.08046789 -0.062312167 -0.027080152 -0.010230786
0.05053699 0.22157834 0.031032931 0.061791956 -0.04953831 4.770327 20.962694 20.876652
20.868332 18.35095 20.973759 20.93335 20.970655 20.836088 20.83624 20.888865
20.978249 20.872606 15.789645 20.886324 20.72643 20.910727 20.815346 20.844048
20.979359 20.99922 20.928303 20.905317 20.886179 20.957266 20.911972 20.964954
20.935833 17.416492 20.939453 20.859251 20.89588 20.949924 20.827717 20.8774
20.914364 20.907454 20.919405 20.800638 20.902273 20.845182 20.917149 20.955359
20.817974 20.842367 20.835705 20.92323 20.947258 20.995358 20.797571 20.975157
2.554025 1.0942917 1.0871401 20.916529 20.680431 2.6937096 0.92585766 4.424844

layer1.bias f4 [128]
00000000: ec71 a741 1d29 a741 a72b a741 425e a741
00000010: a162 a741 f97c a641 4652 a741 d6b2 a641
00000020: a576 a641 db35 a641 7d98 a641 1cda a641
00000030: 7940 a641 252a a641 286b a741 0463 a641
00000040: 3063 a641 0d94 a641 3947 a641 455b a641
00000050: f0f8 a641 8bc5 a641 381a a741 c35d a741
00000060: cc83 a741 5896 a641 3c34 a741 c460 a741
00000070: 9e37 a741 351f a741 a710 a741 8367 a741
00000080: 60d3 a641 1c66 a741 be27 a641 f2a4 a641
00000090: 9f4f a741 1c3f a741 7a36 a641 bca7 a641
000000a0: c088 a641 4f43 a741 3f4d a741 0355 a741
000000b0: a258 a741 c56c a641 ee73 a741 2143 a641
000000c0: 5914 a741 f36e a641 9fae a641 eabf a641
000000d0: 9fe7 a641 7952 a741 fced a641 de4b a741
000000e0: 68ba a641 ba09 a741 b36c a741 9c40 a641
000000f0: cd57 a741 5631 a741 9b62 a741 a744 a741
00000100: f9c2 a641 f94c a641 b5b3 a641 adea a641
00000110: a466 a641 1dc4 a641 005e a741 ba74 a641
00000120: 8ef5 a641 3873 a641 f85e a741 814b a641
00000130: 9c35 a641 855e a641 7826 a641 5051 a741
00000140: a72e a641 19df a641 a6f2 a641 325b a641
00000150: 9407 a741 5347 a641 bdf2 a641 0212 a641
00000160: 1826 a641 576d a741 5152 a741 8eac a641
00000170: 403f a641 91c2 a641 9938 a641 f4a1 a641
00000180: 292a a741 19ec a641 3612 a741 c080 a741
00000190: df86 a541 79fc a641 2d3c a741 b6ca a641
000001a0: 6b65 a641 0de4 a641 b80b a741 08ad a641
000001b0: 4e85 a641 8688 a641 bfbc a641 9532 a641
000001c0: 4552 a741 5d95 a641 26d6 a641 ef49 a741
000001d0: 3c24 a741 b25a a641 f60a a741 5a49 a641
000001e0: 3df4 a641 f475 a641 664b a741 7f9c a641
000001f0: 6e58 a741 3150 a641 bc14 a741 de76 a641
20.930626 20.895075 20.896315 20.921024 20.923159 20.811022 20.915173 20.837322
20.807932 20.776297 20.824457 20.856499 20.78148 20.770578 20.927322 20.798347
20.798431 20.82229 20.784777 20.794565 20.871552 20.846457 20.887802 20.920782
20.939354 20.82341 20.900505 20.922249 20.902157 20.890238 20.883131 20.925543
20.85321 20.924858 20.769405 20.83054 20.913877 20.905815 20.7766 20.831902
20.816772 20.907866 20.912718 20.91651 20.918278 20.80311 20.931606 20.782778
20.884935 20.804174 20.835264 20.843708 20.863096 20.91527 20.866203 20.912045
20.841019 20.87975 20.928076 20.781548 20.917871 20.89909 20.923147 20.908522
20.845201 20.787584 20.837748 20.864588 20.800117 20.845758 20.920898 20.806995
20.8699 20.80626 20.921371 20.786867 20.776176 20.796152 20.768784 20.914703
20.77278 20.858934 20.86848 20.794529 20.8787 20.784826 20.868525 20.758793
20.7686 20.928389 20.915194 20.834255 20.780884 20.845003 20.777636 20.829079
20.895586 20.865282 20.883892 20.937866 20.690855 20.873278 20.904383 20.84898
20.79952 20.861353 20.880722 20.834488 20.81509 20.816662 20.842161 20.774698
20.91517 20.822931 20.854565 20.9111 20.892693 20.794285 20.880352 20.785816
20.869257 20.807594 20.911816 20.826414 20.918179 20.789156 20.885124 20.80804

layer2.weight f4 [128, 128]
00000000: e0a0 a741 aa97 a741 d65a a741 b9bd a741
00000010: b922 a741 0afb a741 1efb a641 bdcf a741
00000020: 6992 a741 3c6e a741 e6af a741 27e8 a741
00000030: a90b a841 9354 a741 0e06 a741 42df a741
00000040: 978f a741 4cc9 a741 be00 a841 bbcd a741
00000050: b60c a741 8ddb a741 d114 a741 ab14 a741
00000060: b9a2 a741 1376 a741 3149 a741 6557 a741
00000070: 6994 a741 b1ba a741 c034 a741 ce15 a741
00000080: 285c a741 ad7a a741 fd66 a741 6ede a741
00000090: cb11 a841 14f2 a641 17ac a741 d7ee a641
000000a0: c6b3 a741 6ba6 a741 cf93 a741 4626 a741
000000b0: 79b9 a741 6d8a a741 8627 a741 c57c a741
000000c0: 46f5 a741 104f a741 61f0 a641 e13f a741
000000d0: 2e28 a741 e02c a741 93f3 a741 e1fc a741
000000e0: 08f4 a641 e56b a741 29bd a741 15f0 a741
000000f0: 8daf a741 4b59 a741 2685 a741 4b94 a741
00000100: fc1d a741 45fc a741 eaaa a741 7989 a741
00000110: 4fdf a741 57ab a741 711e a741 db2c a741
00000120: ee08 a741 81d0 a741 7360 a741 11d3 a741
00000130: 198c a741 7e64 a741 3d74 a741 f539 a741
00000140: 67bb a741 5d72 a741 381b a741 fc86 a741
00000150: aa48 a741 f18e a741 9150 a741 e133 a741
00000160: f4ed a741 e139 a741 eedd a741 dc6b a741
00000170: 1dda a741 6caf a741 14f4 a641 55a5 a741
00000180: 18ba a741 1efd a641 2494 a741 eff9 a741
00000190: 6312 a741 15cd a741 4cba a741 268d a741
000001a0: c367 a741 db98 a741 2b6b a741 cfe6 a641
000001b0: 6cea a741 750e a741 0ea9 a741 7796 a741
000001c0: 28b8 a741 66b6 a741 310f a841 1194 a741
000001d0: 5816 a741 9d03 a741 9bef a741 7b86 a741
000001e0: 2fe4 a741 f6c8 a741 df84 a741 d8e1 a741
000001f0: 3a92 a741 8522 a841 f289 a741 02cf a741
00000200: 760f a741 73c1 a741 ab4e a741 4a5b a741
00000210: afb3 a741 636a a741 60f4 a641 ae58 a741
00000220: c893 a741 7d60 a741 0e1a a741 ef61 a741
00000230: 1ecd a741 0c01 a841 f57d a741 146f a741
00000240: 4549 a741 425f a741 acf5 a741 08db a741
00000250: f912 a741 2197 a741 419d a741 37f8 a741
00000260: 2f2c a741 b342 a741 6fc5 a741 0fa6 a741
00000270: 909c a741 200f a841 4703 a841 ba31 a741
00000280: 1be4 a741 7d1d a741 8f35 a841 2e17 a741
00000290: 6bfd a641 9158 a741 ddbe a741 08fa a641
000002a0: 4770 a741 35f4 a741 141b a741 93fd a641
000002b0: 635e a741 f68f a741 b523 a741 d420 a741
000002c0: 7c97 a741 9543 a741 29ab a741 4a38 a741
000002d0: 3c6b a741 2566 a741 402b a741 308f a741
000002e0: 735f a741 e1c7 a741 1b2b a741 63f8 a641
000002f0: 9f36 a741 b112 a841 250a a741 e392 a741
00000300: 01ec a741 0805 a841 ed5d a741 6596 a741
00000310: 21de a741 aa01 a841 8f9a a741 223b a741
00000320: c2f7 a741 eb3e a741 9ee5 a741 3f69 a741
00000330: 4ddb a741 21d2 a741 00cc a741 aac5 a741
00000340: 2790 a741 1693 a741 5163 a741 4911 a841
00000350: 87d4 a741 ece2 a741 0073 a741 0405 a841
00000360: e92c a741 c5aa a741 a469 a741 7be1 a741
00000370: 74f7 a741 e008 a841 2bbd a741 0822 a841
00000380: 0c38 a741 d14a a741 905d a741 a14d a741
00000390: 9876 a741 5511 a841 ec8a a741 096e a741
000003a0: e6cc a741 b301 a841 c87b a741 11f1 a741
000003b0: b017 a741 5d65 a741 9f3f a741 0081 a741
000003c0: 2c48 a741 69da a741 3626 a841 3fb0 a741
000003d0: a418 a741 4d25 a741 08da a741 349f a741
000003e0: 4277 a741 9280 a741 90f3 a741 db90 a741
000003f0: eb13 a841 ddbe a741 ec46 a741 a225 a741
20.953552 20.949055 20.919353 20.967638 20.891954 20.997578 20.872616 20.976435
20.94649 20.928825 20.960888 20.988356 21.005693 20.916296 20.877956 20.984013
20.945112 20.97329 21.000362 20.975454 20.881207 20.982203 20.885164 20.885092
20.954454 20.932653 20.910738 20.917673 20.947466 20.966158 20.900757 20.885647
20.919998 20.9349 20.925287 20.983608 21.008688 20.868202 20.959028 20.866621
20.96278 20.956259 20.947172 20.893688 20.965563 20.94259 20.894299 20.935923
20.994762 20.913605 20.867373 20.90619 20.894619 20.896912 20.993933 20.998476
20.869156 20.927683 20.967363 20.992228 20.960718 20.9186 20.940014 20.947409
20.88964 20.998178 20.958454 20.942125 20.984037 20.958662 20.889864 20.896902
20.87936 20.976809 20.922094 20.97806 20.943407 20.924068 20.931757 20.9033
20.966505 20.930841 20.88829 20.94091 20.91048 20.944796 20.91434 20.900331
20.991188 20.903261 20.983364 20.927666 20.9815 20.960655 20.869179 20.955729
20.965866 20.873592 20.947334 20.997038 20.883978 20.975138 20.965965 20.94392
20.925665 20.949636 20.927328 20.8627 20.989464 20.88206 20.957546 20.94847
20.96492 20.964062 21.007418 20.947298 20.88591 20.876764 20.991995 20.940664
20.986418 20.973125 20.939878 20.985275 20.9464 21.016855 20.942356 20.976078
20.88255 20.969458 20.913412 20.919575 20.962736 20.926947 20.869324 20.9183
20.947159 20.922113 20.887722 20.92282 20.975155 21.000511 20.936502 20.929237
20.910776 20.921513 20.994957 20.981949 20.884264 20.948793 20.951784 20.996199
20.896574 20.907568 20.971403 20.956083 20.951447 21.007385 21.0016 20.89928
20.98638 20.889399 21.026152 20.886318 20.87374 20.918245 20.968195 20.872086
20.929823 20.994242 20.888222 20.873816 20.921087 20.945293 20.892435 20.89103
20.948967 20.907999 20.958574 20.902485 20.92736 20.924875 20.896118 20.944916
20.921606 20.972597 20.896048 20.871283 20.90167 21.009127 20.879953 20.946722
20.990236 21.002457 20.920862 20.948435 20.983461 21.000813 20.950468 20.903873
20.995975 20.905722 20.987118 20.92639 20.98208 20.977602 20.97461 20.971516
20.945387 20.94682 20.923494 21.00844 20.978773 20.985802 20.931152 21.002449
20.896929 20.958384 20.926582 20.985098 20.995827 21.004333 20.967367 21.016617
20.902367 20.911531 20.920685 20.912905 20.932907 21.008463 20.942833 20.928728
20.975048 21.00083 20.93544 20.992708 20.886566 20.924494 20.906065 20.937988
20.91024 20.981646 21.018658 20.961058 20.887032 20.893213 20.98146 20.952736
20.933231 20.937778 20.993927 20.94573 21.009726 20.968195 20.90963 20.893375

layer2.bias f4 [128]
00000000: e255 a841 fe9a a741 5460 a841 c703 a841
00000010: baa9 a841 e826 a841 1121 a841 2e1c a841
00000020: 8731 683d 2d06 12bd ebdf a741 5f00 49bc
00000030: 3eb1 a741 445a a841 f121 a841 8a17 a841
00000040: 72c2 a841 2fb3 a741 ee39 a841 3830 a841
00000050: 8552 a841 c4dc a741 3326 0b3d 3de8 a741
00000060: 80ad a741 9d59 a841 5299 a841 34fb a741
00000070: 26d9 a741 d39d a741 03b1 a741 8173 acbb
00000080: 4fad a841 a383 a841 db8b a841 2015 a841
00000090: ce70 a841 04ca a741 8547 a841 cb72 a841
000000a0: cacf a741 860e ce3c f4c6 a741 0ce2 84bd
000000b0: 8fef a741 b518 a841 ba2a a841 c775 353d
000000c0: 1ea5 a741 0391 a841 0b88 a841 fba6 a841
000000d0: fc51 a841 619f a741 99e0 a741 b063 a841
000000e0: 3437 a841 82ab a741 098e a841 d7d6 a741
000000f0: cbb3 a741 50b1 84bc 25ab a841 c954 a841
00000100: a6f6 a741 d6aa a741 ed6a a841 7f45 17bd
00000110: 3124 a841 548f a741 71cc a741 c29f a841
00000120: 43ac a841 ba18 6abd 95b6 a741 deb2 a841
00000130: 9d1a a841 877a a841 ae96 33bd d3b6 df3c
00000140: c786 a841 bcf2 a741 6988 a841 99cf a741
00000150: e68a a841 d573 a841 353d a841 0ea8 a741
00000160: 4bde a741 73db a741 8903 a841 fb23 a841
00000170: a7a5 a741 57a5 a741 57cf a741 4827 a841
00000180: 14d4 a741 bd35 a841 2768 a841 d57d a841
00000190: 8287 a841 bc8e a841 bfca be3c 0e6b a841
000001a0: 8b23 a841 6d67 a841 8dd3 16bc 0a42 a841
000001b0: eb08 a841 fefb a741 3b1b a841 86c6 24bd
000001c0: be9e a841 905b a841 8237 a841 2443 a841
000001d0: 8451 a841 1b8e a741 e0c6 a741 7e45 a841
000001e0: bc9a a841 0f40 a841 9e51 a841 11f5 a741
000001f0: e14d a841 0031 a841 1e7b a841 8f60 a841
21.041935 20.95068 21.047035 21.001844 21.082874 21.018997 21.016146 21.01376
0.056687858 -0.03565042 20.984335 -0.012268155 20.961544 21.044075 21.016573 21.011494
21.094944 20.962492 21.028286 21.023544 21.040293 20.982796 0.033971976 20.988398
20.959717 21.043756 21.074863 20.997658 20.98103 20.952063 20.961432 -0.0052627926
21.084623 21.064276 21.068289 21.010315 21.05508 20.97364 21.034922 21.056051
20.97646 0.02515341 20.972145 -0.064884275 20.991972 21.012064 21.020863 0.044301774
20.955624 21.070807 21.066427 21.081533 21.040031 20.952822 20.984667 21.048676
21.026955 20.958744 21.069353 20.979902 20.96279 -0.01619783 21.083567 21.041399
20.995434 20.958416 21.05221 -0.03693151 21.017672 20.944984 20.974825 21.078007
21.084112 -0.057152487 20.964151 21.087337 21.012995 21.059828 -0.04384487 0.027308857
21.06581 20.993523 21.066607 20.976366 21.067822 21.056559 21.029886 20.957058
20.983541 20.982153 21.001726 21.017569 20.955885 20.955732 20.97624 21.01918
20.978554 21.02624 21.050856 21.061441 21.066166 21.069695 0.023290036 21.052273
21.017355 21.0505 -0.009205711 21.032246 21.004354 20.998043 21.013296 -0.04022839
21.07751 21.044708 21.027103 21.032784 21.039803 20.944387 20.972107 21.033932
21.075554 21.031279 21.039852 20.994661 21.038027 21.023926 21.060116 21.047148

layer3.weight f4 [168, 128]
00000000: a94c a23f 3330 9e3f 3ef2 953f faf5 943f
00000010: 648b 9a3f 680f 953f 522c 983f d6a8 923f
00000020: 30c5 0a3d 84f5 60bd fbb8 9d3f d4eb f8bc
00000030: f8c7 9f3f 3724 a23f d260 983f 94e0 973f
00000040: 56fe 993f 719b 9e3f 6ad1 993f db94 9f3f
00000050: 17f6 9f3f 30bf 9a3f a7e1 60bd 76b8 923f
00000060: ea87 9a3f 5025 9f3f 4ece 9a3f f47c 9b3f
00000070: 5430 923f a60b 9c3f 4468 923f 4647 57bd
00000080: 3e74 9e3f 04bb 933f 10fa 983f 3e0f 923f
00000090: 3291 943f ec65 9c3f b631 983f de96 973f
000000a0: 48b5 9b3f 1271 c43b 9d66 a13f b540 883d
000000b0: 4da6 9e3f 8812 953f f759 9f3f df17 5c3d
000000c0: 59ce 9d3f 5ab9 a23f 60c2 943f 407b 9c3f
000000d0: 04bb 9f3f c4a5 933f 5420 933f dc78 993f
000000e0: e0e7 a13f 48f2 903f 5431 a23f 0463 9b3f
000000f0: 9bfb 9f3f cdf2 e03b 288c a23f ac06 9b3f
00000100: 36cc 963f 6470 9c3f fcda 993f ba40 28bc
00000110: cf0e 9f3f 59f2 9c3f dad7 913f 0101 a03f
00000120: b808 923f 5632 51bd e6bb 923f fbe4 a13f
00000130: 1ed0 9b3f 58da 983f cee1 76bd 23cd 3abb
00000140: a4eb 953f 72a6 943f 7eb5 973f cb46 a13f
00000150: ca88 963f b6fd 9f3f 2ada 943f 5dfe 9e3f
00000160: 9c23 983f 4e68 a43f 5f79 a33f 30d3 9a3f
00000170: 2068 a33f 5e7b 9f3f 6696 973f 852a 9d3f
00000180: 3837 983f 03ca 9d3f aaf0 a23f 3a1d 973f
00000190: 07c6 9d3f c043 9d3f bce6 803d 8a43 943f
000001a0: 79dc 9e3f 6e75 9c3f ec12 21bc 9e30 933f
000001b0: b69b 9c3f 9675 923f be31 953f b127 233c
000001c0: 09fb 9d3f f4c8 9a3f cca9 913f f873 9b3f
000001d0: 0eea 9e3f 29db 9d3f 10fe 943f dc89 923f
000001e0: 2259 913f 3e6a 9b3f 3b19 9e3f b542 9e3f
000001f0: fa18 9a3f fe29 a03f bd75 9e3f a296 923f
00000200: 743e 8d3d ea57 7a3d 4195 863d 64f8 e43c
00000210: 786d 073e f25c 073e 4227 003e 20c5 a33d
00000220: c3fd b13b 3173 8d3d 1bfc 863d afc5 0a3c
00000230: 9c7c 8f3d 5d38 9f3d 47c6 b53d 81ce fb3c
00000240: f703 183e bf3f 213d f4b6 663d f1a6 913d
00000250: 67b1 c73d 0e7f f63d a82d cc3c 5a33 f83d
00000260: 097b 013e 16b1 ed3c 5415 833d 5a47 ed3d
00000270: 57f3 e73c 9a2a 0a3d 5cdd a43d 52a0 d8bc
00000280: 7436 9c3d 7e7b 733d 56fb e03d 8057 073e
00000290: 77b1 8a3d cfa4 dc3d 8c84 223e 469b 0f3d
000002a0: 4aeb e93d 56cc bdbb 9edc 693d 0317 80bc
000002b0: e7e7 163e 0a77 063e d62b 603d a476 7b3d
000002c0: 161a 013e 0fb0 c83d fdfd dc3d ced7 5c3d
000002d0: d92e a33d 6d34 173e 2464 8c3d b4ad 0a3e
000002e0: edbe 253e 17d6 163d 8faa 9a3d 122b 7f3d
000002f0: ebdd 1c3e 3673 203c 605a 583d 0f29 e63c
00000300: 6353 b83d 6b46 b03d 15e7 113e 5a78 04bd
00000310: 5311 1d3d 05d8 123e 9cdf 073e 96e6 743d
00000320: 2a84 5e3d 3f46 c3bb 22f8 223d e784 bb3d
00000330: eafb dd3d be35 ec3d 2672 50bd 2808 533d
00000340: 5e39 c23d ba3f ee3d 4d4f 1c3e b9cb ab3d
00000350: 55aa 293e e779 003e 3a63 c43d c6cf 0f3e
00000360: 2765 053d 4c63 c93d c52b 293e b2a2 9f3d
00000370: f2b5 b63d 0e21 eb3c 488e e33d 97d0 b93d
00000380: 46a5 f33d 1b61 aa3d 33e7 233e 7314 b53d
00000390: 35ea 093e 52e2 ac3d 795a 223c 91f6 be3d
000003a0: e14d 963d 5a4e 033d 4e2e 5ebb aa8e ba3d
000003b0: 9f9b 193e d263 cf3d 56bf 093e 161f 8bbd
000003c0: de1e 6a3d c9dd be3d aade 6e3d b707 b03d
000003d0: 771c 1b3e ee8b e93d 4b1f 123e 0fae 143e
000003e0: abc7 183d 7e1a e03d 41c4 263e 3a4c ed3c
000003f0: 8afb b23d 0aba 343d 375b 043e 4fcf c33d
1.2679645 1.2358459 1.1714551 1.1637566 1.2073789 1.1645327 1.1888525 1.1457775
0.03387946 -0.054921642 1.2322077 -0.03038589 1.2482901 1.2667302 1.1904547 1.1865411
1.2030742 1.2391187 1.2017033 1.2467302 1.2496976 1.2089596 -0.0549027 1.1462543
1.2072728 1.2433262 1.2094209 1.2147508 1.1420999 1.2191055 1.1438069 -0.052558206
1.2379224 1.1541448 1.1951313 1.1410902 1.160681 1.2218604 1.189017 1.1842916
1.2164698 0.0059949243 1.260944 0.06652967 1.2394501 1.164628 1.244933 0.053733703
1.2328597 1.2712815 1.1621819 1.2225113 1.2478948 1.1534963 1.1494241 1.1990008
1.2648888 1.1323938 1.2671304 1.2139592 1.2498659 0.0068648816 1.2699022 1.2111411
1.178107 1.2221799 1.2019954 -0.010269338 1.2426394 1.2261459 1.1393998 1.2500306
1.1408911 -0.051073395 1.1463592 1.2648004 1.2172887 1.1941633 -0.060273938 -0.0028503619
1.1712537 1.1613295 1.1852262 1.2599729 1.1760495 1.2499301 1.1629078 1.2421376
1.1885867 1.2844331 1.2771415 1.2095699 1.2766151 1.2459524 1.1842773 1.2278601
1.1891851 1.2327274 1.2729695 1.1805794 1.2326058 1.2286301 0.06294009 1.1583111
1.2411033 1.2223337 -0.0098311715 1.1499212 1.2235019 1.1442134 1.1655805 0.009958194
1.2342235 1.2092576 1.1379943 1.2144766 1.2415178 1.2332507 1.1640034 1.1448321
1.1355326 1.2141798 1.235145 1.2364107 1.2038872 1.2512815 1.2379681 1.145222
0.068966776 0.061118998 0.06571437 0.027950473 0.13225353 0.1321905 0.12514976 0.07996583
0.005431862 0.06906737 0.06591054 0.008469983 0.07006189 0.07774422 0.08875709 0.030738117
0.14845262 0.039367434 0.05632682 0.0711192 0.09750634 0.120359525 0.024924114 0.121191695
0.1264459 0.029015105 0.064005524 0.11585875 0.028314276 0.033732034 0.080500335 -0.026443634
0.076275736 0.059443943 0.109854385 0.13216972 0.0677213 0.10773622 0.15870875 0.03506019
0.11421831 -0.005792181 0.057095163 -0.015635973 0.14736901 0.13131347 0.054729305 0.06139244
0.12607607 0.097992055 0.10790632 0.053916745 0.0796792 0.14766093 0.06855038 0.13542825
0.16186114 0.036825266 0.07552063 0.062296934 0.1531903 0.009793093 0.052820563 0.02809575
0.0900028 0.08607181 0.14248307 -0.03234134 0.0383466 0.14340217 0.13268894 0.059790216
0.05432526 -0.0059593017 0.03978742 0.091562085 0.108390644 0.11533688 -0.05089011 0.05152145
0.09483598 0.116332486 0.15264626 0.083884664 0.16568883 0.12546502 0.095892385 0.14044103
0.03256717 0.098333925 0.16520603 0.077947035 0.08921422 0.028702285 0.11111122 0.090729885
0.11896758 0.08319303 0.16006164 0.08841791 0.13468249 0.08441605 0.009909266 0.093243726
0.07339073 0.032057144 -0.0033902111 0.09109242 0.15000771 0.10126461 0.13451895 -0.067930385
0.057158343 0.09319646 0.058317818 0.085952215 0.15147577 0.114036426 0.1426975 0.14519523
0.037299793 0.10942553 0.16285802 0.028967012 0.087393835 0.044122733 0.1292542 0.09561025

layer3.bias f4 [168]
00000000: 60eb e23e bf2d be3d e9b5 193e 6468 893f
00000010: 5918 383f f179 223f 9d03 9241 a615 433f
00000020: 8386 6f3e 0966 c03e 00b7 0040 3ad6 5b3f
00000030: d49f fa3e 27d3 b140 a7d5 a43e a43f f63f
00000040: d2bd 9141 a73f f03e 5b16 c93d bc6b 1440
00000050: de48 f73e 1e13 903e 3778 653f fa7e 0940
00000060: 5e63 963e b9f6 9a3f b018 d53f f3f0 233f
00000070: 427c 9041 a42f 133f 5132 9441 244b 3f3f
00000080: 3e54 b33e 1455 0f3f 1756 e23f 78e5 a33f
00000090: a811 943e 675f 9441 3a0d 3e3f 42c2 9d3e
000000a0: 2902 693f 2b7e 0040 d600 a040 a469 bb3f
000000b0: caca 903f 761b 9341 9675 773e b396 dc3f
000000c0: 1201 7c40 8c87 b93f cdf3 0340 80a3 ff40
000000d0: 4e3d a13f 531f b93e 6615 253f ae9a 283f
000000e0: cbfb 653f bd72 1141 6396 fb3e ff55 a040
000000f0: 561e 053f 3cb7 3441 33e4 5541 99b4 273f
00000100: ecc1 2d3e 6bb6 3d3f 4af2 0e3f 9708 9541
00000110: 9406 8e3e 3665 873e 1c1b a23e dc63 833e
00000120: c4fb fc3e 651a a53e 391a 893f 20dd ab3e
00000130: fe16 9441 9c4e ff3f c6c4 9141 02ca db3e
00000140: c65e 783f af56 5440 c5b5 6740 94dc 1640
00000150: ec11 5b3f 81a8 e240 c284 8c40 a53c ea40
00000160: 4e03 8a41 7587 ca3f 7ae2 d43e 5175 de3f
00000170: 417e a13f be5b 1340 28a8 9b3e 1539 9341
00000180: 7aba 573f dc8f 1040 d946 9040 9b5c 353e
00000190: 0e83 753e 662c 933e 0bfd 5b3f c8e4 523e
000001a0: e2f8 4f3e 8827 8f3e 91ed 9341 a277 d43e
000001b0: fd43 c340 5528 0340 abd4 643e 7ce9 8841
000001c0: a740 e63f faf7 713f 700f 203f 284b 423f
000001d0: 3f35 9441 a0a4 2940 3251 023f c4d6 b53f
000001e0: 955f d63e 3c24 983e 197a 003f 1e66 173f
000001f0: 99aa ab3e 8e13 6f3e c4dc 843e 02c1 ca3f
00000200: 2814 9341 3cba 2b40 3024 d33e a73d 4440
00000210: 537b db3f 568f 5a40 1412 b73f 18ad 923f
00000220: 45d5 8f41 e9b3 b43f 08c9 c73f 5ce9 8d41
00000230: 4296 e63e d990 db40 5aee 1b3f 5a4a 9241
00000240: ab5f 963f 3aad 403f bd62 7f3e 36c9 9441
00000250: 74f4 533f ded6 583e 1b1b 5b3f 38b8 123f
00000260: 6169 9441 fcf3 0f3f 5e35 7d3f d635 ff3d
00000270: 764c 9441 d7e8 9f40 62d9 a23e f3fa e43e
00000280: 7136 a240 7390 9e3e 5bbc c740 9d6b 6b3f
00000290: e303 c53f 61d4 913f ac9e 443e 2f40 663e
0.44320202 0.09286069 0.150108 1.0734982 0.7191215 0.6346732 18.251764 0.7620491
0.23391156 0.37577847 2.0111694 0.8587376 0.48950064 5.5570254 0.32194254 1.9238172
18.217686 0.46923563 0.09818717 2.3190756 0.4829778 0.28139585 0.8963656 2.148375
0.29372686 1.2106544 1.6648159 0.64039534 18.060673 0.5749457 18.524569 0.7472403
0.3502521 0.55989194 1.7682523 1.2804403 0.2891972 18.546583 0.7423893 0.3081227
0.9101892 2.0077007 5.000102 1.4641614 1.1311886 18.388409 0.24165949 1.723349
3.9375653 1.4494491 2.0617554 7.9887085 1.2596834 0.3615671 0.64485776 0.6586102
0.8983733 9.090512 0.49138173 5.0104976 0.51999414 11.294735 13.368213 0.65509945
0.16968507 0.7410647 0.55838454 18.629194 0.27739394 0.26444405 0.31661308 0.25662124
0.49410832 0.322467 1.0711128 0.33567142 18.511227 1.9945865 18.22108 0.42927557
0.9701961 3.3177907 3.6204693 2.357213 0.8557422 7.0830693 4.391206 7.319903
17.251614 1.5822588 0.41579038 1.7379552 1.2616655 2.3024745 0.3040173 18.402872
0.84268916 2.2587805 4.5086484 0.17711107 0.23975775 0.2874481 0.8593299 0.20595086
0.20309785 0.27959847 18.491 0.41497523 6.1020494 2.0493367 0.22346751 17.114006
1.798848 0.9451901 0.62523556 0.7589593 18.526 2.650673 0.50905144 1.4206166
0.41869798 0.29715145 0.50186306 0.59140193 0.33528593 0.23347303 0.2594968 1.5840151
18.384842 2.6832418 0.41238546 3.066263 1.714701 3.4149985 1.4302392 1.1459074
17.979136 1.4117404 1.5608225 17.738945 0.45036513 6.8614316 0.6091057 18.286304
1.1747946 0.7526432 0.2494001 18.598248 0.8279488 0.21175715 0.85588235 0.57312346
18.551455 0.56231666 0.98909557 0.1246144 18.537334 4.997173 0.31806475 0.4472271
5.0691457 0.3096958 6.2417426 0.9196108 1.5391811 1.1392938 0.19201154 0.22485422
