models/smallreward066_models/5/model_weights.pth (torch, 197956 bytes, 6 tensors)

layer1.weight f4 [128, 82]
-0.10933519 -0.22836427 -0.20190941 -0.21050864 0.09618314 -0.1956948 -0.252528 -0.13286154
-0.14447546 0.02960212 -0.034042235 -0.06515197 0.09896306 -0.02204229 0.067820564 -0.122434564
0.037852027 -0.068569876 0.08848389 -0.25760102 -0.049045816 0.08337546 0.00767104 -0.10147948
-0.05467899 -0.14247732 -0.15530173 -0.1981538 -0.12999964 0.08270662 0.014257818 -0.15859422
-0.1612372 0.15772219 0.08705483 0.097146444 -0.05250503 -0.008600255 0.08961467 0.023904298
-0.07503583 0.024106214 0.096551806 0.13360915 0.0030565702 -0.030838182 0.11271086 -0.00828289
-0.07583743 0.070117205 0.13931826 0.017876178 -0.016676905 -0.14608708 0.11075307 -0.07114094
-0.09514138 0.039355543 -0.0854231 -0.004119642 0.03807638 0.022939717 -0.033511303 0.057997167
-0.06357215 -0.044141747 0.048022334 0.1017701 -0.083662555 -0.041748956 0.12732999 0.050778452
-0.052213088 0.0056277816 0.0035844424 -0.12810382 0.11304165 -0.011816593 0.09250158 0.0020901915
0.09091701 0.04590836 0.13773523 -0.067463316 -0.08100673 0.012105362 0.12775052 -0.07629683
0.038050648 0.11566033 0.20232686 -0.018336972 0.08928941 0.15176357 -0.12610956 -0.08743753
-0.032678124 -0.0065592346 -0.0743989 0.14220008 0.025222752 -0.114477925 -0.043914393 0.05374352
0.025820576 0.080966026 -0.1264393 -0.014487135 -0.056750923 0.07659752 0.23315251 -0.012721008
0.070031814 -0.084726416 0.25032458 -0.17450617 -0.09263363 0.16778998 -0.028651154 -0.08835248
0.06383782 0.09159849 -0.063272245 -0.14285779 0.02458891 0.05393298 0.02474237 0.091798484
0.09193124 -0.07499929 -0.033617184 0.027933491 -0.00012175695 -0.13416372 0.09574747 0.17013772
0.009960883 0.04583846 0.14990656 0.08381809 -0.1272958 -0.025314674 -0.0849282 0.0094466675
-0.08724321 0.10443279 0.07733088 -0.089156635 0.027757207 0.096922 0.050894614 0.10263033
0.048647832 -0.000404329 0.090979636 0.012060073 -0.035654534 0.046738904 0.13350159 0.010078384
-0.02552493 -0.021408575 -0.063391574 0.15546937 0.15029512 0.14041674 -0.02073235 -0.054659773
0.008416406 -0.1000536 -0.121181816 -0.14701429 -0.029981412 -0.08006465 -0.10717176 -0.13416965
0.16200328 0.12980354 0.028938362 0.06782308 -0.07455094 0.13939252 0.18126287 -0.053543814
-0.07773262 0.07025128 -0.0850517 -0.04855186 0.13073008 -0.11279754 -0.059862837 0.031086843
0.024774197 0.028869532 0.033314973 0.0041906214 0.013836165 -0.07383416 0.046915334 -0.036873396
0.13543202 -0.028419062 -0.0015829239 -0.2053665 -0.11137997 -0.040010992 0.101126626 0.22496696
-0.02457443 0.02129703 -0.15740882 -0.0011397355 0.006386674 0.039992422 0.0956697 0.0021824029
0.18608193 -0.13950835 0.06536339 0.11549035 0.020304855 0.045310628 0.013333284 -0.13359554
-0.04263195 0.046302143 -0.08445801 -0.09544653 0.070277214 -0.0036114028 -0.07116039 0.13627142
-0.013886532 -0.12991971 -0.08255406 -0.031210747 0.008654295 0.057054907 -0.119235136 -0.061008528
-0.061247375 -0.052953318 -0.08562109 0.097819276 0.040090207 -0.067195356 0.12768438 -0.03836408
0.0036914807 0.054067858 0.05290498 -0.003922383 0.1753432 -0.00021024917 -0.12404065 -0.0025532336
00000000: 21eb dfbd 53d8 69be 57c1 4ebe 948f 57be
00000010: abfb c43d 3864 48be 5a4b 81be db0c 08be
00000020: 60f1 13be 2580 f23c df6f 0bbd 656e 85bd
00000030: 25ad ca3d 0892 b4bc 82e5 8a3d f9be fabd
00000040: ba0a 1b3d 5d6e 8cbd 0b37 b53d 48e4 83be
00000050: 44e4 48bd c1c0 aa3d 595d fb3b 79d4 cfbd
00000060: 14f7 5fbd 93e5 11be 6b07 1fbe d4e8 4abe
00000070: a01e 05be 1762 a93d a099 693c 8666 22be
00000080: 5d1b 25be ed81 213e cd49 b23d b7f4 c63d
00000090: 840f 57bd 15e8 0cbc e587 b73d f2d2 c33c
000000a0: 63ac 99bd 657a c53c f4bc c53d d6d0 083e
000000b0: bd50 483b 5ba0 fcbc f4d4 e63d f5b4 07bc
000000c0: a850 9bbd 9c99 8f3d 72a9 0e3e 1071 923c
000000d0: 019e 88bc da97 15be 81d2 e23d 57b2 91bd
000000e0: 7cd9 c2bd 4733 213d 4ef2 aebd 10fe 86bb
000000f0: faf5 1b3d 13ec bb3c 2643 09bd 708e 6d3d
00000100: 1e32 82bd facd 34bd 11b3 443d d86c d03d
00000110: 4657 abbd f400 2bbd cb62 023e 11fd 4f3d
00000120: 64dd 55bd 4169 b83b f7e8 6a3b a62d 03be
00000130: 6182 e73d 629a 41bc 7871 bd3d 98fb 083b
00000140: b332 ba3d 680a 3c3d 770a 0d3e 352a 8abd
00000150: dbe6 a5bd 9155 463c 08d1 023e 8341 9cbd
00000160: ffda 1b3d 53df ec3d c62e 4f3e 6b37 96bc
00000170: 5edd b63d e967 1b3e dd22 01be 7312 b3bd
00000180: 7fd9 05bd d9ee d6bb 735e 98bd e69c 113e
00000190: f29f ce3c 6773 eabd 94df 33bd 2a22 5c3d
000001a0: ac85 d33c 84d1 a53d 4e79 01be 735b 6dbc
000001b0: a873 68bd 29df 9c3d 88bf 6e3e c66b 50bc
000001c0: d76c 8f3d 0b85 adbd 8b2a 803e bfb1 32be
000001d0: b3b6 bdbd 23d1 2b3e d3b5 eabc 25f2 b4bd
000001e0: 67bd 823d fd97 bb3d e194 81bd 5049 12be
000001f0: af6e c93c d4e8 5c3d 83b0 ca3c d800 bc3d
00000200: 7246 bc3d 3a99 99bd 2cb2 09bd c7d4 e43c
00000210: c457 ffb8 3762 09be 4017 c43d 9538 2e3e
00000220: f932 233c 1cc1 3b3d 1b81 193e d2a8 ab3d
00000230: d559 02be b860 cfbc d6ee adbd 32c6 1a3c
00000240: 91ac b2bd dce0 d53d a75f 9e3d c197 b6bd
00000250: 1563 e33c 0b7f c63d df76 503d da2f d23d
00000260: f342 473d 1ffc d3b9 8853 ba3d 9d97 453c
00000270: 7d0a 12bd 4b71 3f3d a4b4 083e ce1f 253c
00000280: a819 d1bc 0961 afbc 71d3 81bd 5d33 1f3e
00000290: f7e6 193e 68c9 0f3e e4d6 a9bc ede2 5fbd
000002a0: f7e4 093c e7e8 ccbd 2c2e f8bd ea8a 16be
000002b0: 949b f5bc eff8 a3bd de7c dbbd c563 09be
000002c0: 30e4 253e 38eb 043e 2510 ed3c d4e6 8a3d
000002d0: 2aae 98bd eabc 0e3e f99c 393e c250 5bbd
000002e0: 4832 9fbd e7df 8f3d 962f aebd 51de 46bd
000002f0: 1bde 053e 6602 e7bd bc32 75bd d6a9 fe3c
00000300: 42f3 ca3c cc7f ec3c 4875 083d 7b51 893b
00000310: 15b1 623c 5d36 97bd 4b2a 403d 8f08 17bd
00000320: b1ae 0a3e 18cf e8bc 1d7a cfba 994b 52be
00000330: 2f1b e4bd 91e2 23bd 7a1b cf3d bd5d 663e
00000340: 5150 c9bc 1c77 ae3c c72f 21be 2d63 95ba
00000350: 4e47 d13b 18cf 233d 7aee c33d a506 0f3b
00000360: 438c 3e3e 47db 0ebe 3edd 853d 3486 ec3d
00000370: 5e56 a63c a397 393d d973 5a3c 45cd 08be
00000380: d79e 2ebd 51a7 3d3d 52f8 acbd 7879 c3bd
00000390: 80ed 8f3d 49ad 6cbb 8abc 91bd bc8a 0b3e
000003a0: 5684 63bc ac09 05be 1a12 a9bd aead ffbc
000003b0: beca 0d3c 68b2 693d 8d31 f4bd 14e4 79bd
000003c0: 87de 7abd 94e5 58bd 1c5a afbd 7955 c83d
000003d0: a135 243d b89d 89bd b2bf 023e a723 1dbd
000003e0: c5ec 713b 4276 5d3d e4b2 583d 5587 80bb
000003f0: 2b8d 333e 5576 5cb9 0609 febd 2754 27bb

layer1.bias f4 [128]
-0.050815564 -0.008280625 0.07341317 -0.056976363 0.011465598 0.10616599 -0.03696608 -0.0143884355
0.007212949 -0.0016108255 0.050322022 0.06321145 -0.03631062 -0.027139438 -0.048483524 0.12287838
0.06199281 0.10063531 0.1035152 0.06217286 0.12866281 0.09937067 0.047076065 0.0620699
0.12293025 0.048340254 0.03290526 -0.05463583 -0.096942194 -0.120143354 0.038325474 -0.006239721
0.13748571 0.15888992 0.09701514 -0.05611672 0.07416867 0.04358429 -0.028558906 -0.0059362506
0.0063999193 0.17457463 0.06333557 0.030079499 -0.02027558 0.1058208 -0.07399758 -0.0805024
0.052394796 0.019655164 0.12563258 0.11128076 0.06883706 0.028413001 -0.10244303 0.07132404
0.16139707 0.08404667 0.086388245 -0.048524868 0.10155584 0.10262047 0.09151064 -0.058595758
-0.088553555 0.14070682 0.088515505 0.14655031 -0.029113585 0.08199845 0.09761535 -0.0995028
0.03641578 0.086554736 -0.06126214 0.0011064071 0.053846005 0.09348615 -0.010605916 0.050175924
-0.07232815 0.03407933 -0.084448226 -0.07144048 0.047815066 0.053068202 -0.053307436 -0.013946417
-0.083958015 -0.043709118 0.11051923 0.18457367 -0.06748235 -0.04361406 0.1285488 0.061178513
-0.034734078 -0.05577493 0.07745071 0.100422144 0.19195935 -0.012862562 0.10642939 -0.08303001
0.059032623 0.02986177 -0.044965617 0.06332008 0.07513631 -0.046840284 0.010695188 -0.061024383
-0.005967279 0.081090085 -0.04653908 0.18164746 -0.032387525 0.018741075 -0.062897496 0.1109688
0.08854601 0.054073974 0.13349073 0.09907234 0.066498056 0.03035023 0.15762265 0.09429067
00000000: fb23 50bd 75ab 07bc a559 963d 0c60 69bd
00000010: 34da 3b3c 8e6d d93d bf69 17bd 79bd 6bbc
00000020: 9a5a ec3b 5622 d3ba 771e 4e3d 0175 813d
00000030: 72ba 14bd 8753 debc a996 46bd a9a7 fb3d
00000040: 2cec 7d3d e319 ce3d c7ff d33d f8a8 7e3d
00000050: 2fc0 033e da82 cb3d d5d2 403d 023d 7e3d
00000060: dbc2 fb3d 6e00 463d aac7 063d d2c9 5fbd
00000070: a189 c6bd b80d f6bd 2cfb 1c3d 9376 ccbb
00000080: 0ec9 0c3e 0ab4 223e e0af c63d a5da 65bd
00000090: bee5 973d 7185 323d 5ef4 e9bc e184 c2bb
000000a0: 6ab6 d13b b1c3 323e 14b6 813d 4869 f63c
000000b0: f918 a6bc 93b8 d83d 0b8c 97bd 71de a4bd
000000c0: ed9b 563d de03 a13c d4a5 003e 2be7 e33d
000000d0: 72fa 8c3d 62c2 e83c a7cd d1bd 5712 923d
000000e0: 4645 253e a920 ac3d 52ec b03d 03c2 46bd
000000f0: 82fc cf3d ae2a d23d ee69 bb3d 1b02 70bd
00000100: 915b b5bd 7315 103e 9e47 b53d 4911 163e
00000110: 9d7f eebc ceee a73d 8eea c73d 20c8 cbbd
00000120: b728 153d 9c43 b13d 02ee 7abd dd04 913a
00000130: a18d 5c3d ab75 bf3d 70c4 2dbc 4585 4d3d
00000140: c820 94bd c496 0b3d 31f3 acbd 634f 92bd
00000150: bbd9 433d 0b5e 593d e658 5abd 837f 64bc
00000160: 2ef2 abbd 5508 33bd e857 e23d e100 3d3e
00000170: 3034 8abd a8a4 32bd 4ca2 033e 5296 7a3d
00000180: 5245 0ebd 4174 64bd 7a9e 9e3d 20aa cd3d
00000190: fe90 443e 7fbd 52bc a7f7 d93d a30b aabd
000001a0: 31cc 713d aca0 f43c de2d 38bd f5ad 813d
000001b0: 11e1 993d 99db 3fbd df3a 2f3c b4f4 79bd
000001c0: 2a89 c3bb 8f12 a63d c39f 3ebd cb01 3a3e
000001d0: c8a8 04bd e286 993c 67d0 80bd 9c43 e33d
000001e0: 9c57 b53d ac7c 5d3d cbb1 083e 70e6 ca3d
000001f0: 2230 883d 0ca1 f83c d567 213e 771b c13d

layer2.weight f4 [128, 128]
0.063342325 0.015761606 0.05040206 0.11123925 0.08430346 0.18393819 0.103125215 0.15120964
-0.076555625 -0.044271514 0.05029456 0.089545034 0.01611575 0.21136975 0.093631886 -0.025836106
0.02260168 -0.061271053 -0.00089986593 0.0015740643 0.05548184 -0.029961694 0.077998936 0.061753426
0.094980724 -0.09808404 -0.05241185 0.02468313 0.05744931 0.12315672 0.0856674 -0.04147739
0.037720222 0.15895453 0.10047987 0.087991945 0.07023508 -0.054188456 0.09285464 -0.007512478
0.08237095 0.11272728 0.03133315 0.025526268 -0.13434008 0.19316413 -0.035544433 -0.02913173
-0.058070555 0.11947191 0.089321606 0.008980581 0.022289105 0.0910601 0.09483976 0.011492437
0.089901775 0.17838193 0.33103466 -0.024873983 0.16813436 -0.034533672 0.06239464 0.043398056
0.036661666 -0.0028697355 0.07119002 0.16419512 0.04439297 -0.0119281635 0.06385933 -0.1084546
0.076373115 0.10704398 0.021671351 0.06800631 0.08927813 0.0024881356 0.16240779 0.1680569
0.13488112 0.11791528 -0.008993875 0.035908516 0.02894427 0.049645975 -0.026471647 0.02776862
0.12379207 -0.060451813 -0.08815407 0.21087296 0.038865224 0.057787567 0.07349934 0.035492513
0.17947958 -0.09020387 -0.056619465 0.12416058 0.1695735 -0.06438989 0.083907366 0.008216338
0.10250611 0.135851 -0.0101355035 -0.069242105 -0.004343367 -0.045685 0.0047629545 -0.052184902
0.023136228 0.064436436 0.078231774 0.14668518 -0.025103156 0.011165116 -0.0053271386 0.16987863
0.07485787 0.073531255 0.05200722 0.04085907 0.009066909 -0.019234773 0.06040844 0.052945424
-0.18115097 0.015174089 -0.08287487 0.031587854 -0.0148412585 -0.162822 -0.031644706 0.025015604
0.035413973 0.14218114 -0.030553712 -0.018464888 0.053891942 0.03442194 0.069515936 -0.006354592
0.005211917 0.11543115 -0.2162729 0.087562114 0.13512331 -0.10455488 0.07052027 0.072012246
0.06779157 -0.02231548 0.14746226 -0.07055521 -0.028059024 0.16152975 0.14843066 -0.07906272
-0.002397557 -0.032895233 0.021744726 -0.18473794 -0.0053312527 0.061675876 0.057767734 0.15063936
-0.14607032 0.053782634 -0.072335854 -0.24720939 0.026988188 0.08719157 -0.013543477 -0.019060502
0.13789003 -0.12165637 0.027432462 0.04346469 0.02661566 -0.15529443 0.031511758 -0.017119093
-0.06152726 -0.3337506 -0.015159648 0.06679272 -0.10197504 0.0019798551 0.098507516 -0.11133389
0.029639296 -0.03670999 -0.07442738 -0.16399679 -0.1497406 -0.16156515 -0.12954155 0.055320643
0.1359112 0.08669026 0.026437238 -0.05352857 -0.06739131 -0.12245031 -0.032008473 0.06204061
0.1044893 -0.029958166 0.034259856 0.02339289 -0.020274825 -0.05154368 0.0022370305 0.10877151
0.038175598 0.058731515 -0.0850373 -0.073679894 0.18774617 0.084356345 0.17418171 -0.018037114
0.051987667 0.08236272 0.06967096 -0.08619787 -0.312695 -0.09191817 -0.1030866 0.045812927
0.1853906 -0.07401288 0.09915656 -0.0262861 0.066973045 -0.0019588815 -0.034933437 0.029078886
-0.017167792 0.008503912 0.11993569 -0.03284854 -0.055361997 0.024803238 -0.039137457 -0.11464048
-0.008092347 0.007837859 0.09076069 -0.04873421 0.039332546 -0.05079173 0.001191263 -0.024884496
00000000: 9fb9 813d 7c1e 813c 6472 4e3d 67d1 e33d
00000010: 4ba7 ac3d 4b5a 3c3e 5033 d33d b3d6 1a3e
00000020: 32c9 9cbd 0c56 35bd ab01 4e3d 6363 b73d
00000030: 2d05 843c 5071 583e 13c2 bf3d 3ea6 d3bc
00000040: 2927 b93c 5bf7 7abd fbe4 6bba d550 ce3a
00000050: ed40 633d 3a72 f5bc e8bd 9f3d 29f1 7c3d
00000060: 4185 c23d 49e0 c8bd cfad 56bd 4734 ca3c
00000070: f84f 6b3d 9739 fc3d 6472 af3d 32e4 29bd
00000080: 8580 1a3d fac4 223e 64c8 cd3d 1f35 b43d
00000090: 69d7 8f3d b7f4 5dbd 932a be3d 3c2b f6bb
000000a0: 1ab2 a83d 8fdd e63d 3057 003d 771c d13c
000000b0: 7290 09be d1cc 453e 0a97 11bd aaa5 eebc
000000c0: 64db 6dbd b0ad f43d 3fee b63d 4923 133c
000000d0: a497 b63c b87d ba3d 593b c23d c64a 3c3c
000000e0: 6c1e b83d c1a9 363e 607d a93e 86c4 cbbc
000000f0: 6a2b 2c3e 2e73 0dbd 8691 7f3d 29c2 313d
00000100: 8b2a 163d 2c12 3cbb 13cc 913d c422 283e
00000110: 67d5 353d 586e 43bc aec8 823d 721d debd
00000120: 8269 9c3d e039 db3d 1e88 b13c e446 8b3d
00000130: 74d7 b63d fd0f 233b 3a4e 263e 1c17 2c3e
00000140: 471e 0a3e 917d f13d 0c5b 13bc cf14 133d
00000150: 891c ed3c 9459 4b3d 11db d8bc 047b e33c
00000160: b286 fd3d 529c 77bd 1f8a b4bd 15ef 573e
00000170: 2431 1f3d a8b2 6c3d d286 963d 9960 113d
00000180: 7fc9 373e cebc b8bd d0e9 67bd e747 fe3d
00000190: ada4 2d3e d9de 83bd a0d7 ab3d d29d 063c
000001a0: b9ee d13d 861c 0b3e 620f 26bc cece 8dbd
000001b0: ce52 8ebb 3220 3bbd 8f12 9c3b d6bf 55bd
000001c0: 3088 bd3c 40f7 833d fb37 a03d a434 163e
000001d0: 22a5 cdbc e4ed 363c 478f aebb aaf4 2d3e
000001e0: 154f 993d 8e97 963d 8605 553d d75b 273d
000001f0: 5f8d 143c 3e92 9dbc d76e 773d 4ddd 583d
00000200: a47f 39be be9c 783c 4dba a9bd 4462 013d
00000210: c028 73bc cfba 26be e19d 01bd 86ed cc3c
00000220: 3e0e 113d ef97 113e c74b fabc ad43 97bc
00000230: ccbd 5c3d 05fe 0c3d 5f5e 8e3d 2e3a d0bb
00000240: bbc8 aa3b 2b67 ec3d a576 5dbe c453 b33d
00000250: c45d 0a3e de20 d6bd ee6c 903d 287b 933d
00000260: 4fd6 8a3d f4ce b6bc 5900 173e 407f 90bd
00000270: 0adc e5bc 0e68 253e 35fe 173e a3eb a1bd
00000280: 5520 1dbb 27bd 06bd ff21 b23c f12b 3dbe
00000290: cab1 aebb d89f 7c3d dc9d 6c3d 3441 1a3e
000002a0: 7593 15be 2e4b 5c3d d224 94bd 7524 7dbe
000002b0: 5516 dd3c 7e91 b23d 76e5 5dbc c524 9cbc
000002c0: 0b33 0d3e fa26 f9bd 0bba e03c 0808 323d
000002d0: 1609 da3c 8105 1fbe 7912 013d 573d 8cbc
000002e0: 0204 7cbd 5ce1 aabe 2c60 78bc 9fca 883d
000002f0: 4ad8 d0bd 75c0 013b 4fbe c93d 0603 e4bd
00000300: 1cce f23c 375d 16bd 626d 98bd c6ee 27be
00000310: 9a55 19be 5671 25be 8aa6 04be e697 623d
00000320: 4e2c 0b3e aa8a b13d e892 d83c c640 5bbd
00000330: 7504 8abd 3ac7 fabd 511b 03bd 4b1e 7e3d
00000340: 7cfe d53d d46a f5bc 1054 0c3d 72a2 bf3c
00000350: 6417 a6bc 771f 53bd 259b 123b 99c3 de3d
00000360: 045e 1c3d 7590 703d 0928 aebd 7ce5 96bd
00000370: 8840 403e 05c3 ac3d b15c 323e 92c2 93bc
00000380: 05f1 543d c9ad a83d a6af 8e3d 8288 b0bd
00000390: 8f19 a0be 983f bcbd 111f d3bd 56a6 3b3d
000003a0: 09d7 3d3e 1194 97bd 9812 cb3d f255 d7bc
000003b0: 2a29 893d 9460 00bb 5d16 0fbd d836 ee3c
000003c0: 78a3 8cbc fe53 0b3c d8a0 f53d 318c 06bd
000003d0: 43c3 62bd 2930 cb3c 994e 20bd a1c8 eabd
000003e0: c395 04bc 5d6a 003c bee0 b93d 869d 47bd
000003f0: 2a1b 213d fd0a 50bd 2724 9c3a 92da cbbc

layer2.bias f4 [128]
0.005529112 -0.006668686 0.079426765 -0.032229654 0.11899393 0.10892977 0.0540086 0.00409846
-0.031827208 -0.028876252 9.303995e-05 0.05631552 -0.022665655 -0.025678573 -0.004407181 0.022930037
0.01254854 0.03781035 0.05522787 -0.004021769 0.10113044 0.071482725 -0.059893392 0.040140856
0.023774102 -0.067156635 0.046004985 -0.0051725027 0.02871425 0.04913122 -0.06763178 -0.097474605
0.05374395 -0.084676996 -0.023894917 0.038419645 0.08878755 0.03641748 0.059439648 -0.015480033
-0.046387512 0.07540527 0.018444499 0.028095612 -0.02252386 0.11560448 -0.018690422 0.023158329
0.02152627 -0.011402945 0.090515256 -0.019616442 -0.07360451 0.016671393 0.081719674 -0.01639289
0.0029388508 -0.045873594 0.08022533 0.072695926 -0.08279771 0.040995523 0.04320159 0.052482087
-0.016670391 0.09397578 0.097788915 -0.0017555128 -0.023667559 -0.079478405 0.053479582 0.057629224
-0.006052151 -0.03160953 -0.017206328 0.052897405 0.03203881 0.062545635 0.056496598 0.080166474
0.00209126 0.074089006 -0.01673393 0.035726685 0.024650397 0.017492374 0.05341673 -0.06439739
-0.05966986 0.009018525 -0.0031737264 0.09463647 0.078880936 0.109948024 0.022416336 0.07494078
-0.020760577 0.016285967 -0.055687528 -0.063448854 0.039520197 -0.06353368 0.06323883 -0.04109146
0.050255008 0.0383586 0.036782615 -0.03178883 0.09147635 0.050735712 0.019967973 -0.016379151
0.011706208 -0.04045268 -0.054325104 0.044446234 0.031116633 -0.005325712 -0.00808114 0.087923884
-0.019011516 0.045676403 0.010412305 0.021404605 0.08782203 -0.04600815 -0.057273727 -0.050319757
00000000: 8e2d b53b fe84 dabb 80aa a23d 3e03 04bd
00000010: 17b3 f33d 9216 df3d 1f38 5d3d 604c 863b
00000020: 3f5d 02bd e48d ecbc 711e c338 1aab 663d
00000030: 53ad b9bc df5b d2bc 1d6a 90bb c6d7 bb3c
00000040: 6498 4d3c 07df 1a3d 9e36 623d 0bc9 83bb
00000050: 7a1d cf3d 8965 923d c652 75bd bd6a 243d
00000060: e8c1 c23c 6b89 89bd b96f 3c3d 197e a9bb
00000070: 263a eb3c d13d 493d 8882 8abd c4a0 c7bd
00000080: 9e22 5c3d 226b adbd 46bf c3bc eb5d 1d3d
00000090: 3fd6 b53d 7f2a 153d fd76 733d f79f 7dbc
000000a0: d500 3ebd 146e 9a3d eb18 973c c528 e63c
000000b0: f583 b8bc 0bc2 ec3d a81c 99bc 89b6 bd3c
000000c0: dc57 b03c 6bd3 3abc 1060 b93d a9b2 a0bc
000000d0: f6bd 96bd 7292 883c a55c a73d 624a 86bc
000000e0: bc99 403b f3e5 3bbd 2e4d a43d 9ae1 943d
000000f0: d991 a9bd ecea 273d 27f4 303d 75f7 563d
00000100: 5890 88bc 6076 c03d 8e45 c83d 3c19 e6ba
00000110: 78e2 c1bc 93c5 a2bd 680d 5b3d 9f0c 6c3d
00000120: 1f51 c6bb ff78 01bd 49f4 8cbc f3aa 583d
00000130: 213b 033d ed17 803d fa68 673d 522e a43d
00000140: 850d 093b fabb 973d 9815 89bc 2556 123d
00000150: a1ef c93c 2b4c 8f3c 80cb 5a3d c7e2 83bd
00000160: 6268 74bd 6fc2 133c 4bfe 4fbb c4d0 c13d
00000170: 548c a13d 6e2c e13d 77a2 b73c 8d7a 993d
00000180: 1612 aabc 266a 853c 9b18 64bd 79f1 81bd
00000190: eedf 213d f21d 82bd 5c83 813d 854f 28bd
000001a0: 32d8 4d3d e81d 1d3d 5ea9 163d 0135 02bd
000001b0: f457 bb3d 40d0 4f3d e093 a33c 922d 86bc
000001c0: 65cb 3f3c b6b1 25bd 0084 5ebd 410d 363d
000001d0: 4fe8 fe3c 4f83 aebb c266 04bc 7011 b43d
000001e0: 0abe 9bbc 2e17 3b3d 5f98 2a3c b658 af3c
000001f0: 09dc b33d 0b73 3cbd db97 6abd 171c 4ebd

layer3.weight f4 [168, 128]
-0.017163645 0.033126213 -0.02595893 -0.1106486 -0.0411379 0.019136833 -0.033770915 -0.09333335
0.077242 0.041046128 -0.029221598 -0.04266347 0.018724034 -0.00030434053 0.004558977 -0.13149802
-0.056438312 7.2907926e-05 -0.06856373 -0.019651053 0.009331944 -0.023803307 -0.032661583 0.003786205
-0.1122564 -0.042661786 0.03636438 -0.06373276 -0.016650653 -0.104389936 0.05850891 -0.029871812
-0.09404416 -0.030646157 0.008284135 -0.06385683 -0.013264608 -0.0028998822 0.017991232 -0.011230296
-0.065748945 -0.0889221 -0.08881023 0.0014772064 0.04736846 0.036920194 -0.010901287 0.018354168
-0.078736134 0.03579132 -0.039684135 0.020976886 -0.04121241 -0.049587972 0.015992211 -0.014632644
-0.020609647 -0.047813974 0.016580356 -0.021136329 -0.016905181 0.010976619 -0.11094499 -0.012714583
-0.11142339 0.018887928 0.033534303 0.014852117 -0.08480862 -0.06367237 -0.038617086 -0.10995346
-0.005621334 -0.041458696 -0.0070037525 0.0325566 0.016934656 0.049127866 -0.09608657 -0.010478414
-0.07232554 -0.020837102 -0.03196528 -0.039028525 -0.10435182 0.032834638 0.08936502 -0.028973497
-0.055218987 0.009257299 -0.04623169 -0.0038916823 -0.022152517 -0.027143361 0.016912797 -0.051271215
-0.06737897 0.0005945126 -0.14300749 0.05386093 0.015398449 0.026278771 -0.052038237 0.03806695
-0.01018687 -0.031244103 -0.046884928 -0.01665562 -0.02178315 -0.016719984 0.06775036 -0.090306334
0.008012366 -0.10532831 0.022285921 -0.023495847 -0.10359146 0.013449977 0.024615757 -0.060841728
-0.013069194 -0.006628219 -0.035934746 0.034736525 -0.0531085 -0.014653708 -0.07715493 -0.07538616
-0.05654707 -0.10093567 -0.024170157 0.016336307 -0.09154378 -0.009059384 0.0471837 -0.08118719
0.031019622 0.040278804 -0.09467651 -0.046191752 0.024886042 -0.12831652 0.01026629 -0.04816153
-0.00051824446 -0.09873686 -0.0335542 -0.077261925 -0.031790834 -0.051082052 0.01549596 -0.023053443
-0.12402164 -0.118122354 -0.06259762 -0.009343353 -0.052218042 0.020637345 -0.029486915 0.051863328
-0.0061625424 -0.111212015 -0.10869534 -0.00093324966 -0.13599744 -0.07177614 -0.011712034 -0.09771333
-0.115118414 -0.030601565 -0.050879166 0.016587693 -0.04027395 0.006562638 -0.036900487 -0.029245663
0.009520211 0.015764825 -0.06368863 0.01240875 -0.052835986 -0.025625672 -0.102268055 -0.116257444
0.020647563 -0.06740267 0.034455996 0.021855665 -0.040725872 -0.059966367 -0.09888235 -0.11091336
-0.12471743 -0.010289836 0.048272356 -0.02345653 0.0031972355 -0.08421938 -0.05004701 -0.05479598
-0.1026237 -0.10124582 -0.007501175 -0.027675934 -0.041958027 -0.043732256 0.03713864 -0.09828994
-0.028461225 -0.022097189 -0.093596995 -0.057472184 -0.09528959 -0.05425512 -0.053593628 -0.103844106
0.003965847 -0.079913035 0.00044805958 0.02609821 -0.012803398 -0.051339306 -0.088892534 -0.07756593
-0.038138773 -0.020670349 -0.023358023 -0.056988686 0.0420419 -0.021293543 -0.04812654 -0.098048836
0.048101008 -0.066551276 -0.07681794 -0.05062051 0.0013836969 -0.08220848 -0.09657671 0.0364162
0.03567479 -0.0032559433 -0.11828866 0.009925792 0.027652018 -0.10833267 -0.019312153 -0.062226463
0.0188666 0.013306018 -0.06180665 -0.053048298 -0.062576815 -0.060252644 -0.0757797 -0.069929734
00000000: c69a 8cbc 5aaf 073d d2a7 d4bc bc9b e2bd
00000010: 3780 28bd d9c4 9c3c 5f53 0abd 8e25 bfbd
00000020: 0e31 9e3d fc1f 283d 2262 efbc e4bf 2ebd
00000030: 2563 993c e58f 9fb9 7963 953b 6ba7 06be
00000040: dc2b 67bd 25e6 9838 246b 8cbd 3ffb a0bc
00000050: 03e5 183c 27ff c2bc 27c8 05bd fb21 783b
00000060: afe6 e5bd 20be 2ebd d1f2 143d 5286 82bd
00000070: f366 88bc 64ca d5bd 0aa7 6f3d bbb5 f4bc
00000080: 399a c0bd a60d fbbc 2eba 073c 5fc7 82bd
00000090: cc53 59bc f30b 3ebb 5962 933c 47ff 37bc
000000a0: 62a7 86bd ca1c b6bd 23e2 b5bd d29e c13a
000000b0: 6e05 423d a139 173d 509b 32bc 7b5b 963c
000000c0: 6940 a1bd eb99 123d d58b 22bd b8d7 ab3c
000000d0: 58ce 28bd c21c 4bbd 1902 833c c2bd 6fbc
000000e0: 90d5 a8bc 96d8 43bd 87d3 873c 1826 adbc
000000f0: bc7c 8abc 47d7 333c 2037 e3bd d450 50bc
00000100: f231 e4bd dbba 9a3c 445b 093d 4b56 733c
00000110: 24b0 adbd a966 82bd f32c 1ebd 482f e1bd
00000120: 2b33 b8bb 98d0 29bd bc7f e5bb 125a 053d
00000130: 8cba 8a3c 4d3a 493d 09c9 c4bd a7ad 2bbc
00000140: 6a1f 94bd 92b2 aabc 07ee 02bd 60dc 1fbd
00000150: 68b6 d5bd 9d7d 063d 0205 b73d d459 edbc
00000160: 4e2d 62bd edab 173c 715d 3dbd 980b 7fbb
00000170: 3279 b5bc c15b debc b58c 8a3c c401 52bd
00000180: fcfd 89bd 11d9 1b3a 8e70 12be 479d 5c3d
00000190: c749 7c3c 9446 d73c 0c26 55bd 17ec 1b3d
000001a0: d4e6 26bc a2f3 ffbc 690a 40bd 5e71 88bc
000001b0: 9472 b2bc 59f8 88bc b3c0 8a3d 87f2 b8bd
000001c0: 4c46 033c 5eb6 d7bd f790 b63c 5d7a c0bc
000001d0: c227 d4bd 4b5d 5c3c fca6 c93c 2d35 79bd
000001e0: 2c20 56bc 8831 d9bb 5030 13bd e347 0e3d
000001f0: 4c88 59bd 1b16 70bc 6703 9ebd 0f64 9abd
00000200: e79d 67bd 5cb7 cebd 7e00 c6bc b8d3 853c
00000210: 4e7b bbbd d06d 14bc b243 413d 7845 a6bd
00000220: dd1c fe3c 63fb 243d c2e5 c1bd 9033 3dbd
00000230: d0dd cb3c 6865 03be f133 283c 0645 45bd
00000240: ccda 07ba 8d36 cabd 2170 09bd 803b 9ebd
00000250: 1b37 02bd 6a3b 51bd c4e2 7d3c 93da bcbc
00000260: 0fff fdbd 22ea f1bd 2e33 80bd dd14 19bc
00000270: 96e2 55bd a60f a93c 8b8e f1bc a46e 543d
00000280: 27ef c9bb 20c3 e3bd aa9b debd 53a5 74ba
00000290: ea42 0bbe 5eff 92bd d5e3 3fbc ed1d c8bd
000002a0: 34c3 ebbd 22b0 fabc ac66 50bd eae2 873c
000002b0: 4cf6 24bd 660b d73b f724 17bd 9a94 efbc
000002c0: a9fa 1b3c 3c25 813c 2f6f 82bd 124e 4b3c
000002d0: 8c6a 58bd eeec d1bc ea71 d1bd 6218 eebd
000002e0: 1425 a93c 690a 8abd bb21 0d3d a70a b33c
000002f0: 2cd0 26bd 4b9f 75bd d482 cabd 8b26 e3bd
00000300: da6b ffbd b396 28bc 3cb9 453d e927 c0bc
00000310: b688 513b 367b acbd 18fe 4cbd c071 60bd
00000320: 602c d2bd f859 cfbd 6bcc f5bb a4b8 e2bc
00000330: 2edc 2bbd 9820 33bd b01e 183d 3c4c c9bd
00000340: 8427 e9bc 2a05 b5bc c8af bfbd f467 6bbd
00000350: 3027 c3bd 9e3a 5ebd fe84 5bbd 38ac d4bd
00000360: f0f3 813b 72a9 a3bd 8ae9 ea39 eacb d53c
00000370: 58c5 51bc 2a49 52bd 4a0d b6bd e3da 9ebd
00000380: 6737 1cbd dd54 a9bc 5359 bfbc f86c 69bd
00000390: 2134 2c3d cc6f aebc 5620 45bd d4cd c8bd
000003a0: 9005 453d 094c 88bd b952 9dbd 7457 4fbd
000003b0: 2a5d b53a eb5c a8bd 03ca c5bd 2729 153d
000003c0: bb1f 123d aa61 55bb 5341 f2bd ca9f 223c
000003d0: 7c86 e23c 85dd ddbd 8534 9ebc 2de1 7ebd
000003e0: 218e 9a3c 7c01 5a3c f828 7dbd 2c49 59bd
000003f0: 4628 80bd 7acb 76bd 6332 9bbd 5237 8fbd

layer3.bias f4 [168]
-0.10250279 0.050012253 -0.0053642383 -0.079906076 -0.055928547 -0.037503976 0.03849003 -0.05514136
-0.0058580567 0.071299784 0.017233882 -0.06919384 0.040976897 0.07214861 -0.03341626 0.050963353
0.036104232 -0.08396818 0.0057566282 0.033487916 -0.05942543 0.04839782 -0.00327247 -0.024707835
-0.035165504 -0.05904825 -0.051430415 -0.012506776 -0.0960125 0.041802164 0.028985897 -0.074404866
0.03707123 -0.01654917 -0.03635595 -0.014231303 0.037175924 -0.012986958 -0.051749878 0.013338689
0.033397485 0.014365785 0.0061431103 -0.026472945 -0.05997081 -0.11793933 0.016749736 -0.008369135
0.029327117 0.005258956 -0.07402659 0.04695655 0.034232005 -0.04274961 0.022811746 -0.075877294
-0.0571541 0.006612362 -0.027574051 0.07161296 0.013688191 -0.06765937 -0.034004606 0.026332812
0.017741693 0.006361456 -0.04436752 -0.020994285 -0.039561506 -0.074731715 -0.0042335303 -0.009107592
0.06819831 -0.0365315 0.09339584 0.04718079 -0.068397805 0.014056625 -0.03890004 -0.0010112189
0.021551142 -0.06360406 -0.018684432 -0.053188924 -0.009980646 0.030160058 0.02023941 0.03334492
0.01411768 -0.03928955 -0.0068830675 -0.029710721 -0.030179683 0.05295285 -0.0077859713 0.026407793
0.007932933 0.03706434 -0.02335911 -0.103248306 -0.07733739 -0.033228245 -0.040354006 -0.03271712
-0.11635074 0.055857174 0.0039066956 -0.036342558 0.04830087 -0.031357024 0.009432382 -0.0018301276
-0.11099734 0.0031679717 -0.038287975 -0.035530105 -0.072396405 -0.02425796 -0.026982756 -0.0928174
-0.010736316 0.04382342 -0.018222658 -0.041587576 0.026427839 0.04014781 0.04506397 -0.01611832
0.07514963 -0.057848267 -0.06844386 -0.064387225 0.020835498 0.024972547 -0.0376081 0.06887788
0.018633936 0.02459283 -0.08251329 -0.058991678 0.08088408 0.055645913 0.05670407 -0.039774887
-0.013551227 0.026884675 0.00035539828 0.022000361 0.016956147 -0.025110334 0.05284861 -0.07750035
0.010736977 0.010053537 0.037975114 -0.0759466 -0.02143359 -0.0018650986 -0.0634807 0.09842509
-0.0007586556 0.017428543 0.029843474 0.009920041 0.023353776 -0.016799748 -0.025530044 -0.058965635
00000000: fcec d1bd a6d9 4c3d 7ec6 afbb cca5 a3bd
00000010: 5515 65bd c59d 19bd b9a7 1d3d e8db 61bd
00000020: f1f4 bfbb 9f05 923d 122e 8d3c 80b5 8dbd
00000030: 64d7 273d a7c2 933d 7ddf 08bd f3be 503d
00000040: 08e2 133d 82f7 abbd 19a2 bc3b a02a 093d
00000050: 1468 73bd cb3c 463d f076 56bb 1668 cabc
00000060: b409 10bd 94dc 71bd b3a8 52bd 38e9 4cbc
00000070: 34a2 c4bd bf38 2b3d d573 ed3c 9461 98bd
00000080: 01d8 173d 2092 87bc fae9 14bd 692a 69bc
00000090: c845 183d 40c7 54bc aef7 53bd 848a 5a3c
000000a0: cdcb 083d 785e 6b3c 254c c93b cadd d8bc
000000b0: f4a3 75bd 2d8a f1bd be36 893c b21e 09bc
000000c0: 6c3f f03c 5253 ac3b 419b 97bd 8355 403d
000000d0: dc36 0c3d 371a 2fbd b3df ba3c 8e65 9bbd
000000e0: 6b1a 6abd 83ac d83b fae2 e1bc d1a9 923d
000000f0: 6f44 603c ff90 8abd 6a48 0bbd e9b7 d73c
00000100: 0757 913c c373 d03b b7ba 35bd 35fc abbc
00000110: 3f0b 22bd f10c 99bd 6db9 8abb 0238 15bc
00000120: 8eab 8b3d 0ea2 15bd 5146 bf3d a540 413d
00000130: 2614 8cbd c24d 663c a655 1fbd e08a 84ba
00000140: 058c b03c d842 82bd 1810 99bc a1dc 59bd
00000150: dd85 23bc 3a12 f73c 1fcd a53c af94 083d
00000160: d74d 673c 14ee 20bd 5b8b e1bb e663 f3bc
00000170: 623b f7bc 16e5 583d 7621 ffbb 2855 d83c
00000180: 22f9 013c c7d0 173d 9b5b bfbc d973 d3bd
00000190: 1163 9ebd 571a 08bd 3e4a 25bd 6302 06bd
000001a0: 4c49 eebd 7eca 643d bd03 803b efdb 14bd
000001b0: 22d7 453d 3970 00bd 478a 1a3c e4e0 efba
000001c0: 9352 e3bd bf9d 4f3b dad3 1cbd 0488 11bd
000001d0: 9144 94bd a1b8 c6bc f10a ddbc 0d17 bebd
000001e0: 60e7 2fbc 3080 333d af47 95bc bc57 2abd
000001f0: 327f d83c 0872 243d ff94 383d 910a 84bc
00000200: 0de8 993d 4ef2 6cbd 4b2c 8cbd 73dd 83bd
00000210: 35af aa3c 3a93 cc3c f30a 1abd d90f 8d3d
00000220: 32a6 983c e776 c93c bafc a8bd 42a1 71bd
00000230: 8da6 a53d f8ec 633d 8742 683d feea 22bd
00000240: f705 5ebc 403d dc3c c054 ba39 1a3a b43c
00000250: 9ee7 8a3c 30b4 cdbc c977 583d 81b8 9ebd
00000260: 25ea 2f3c 97b7 243c cb8b 1b3d e489 9bbd
00000270: 7f95 afbc 5376 f4ba 2b02 82bd 1893 c93d
00000280: 84e0 46ba 4ec6 8e3c 4d7a f43c ab87 223c
00000290: 6b50 bf3c a09f 89bc 6224 d1bc f385 71bd
