models/47/guerrilla_model_weights.pth (torch, 198120 bytes, 6 tensors)

layer1.weight f4 [128, 82]
22.017303 22.020966 22.117401 21.82981 5.644432 22.092186 22.09539 21.965462
21.216864 21.93052 21.818787 6.708914 1.7981371 11.400998 22.005478 22.136398
3.6860237 7.285626 22.146126 22.017303 2.6251938 10.755944 3.206744 22.127281
-0.012047922 5.589161 5.485601 -0.022868795 -0.025141321 1.6221843 5.4856715 0.042286016
0.049648218 22.086311 22.05938 22.017265 21.979156 22.081543 22.051178 17.25036
21.992851 22.006165 21.977364 22.01265 22.019896 21.97599 22.00399 21.988157
22.02768 22.07399 22.029129 22.068 22.002426 21.985947 22.074255 22.075897
21.859259 22.126175 22.14502 21.932083 21.970877 22.004105 22.052132 22.016617
21.99907 22.011618 21.986631 21.955961 21.958332 21.936468 21.99667 21.579388
21.44267 22.021345 22.022985 21.235632 21.424398 22.004253 21.764702 21.840302
21.923689 14.647107 22.04206 22.111526 22.084976 21.742493 5.6404357 22.096954
22.021652 21.917587 21.370071 21.924263 21.902975 6.745526 1.8250521 11.395298
22.070633 22.019478 3.6754246 7.176059 21.958061 21.941544 2.6918201 10.878831
3.1099372 21.947075 0.010076304 5.6065645 5.5537033 0.035560194 0.029294219 1.646792
5.4520683 0.035038877 -0.080147624 22.115646 22.001282 21.99636 21.988579 22.06636
21.99121 17.203249 22.131897 22.05236 21.992622 22.070786 22.00311 22.01799
22.107635 22.021269 22.108284 21.972519 22.12114 22.126328 21.984268 22.034088
21.96809 21.972748 21.826185 22.009445 21.955086 22.063347 21.99594 22.072235
22.02501 22.042366 22.057625 22.01425 21.996206 22.030844 21.865324 21.853346
22.013441 21.490107 21.531034 21.925291 21.92346 21.191267 21.533155 21.89454
21.916397 21.771132 22.009787 14.580867 22.115685 21.998001 22.104813 21.812223
5.719701 22.105156 22.149902 21.973587 21.252983 22.019783 21.8432 6.7153244
1.7762456 11.314763 22.086731 22.073761 3.7075593 7.276689 22.08818 22.0849
2.7495959 10.885963 3.1502392 22.11 -0.013932284 5.6260586 5.617011 -0.011851777
0.085545264 1.6187499 5.3350105 0.026897836 0.0668956 22.09356 22.072464 22.047783
22.065636 22.059036 22.012115 17.31538 22.00254 22.01799 22.014252 22.091423
21.95394 22.034927 22.015358 22.020277 22.030045 22.125946 22.052895 21.993347
22.02333 22.012535 22.018255 22.01738 21.841825 22.041489 22.068 21.965118
22.007536 22.010475 21.99533 22.082039 22.06201 21.920792 22.03008 22.012114
22.02552 21.965612 22.034006 21.558147 21.534002 22.076086 21.988615 21.288122
21.583303 21.899342 21.88634 21.860275 21.922163 14.498224 22.0738 22.152802
22.0812 21.750198 5.657613 22.152992 22.115036 21.985832 21.313753 22.022148
00000000: 7023 b041 f02a b041 70f0 b041 73a3 ae41
00000010: 309f b440 ccbc b041 5cc3 b041 44b9 af41
00000020: 23bc a941 b471 af41 e08c ae41 6caf d640
00000030: 5b29 e63f 7d6a 3641 380b b041 5817 b141
00000040: d0e7 6b40 d923 e940 442b b141 7023 b041
00000050: 2d03 2840 5918 2c41 4b3b 4d40 ac04 b141
00000060: a664 45bc 68da b240 0b8a af40 5757 bbbc
00000070: 2cf5 cdbc bca3 cf3f 9f8a af40 1a34 2d3d
00000080: ee5b 4b3d c4b0 b041 9c79 b041 5c23 b041
00000090: 50d5 af41 00a7 b041 d068 b041 bd00 8a41
000000a0: 5cf1 af41 a00c b041 a4d1 af41 e819 b041
000000b0: bf28 b041 d4ce af41 2c08 b041 bfe7 af41
000000c0: b038 b041 8897 b041 a83b b041 448b b041
000000d0: f804 b041 38e3 af41 1398 b041 709b b041
000000e0: c3df ae41 6802 b141 0029 b141 e874 af41
000000f0: 5bc4 af41 6808 b041 c46a b041 0822 b041
00000100: 18fe af41 cb17 b041 9fe4 af41 cfa5 af41
00000110: aaaa af41 e37d af41 2ef9 af41 96a2 ac41
00000120: 978a ab41 b72b b041 132f b041 93e2 a941
00000130: 2b65 ab41 b608 b041 1c1e ae41 f0b8 ae41
00000140: b763 af41 8d5a 6a41 2456 b041 68e4 b041
00000150: 08ae b041 a0f0 ad41 737e b440 90c6 b041
00000160: 582c b041 3857 af41 e8f5 aa41 e464 af41
00000170: 4b39 af41 59db d740 4f9b e93f 2453 3641
00000180: a890 b041 e427 b041 283a 6b40 46a2 e540
00000190: 1caa af41 4888 af41 c846 2c40 b10f 2e41
000001a0: 3609 4740 9c93 af41 1517 253c fa68 b340
000001b0: f0b7 b140 91a7 113d 6efa ef3c 15ca d23f
000001c0: 5877 ae40 ed84 0f3d 7024 a4bd d8ec b041
000001d0: a002 b041 8cf8 af41 9ce8 af41 e887 b041
000001e0: 00ee af41 41a0 8941 200e b141 3c6b b041
000001f0: e4f0 af41 f890 b041 5f06 b041 d824 b041
00000200: 70dc b041 8f2b b041 c4dd b041 b8c7 af41
00000210: 18f8 b041 b802 b141 c8df af41 d045 b041
00000220: a6be af41 30c8 af41 079c ae41 5813 b041
00000230: 04a4 af41 bc81 b041 aff7 af41 f093 b041
00000240: 3833 b041 c456 b041 0476 b041 2f1d b041
00000250: 3bf8 af41 2b3f b041 2fec ae41 a7d3 ae41
00000260: 871b b041 bdeb ab41 8f3f ac41 ff66 af41
00000270: 3f63 af41 b787 a941 e743 ac41 0528 af41
00000280: c854 af41 472b ae41 0b14 b041 3b4b 6941
00000290: ecec b041 e8fb af41 a8d6 b041 6f7f ae41
000002a0: ca07 b740 5cd7 b041 0033 b141 e8c9 af41
000002b0: 1c06 aa41 8428 b041 e0be ae41 f0e3 d640
000002c0: 045c e33f 4509 3541 a0b1 b041 1097 b041
000002d0: a748 6d40 a3da e840 98b4 b041 e0ad b041
000002e0: 61f9 2f40 e82c 2e41 859d 4940 48e1 b041
000002f0: 3c44 64bc ac08 b440 8ebe b340 f52d 42bc
00000300: 5b32 af3d 3233 cf3f 68b8 aa40 da58 dc3c
00000310: 8f00 893d 9cbf b041 6894 b041 dc61 b041
00000320: 6c86 b041 e878 b041 d018 b041 e685 8a41
00000330: 3405 b041 d824 b041 301d b041 3cbb b041
00000340: aba1 af41 8847 b041 741f b041 8729 b041
00000350: 883d b041 f001 b141 546c b041 60f2 af41
00000360: c82f b041 ac19 b041 6325 b041 9823 b041
00000370: 0fbc ae41 f854 b041 448b b041 90b8 af41
00000380: 6f0f b041 7415 b041 70f6 af41 04a8 b041
00000390: ff7e b041 c85d af41 9b3d b041 cf18 b041
000003a0: 4434 b041 93b9 af41 a545 b041 1677 ac41
000003b0: a345 ac41 d39b b041 afe8 af41 134e aa41
000003c0: 9baa ac41 da31 af41 3917 af41 d8e1 ae41
000003d0: 9760 af41 baf8 6741 2497 b041 f038 b141
000003e0: 4ca6 b041 6800 ae41 2a0b b540 5439 b141
000003f0: 98eb b041 fce2 af41 9182 aa41 5c2d b041

layer1.bias f4 [128]
22.018028 22.007462 22.095161 21.954742 22.018639 22.020279 22.0075 22.071053
22.124763 22.061554 22.05629 22.106949 22.103783 22.006584 22.010056 21.949936
22.102371 22.030655 22.081696 22.049118 22.042747 21.97145 22.0252 22.131287
22.03115 21.982437 22.102219 22.078377 21.97454 22.002045 22.027298 21.985489
22.113281 22.118317 22.061249 22.015587 22.045532 22.003418 22.00315 22.01204
22.01345 21.99228 22.076393 22.021385 21.977669 21.99472 22.047668 22.115685
22.07811 22.073875 22.09375 22.05442 21.99842 22.087227 22.062622 22.001205
22.035576 22.094742 22.027985 22.02417 22.025047 22.057472 22.106644 22.026688
21.983238 22.113358 22.038322 22.059036 22.053505 22.00174 22.068 22.124573
22.069641 22.100578 22.114578 22.027145 22.078262 22.059914 22.076088 21.96096
22.112823 21.98198 21.997467 21.986748 22.023483 22.10981 21.987282 22.124802
22.130943 22.030731 22.097717 22.087837 22.123047 22.074066 21.987854 21.97599
22.04641 21.965767 22.03611 21.977287 22.054268 21.958252 21.98793 22.035957
22.053009 22.00605 21.98835 22.068764 21.999603 22.027718 22.013641 22.059113
21.979233 22.040726 22.049957 22.032791 21.969238 22.106873 22.053696 21.989418
22.005554 22.098862 22.076355 22.050072 22.006622 22.079216 22.026955 21.963364
00000000: ec24 b041 480f b041 e4c2 b041 50a3 af41
00000010: 2c26 b041 8829 b041 5c0f b041 8491 b041
00000020: 84ff b041 107e b041 4873 b041 08db b041
00000030: 8cd4 b041 7c0d b041 9814 b041 7899 af41
00000040: a8d1 b041 c83e b041 50a7 b041 9864 b041
00000050: 8c57 b041 88c5 af41 9c33 b041 e00c b141
00000060: cc3f b041 08dc af41 58d1 b041 84a0 b041
00000070: dccb af41 3004 b041 e837 b041 48e2 af41
00000080: 00e8 b041 50f2 b041 707d b041 ec1f b041
00000090: 405d b041 0007 b041 7406 b041 a818 b041
000000a0: 8c1b b041 30f0 af41 749c b041 cc2b b041
000000b0: 44d2 af41 30f5 af41 a061 b041 ecec b041
000000c0: f89f b041 4c97 b041 00c0 b041 746f b041
000000d0: c4fc af41 a4b2 b041 4080 b041 7802 b041
000000e0: dc48 b041 08c2 b041 5039 b041 8031 b041
000000f0: 4c33 b041 b475 b041 68da b041 a836 b041
00000100: acdd af41 28e8 b041 7c4e b041 e878 b041
00000110: 946d b041 9003 b041 448b b041 20ff b041
00000120: a08e b041 fccd b041 a8ea b041 9837 b041
00000130: 48a0 b041 b47a b041 d49b b041 0cb0 af41
00000140: 10e7 b041 18db af41 d0fa af41 dce4 af41
00000150: 1830 b041 e4e0 b041 f4e5 af41 98ff b041
00000160: 2c0c b141 f03e b041 20c8 b041 e4b3 b041
00000170: 00fc b041 b097 b041 20e7 af41 d4ce af41
00000180: 0c5f b041 e4b9 af41 f449 b041 7cd1 af41
00000190: 246f b041 80aa af41 48e7 af41 a449 b041
000001a0: 906c b041 640c b041 24e8 af41 d48c b041
000001b0: 30ff af41 c438 b041 f01b b041 1079 b041
000001c0: 78d5 af41 6853 b041 5066 b041 2843 b041
000001d0: 00c1 af41 e0da b041 f86d b041 54ea af41
000001e0: 600b b041 78ca b041 609c b041 8c66 b041
000001f0: 900d b041 3ca2 b041 3437 b041 f8b4 af41

layer2.weight f4 [128, 128]
22.116638 22.060486 22.072311 22.113281 22.026497 22.049118 22.013489 22.144485
22.05095 22.112823 22.008873 22.101646 22.072426 22.119347 22.04992 22.080093
22.125526 22.05774 22.048698 22.065369 22.087074 22.07296 22.048088 22.041298
22.040916 22.081123 22.069641 22.139603 22.027946 22.083488 22.073608 22.103973
22.133423 22.0392 22.108818 22.09539 22.156693 22.11084 22.086578 22.140442
22.128426 22.083717 22.071472 22.087532 22.088295 22.168633 22.073189 22.095734
22.063156 22.082878 22.090317 22.013527 22.066093 22.025467 22.119385 22.077042
22.117706 22.112785 22.06472 22.02642 22.019592 22.155396 22.082764 22.134567
22.003723 22.158905 22.1483 22.124153 22.035957 22.146088 22.02684 22.045914
22.102333 22.109314 22.127205 22.028824 22.090927 22.059113 22.093826 22.060104
22.065712 22.14376 22.118813 22.157951 22.155128 22.143799 22.082993 22.097298
22.152763 22.081505 22.044579 22.104431 22.065254 22.138535 22.016808 22.031837
22.048355 22.1335 22.113968 22.0606 22.055527 22.13182 22.150055 22.052399
22.15551 22.038055 22.07048 22.076775 22.094131 22.09871 22.092567 22.035194
22.148834 22.117592 22.092987 22.030197 22.137924 22.144829 22.111908 22.155014
22.096077 22.02871 22.165161 22.0672 22.100693 22.070862 22.02436 22.118202
22.09085 22.053467 22.10962 22.097374 22.176949 22.10569 22.090965 22.136093
22.096306 22.120682 22.098862 22.188889 22.06289 22.112633 22.176605 22.040497
22.134682 22.165047 22.159477 22.193275 22.12465 22.140442 22.172104 22.098404
22.06762 22.13472 22.084404 22.11599 22.139069 22.154747 22.104393 22.132812
22.08181 22.147537 22.059685 22.111298 22.15696 22.105537 22.163826 22.049385
22.107445 22.115913 22.125107 22.143532 22.118927 22.076508 22.072731 22.060486
22.113396 22.177597 22.15078 22.107483 22.06327 22.12358 22.081161 22.17855
22.098137 22.164589 22.140327 22.111794 22.05072 22.12667 22.172333 22.087189
22.113243 22.17012 22.136932 22.053505 22.079369 22.132736 22.150742 22.174583
22.10733 22.09829 22.096268 22.170464 22.099014 22.100578 22.073952 22.083717
22.170197 22.147118 22.068573 22.114807 22.083717 22.089935 22.079597 22.142845
22.17649 22.157303 22.070862 22.154747 22.150322 22.161995 22.15818 22.073265
22.15902 22.126862 22.13575 22.099014 22.088028 22.133118 22.113472 22.181717
22.105576 22.109276 22.119614 22.14769 22.109848 22.183434 22.142654 22.147346
22.138649 22.094627 22.073532 22.180954 22.142616 22.177864 22.137886 22.07277
22.067238 22.097603 22.1092 22.121368 22.062508 22.121635 22.182175 22.11164
00000000: e0ee b041 e07b b041 1894 b041 00e8 b041
00000010: 4436 b041 9864 b041 a01b b041 e827 b141
00000020: 5868 b041 10e7 b041 2c12 b041 2cd0 b041
00000030: 5494 b041 6cf4 b041 3c66 b041 08a4 b041
00000040: 1401 b141 4076 b041 bc63 b041 e085 b041
00000050: 54b2 b041 6c95 b041 7c62 b041 9454 b041
00000060: cc53 b041 24a6 b041 a08e b041 e81d b141
00000070: 3c39 b041 fcaa b041 c096 b041 f0d4 b041
00000080: 4011 b141 4850 b041 dcde b041 5cc3 b041
00000090: e840 b141 00e3 b041 50b1 b041 a01f b141
000000a0: 0407 b141 74ab b041 6092 b041 44b3 b041
000000b0: d4b4 b041 5c59 b141 e495 b041 10c4 b041
000000c0: 5881 b041 bca9 b041 f8b8 b041 b41b b041
000000d0: 5c87 b041 2834 b041 80f4 b041 c89d b041
000000e0: 10f1 b041 fce6 b041 8c84 b041 1c36 b041
000000f0: 2028 b041 403e b141 80a9 b041 9813 b141
00000100: a007 b041 7045 b141 b82f b141 44fe b041
00000110: a449 b041 302b b141 f836 b041 085e b041
00000120: 94d1 b041 e0df b041 8404 b141 083b b041
00000130: 38ba b041 1079 b041 28c0 b041 187b b041
00000140: 9486 b041 6c26 b141 54f3 b041 7c43 b141
00000150: b43d b141 8026 b141 f8a9 b041 44c7 b041
00000160: dc38 b141 eca6 b041 4c5b b041 e0d5 b041
00000170: a485 b041 b81b b141 6c22 b041 3441 b041
00000180: 0863 b041 6811 b141 68e9 b041 1c7c b041
00000190: b871 b041 f80d b141 5033 b141 506b b041
000001a0: 7c3e b141 f04d b041 5890 b041 3c9d b041
000001b0: c8c0 b041 28ca b041 94bd b041 1448 b041
000001c0: d030 b141 d4f0 b041 70be b041 d83d b041
000001d0: 781a b141 9c28 b141 30e5 b041 783d b141
000001e0: c4c4 b041 cc3a b041 4052 b141 a089 b041
000001f0: 38ce b041 2091 b041 e431 b041 14f2 b041
00000200: 10ba b041 806d b041 80e0 b041 6cc7 b041
00000210: 646a b141 74d8 b041 4cba b041 b816 b141
00000220: 3cc5 b041 28f7 b041 78ca b041 d882 b141
00000230: cc80 b041 ace6 b041 b069 b141 f052 b041
00000240: d413 b141 0452 b141 9c46 b141 d48b b141
00000250: 48ff b041 a01f b141 7860 b141 88c9 b041
00000260: 7c8a b041 e813 b141 dcac b041 8ced b041
00000270: d01c b141 ec3c b141 ccd5 b041 0010 b141
00000280: 8ca7 b041 282e b141 3c7a b041 f0e3 b041
00000290: 7441 b141 24d8 b041 844f b141 2465 b041
000002a0: 0cdc b041 64ed b041 3800 b141 f425 b141
000002b0: 90f3 b041 b09c b041 f494 b041 e07b b041
000002c0: 3ce8 b041 b86b b141 cc34 b141 20dc b041
000002d0: 9481 b041 18fd b041 38a6 b041 ac6d b141
000002e0: fcc8 b041 1451 b141 641f b141 f4e4 b041
000002f0: e067 b041 6c03 b141 f060 b141 90b2 b041
00000300: ece7 b041 685c b141 7018 b141 946d b041
00000310: 8ca2 b041 d80f b141 b834 b141 8c65 b141
00000320: d0db b041 4cc9 b041 28c5 b041 1c5d b141
00000330: c8ca b041 fccd b041 7497 b041 74ab b041
00000340: 905c b141 4c2d b141 708c b041 20eb b041
00000350: 74ab b041 30b8 b041 04a3 b041 8c24 b141
00000360: 7469 b141 2842 b141 2091 b041 ec3c b141
00000370: dc33 b141 c44b b141 f443 b141 0c96 b041
00000380: ac45 b141 d003 b141 0416 b141 c8ca b041
00000390: 48b4 b041 a010 b141 64e8 b041 2874 b141
000003a0: 38d8 b041 ccdf b041 f8f4 b041 782e b141
000003b0: f8e0 b041 ac77 b141 2824 b141 c42d b141
000003c0: f41b b141 ccc1 b041 9896 b041 9872 b141
000003d0: 1424 b141 446c b141 641a b141 0895 b041
000003e0: b489 b041 e4c7 b041 a4df b041 90f8 b041
000003f0: 0480 b041 1cf9 b041 1875 b141 a4e4 b041

layer2.bias f4 [128]
22.232327 22.22839 22.21575 22.211117 22.230623 22.14978 22.171986 22.253166
22.272583 22.194462 -0.044769865 22.277885 22.195679 22.234879 0.055104926 22.246403
22.242895 22.214329 22.243969 22.196781 22.279602 22.208414 22.175838 22.162666
22.15767 22.24801 -0.0074971197 22.201385 22.184235 22.161385 22.186214 22.23455
22.231724 22.183859 22.140594 22.150587 22.165619 22.217224 22.252518 22.204184
22.132233 22.1512 22.15471 22.148153 22.22749 22.188797 22.232946 22.221504
-0.060504906 -0.014574526 22.188053 22.217953 22.229776 22.19725 22.163788 22.204905
22.184986 22.226242 -0.05741539 22.17543 22.237602 22.19423 22.210747 22.21796
22.155088 0.02671417 22.241417 22.24672 22.27863 -0.037611116 22.221046 22.235004
-0.045583617 0.014100905 22.262894 22.254086 22.249868 22.157219 22.19284 22.226261
22.270294 22.243536 22.248276 22.257317 22.160336 22.212568 0.022129355 -0.010034564
22.24485 22.199537 22.226852 22.236786 22.231033 22.2526 22.206512 22.203428
22.24313 22.190792 -0.05881434 -0.060032465 22.249638 22.142956 22.174583 22.152836
22.18222 22.205866 22.277868 22.218151 22.208725 -0.055056274 22.154177 22.254425
22.27341 22.217651 22.15561 22.268963 22.228626 22.231186 22.157951 -0.017174825
-0.029006768 22.274586 22.222916 -0.070903204 22.16745 22.17542 22.152344 22.174927
00000000: cedb b141 bed3 b141 dbb9 b141 5eb0 b141
00000010: 51d8 b141 c032 b141 3a60 b141 7c06 b241
00000020: 402e b241 428e b141 9b60 37bd 1c39 b241
00000030: c090 b141 08e1 b141 b4b5 613d a2f8 b141
00000040: 73f1 b141 f2b6 b141 a6f3 b141 0293 b141
00000050: a03c b241 d5aa b141 1e68 b141 244d b141
00000060: e842 b141 edfb b141 66aa f5bb 709c b141
00000070: 5079 b141 844a b141 5e7d b141 5ce0 b141
00000080: 92da b141 8b78 b141 f01f b141 6734 b141
00000090: 3053 b141 e0bc b141 2805 b241 2ba2 b141
000000a0: d00e b141 a835 b141 d93c b141 6b2f b141
000000b0: e6d1 b141 a882 b141 13dd b141 a4c5 b141
000000c0: fed3 77bd fec9 6ebc 2281 b141 5ebe b141
000000d0: 95d6 b141 f893 b141 704f b141 a5a3 b141
000000e0: da7a b141 58cf b141 662c 6bbd 4867 b141
000000f0: 9ce6 b141 c88d b141 9caf b141 62be b141
00000100: 9f3d b141 add7 da3c 6cee b141 48f9 b141
00000110: a23a b241 1d0e 1abd b4c4 b141 4ae1 b141
00000120: e3b5 3abd 7b07 673c 681a b241 5e08 b241
00000130: bbff b141 fc41 b141 f08a b141 62cf b141
00000140: 9029 b241 c3f2 b141 78fc b141 fc0e b241
00000150: 5e48 b141 57b3 b141 9f48 b53c 0368 24bc
00000160: 74f5 b141 a798 b141 98d0 b141 f0e4 b141
00000170: 28d9 b141 5305 b241 f0a6 b141 9fa0 b141
00000180: eef1 b141 be86 b141 4ee7 70bd 9ae4 75bd
00000190: 42ff b141 c624 b141 8c65 b141 0239 b141
000001a0: 3075 b141 9da5 b141 1339 b241 c6be b141
000001b0: 78ab b141 b082 61bd c13b b141 1009 b241
000001c0: f22f b241 c0bd b141 b03e b141 d626 b241
000001d0: 3ad4 b141 78d9 b141 7c43 b141 38b2 8cbc
000001e0: 9a9f edbc 5a32 b241 88c8 b141 b335 91bd
000001f0: f056 b141 4367 b141 0038 b141 4066 b141

layer3.weight f4 [168, 128]
6.6361456 6.6979556 6.6623006 6.6925573 6.601386 6.590188 6.658986 6.5958548
6.6681237 6.660388 -0.061820686 6.661362 6.611464 6.6450524 0.06598253 6.6820664
6.597033 6.6678386 6.6282763 6.675966 6.7140284 6.65447 6.686314 6.612057
6.6039495 6.634505 -0.024152018 6.585908 6.694077 6.611147 6.6149383 6.67625
6.68746 6.594765 6.6058397 6.7151217 6.6786103 6.704614 6.6364346 6.6856985
6.5736575 6.647289 6.602845 6.6029806 6.6292915 6.592327 6.675744 6.637969
0.03699689 -0.027395526 6.6049223 6.6980515 6.6072106 6.6243167 6.6932993 6.645606
6.6556454 6.704228 -0.048591506 6.6722884 6.5821867 6.6140437 6.62807 6.5898175
6.62595 -0.04930307 6.608312 6.628258 6.700263 0.02314815 6.6887336 6.6635065
0.06498886 -0.058236577 6.667489 6.5772834 6.6812315 6.6678896 6.6855483 6.6209793
6.604702 6.699265 6.6627927 6.593309 6.675842 6.6004343 0.017308947 -0.058574386
6.627804 6.67314 6.6300845 6.63032 6.5820246 6.61835 6.615377 6.6257367
6.580777 6.57726 0.04450224 0.049166504 6.7132087 6.6936135 6.7139735 6.6039305
6.6760855 6.670083 6.708861 6.6974025 6.63223 -0.025544472 6.617436 6.6497416
6.637795 6.6188073 6.6879606 6.680808 6.617654 6.5976896 6.664278 -0.0666656
-0.05291067 6.6994 6.6777873 -0.023786562 6.693092 6.642505 6.605211 6.7105
0.44566235 0.3883629 0.4330901 0.33748484 0.36242032 0.36725995 0.42482868 0.4063375
0.4363749 0.43839893 -0.01215527 0.37475228 0.3495003 0.46422562 0.018131355 0.39791963
0.39533633 0.46419486 0.46087396 0.35629892 0.44792882 0.34159625 0.33944988 0.3628478
0.4417329 0.4521685 -0.026365403 0.4118228 0.3452592 0.41723347 0.46236214 0.43087715
0.35994852 0.38472545 0.34093177 0.35102034 0.34691608 0.35975552 0.41952002 0.41498515
0.34448338 0.35984385 0.46137688 0.4227507 0.34583116 0.42971855 0.3423519 0.4059745
-0.06710037 0.02918956 0.4606837 0.36847574 0.3967458 0.4429587 0.34034705 0.40867054
0.354221 0.46305868 -0.06681244 0.42431796 0.37811002 0.34661102 0.36196446 0.3371381
0.434976 0.014470274 0.42394084 0.37045968 0.3332815 0.02543817 0.39503607 0.43635347
-0.052270398 -0.06307812 0.42469043 0.4381243 0.35144877 0.3948629 0.4044804 0.45178017
0.35133946 0.3407178 0.4008614 0.44483817 0.36706576 0.35643768 0.00590954 0.009332604
0.45336387 0.41888183 0.44975853 0.38800773 0.3859692 0.41270775 0.45069298 0.33936048
0.41086006 0.45654508 0.030982694 -0.051578507 0.41388196 0.3655076 0.4610977 0.3308741
0.33157423 0.38002172 0.35853076 0.3345936 0.39706677 -0.037183937 0.4330579 0.4151519
0.38612562 0.35602677 0.4108922 0.36630905 0.34092033 0.43045393 0.43610504 -0.018646935
0.014603836 0.44465667 0.45764622 0.04074006 0.4252521 0.42440507 0.4144131 0.41093782
00000000: 4e5b d440 a755 d640 9131 d540 6e29 d640
00000010: 8e3e d340 d2e2 d240 6a16 d540 3e11 d340
00000020: 4561 d540 e621 d540 b037 7dbd e129 d540
00000030: 1d91 d340 45a4 d440 d921 873d 7dd3 d540
00000040: e51a d340 ef5e d540 d71a d440 83a1 d540
00000050: 52d9 d640 6bf1 d440 49f6 d540 f995 d340
00000060: 8e53 d340 dd4d d440 74da c5bc c2bf d240
00000070: e135 d640 848e d340 93ad d340 d7a3 d540
00000080: acff d540 5108 d340 0a63 d340 47e2 d640
00000090: 2db7 d540 338c d640 ac5d d440 3ef1 d540
000000a0: 675b d240 97b6 d440 824a d340 9e4b d340
000000b0: 2823 d440 58f4 d240 b29f d540 3e6a d440
000000c0: 0d8a 173d 956c e0bc 865b d340 7056 d640
000000d0: 456e d340 67fa d340 822f d640 cea8 d440
000000e0: 0cfb d440 0989 d640 e307 47bd 6383 d540
000000f0: 46a1 d240 3fa6 d340 2619 d440 c9df d240
00000100: c807 d440 04f2 49bd 4b77 d340 b11a d440
00000110: 8e68 d640 30a1 bd3c 1b0a d640 723b d540
00000120: e118 853d 7a89 6ebd 125c d540 1b79 d240
00000130: a6cc d540 5a5f d540 03f0 d540 10df d340
00000140: b859 d340 6160 d640 9935 d540 63fc d240
00000150: 7fa0 d540 c236 d340 7ecb 8d3c b2eb 6fbd
00000160: f816 d440 5d8a d540 a729 d440 952b d440
00000170: f29f d240 86c9 d340 2bb1 d340 0906 d440
00000180: ba95 d240 ea78 d240 fb47 363d d162 493d
00000190: 9bd2 d640 1532 d640 dfd8 d640 6653 d340
000001a0: 7ea2 d540 5271 d540 fdae d640 1f51 d640
000001b0: 3a3b d440 a442 d1bc 09c2 d340 afca d440
000001c0: d168 d440 45cd d340 c603 d640 2ec9 d540
000001d0: d2c3 d340 4620 d340 c441 d540 f987 88bd
000001e0: dcb8 58bd 7c61 d640 6fb0 d540 09dc c2bc
000001f0: cf2d d640 678f d440 e35d d340 6abc d640
00000200: db2d e43e 81d7 c63e fcbd dd3e d0ca ac3e
00000210: 288f b93e 7f09 bc3e 2583 d93e 780b d03e
00000220: 886c df3e d375 e03e e626 47bc 88df bf3e
00000230: b4f1 b23e fbae ed3e 3588 943c 1fbc cb3e
00000240: 8669 ca3e f3aa ed3e acf7 eb3e d06c b63e
00000250: ed56 e53e b4e5 ae3e 60cc ad3e 30c7 b93e
00000260: d12a e23e a182 e73e 42fc d7bc 70da d23e
00000270: d0c5 b03e a09f d53e bbba ec3e ee9b dc3e
00000280: 2c4b b83e bcfa c43e 9c8e ae3e f0b8 b33e
00000290: fc9e b13e e031 b83e 54cb d63e ef78 d43e
000002a0: 2060 b03e 743d b83e 9739 ec3e c872 d83e
000002b0: c810 b13e 1204 dc3e c048 af3e e4db cf3e
000002c0: eb6b 89bd f21e ef3c bcde eb3e daa8 bc3e
000002d0: 4422 cb3e 7ccb e23e f841 ae3e 443d d13e
000002e0: 745c b53e 0716 ed3e f6d4 88bd 3440 d93e
000002f0: a397 c13e 0077 b13e 6853 b93e 5d9d ac3e
00000300: 2db5 de3e ba14 6d3c c60e d93e e4ac bd3e
00000310: dfa3 aa3e b663 d03c 2b42 ca3e b969 df3e
00000320: 7c19 56bd 1a2f 81bd 0671 d93e d451 e03e
00000330: 18f1 b33e 782b ca3e 0e18 cf3e bb4f e73e
00000340: c4e2 b33e 9072 ae3e b53d cd3e d4c1 e33e
00000350: 0bf0 bb3e 007f b63e d1a4 c13b c7e7 183c
00000360: 4f1f e83e ae77 d63e c046 e63e f3a8 c63e
00000370: c19d c53e 6e4e d33e 3bc1 e63e a8c0 ad3e
00000380: 405c d23e 47c0 e93e 6bcf fd3c fc43 53bd
00000390: 56e8 d33e d023 bb3e ff14 ec3e 5468 a93e
000003a0: 19c4 a93e 3592 c23e 5891 b73e da4f ab3e
000003b0: 564c cb3e 2f4e 18bd c4b9 dd3e ca8e d43e
000003c0: 42b2 c53e 2449 b63e 7660 d23e dc8c bb3e
000003d0: 1c8d ae3e 7564 dc3e 2949 df3e 75c1 98bc
000003e0: ee44 6f3c 0aaa e33e 9b50 ea3e 0ddf 263d
000003f0: a5ba d93e 9f4b d93e f42d d43e 7166 d23e

layer3.bias f4 [168]
2.714144 0.3856559 0.74659216 3.2990482 2.8781886 0.6348836 21.528843 2.9817283
6.4200397 1.628092 19.559238 1.5752237 0.631942 18.995783 1.1596531 1.4647373
1.881727 1.0742934 3.2636244 21.324043 5.3739233 0.6770166 1.1474804 2.7926478
2.009986 2.0708876 1.869944 1.9041219 20.872656 2.903858 19.099998 4.203791
0.8295167 5.72876 3.947377 2.6499083 2.6931462 3.1630945 1.6764373 1.0521706
1.1546227 0.88463163 1.2679297 1.8743906 0.62726843 3.0111058 4.1688333 2.0894117
1.4499232 8.404245 9.662818 19.67085 0.67697865 2.8009968 2.7226763 3.9597344
6.431534 5.9689536 1.031321 18.797802 3.828036 0.89054155 0.8653997 1.041877
18.172564 1.1830361 0.5569785 2.335923 17.62034 1.0374653 0.37832034 1.0272264
5.775228 0.82835835 0.96146625 4.038831 1.670398 2.4450574 2.9275115 7.5775247
8.368873 3.8574805 0.7191504 2.353146 1.94524 11.023492 0.8629815 1.9992096
1.6509856 1.927404 0.7104401 2.0292099 1.1667094 10.700925 1.0510705 1.3222883
1.1712794 0.7010617 0.6986211 0.3871809 5.3249273 1.3766897 1.1043748 1.1627672
0.8366518 0.7683118 0.9303432 5.7266994 0.6797526 1.6910061 1.1652027 1.2896907
0.81855965 1.0639194 0.6974272 6.391241 0.76363605 0.7831215 1.7965193 0.6356598
0.43134236 0.93680394 0.72099614 0.6159119 0.81427884 5.1201887 0.4900284 1.0328192
1.3909776 0.7798436 0.83035976 5.901989 0.63362026 0.98461425 0.6441214 1.1441238
0.86837095 4.7252398 0.71902055 1.5765966 1.7724979 0.89893126 0.8426416 5.6703005
0.69846356 0.68100697 5.682711 1.0045215 0.45999974 0.41525212 0.63690186 0.54836196
4.2422395 0.6021674 0.15962832 0.6537155 0.5082379 1.3944583 0.67372125 4.125801
0.66643894 0.79132086 0.5701827 0.63026965 0.49655622 0.9594211 0.663395 0.41241294
00000000: 89b4 2d40 b174 c53e aa20 3f3f 9b23 5340
00000010: 3e34 3840 bb87 223f 123b ac41 a3d4 3e40
00000020: f770 cd40 5265 d03f 5279 9c41 eea0 c93f
00000030: f3c6 213f 5df7 9741 836f 943f 837c bb3f
00000040: 6edc f03f 7282 893f 39df 5040 a497 aa41
00000050: 2ef7 ab40 f650 2d3f a3e0 923f beba 3240
00000060: 9ca3 0040 6c89 0440 535a ef3f 44ba f33f
00000070: 33fb a641 cfd8 3940 cccc 9841 7585 8640
00000080: 355b 543f 0052 b740 d3a1 7c40 1998 2940
00000090: 825c 2c40 2470 4a40 7f95 d63f 87ad 863f
000000a0: adca 933f 3877 623f 854b a23f 08ec ef3f
000000b0: aa94 203f f5b5 4040 1567 8540 ecb8 0540
000000c0: 1597 b93f ca77 0641 e79a 1a41 e75d 9d41
000000d0: 794e 2d3f 8843 3340 5440 2e40 4a6c 7d40
000000e0: 20cf cd40 ab01 bf40 5402 843f e661 9641
000000f0: 8bfe 7440 88fa 633f d68a 5d3f 3a5c 853f
00000100: 6961 9141 ba6d 973f 2596 0e3f c37f 1540
00000110: 75f6 8c41 aacb 843f 34b3 c13e 287c 833f
00000120: abce b840 4b0f 543f a722 763f 1b3e 8140
00000130: 9acf d53f d27b 1c40 595c 3b40 157b f240
00000140: e7e6 0541 f6e0 7640 3e1a 383f f299 1640
00000150: a0fd f83f 3960 3041 5bec 5c3f 1ae6 ff3f
00000160: 7f53 d33f 2db5 f63f 67df 353f 93de 0140
00000170: bc56 953f fd36 2b41 7a89 863f be40 a93f
00000180: 7cec 953f c878 333f d5d8 323f 933c c63e
00000190: ce65 aa40 5e37 b03f 275c 8d3f 8ed5 943f
000001a0: d02e 563f 15b0 443f f92a 6e3f 1f41 b740
000001b0: 4404 2e3f e372 d83f 5d25 953f 9614 a53f
000001c0: 208d 513f 832e 883f 978a 323f 0c85 cc40
000001d0: a77d 433f a77a 483f 58f4 e53f 9aba 223f
000001e0: e8d8 dc3e 62d2 6f3f 3493 383f 67ac 1d3f
000001f0: 9474 503f 96d8 a340 01e5 fa3e 6b33 843f
00000200: 8e0b b23f d5a3 473f 7592 543f 18dd bc40
00000210: f034 223f ae0f 7c3f 24e5 243f a672 923f
00000220: 8f4d 5e3f 2a35 9740 bb11 383f ebcd c93f
00000230: 36e1 e23f 5c20 663f 5cb7 573f 1a73 b540
00000240: 82ce 323f 7956 2e3f c5d8 b540 2994 803f
00000250: 1685 eb3e ed9b d43e 000c 233f 7361 0c3f
00000260: 6dc0 8740 a527 1a3f 9b75 233e e659 273f
00000270: e11b 023f 9c7d b23f ff78 2c3f 9006 8440
00000280: be9b 2a3f 0194 4a3f 7ef7 113f 5a59 213f
00000290: 9e3c fe3e 9f9c 753f 41d4 293f ca27 d33e
