models/smallreward1_models/5/model_weights.pth (torch, 161860 bytes, 6 tensors)

layer1.weight f4 [128, 82]
00000000: 10c3 a041 4e50 0e41 8906 3941 88c3 0341
00000010: d734 4740 3d63 ff40 ac66 8d41 4eb4 9241
00000020: 78c1 bc40 42ab 9941 30ec 9c41 0400 8041
00000030: 7c55 b840 869d 1b41 40f8 9741 00c6 9b41
00000040: fe48 7741 e9ce 9741 a301 9641 1497 9c41
00000050: 68d6 3841 0ed1 7541 47a0 9941 4e96 9841
00000060: 401e 8641 35cb 3a41 7476 8f41 dcf9 9a41
00000070: c391 c640 9493 a240 39b8 d140 7389 7841
00000080: 672d 4941 2071 3d41 b422 9141 a013 7f41
00000090: 9f88 7e41 0eaa 9241 55f7 8641 5028 3341
000000a0: 3496 9141 e4bf 9141 1e02 9a41 1083 9941
000000b0: 4adb 9341 5d1b 8641 a2a9 7141 f43a 9441
000000c0: dea0 9541 9031 9c41 72dd 9a41 de03 9641
000000d0: 9aa0 8c41 a930 9041 a30a 8f41 64af 9641
000000e0: c66b 9841 6e09 9941 30a4 9141 18d3 9541
000000f0: 98b3 9541 d386 9141 dede 9141 5226 9841
00000100: 3048 9841 e664 9641 ecc2 9141 3421 9241
00000110: d67d 8641 8a02 8e41 0613 9341 4246 9741
00000120: 7e66 9341 0c5b 8141 2e28 8341 b044 6a41
00000130: b2a9 3b41 adee 5841 add2 8841 9e9f 9241
00000140: d407 9541 7cde 4141 bdf4 a041 d3b3 0e41
00000150: 3a1c 3741 4801 0441 a337 4640 350e fd40
00000160: d66c 8d41 b3e6 9241 c6aa c140 6dbb 9941
00000170: ab31 9d41 8986 7f41 82b4 be40 56fa 1b41
00000180: 3552 9841 5206 9c41 fdbb 7641 bca7 9741
00000190: 28b0 9641 64ba 9c41 4f45 3941 07bc 7541
000001a0: ae98 9841 5ef3 9841 e4da 8641 eab1 3c41
000001b0: 8075 8f41 0675 9a41 c302 c940 218c a440
000001c0: 339c d140 5c30 7941 bb71 4941 965c 3f41
000001d0: 62eb 9141 7b38 8141 e00c 8041 3747 9441
000001e0: 94a6 8741 ccdf 3341 6196 9241 42ae 9341
000001f0: 782f 9b41 3a51 9a41 30f9 9541 5f0a 8841
00000200: cb3a 7241 b803 9541 b806 9841 7e0e 9c41
00000210: 74ba 9b41 ce00 9641 fd23 8d41 5382 9041
00000220: b0e6 8f41 6264 9741 264b 9941 ea7e 9941
00000230: aa1d 9341 c6f5 9541 0af4 9541 02b9 9241
00000240: 7802 9341 46c6 9841 d671 9941 30e3 9741
00000250: 0633 9341 3465 9341 35b7 8741 82e3 8e41
00000260: a62c 9441 f869 9841 1473 9441 e4bc 8241
00000270: f8ff 8341 00a9 6e41 a4ab 3c41 e098 5b41
00000280: 20be 8941 4ef5 9341 4eaa 9541 9c93 4241
00000290: 0c5e a041 54e5 0d41 38c4 3741 eff6 0141
000002a0: f2ae 4840 d822 f840 1e9c 8d41 e9da 9141
000002b0: 4f64 b840 de07 9a41 e3fd 9c41 80a8 8041
000002c0: 6e31 bf40 8905 1841 8df6 9841 b4e9 9c41
000002d0: 92c2 7841 27aa 9741 22ce 9641 98ea 9b41
000002e0: ea37 3b41 9057 7541 5b9f 9841 b44f 9941
000002f0: 2912 8741 5ed8 3d41 f36e 9041 3e39 9b41
00000300: c29d c240 9dee a240 3a7e d640 6b4e 7a41
00000310: 188e 4841 ff98 3d41 6c55 9041 16c8 8041
00000320: 9218 8041 e4b0 9141 d982 8741 cd96 3241
00000330: ba82 9141 ea71 9141 86c4 9941 d041 9a41
00000340: 6260 9341 dbb2 8641 256e 6e41 3691 9441
00000350: fa32 9641 8eb0 9a41 145b 9a41 8669 9441
00000360: 0482 8d41 ff0f 8f41 d542 8f41 2845 9641
00000370: 7286 9941 7e94 9841 1ea1 9041 1e40 9441
00000380: 14a6 9341 e71e 9141 9c80 9041 faaf 9741
00000390: 08b6 9841 e2d1 9641 c432 9141 7a51 9141
000003a0: 8d7a 8541 7273 8e41 c8ea 9241 a2b9 9641
000003b0: 5ccb 9241 69ad 8041 db0e 8141 45b7 6a41
000003c0: 1d3f 3a41 3573 5941 9817 8a41 42e6 9241
000003d0: aa93 9441 aae0 4041 bba5 a041 b893 0e41
000003e0: 0031 3841 3a0a 0141 2b95 4240 15f9 fa40
000003f0: 28a5 8d41 352e 9241 934c bc40 9ac5 9841
20.095245 8.894606 11.5640955 8.235237 3.1126 7.980864 17.675133 18.33804
5.898617 19.208622 19.615326 16.000008 5.760435 9.725958 18.996216 19.47168
15.45532 18.97603 18.7508 19.573769 11.552345 15.363539 19.20326 19.073391
16.76477 11.674611 17.932838 19.372002 6.205293 5.080515 6.553738 15.533557
12.573585 11.840118 18.141945 15.942291 15.908355 18.333035 16.870768 11.197342
18.198341 18.218697 19.251034 19.188995 18.482075 16.763361 15.103914 18.528786
18.703548 19.5242 19.358128 18.751888 17.578419 18.02376 17.880194 18.83564
19.052624 19.129604 18.20517 18.728073 18.712692 18.190832 18.233822 19.018711
19.035248 18.799267 18.220177 18.266212 16.811443 17.75124 18.384289 18.909306
18.425045 16.169456 16.394619 14.641769 11.7289295 13.55827 17.102869 18.327938
18.628822 12.116817 20.119501 8.918902 11.444391 8.250313 3.0971458 7.9079843
17.678143 18.362646 6.0520964 19.216516 19.649252 15.9703455 5.9595346 9.748617
19.04014 19.503086 15.420896 18.956902 18.836014 19.591011 11.579421 15.358405
19.07455 19.118832 16.85688 11.793436 17.932373 19.30714 6.281587 5.1421056
6.5503173 15.5743065 12.590266 11.960104 18.239933 16.152578 16.006287 18.534773
16.956337 11.242138 18.323427 18.460087 19.398178 19.289661 18.746674 17.005064
15.139354 18.626816 19.00328 19.507076 19.466042 18.750393 17.642572 18.063635
17.98764 18.924015 19.161694 19.18697 18.389484 18.745007 18.74416 18.340336
18.376205 19.096813 19.180584 18.985931 18.399914 18.424416 16.964457 17.861088
18.521801 19.051743 18.55619 16.342232 16.499985 14.91626 11.791904 13.724823
17.217834 18.494778 18.708157 12.161037 20.045921 8.868488 11.485405 8.1227865
3.1356778 7.7542534 17.70123 18.23189 5.7622447 19.253841 19.623968 16.082275
5.974784 9.501351 19.120386 19.614113 15.5475025 18.958082 18.85065 19.489548
11.701151 15.333878 19.07781 19.163918 16.883867 11.865324 18.054174 19.40295
6.0817575 5.0916276 6.7029085 15.644145 12.534691 11.849853 18.04171 16.097698
16.011997 18.211372 16.93889 11.161817 18.188831 18.180622 19.220959 19.282135
18.422062 16.837332 14.901891 18.570904 18.77489 19.336208 19.294472 18.551525
17.688484 17.88281 17.907633 18.783768 19.190647 19.072506 18.07867 18.531307
18.456093 18.140089 18.062798 18.960926 19.088882 18.852482 18.149788 18.164783
16.68484 17.80637 18.36464 18.840641 18.349297 16.084673 16.132254 14.669744
11.6404085 13.590627 17.26152 18.36243 18.572102 12.05485 20.080923 8.911064
11.511963 8.064997 3.0403545 7.8429055 17.705643 18.272562 5.8843474 19.096485

layer1.bias f4 [128]
00000000: adc0 9e41 2f29 9f41 3a7a 9d41 f8a7 9d41
00000010: a6e8 9d41 8024 9e41 ac58 9d41 d666 9e41
00000020: 390f 9e41 eeca 9d41 1186 9e41 d31e 9e41
00000030: 46f2 9d41 9ed5 9e41 b470 9e41 8272 9e41
00000040: 3651 9e41 f76f 9e41 66fc 9e41 b221 9d41
00000050: 1c54 9f41 f6d4 9e41 4200 9d41 49cb 9e41
00000060: 4ef3 9d41 b4fd 9d41 505b 9e41 a0aa 9d41
00000070: 5fb3 9e41 f77e 9e41 8c1a 9e41 5c89 9e41
00000080: 2c20 9f41 d45e 9e41 e20a 9f41 6700 9f41
00000090: 6c18 9e41 e313 9e41 0529 9e41 cb04 a6bf
000000a0: 98c3 9d41 3a44 9f41 151d 9e41 5d1e 9f41
000000b0: 665e 9e41 142b 9f41 8c1c 9e41 f267 9e41
000000c0: 790d 9f41 c9a2 9e41 f220 9d41 a252 9d41
000000d0: b690 9e41 908b 9d41 7457 9e41 dfe3 9e41
000000e0: e488 9e41 3c97 9d41 520d 9f41 a4b3 9e41
000000f0: 8f4c 9f41 512d 9e41 e6db 9e41 dbfb 9e41
00000100: f012 9d41 be45 9b41 8cfd 9e41 7ae7 9d41
00000110: bcbe 9d41 5cc9 9d41 f4a8 9e41 f825 9e41
00000120: 8702 9f41 0313 9f41 8835 9e41 9447 9e41
00000130: 4d2c 9f41 b67b 9e41 1e20 9f41 a0b2 9e41
00000140: b116 9f41 951f 9f41 2148 9e41 2afc 9c41
00000150: cee6 9d41 a29a 9d41 f860 9e41 7005 9f41
00000160: 52bb 9e41 59af 9e41 3ec6 9e41 6c26 9e41
00000170: c6c5 9d41 61c5 9e41 89f3 9e41 b02d 9e41
00000180: 0586 9e41 c14a 9f41 c6bd 9e41 584e 9e41
00000190: f41d 9b41 4cda 9e41 740c 9e41 5521 9f41
000001a0: 2b99 9e41 4388 9e41 64c1 9e41 68eb 9e41
000001b0: b635 9d41 9d38 9e41 d8ca 9e41 3843 9e41
000001c0: 07ab 9e41 a858 9d41 4610 9d41 c426 9e41
000001d0: c27e 9d41 cb68 9e41 0836 9f41 0c07 9f41
000001e0: 3497 9d41 e81e 9f41 ea46 9e41 4bdc 9e41
000001f0: 9a68 9e41 64f0 9d41 c0cd 9d41 4261 9d41
19.84408 19.89511 19.68468 19.707016 19.738598 19.767822 19.668297 19.800213
19.757433 19.724087 19.815462 19.76505 19.743298 19.854305 19.80503 19.805912
19.789654 19.80467 19.873241 19.641453 19.916069 19.853985 19.625126 19.84926
19.743801 19.748878 19.794586 19.708313 19.837584 19.811995 19.762962 19.81707
19.890709 19.796303 19.880314 19.875196 19.761925 19.75971 19.77003 -1.2970213
19.720505 19.908314 19.7642 19.889826 19.796093 19.896034 19.763939 19.800755
19.881578 19.829485 19.641087 19.665348 19.82066 19.693146 19.792702 19.861265
19.816841 19.698845 19.881504 19.837715 19.912382 19.772127 19.857372 19.872976
19.634247 19.409054 19.873802 19.738026 19.718132 19.72332 19.832497 19.76854
19.876234 19.884283 19.776138 19.78495 19.896631 19.810406 19.890682 19.83722
19.88608 19.89042 19.78522 19.623127 19.737698 19.700504 19.797348 19.877655
19.841465 19.835619 19.846798 19.76876 19.72157 19.846376 19.868914 19.772308
19.81544 19.9115 19.842663 19.788254 19.389626 19.85659 19.75608 19.891275
19.82479 19.816534 19.844429 19.864944 19.651226 19.777643 19.849045 19.782822
19.83351 19.66829 19.632946 19.768929 19.686893 19.801168 19.901382 19.87844
19.69883 19.89009 19.784626 19.857565 19.801075 19.742378 19.725464 19.67249

layer2.weight f4 [128, 128]
00000000: d680 9741 b0cd 9841 1cf3 9541 86c1 9a41
00000010: ca9d 9041 60ee 9441 14d2 8f41 80e8 9941
00000020: 7cb4 9a41 30c7 9841 f864 9941 5ceb 9941
00000030: 640f 9a41 1076 9941 b2b0 9941 1cb7 9741
00000040: 0ef2 9041 2c81 9641 28e9 9841 52ac 9141
00000050: b0c5 9941 24de 9841 a1d3 8f41 faae 9841
00000060: 5857 9441 5aab 9941 d283 9941 44c6 9341
00000070: a670 9941 8ab0 9841 80cc 9941 04eb 9841
00000080: c491 9941 8ccf 9941 18c7 9941 165d 9741
00000090: 7e2a 9141 f0d0 9941 847c 9941 914f cec0
000000a0: 6a3b 8e41 92aa 9941 c043 9a41 e0a8 9841
000000b0: 9498 9841 64a0 9941 3896 9941 c20f 9541
000000c0: b28b 9841 9082 9941 b22f 9441 fcb9 9341
000000d0: a29c 9a41 d2d0 8e41 4ab6 9441 1639 9a41
000000e0: eea2 9941 2896 9a41 de31 9841 7ce6 9941
000000f0: b871 9941 908b 9941 ce32 9941 8432 9941
00000100: 8675 9b41 a281 9b41 401f 9941 fa98 9941
00000110: 0013 9a41 929d 9841 ca95 9741 c0ce 9941
00000120: f27c 9841 7e22 9a41 3ab6 9841 f225 9a41
00000130: a217 9941 4a6f 9941 8688 9941 ec91 9941
00000140: 3673 9941 fc83 9941 124e 9841 b636 9341
00000150: a414 9241 ccc7 8d41 f65b 9a41 da53 9941
00000160: c4fc 9841 7c03 9941 50e8 9841 1a16 9941
00000170: 92d8 9541 58aa 9941 be70 9a41 3eb0 9841
00000180: e80f 9941 ca2f 9a41 ec20 9941 e470 9941
00000190: d686 9d41 70a9 9841 5e39 9941 ac81 9941
000001a0: 04e1 9841 ec79 9541 162c 9941 ccbb 9941
000001b0: 6a2e 9141 881a 9a41 9c11 9a41 2a82 9741
000001c0: 6c6a 9941 1e6d 9841 002e 9641 7c1c 9941
000001d0: 2d67 8e41 181f 9941 7073 9941 cc8d 9841
000001e0: a4e6 9941 1875 9941 4aa9 9941 aa1a 9941
000001f0: 3ce9 9541 4035 9941 7070 9941 6cf3 9441
00000200: c5a4 9e41 4aeb 9c41 5c99 9e41 92d0 9b41
00000210: b01e a241 179a 9f41 151d a241 8c97 9c41
00000220: 56d8 9b41 9eed 9c41 be89 9c41 a4ea 9c41
00000230: 38c7 9c41 b0ed 9c41 1aaf 9c41 b168 9e41
00000240: 08b4 a241 b32c 9f41 08ae 9c41 e266 a141
00000250: 80c9 9c41 5652 9d41 67e1 a141 ce38 9d41
00000260: 1f94 a041 c63e 9d41 2cb6 9c41 f85f a041
00000270: 80b5 9c41 4877 9d41 c4d0 9c41 7cbe 9c41
00000280: 00ff 9c41 3283 9c41 9c33 9d41 24d7 9d41
00000290: 623d a141 fc9e 9c41 6c4f 9d41 30a4 f9c0
000002a0: d748 a441 322d 9d41 0095 9c41 e89f 9c41
000002b0: dac8 9d41 c6ae 9c41 3638 9d41 de54 a041
000002c0: 7c03 9d41 78ff 9c41 a61c a141 9a3e a041
000002d0: 8014 9d41 e853 a241 1e2f 9f41 4478 9c41
000002e0: c41e 9d41 5657 9d41 56bb 9c41 14b8 9c41
000002f0: 8659 9d41 ac5c 9d41 06ec 9d41 d8ef 9c41
00000300: c6f4 9c41 8e1a 9c41 5848 9d41 4e0c 9d41
00000310: de5d 9d41 44f0 9c41 b9ba 9e41 8065 9d41
00000320: 32ee 9d41 4079 9c41 b2ee 9c41 0ad1 9c41
00000330: 1078 9c41 1e1f 9c41 72ff 9c41 1aba 9c41
00000340: 2836 9d41 f210 9d41 112e 9e41 3de9 a141
00000350: b97b a241 56a5 a441 5624 9d41 6c82 9c41
00000360: d29a 9d41 e051 9d41 2818 9d41 9ee9 9c41
00000370: f2db 9f41 248a 9c41 dcd4 9c41 e614 9e41
00000380: d857 9c41 bc00 9c41 8e79 9c41 50ec 9c41
00000390: d6ad 9c41 e923 9e41 0c9b 9c41 f86f 9c41
000003a0: fa6f 9d41 3a18 a041 640c 9d41 7801 9d41
000003b0: 7850 a141 1a99 9c41 90b0 9c41 2b80 9e41
000003c0: 165f 9c41 5eeb 9e41 e130 9f41 721c 9d41
000003d0: 31ef a341 62ac 9c41 c47c 9c41 2284 9d41
000003e0: a4c1 9d41 5e6d 9d41 aeb6 9c41 74cd 9c41
000003f0: 40d1 9f41 56a2 9d41 fe0f 9c41 e7d6 a141
18.937908 19.100433 18.743706 19.344494 18.077045 18.616394 17.977577 19.238525
19.338127 19.09726 19.174301 19.239922 19.257515 19.182648 19.211277 18.964409
18.11819 18.813072 19.113846 18.20914 19.221527 19.108467 17.978334 19.085438
18.542648 19.208668 19.189365 18.47181 19.180004 19.0862 19.224854 19.114754
19.196175 19.226341 19.222214 18.920452 18.145748 19.22702 19.185799 -6.4472127
17.77901 19.208286 19.283081 19.082458 19.074501 19.203316 19.198349 18.632694
19.06821 19.188751 18.523289 18.465813 19.32648 17.851963 18.589008 19.277874
19.204556 19.323318 19.02435 19.237541 19.180527 19.193146 19.149807 19.149666
19.432384 19.438297 19.140259 19.199696 19.259277 19.076939 18.94814 19.225952
19.061008 19.266842 19.088978 19.268528 19.13654 19.17934 19.191662 19.19625
19.181255 19.189445 19.03812 18.401714 18.260078 17.722557 19.294903 19.165943
19.12342 19.126701 19.113434 19.135792 18.730747 19.208176 19.30505 19.086056
19.132767 19.273335 19.141075 19.180122 19.690838 19.082733 19.153011 19.188316
19.10987 18.684532 19.146526 19.216698 18.147663 19.262955 19.258598 18.938557
19.176964 19.05328 18.77246 19.138908 17.800379 19.140182 19.181366 19.069237
19.237617 19.182175 19.20766 19.13802 18.738884 19.151001 19.179901 18.618858
19.830454 19.614887 19.824883 19.476841 20.264984 19.95024 20.2642 19.573997
19.480633 19.616024 19.567257 19.61457 19.597275 19.616058 19.585499 19.801119
20.337906 19.896826 19.584976 20.175236 19.598389 19.665203 20.23506 19.652737
20.072325 19.655651 19.588951 20.04686 19.588623 19.683243 19.601936 19.59301
19.624512 19.56406 19.6502 19.73005 20.154972 19.57763 19.66378 -7.8012924
20.535566 19.647068 19.572754 19.57808 19.723072 19.585339 19.652447 20.04144
19.626701 19.62474 20.138988 20.030567 19.63501 20.29097 19.898006 19.558723
19.640022 19.667645 19.591473 19.589882 19.668713 19.67025 19.740246 19.617111
19.619518 19.512966 19.660324 19.631008 19.670834 19.617317 19.841173 19.67456
19.741306 19.559204 19.61655 19.60207 19.558624 19.515194 19.62473 19.59087
19.651443 19.633274 19.772493 20.238886 20.310411 20.58073 19.642742 19.563683
19.700596 19.664978 19.636795 19.61407 19.982395 19.567451 19.603935 19.760204
19.542892 19.500359 19.559353 19.615387 19.58488 19.767534 19.575706 19.554672
19.679676 20.01183 19.63105 19.625717 20.164291 19.574757 19.586212 19.812582
19.546429 19.864925 19.898867 19.63889 20.491793 19.584171 19.56092 19.689518
19.719551 19.678402 19.5892 19.600319 19.977173 19.704266 19.507809 20.229933

layer2.bias f4 [128]
00000000: 8363 9841 a154 9e41 75f5 9d41 47ad 9c41
00000010: 8c49 9e41 791a 9d41 9a8d 9d41 4f7c 9d41
00000020: fe26 9e41 a3a7 9d41 7634 9e41 cec1 9e41
00000030: c30a 9f41 21c1 9d41 21be 9e41 5fb0 9e41
00000040: 999a 9d41 bf9e 9e41 f023 9e41 2eb2 9e41
00000050: 0ac9 9d41 45bd 9d41 e8cf 9e41 cba5 9d41
00000060: 724b 9e41 7bd8 b53c 6374 9d41 5549 9d41
00000070: 3160 9e41 7de0 9d41 74e8 9d41 7a1e 9e41
00000080: a0c3 9e41 f76b 9d41 3c90 9d41 62d0 9d41
00000090: b7d0 9e41 ecb7 9e41 6fd5 9e41 70fc 9e41
000000a0: c245 9e41 264b 9e41 b5fb 9d41 3031 9e41
000000b0: c779 9e41 468b 9e41 7055 9e41 37a1 9e41
000000c0: 3082 9d41 baf2 9d41 1c26 4f3d e823 9d41
000000d0: 3e49 9e41 ba0c 9e41 78e6 9d41 1a4b 9e41
000000e0: da35 9f41 894d 9e41 b1cd 9e41 1313 8dbd
000000f0: 0d72 9d41 811c 9e41 edd9 9d41 479f 9d41
00000100: 0fd7 9d41 45a5 9d41 2520 9e41 7d8a 9d41
00000110: b9c3 9e41 fd47 9e41 0de2 9141 39dc 9d41
00000120: d8c2 9e41 bf32 9c41 7982 9441 e788 9e41
00000130: 6ed8 9e41 f2b8 9d41 d9e9 9e41 a57a 9e41
00000140: 27eb 36bd f5ce 9d41 3698 9e41 2ae2 9d41
00000150: eadd 9b41 a110 9e41 9ae3 9d41 30e7 9d41
00000160: b95f 9e41 2f4c 9d41 5c44 9e41 c846 9e41
00000170: f36f 9e41 5e54 9e41 3d91 9e41 e9cf 9d41
00000180: b072 9e41 a334 9d41 508f 9e41 8fe3 9c41
00000190: 386a 9441 a588 9e41 41b9 9d41 c575 9e41
000001a0: 316f 9e41 74fd 9d41 0a65 9d41 bab6 9e41
000001b0: 026d 9441 690b 9e41 d3ac 9441 c6db 9e41
000001c0: fd8a 9e41 8b2a 9e41 26a6 9d41 6eb3 9d41
000001d0: 02d0 9d41 72f7 9d41 72f1 9d41 a5be 9e41
000001e0: 8d82 9641 cd23 9e41 c4f6 9441 4287 b5bc
000001f0: ad61 9e41 c3ce 9e41 58da 9c41 4ce2 9d41
19.04859 19.791323 19.744852 19.584608 19.785912 19.637926 19.694141 19.685698
19.76904 19.706854 19.775616 19.844631 19.880255 19.719301 19.842836 19.836119
19.700487 19.827513 19.767548 19.837002 19.723164 19.717417 19.851517 19.705954
19.786839 0.022197952 19.68183 19.660807 19.796968 19.734613 19.738503 19.764881
19.84552 19.677717 19.695427 19.72675 19.851912 19.839806 19.854216 19.87326
19.784061 19.786694 19.747904 19.774017 19.809462 19.818005 19.791718 19.828718
19.688568 19.743519 0.050573453 19.642532 19.785763 19.756214 19.737534 19.78667
19.901295 19.787859 19.850435 -0.06888404 19.680689 19.763918 19.73141 19.702772
19.73001 19.705698 19.765696 19.692621 19.845568 19.78515 18.235376 19.73253
19.845139 19.524778 18.563707 19.816847 19.855679 19.715305 19.864183 19.809885
-0.044657853 19.726053 19.824322 19.735432 19.483356 19.75812 19.736134 19.737885
19.79674 19.662199 19.783379 19.784561 19.804663 19.791195 19.820917 19.726519
19.806 19.650702 19.819977 19.611113 18.551865 19.816721 19.715456 19.807505
19.804293 19.748756 19.674335 19.839222 18.553226 19.755571 18.584387 19.857311
19.817865 19.770773 19.706127 19.712612 19.726566 19.745823 19.742893 19.843088
18.813745 19.76748 18.620491 -0.022159223 19.797693 19.850958 19.606613 19.735497

layer3.weight f4 [98, 128]
00000000: 5906 8040 0f47 8040 e2cc 7f40 f473 8040
00000010: 20e4 8240 7dec 8140 ea3e 7f40 64e9 7d40
00000020: bd03 8040 c905 8340 e00b 8240 9e1f 8240
00000030: 1f2b 8240 f663 8040 8e7b 8140 8807 7e40
00000040: 72e5 7e40 f593 8140 8065 8140 53a9 7e40
00000050: 6f55 8140 d6a8 8240 ec77 8040 bee3 7d40
00000060: c4eb 7e40 4251 49bc 3c34 8140 b21c 8240
00000070: 18e1 8040 ddfa 7d40 dd4a 8040 5c2a 8040
00000080: 43e7 8140 bbbe 8040 bfe5 8040 77e3 8240
00000090: 0372 8140 a6c2 8240 c4ed 7d40 a411 7f40
000000a0: 829e 8040 4448 8140 9b17 8240 b9ab 7f40
000000b0: 1ab8 8240 135f 8040 6a7b 8040 54be 8140
000000c0: 64ea 7e40 8f49 8040 a499 d0bc 247a 8140
000000d0: 5a45 7f40 4389 8240 b1f2 8040 fbfb 8240
000000e0: fe04 8240 97c3 8140 7cb1 8040 b076 ab3c
000000f0: 654b 8140 3219 8040 860b 8040 61e8 7d40
00000100: 289a 7f40 c1ae 8040 390f 7e40 2e48 7d40
00000110: e744 8040 bbf4 8240 8dd5 8740 950c 8140
00000120: 7bef 7e40 5b78 7f40 5918 8240 807b 8140
00000130: 5cb8 8140 4f3b 8140 9057 8140 9c2d 7f40
00000140: 5ae7 8cbd f399 8140 f032 8040 c1e6 7e40
00000150: 7c75 8040 286e 8240 44d3 8040 e753 7d40
00000160: b16b 8140 1088 8040 9457 8040 1945 8240
00000170: 622f 8140 7ab9 8240 cfa2 8140 b241 8140
00000180: cf76 8240 fe55 7f40 d4b9 8240 d10b 8140
00000190: c19a 8340 2d03 8340 9d1b 8240 30e0 7d40
000001a0: 95e7 8240 6eff 8040 c155 8140 01bf 7e40
000001b0: 082a 8740 0c9f 7e40 760c 8340 1497 8040
000001c0: ad97 8240 7430 8040 6060 8040 1e2e 7f40
000001d0: 68ab 8240 7e0f 8140 4494 8140 6067 8140
000001e0: b739 8440 7b7b 8140 d63d 8640 5dad 263d
000001f0: a011 8040 1db0 8140 09a0 7d40 a923 8040
00000200: b41f 0c40 c317 0b40 6fca 1040 fb9f 0d40
00000210: 9e83 0d40 405e 0940 aebb 0e40 f969 1140
00000220: 5308 1240 dad1 0c40 536e 0c40 9a0a 0a40
00000230: 31c2 1040 b55b 0f40 71ae 0940 2a90 1040
00000240: a533 1140 8bb7 0940 e7a4 0c40 afc8 0940
00000250: 4874 0940 abce 0d40 0691 1040 4233 0e40
00000260: 7558 0c40 5ba7 863d 1ca4 1240 13a5 0e40
00000270: 5942 0f40 dd11 1140 ce73 0a40 487f 0d40
00000280: d897 1140 3d4e 0a40 0991 0a40 60a5 0f40
00000290: 961e 1240 2e2e 0f40 f47f 1140 66de 0d40
000002a0: 9c59 1140 a3f9 1140 7ba0 0d40 0067 1240
000002b0: 3295 0b40 5cc8 0d40 68db 0f40 a29b 0a40
000002c0: 08e8 1040 078a 0f40 aa84 043d 3b40 0a40
000002d0: f2a7 0b40 9e2c 0d40 fe71 0940 344d 1140
000002e0: a24f 0e40 2a28 1040 4a11 0e40 e315 5b3d
000002f0: 08f5 1440 2272 0f40 0c64 0940 f309 0c40
00000300: e1d2 0d40 f49f 0c40 5f2b 0f40 dc73 0f40
00000310: bb8d 1040 b36b 0e40 53de 0740 19d6 1140
00000320: fcc1 0a40 a67e 0a40 32a2 0740 b2b6 1040
00000330: 66ef 1040 286d 0a40 db24 1140 1152 0e40
00000340: 02e5 80bd 3870 1040 1f8a 0a40 e1a6 0d40
00000350: 442a 0e40 b6a9 0940 4383 0e40 0f59 0e40
00000360: 8449 0f40 cdb3 0a40 d7e9 0b40 34c2 1040
00000370: 89be 0d40 2fae 0f40 ed43 0f40 e78e 0d40
00000380: cc29 1340 743d 0e40 8208 1140 c931 1240
00000390: 0926 0940 7eb9 1040 4db0 1040 aa2d 1140
000003a0: 6e44 0c40 542f 0d40 ee38 0c40 306b 0840
000003b0: 02d6 0840 8bae 0a40 bc91 0740 ed6f 1040
000003c0: 42b5 0c40 397f 0d40 b32e 0d40 256d 0940
000003d0: 2f78 0b40 e371 0d40 50f6 0940 bb93 0b40
000003e0: 6846 0c40 a175 0d40 5ddb 0f40 416c e7bc
000003f0: 60b7 0f40 2a2d 0d40 b57d 1240 7e60 0a40
4.000775 4.008674 3.99688 4.0141544 4.0903473 4.060118 3.988215 3.96737
4.0004563 4.094456 4.0639496 4.0663595 4.067764 4.0122023 4.0463324 3.9692097
3.9827542 4.049311 4.04364 3.9790847 4.041679 4.08311 4.014639 3.9670253
3.98314 -0.01228744 4.0376263 4.066003 4.0274773 3.9684365 4.0091386 4.005171
4.05948 4.0232825 4.028045 4.0902667 4.0451674 4.086261 3.967637 3.9854517
4.019349 4.0400715 4.0653815 3.994856 4.0849733 4.0116057 4.015065 4.0544834
3.983056 4.0089793 -0.025463887 4.0461597 3.988608 4.0792556 4.0296254 4.0932593
4.0631094 4.0551257 4.0216656 0.020930618 4.0404534 4.0030756 4.0014067 3.9673083
3.993784 4.0213323 3.969679 3.9575305 4.008411 4.0923743 4.244818 4.032786
3.9833667 3.991721 4.065472 4.0463257 4.053755 4.03849 4.041939 3.9871588
-0.06880064 4.0500426 4.006218 3.982834 4.0143414 4.075947 4.0257893 3.958246
4.044396 4.016609 4.0106907 4.070935 4.037034 4.085141 4.051124 4.0392694
4.077003 3.9896235 4.085184 4.0326924 4.112641 4.0941377 4.065871 3.9668083
4.0907693 4.0311804 4.041718 3.980408 4.223881 3.9784575 4.095271 4.018442
4.081015 4.0059147 4.0117645 3.9871898 4.0834236 4.033141 4.049349 4.043869
4.1320453 4.0463233 4.1950483 0.040692676 4.0021515 4.052748 3.9628928 4.004353
2.189435 2.1733253 2.2623556 2.2128894 2.2111583 2.1463776 2.230205 2.272093
2.281758 2.2003083 2.1942337 2.156897 2.2618525 2.2399724 2.151272 2.258799
2.2687771 2.1518276 2.1975648 2.1528738 2.1477222 2.215739 2.2588515 2.2218785
2.192899 0.06574889 2.2912664 2.2288253 2.2384245 2.2667153 2.1633182 2.2108936
2.2748928 2.1610253 2.1651022 2.2444687 2.2831168 2.2371936 2.2734346 2.2166991
2.2710943 2.2808616 2.21292 2.2875366 2.1809812 2.215354 2.2477665 2.165749
2.264162 2.2427995 0.03235308 2.1601703 2.1821256 2.2058482 2.1475825 2.270337
2.2236104 2.2524514 2.2198052 0.05348767 2.3274555 2.241341 2.1467314 2.1881073
2.215996 2.1972628 2.2370222 2.2414465 2.2586505 2.2253234 2.1229446 2.2786925
2.1680899 2.16398 2.1192746 2.2611508 2.2646117 2.1629124 2.2678745 2.223759
-0.0629368 2.2568493 2.1646802 2.2133105 2.2213297 2.1509833 2.2267616 2.2241857
2.238862 2.1672242 2.1861475 2.2618532 2.2147543 2.2450063 2.2385209 2.211847
2.299426 2.2225008 2.2661443 2.2842886 2.1429465 2.2613215 2.2607605 2.268412
2.1916766 2.2060137 2.1909747 2.1315422 2.138062 2.1669033 2.11827 2.2568314
2.198563 2.21089 2.2059753 2.1472867 2.1792104 2.210076 2.1556587 2.1808918
2.1917973 2.2103045 2.2477639 -0.028249862 2.2455673 2.2058816 2.2889225 2.1621394

layer3.bias f4 [98]
00000000: 22a3 ea3f 7eae 7e3f 546c 743f 01aa d03e
00000010: 77fd 973f 2a25 803f 9442 f13e ff52 173f
00000020: b924 9e3f 1daa 7040 ff7c a13f 2826 5841
00000030: b984 8f40 3d69 513f 0139 0040 0d3b 0141
00000040: 6dcd 0b41 a6ae 943e 52cb 393f faf8 2040
00000050: 3dae 003f 0e28 423f 0127 3641 b153 c43f
00000060: 15ec 1d41 dca4 f440 239c 0d41 3213 9e40
00000070: b131 6840 0af5 1d3f 32b0 963f 73ad e940
00000080: 2f37 db3f a770 9b3f a690 c23e 86b7 3b40
00000090: 6ae4 453f 128a 8d3f f96f 2c40 3440 2a41
000000a0: 2142 1841 43b2 2f41 7c85 de3f 321b b040
000000b0: 445d f03f 6355 493f 153d e13f 0ec0 603f
000000c0: deb0 af40 70f4 1440 d66b 1141 2aad 2041
000000d0: 4dd0 4a41 ea79 5440 fed8 e53f 1935 2c41
000000e0: 8e79 3141 5bb3 c340 ed86 a040 0150 1640
000000f0: ad42 2040 0c79 8b3f c838 3d40 fe1a ff40
00000100: bddc cb40 f93e 4641 c2c7 2d41 6c31 e03f
00000110: 4f87 a540 7fc9 bd40 ce4c ad40 48e6 3c41
00000120: 74c5 6941 6fa6 4d40 56c2 2e3f baae ca40
00000130: 6a77 283f dca5 533f 7c36 8640 ace8 e73f
00000140: 2721 443f 6c3c 7740 8f04 4141 33d4 ef3f
00000150: d255 d73f 13a7 7f41 6b3d 4040 ab9d 2341
00000160: 249c d240 bd0b a53f 34b1 ef3e 9785 ec3f
00000170: cac2 473f f28f ad3f 62da fb3f 8d53 1b41
00000180: 384f af40 50e7 db3f
1.8331034 0.99485004 0.95477796 0.40754703 1.1874226 1.0011342 0.47121108 0.59111017
1.2354957 3.760383 1.2616271 13.5093155 4.4849515 0.81801206 2.0034792 8.076917
8.737653 0.29039496 0.7257587 2.5151963 0.50265867 0.7584237 11.384522 1.533804
9.870137 7.6451244 8.850619 4.939843 3.628033 0.61702025 1.177252 7.302423
1.7126216 1.2143754 0.38000983 2.9330764 0.7730166 1.1057761 2.6943343 10.640675
9.516145 10.981021 1.7384486 5.5033197 1.8778462 0.78645915 1.7596766 0.8779305
5.49034 2.3274193 9.088827 10.042276 12.675855 3.319941 1.7956846 10.762963
11.092176 6.115644 5.0164704 2.348633 2.5040696 1.0896316 2.9565907 7.972045
6.3706956 12.390374 10.861269 1.7515082 5.172767 5.9308467 5.4156256 11.806221
14.610706 3.2132833 0.68265283 6.333829 0.6580721 0.82674956 4.194151 1.8117881
0.76613086 3.8630629 12.063613 1.8736633 1.6823065 15.97829 3.0037487 10.225993
6.58156 1.2894207 0.46814883 1.8478268 0.780316 1.3559554 1.967602 9.707898
5.4784203 1.7179966
