models/63/guerrilla_model_weights.pth (torch, 198120 bytes, 6 tensors)

layer1.weight f4 [128, 82]
0	0x4120e8ba	10.056818
1	0x411fad3a	9.979792
2	0x4016e6c6	2.3578353
3	0x4089b39d	4.3031754
4	0x3f8b199b	1.0867189
5	0x41204d8c	10.018932
6	0x41227d02	10.1555195
7	0x40949c28	4.644062
8	0x4031d2c9	2.7784903
9	0x411e2c24	9.8857765
10	0x4110c773	9.048694
11	0x3e9af640	0.30266
12	0xbd55ad12	-0.052167006
13	0x40216e80	2.5223694
14	0x411db38d	9.856336
15	0x411ae1b0	9.6800995
16	0x3e2d9130	0.16949916
17	0x3fc8a356	1.5674846
18	0x411918ee	9.568586
19	0x410cba12	8.795427
20	0xbda24bc4	-0.079246074
21	0x3f50d82c	0.8157985
22	0x3f387c03	0.72064227
23	0x410d4b13	8.830829
24	0xbcc661d7	-0.024216576
25	0xbd45ef81	-0.04832411
26	0x3d8251b4	0.0636324
27	0x3d75a876	0.05997511
28	0xbd90661f	-0.07050728
29	0x3be7c0b2	0.0070725316
30	0xbdad4cfb	-0.084619485
31	0x3d7fd77f	0.062461372
32	0xbd930235	-0.07178155
33	0x40ab52d6	5.353862
34	0x4106d0b3	8.425952
35	0x4121dba8	10.116127
36	0x41210c06	10.065435
37	0x410dc431	8.860398
38	0x41018c55	8.096761
39	0x40e3a991	7.114449
40	0x40ecedbc	7.4040203
41	0x41194c05	9.581059
42	0x4120a56a	10.040384
43	0x4120afa6	10.042883
44	0x411ecd9c	9.925198
45	0x411fe207	9.992682
46	0x4114585d	9.271573
47	0x40fcab54	7.895914
48	0x411a481b	9.642604
49	0x41200c6a	10.003031
50	0x412121fe	10.070799
51	0x411e2de2	9.886202
52	0x4115c344	9.360172
53	0x411672f7	9.403068
54	0x41124fd5	9.14449
55	0x411986bf	9.595397
56	0x411fc77e	9.986204
57	0x411f03c2	9.938417
58	0x411fce42	9.987856
59	0x411aafbf	9.667907
60	0x410f2cd5	8.948445
61	0x411512a4	9.317051
62	0x411bae65	9.730077
63	0x411af7b8	9.685478
64	0x411fcead	9.987958
65	0x411e40d3	9.890826
66	0x411b19a6	9.693762
67	0x411a02dc	9.625698
68	0x4100e8c3	8.056827
69	0x41189285	9.535771
70	0x4117d8b3	9.490405
71	0x411f4e8a	9.956675
72	0x411c499b	9.76797
73	0x411ca6d2	9.790728
74	0x410057fc	8.021481
75	0x40fa9e2d	7.8318086
76	0x4107a753	8.478351
77	0x410bb524	8.731724
78	0x411b909a	9.722803
79	0x411ab5a7	9.669349
80	0x40f47a90	7.6399612
81	0x40ea5152	7.322427
82	0x412017c6	10.005804
83	0x4121ffbe	10.124937
84	0x401cb143	2.4483192
85	0x4087f420	4.2485504
86	0x3f8d9169	1.1060001
87	0x412171d2	10.090288
88	0x412332e2	10.199923
89	0x40986a84	4.7630024
90	0x402bc697	2.683996
91	0x411fc7e8	9.986305
92	0x410f2689	8.946908
93	0x3ef87373	0.4852558
94	0x3dc73dd8	0.09728593
95	0x401a9669	2.4154303
96	0x411d1257	9.8169775
97	0x4119e411	9.61818
98	0x3e27036b	0.16309898
99	0x3fd055e5	1.6276213
100	0x411abf0a	9.67164
101	0x410d8c7b	8.846797
102	0x3d13996b	0.036034983
103	0x3f529501	0.8225861
104	0x3f46970a	0.7757422
105	0x410bc442	8.7354145
106	0xbd92f925	-0.07176427
107	0x3d9c267b	0.07624527
108	0xbda654b1	-0.08121622
109	0xbd82aaca	-0.06380232
110	0xbd678d9a	-0.056531526
111	0xbd92a871	-0.07161034
112	0x3d5c7022	0.053817876
113	0x3d79ea45	0.061014432
114	0x3ab7b606	0.0014016039
115	0x40ab58b7	5.3545794
116	0x41062daf	8.386153
117	0x4120bf1a	10.046656
118	0x41210c46	10.065496
119	0x410c6eb6	8.777029
120	0x40ffe28c	7.9964046
121	0x40df0ff0	6.9706955
122	0x40e7708e	7.2324896
123	0x4117ab2e	9.479292
124	0x4120a892	10.041155
125	0x411ef636	9.93511
126	0x4120078c	10.0018425
127	0x4120536d	10.020368
128	0x41160cd9	9.378137
129	0x41009429	8.036172
130	0x4119791d	9.592069
131	0x4120cfec	10.050762
132	0x41213034	10.074268
133	0x411c39c9	9.764108
134	0x41169770	9.411972
135	0x4116e6d4	9.4313545
136	0x411098b7	9.037284
137	0x411a6986	9.650763
138	0x412075b4	10.028736
139	0x412030d0	10.011917
140	0x412032d4	10.012409
141	0x411b570d	9.708753
142	0x410feaef	8.994857
143	0x41129d9b	9.163478
144	0x411a2be8	9.635719
145	0x411b2e07	9.698737
146	0x411e2548	9.884102
147	0x411d915a	9.847986
148	0x411b0f33	9.691211
149	0x4119ba4a	9.607981
150	0x40ff0e1c	7.9704723
151	0x4117abcf	9.479445
152	0x41191cc0	9.569519
153	0x411efe5c	9.937099
154	0x411ce8f5	9.806874
155	0x411c5c8c	9.772594
156	0x40ff07c8	7.9697
157	0x40f70362	7.719163
158	0x4108aba0	8.541901
159	0x410bb7d6	8.732382
160	0x41198f6c	9.597515
161	0x411acb0a	9.67457
162	0x40f5ab9c	7.6771984
163	0x40ec7e57	7.3904223
164	0x411ebd58	9.9212265
165	0x412043d4	10.01656
166	0x40181811	2.376469
167	0x408a1725	4.3153253
168	0x3f8a1433	1.0787414
169	0x411ff6ae	9.997725
170	0x4122e4aa	10.180826
171	0x4094c9f0	4.6496506
172	0x402f3806	2.7377944
173	0x411cd52c	9.802044
174	0x410e1860	8.880951
175	0x3e9b09e9	0.30280998
176	0x3d867bcc	0.06566581
177	0x40190930	2.3911858
178	0x411f4521	9.954377
179	0x411a009a	9.625147
180	0x3e2c6ac1	0.16837598
181	0x3fc54505	1.5411688
182	0x41191d89	9.569711
183	0x410d21ac	8.820721
184	0x3c2ce804	0.010553364
185	0x3f4d68c0	0.8023796
186	0x3f466cfb	0.7751004
187	0x410d30a2	8.824373
188	0xbd4bd4ce	-0.049763493
189	0x3d4165b5	0.047216136
190	0xbce41b88	-0.02784516
191	0xbbe1c9ff	-0.006890535
192	0xbdaf5fef	-0.0856322
193	0xbc949ee7	-0.018142177
194	0xbb042818	-0.00201655
195	0xbdcab321	-0.098974474
196	0x3da1573c	0.07877967
197	0x40acf6f7	5.405147
198	0x4107e74b	8.493968
199	0x4120f07a	10.05871
200	0x411f84ae	9.9698925
201	0x410f3ab4	8.951832
202	0x4100035c	8.00082
203	0x40e3d55e	7.119796
204	0x40ea6258	7.324505
205	0x4116f1e6	9.434057
206	0x412007dc	10.001919
207	0x411fa22a	9.977091
208	0x411fe6d6	9.993856
209	0x411d4ed8	9.831749
210	0x411662bb	9.399104
211	0x40ff34e0	7.9752045
212	0x41181755	9.505696
213	0x411ebd72	9.921251
214	0x412136da	10.0758915
215	0x411e335f	9.887542
216	0x41182e72	9.511339
217	0x41174ec8	9.456734
218	0x41125794	9.146381
219	0x411a19ea	9.631327
220	0x41210402	10.063478
221	0x411ff6d6	9.997763
222	0x41209e18	10.038597
223	0x411aa0d9	9.664269
224	0x410fbce0	8.983612
225	0x4112506f	9.144637
226	0x411a6c34	9.651417
227	0x411b90c0	9.722839
228	0x411f7889	9.966928
229	0x411ed54c	9.927074
230	0x411d0bb8	9.815361
231	0x411a7a35	9.654836
232	0x40ff7ef3	7.9842467
233	0x411753f2	9.457994
234	0x4118661c	9.524929
235	0x411f42ef	9.953841
236	0x411cbfa0	9.796783
237	0x411d178e	9.818251
238	0x40fed8dc	7.963972
239	0x40fab0d3	7.834085
240	0x41097058	8.589928
241	0x410ab3ca	8.668894
242	0x411b1c5b	9.694423
243	0x411c1366	9.754736
244	0x40f6ce24	7.7126637
245	0x40e89173	7.267755
246	0x4120a326	10.039831
247	0x411faf52	9.980303
248	0x401e567d	2.4740288
249	0x40877cea	4.2339983
250	0x3f8668d3	1.050074
251	0x41219a8e	10.100233
252	0x412351f6	10.20751
253	0x4094b8db	4.6475654
254	0x4027fa39	2.6246474
255	0x411db55a	9.856775

layer1.bias f4 [128]
0	0x411ef586	9.934942
1	0x411f0e16	9.940939
2	0x4121330c	10.074963
3	0x41212e74	10.073841
4	0x411e2dd0	9.886185
5	0x411f06a6	9.939123
6	0x411eed14	9.93288
7	0x411f3852	9.95125
8	0x411e796e	9.904646
9	0x411f0cf4	9.940662
10	0x411eb260	9.918549
11	0x4120a61a	10.040552
12	0x411ed14a	9.926096
13	0x41210f1c	10.066189
14	0x4120fa24	10.0610695
15	0x411ee76c	9.9314995
16	0x41210bcc	10.06538
17	0x411e328c	9.887341
18	0x4120645e	10.024504
19	0x412078e4	10.029514
20	0x411e4892	9.892717
21	0x411f2922	9.947542
22	0x411ec0f4	9.922108
23	0x411e9704	9.911869
24	0x4120c564	10.048191
25	0x411e2b6c	9.885601
26	0x41211f3e	10.0701275
27	0x411e1c50	9.881912
28	0x411fd9b0	9.990646
29	0x411f4c8a	9.956186
30	0x411f2580	9.946655
31	0x411e4474	9.891712
32	0x41203152	10.012041
33	0x4121045a	10.063562
34	0x41214104	10.078373
35	0x41203b96	10.014547
36	0x411f2b0a	9.948008
37	0x411e7044	9.902409
38	0x411e4e1c	9.89407
39	0x411f2f36	9.949026
40	0x41210b32	10.065233
41	0x411e7b2e	9.905073
42	0x4120992c	10.0373955
43	0x4121476a	10.079935
44	0x411f98f8	9.974846
45	0x411ff338	9.99688
46	0x41212448	10.071358
47	0x41201ef2	10.007555
48	0x411fdbc0	9.99115
49	0x411ff37e	9.996946
50	0x4120e724	10.056431
51	0x411f4242	9.953676
52	0x41202c02	10.010744
53	0x41200e2c	10.00346
54	0x412086ce	10.032911
55	0x4120aa38	10.041557
56	0x411ee5e0	9.931122
57	0x41209884	10.037235
58	0x411ebd78	9.921257
59	0x4120da92	10.053362
60	0x411fa398	9.97744
61	0x411f3ac4	9.951847
62	0x411ed91c	9.928005
63	0x411ebe6a	9.921488
64	0x412127c8	10.072212
65	0x411ef88e	9.935682
66	0x41214f08	10.081795
67	0x41208aa8	10.033852
68	0x411e564e	9.8960705
69	0x41201718	10.005638
70	0x411e310a	9.886972
71	0x411ff602	9.9975605
72	0x411ff442	9.997133
73	0x411e1ade	9.881559
74	0x41205c46	10.022528
75	0x411f5320	9.957794
76	0x41210af6	10.065176
77	0x411ff2b8	9.9967575
78	0x411de9ad	9.86955
79	0x411fae94	9.980122
80	0x41211086	10.066534
81	0x411e52b8	9.895195
82	0x411f081c	9.93948
83	0x4120b8aa	10.045084
84	0x411e1c53	9.881915
85	0x411e27d9	9.884728
86	0x411e5402	9.89551
87	0x411f032e	9.938276
88	0x412066ac	10.025066
89	0x411faa38	9.979057
90	0x412089b8	10.033623
91	0x411ea960	9.916351
92	0x411e569c	9.896145
93	0x41205a20	10.022003
94	0x411e7556	9.903646
95	0x4120612c	10.023724
96	0x41210a8a	10.065073
97	0x41206404	10.024418
98	0x411ec9cc	9.924267
99	0x412137ee	10.076155
100	0x411ecb44	9.924625
101	0x4120f932	10.060839
102	0x411e667e	9.9000225
103	0x411fd9c2	9.990664
104	0x412146b0	10.079758
105	0x41205eaa	10.023111
106	0x411f2462	9.9463825
107	0x411f3464	9.950291
108	0x411e35f8	9.888176
109	0x411e95c6	9.911566
110	0x4120dde0	10.054169
111	0x41208484	10.032352
112	0x411fd250	9.988846
113	0x4120784e	10.029371
114	0x411eba34	9.92046
115	0x411fdaf2	9.990953
116	0x411e7b94	9.90517
117	0x411f7a46	9.967352
118	0x411f9ea8	9.976234
119	0x41209d3e	10.038389
120	0x4120e048	10.054756
121	0x411e8880	9.908325
122	0x41203b88	10.014534
123	0x411e3c34	9.889698
124	0x411e708a	9.902475
125	0x411fb452	9.9815235
126	0x411f60f2	9.961168
127	0x411eeeb2	9.933275

layer2.weight f4 [128, 128]
0	0x41215f52	10.085772
1	0x41229876	10.162222
2	0x4120c912	10.049089
3	0x41218802	10.095705
4	0x4121e2c6	10.117865
5	0x41211a54	10.068928
6	0x4123824a	10.219309
7	0x4122807c	10.156368
8	0x412189e6	10.096167
9	0x41221b8e	10.131727
10	0x4122dbb6	10.17864
11	0x4120f3aa	10.059488
12	0x4121d70e	10.115004
13	0x4122d43e	10.176817
14	0x41223f88	10.140511
15	0x41232104	10.19556
16	0x4122a49e	10.16519
17	0x41214502	10.079348
18	0x412262e4	10.149143
19	0x412226bc	10.134457
20	0x4122a8a2	10.16617
21	0x4122ef14	10.183369
22	0x4121db70	10.116074
23	0x4122c202	10.172365
24	0x4122c682	10.173464
25	0x4121b798	10.107323
26	0x4122954c	10.161449
27	0x4122f9d0	10.185989
28	0x4120eeda	10.058313
29	0x4120eeea	10.058329
30	0x4121f436	10.122122
31	0x41233384	10.200077
32	0x412185ec	10.095196
33	0x4120ca82	10.04944
34	0x4122004e	10.125074
35	0x4121586c	10.084087
36	0x41209d28	10.038368
37	0x4121315c	10.074551
38	0x41230d5c	10.190762
39	0x41224b8e	10.143446
40	0x4122df84	10.179569
41	0x4121c930	10.111618
42	0x41222bf4	10.135731
43	0x41229b5e	10.162931
44	0x41226042	10.1485
45	0x4121d94e	10.115553
46	0x41213944	10.076481
47	0x412112ca	10.067087
48	0x412273f6	10.153311
49	0x41223708	10.138435
50	0x412192e8	10.098366
51	0x4120e270	10.055283
52	0x4122a4de	10.165251
53	0x41227d4e	10.155592
54	0x4121c34e	10.110182
55	0x4121a97c	10.103878
56	0x41213e34	10.077686
57	0x4122d40e	10.176771
58	0x41230360	10.188324
59	0x41223e24	10.140171
60	0x41226a62	10.150972
61	0x412275ae	10.15373
62	0x4121bac4	10.108097
63	0x4121953c	10.098934
64	0x4122a394	10.164936
65	0x412249e4	10.14304
66	0x4120a870	10.041122
67	0x41213236	10.074759
68	0x412281cc	10.156689
69	0x412118a4	10.068516
70	0x41222978	10.135124
71	0x41224c5a	10.1436405
72	0x41212cec	10.073467
73	0x41221a0a	10.131357
74	0x41211c7e	10.069456
75	0x41219d4c	10.100903
76	0x4120acb0	10.04216
77	0x4120fdd0	10.061966
78	0x4121f66e	10.1226635
79	0x4120a084	10.039188
80	0x41229f0a	10.163828
81	0x4122353c	10.137997
82	0x41209b16	10.037863
83	0x41210c64	10.065525
84	0x4120dc74	10.053822
85	0x412268cc	10.150585
86	0x412106e6	10.064184
87	0x4121d8a8	10.115395
88	0x41219274	10.098255
89	0x412205dc	10.1264305
90	0x412256b4	10.146168
91	0x4121aaae	10.10417
92	0x4121bb2e	10.108198
93	0x4122a822	10.166048
94	0x4120d4aa	10.05192
95	0x41213552	10.075518
96	0x4120f992	10.06093
97	0x4122a264	10.164646
98	0x41232af0	10.197983
99	0x412290d0	10.160355
100	0x41222eec	10.136456
101	0x412084ce	10.032423
102	0x4122e8be	10.181822
103	0x41219746	10.099432
104	0x4121b86c	10.107525
105	0x4121efb2	10.121019
106	0x4121baae	10.108076
107	0x41223bfa	10.139643
108	0x41226eb4	10.152027
109	0x4122fb88	10.186409
110	0x4123110e	10.191664
111	0x4120902a	10.035196
112	0x41226c1c	10.151394
113	0x41213f5a	10.077967
114	0x4122db36	10.178518
115	0x4120b0b8	10.043144
116	0x41231ac8	10.194038
117	0x4122604e	10.148512
118	0x41229092	10.1602955
119	0x4120b848	10.044991
120	0x4120e916	10.056906
121	0x41226826	10.150427
122	0x41220f36	10.128714
123	0x41224446	10.141668
124	0x412283e4	10.1572
125	0x412223d0	10.133743
126	0x41229bf0	10.163071
127	0x412304e2	10.188692
128	0x41220ba8	10.127846
129	0x4120b63e	10.044493
130	0x4120a850	10.041092
131	0x41213bf4	10.077137
132	0x4121ff34	10.124805
133	0x412260f0	10.148666
134	0x41221f30	10.132614
135	0x4122a86a	10.166117
136	0x4120dc76	10.053823
137	0x41228e4a	10.159739
138	0x4122fbfa	10.186518
139	0x4122e20a	10.180185
140	0x412097fe	10.037107
141	0x41215838	10.084038
142	0x4122dc6c	10.178814
143	0x4121eefa	10.120844
144	0x4121128c	10.067028
145	0x4122e2ac	10.18034
146	0x4120a0fe	10.039305
147	0x41223eb0	10.140305
148	0x41212d68	10.0735855
149	0x412320ee	10.195539
150	0x4122e394	10.180561
151	0x4120bb7c	10.045773
152	0x4122e61e	10.181181
153	0x41222cd8	10.135948
154	0x41207a3c	10.029842
155	0x41207e54	10.030842
156	0x41208e2c	10.03471
157	0x4122c9c8	10.174263
158	0x41216c82	10.088991
159	0x412217c0	10.130798
160	0x412280e0	10.156464
161	0x41225706	10.146246
162	0x4121d72a	10.11503
163	0x4122092c	10.127239
164	0x4122bf48	10.1717
165	0x41215b98	10.084862
166	0x41215cee	10.085188
167	0x41215d0c	10.0852165
168	0x41219d0c	10.1008415
169	0x4121e6fa	10.118891
170	0x4120c382	10.047731
171	0x41207dd4	10.03072
172	0x41215690	10.083633
173	0x41225034	10.144581
174	0x4122cc1a	10.1748295
175	0x4120e99a	10.057032
176	0x41226878	10.150505
177	0x4121a9f6	10.103994
178	0x41216724	10.087681
179	0x41219982	10.0999775
180	0x412154fa	10.083246
181	0x41221fd4	10.132771
182	0x4121c046	10.109442
183	0x41221978	10.131218
184	0x4122360a	10.138193
185	0x41219964	10.099949
186	0x41209714	10.036884
187	0x4121f322	10.121859
188	0x41213a54	10.07674
189	0x4120c358	10.047691
190	0x41224d14	10.143818
191	0x41230728	10.189247
192	0x4121e46e	10.118269
193	0x4122bd80	10.171265
194	0x41210682	10.064089
195	0x41229896	10.162252
196	0x41210b9e	10.065336
197	0x4122fee0	10.187225
198	0x4121b558	10.106773
199	0x41222fe2	10.13669
200	0x412139c0	10.076599
201	0x4121f5c2	10.122499
202	0x41212638	10.071831
203	0x4123144e	10.192457
204	0x41216fcc	10.089794
205	0x4121c7c8	10.111275
206	0x41216cac	10.089031
207	0x4120b50a	10.044199
208	0x4122113c	10.129208
209	0x4121a564	10.102879
210	0x41225310	10.145279
211	0x4122b3ce	10.168898
212	0x412117a8	10.068275
213	0x412256f0	10.146225
214	0x41228086	10.156378
215	0x41212da6	10.073645
216	0x4122be66	10.171484
217	0x412067f0	10.025375
218	0x41220bca	10.127878
219	0x4120db08	10.053474
220	0x41223422	10.137728
221	0x4120d862	10.052828
222	0x4121a634	10.103077
223	0x41220466	10.126074
224	0x41216048	10.086006
225	0x4120d894	10.0528755
226	0x41222bec	10.135723
227	0x41218902	10.095949
228	0x412317c0	10.193298
229	0x4120c076	10.046988
230	0x41220aa0	10.127594
231	0x4120b7a2	10.044832
232	0x4121491c	10.080349
233	0x4121baa0	10.108063
234	0x41216d0c	10.089123
235	0x41215024	10.082066
236	0x4120dc64	10.053806
237	0x4122d234	10.176319
238	0x41227a22	10.154818
239	0x4121f948	10.12336
240	0x4122ace2	10.167208
241	0x4120d05e	10.050871
242	0x4121d298	10.1139145
243	0x4122f744	10.185368
244	0x41234352	10.203936
245	0x412201ce	10.125441
246	0x41223470	10.137802
247	0x4121ad10	10.104752
248	0x4122b8f6	10.1701565
249	0x41219800	10.099609
250	0x4121f836	10.123098
251	0x4120c458	10.0479355
252	0x4121f154	10.121418
253	0x4121ed9a	10.120508
254	0x412113d2	10.067339
255	0x4121ef60	10.120941

layer2.bias f4 [128]
0	0x4120e883	10.056766
1	0x41200129	10.000283
2	0x411ff5c1	9.9974985
3	0x412083db	10.032191
4	0x4121792e	10.092085
5	0x4121965e	10.099211
6	0x411f4e48	9.956612
7	0x41208ad2	10.033892
8	0x411ffd3f	9.999328
9	0x411f34ec	9.95042
10	0x41218c56	10.096762
11	0x412124e0	10.071503
12	0x411fd91b	9.990504
13	0x41217ac6	10.092474
14	0x411f5b96	9.95986
15	0x4120ede4	10.058079
16	0x4121192f	10.068648
17	0x4120e336	10.055471
18	0x411fd304	9.9890175
19	0x411fcd62	9.987642
20	0x411ef65c	9.935146
21	0x41207e65	10.030858
22	0x412161b6	10.086355
23	0x411f392f	9.951461
24	0x412194c7	10.098823
25	0x412062b6	10.024099
26	0xbd11cd75	-0.03559633
27	0x411fd6e8	9.989967
28	0x411fa63f	9.978087
29	0xbd8a7652	-0.06760849
30	0x41203aa0	10.014313
31	0x4121c158	10.109703
32	0x411f9a07	9.975104
33	0xbd8deff6	-0.069305345
34	0x41215378	10.082878
35	0x41209acd	10.037793
36	0x411f6726	9.962683
37	0x411ff66d	9.997663
38	0x412024a2	10.008944
39	0x4120fd6c	10.061871
40	0x411fa4d5	9.977742
41	0x411feb5e	9.994963
42	0x4121203c	10.07037
43	0x412191eb	10.0981245
44	0x41213331	10.074998
45	0x3c18b04f	0.009319379
46	0x41201ab9	10.006524
47	0x412178c9	10.091989
48	0x411fbcf8	9.983635
49	0x411fa3d4	9.977497
50	0x41216de1	10.089326
51	0xbd606db7	-0.054792132
52	0x411fc25e	9.984953
53	0x41216334	10.0867195
54	0x4120c81e	10.048857
55	0x41210af5	10.065175
56	0x412196d0	10.099319
57	0x412195f8	10.099113
58	0x4120f4fa	10.059809
59	0x411fa229	9.97709
60	0x4120d2f5	10.051503
61	0x41215b9c	10.084866
62	0x411f3424	9.95023
63	0x4121782e	10.091841
64	0x411f60d8	9.9611435
65	0x4120bf10	10.046646
66	0x4121558b	10.0833845
67	0x4120e5c2	10.056093
68	0x41207898	10.029442
69	0x4121337e	10.075071
70	0x41205407	10.0205145
71	0x4120dbf8	10.053703
72	0x411fadf4	9.979969
73	0x41209e9b	10.038722
74	0x41217d6d	10.093122
75	0x41208504	10.0324745
76	0xbda13243	-0.07870915
77	0x4120d635	10.052297
78	0x411f694e	9.963209
79	0x411fc6c8	9.986031
80	0x411ff4c8	9.997261
81	0x412021cc	10.008251
82	0x41209a1c	10.037624
83	0x41214196	10.078512
84	0x41216bc9	10.088815
85	0x411ff409	9.997079
86	0x4121adf6	10.104971
87	0x412127f9	10.072259
88	0x411f3338	9.950005
89	0x4120ea52	10.057207
90	0x41201432	10.0049305
91	0x412110f5	10.06664
92	0x41214861	10.080171
93	0x41208ed4	10.03487
94	0x4121ae20	10.105011
95	0x411f4ce0	9.956268
96	0x411f8770	9.970566
97	0x412059bb	10.021907
98	0x411f819a	9.969141
99	0x41214289	10.078744
100	0x4121469c	10.079739
101	0x411fa318	9.977318
102	0xbb487ff9	-0.0030593856
103	0x411f8738	9.970512
104	0x41212f72	10.074083
105	0x4120debf	10.054381
106	0x41209a20	10.037628
107	0x41215f36	10.085745
108	0x41205413	10.020526
109	0x41212ec2	10.0739155
110	0x4121b985	10.107793
111	0x4120065a	10.001551
112	0x4120aaec	10.041729
113	0x411fd315	9.989034
114	0x4120fad6	10.061239
115	0x41209f56	10.0389
116	0x4120ce44	10.050358
117	0x411f4bd3	9.956012
118	0x411fe399	9.993066
119	0x41207a46	10.029852
120	0x4120ba26	10.045446
121	0x4120ee5c	10.058193
122	0x41215434	10.083057
123	0x41219bfa	10.10058
124	0x411f5b7b	9.959834
125	0xbd4fb7f8	-0.050712556
126	0x411f8598	9.970116
127	0x41200ef0	10.003647

layer3.weight f4 [168, 128]
0	0x3faec042	1.3652422
1	0x3fa08d57	1.2543133
2	0x3fab4d67	1.3382996
3	0x3fb39f5e	1.403301
4	0x3fb37e14	1.4022851
5	0x3fa5ca83	1.2952427
6	0x3fa51820	1.2897987
7	0x3fa6ecd1	1.3041021
8	0x3fa0662a	1.2531178
9	0x3fa16b75	1.2610918
10	0x3fa49e4b	1.2860807
11	0x3fa1762e	1.261419
12	0x3fa3b7d4	1.2790475
13	0x3fb41c06	1.4071052
14	0x3fa58f08	1.2934275
15	0x3fa8ba42	1.3181841
16	0x3fa16074	1.260756
17	0x3faa8d14	1.3324304
18	0x3fa0f828	1.2575731
19	0x3faf0bdc	1.3675494
20	0x3fadae74	1.3568864
21	0x3fa39aef	1.2781657
22	0x3fab8a8b	1.3401655
23	0x3fb60d7d	1.4222866
24	0x3fa7caba	1.3108742
25	0x3faafa5e	1.3357656
26	0xbd42d1c4	-0.04756333
27	0x3fad0c39	1.3519355
28	0x3fa465a1	1.2843515
29	0x3d2c8747	0.042121198
30	0x3faba369	1.3409244
31	0x3fa854a6	1.3150833
32	0x3faeca73	1.3655533
33	0xbd41bfc0	-0.047302008
34	0x3fb04846	1.3772056
35	0x3fa70d7d	1.3050991
36	0x3fa117af	1.2585353
37	0x3fa69418	1.3013945
38	0x3fb3ac6b	1.4036993
39	0x3fa7a1d2	1.3096259
40	0x3faa24f6	1.329253
41	0x3faa305a	1.3296006
42	0x3fa3ff65	1.2812315
43	0x3fb102dc	1.3828998
44	0x3fa84a9d	1.314777
45	0xbc405f5a	-0.011741484
46	0x3fae860e	1.363466
47	0x3fa92e56	1.3217266
48	0x3fa1caf9	1.2640067
49	0x3fab444d	1.3380219
50	0x3fb3b52b	1.4039663
51	0xbd838a1c	-0.06422827
52	0x3fa373c2	1.2769701
53	0x3faf8e5c	1.371532
54	0x3fa10ad1	1.2581426
55	0x3fa0fb3c	1.2576671
56	0x3faaabc3	1.3333668
57	0x3fad4dd6	1.3539379
58	0x3fa254ef	1.268217
59	0x3faf60a6	1.370137
60	0x3fa431a1	1.2827646
61	0x3faa1e34	1.3290467
62	0x3faf9eff	1.3720397
63	0x3fa758b1	1.3073941
64	0x3fa9c888	1.3264322
65	0x3fa2222e	1.2666681
66	0x3fb0ccdb	1.3812517
67	0x3fa1098a	1.2581036
68	0x3fb02a8a	1.3762982
69	0x3fa55d68	1.291913
70	0x3fa8bc5f	1.3182486
71	0x3fa8b926	1.3181503
72	0x3fa2510e	1.2680986
73	0x3fb2330d	1.392183
74	0x3fb42665	1.4074217
75	0x3fadf994	1.359179
76	0xbcb908b2	-0.022587154
77	0x3faf01d0	1.3672428
78	0x3fb2f382	1.3980563
79	0x3fa09273	1.2544693
80	0x3faf1d66	1.3680847
81	0x3fad1c55	1.3524271
82	0x3fb1e034	1.3896546
83	0x3fab7a2b	1.3396658
84	0x3fa918a3	1.3210644
85	0x3fa37af9	1.2771903
86	0x3fa7758c	1.3082747
87	0x3fa173b0	1.261343
88	0x3fa4ece7	1.2884797
89	0x3fad364d	1.3532196
90	0x3fa1c3a5	1.2637831
91	0x3fa61bda	1.297725
92	0x3fa26880	1.2688141
93	0x3fa75bec	1.3074927
94	0x3fb0c95e	1.3811452
95	0x3fa307fb	1.273681
96	0x3fac1622	1.3444254
97	0x3fa2c629	1.2716724
98	0x3fadbbde	1.3572958
99	0x3fab08ca	1.3362057
100	0x3fa2d1d3	1.2720283
101	0x3faec2d8	1.3653212
102	0x3da303dc	0.079597205
103	0x3fa492a7	1.2857255
104	0x3fabe905	1.3430487
105	0x3fa93c3d	1.3221508
106	0x3fa55fe4	1.2919888
107	0x3fa799ec	1.3093848
108	0x3fa62500	1.2980042
109	0x3fa7a4d6	1.3097179
110	0x3fa3603d	1.2763745
111	0x3fa2ea7e	1.2727811
112	0x3fa0c4af	1.2560023
113	0x3fa2014b	1.2656645
114	0x3fa3e59f	1.280445
115	0x3fa6e486	1.303849
116	0x3fb2fa66	1.3982666
117	0x3fa27271	1.2691175
118	0x3fa2c45f	1.2716178
119	0x3fad7c80	1.3553619
120	0x3fa23760	1.2673149
121	0x3fa69b04	1.3016057
122	0x3fa8c5f0	1.3185406
123	0x3fb2be95	1.3964411
124	0x3fa2ec9a	1.2728455
125	0xbd10aee5	-0.035323042
126	0x3faddb4c	1.3582549
127	0x3fb29ac5	1.3953482
128	0x3ecc0133	0.39844665
129	0x3ed7d5c5	0.4215528
130	0x3ef80407	0.48440573
131	0x3ee45df1	0.44602922
132	0x3ec03ff7	0.375488
133	0x3ef3fab7	0.47652218
134	0x3ec034d1	0.37540296
135	0x3ee56890	0.44806337
136	0x3ee03438	0.4378984
137	0x3efa1ab4	0.48848498
138	0x3eca1c98	0.3947494
139	0x3ec8e8f2	0.39240223
140	0x3edb990f	0.42890212
141	0x3f006376	0.50151765
142	0x3ee6451c	0.449746
143	0x3f038e36	0.5138887
144	0x3ec78093	0.38965282
145	0x3edd128f	0.43178222
146	0x3ef19e23	0.4719096
147	0x3eeb94fb	0.460121
148	0x3f050fd9	0.51977307
149	0x3eeaca5b	0.4585751
150	0x3ece81cc	0.40333402
151	0x3ebb3984	0.36567318
152	0x3ee638f1	0.44965318
153	0x3f0504ad	0.5196026
154	0xbd6f02fa	-0.058352448
155	0x3ef5e2f4	0.48024714
156	0x3f029577	0.51009315
157	0xbd56580e	-0.05233007
158	0x3eecd823	0.4625865
159	0x3f037cce	0.5136231
160	0x3ed33cbb	0.4125727
161	0x3c0b4dba	0.008502418
162	0x3efd6bb6	0.4949624
163	0x3eeb68bc	0.45978343
164	0x3ed90533	0.4238678
165	0x3ec4c6ca	0.38432914
166	0x3ed180d9	0.40918615
167	0x3ed3a094	0.4133345
168	0x3ec91847	0.39276335
169	0x3ed065cf	0.40702674
170	0x3ee7878d	0.45220605
171	0x3ebfd63c	0.37468135
172	0x3efeb6d9	0.49748877
173	0xbd88179f	-0.0664513
174	0x3ed66b08	0.41878533
175	0x3ecfe021	0.40600684
176	0x3ee4bfe9	0.44677666
177	0x3ecd6c0f	0.40121505
178	0x3f00e03b	0.5034215
179	0x3d8341fd	0.06409071
180	0x3ed76f2e	0.4207701
181	0x3ee6518d	0.44984093
182	0x3ed923fd	0.4241027
183	0x3ee40761	0.4453688
184	0x3edc1e3e	0.42991823
185	0x3eccde37	0.40013286
186	0x3ed11cf4	0.40842402
187	0x3ed495e0	0.41520596
188	0x3edee583	0.4353448
189	0x3ec2e7d4	0.38067496
190	0x3edf9956	0.43671674
191	0x3ec72be4	0.38900673
192	0x3ef83a97	0.484822
193	0x3ec9a777	0.39385578
194	0x3efa1e62	0.48851305
195	0x3ecc5789	0.39910534
196	0x3ed5090e	0.4160847
197	0x3ec1429b	0.37746128
198	0x3ef26a1b	0.47346577
199	0x3ec1fdbe	0.37888902
200	0x3eef4d7b	0.467388
201	0x3eebb30b	0.46035036
202	0x3ef676c3	0.48137483
203	0x3ec0f378	0.37685752
204	0x3d81b7d7	0.06333893
205	0x3ec90366	0.39260405
206	0x3f007f60	0.5019436
207	0x3ec01345	0.375147
208	0x3ef70c4f	0.48251578
209	0x3f025224	0.50906587
210	0x3ee1836a	0.44045573
211	0x3eefe033	0.46850738
212	0x3ec7ce5a	0.3902462
213	0x3ebffc2d	0.37497082
214	0x3eea37ef	0.457458
215	0x3efaa8a0	0.48956776
216	0x3ee2588f	0.4420819
217	0x3ec1077a	0.37701017
218	0x3f001206	0.500275
219	0x3effe016	0.49975652
220	0x3ecc32eb	0.39882597
221	0x3eca6d13	0.39536342
222	0x3ec08b72	0.37606388
223	0x3efa4678	0.48881888
224	0x3ebcbb49	0.36861637
225	0x3ecf81a6	0.405286
226	0x3edee083	0.43530664
227	0x3ec1db61	0.37862685
228	0x3ec7cabd	0.39021865
229	0x3f049631	0.51791674
230	0xbd93a11d	-0.07208464
231	0x3ef20f83	0.4727746
232	0x3ec9dc1f	0.39425752
233	0x3ebe3d34	0.3715607
234	0x3ececf92	0.4039274
235	0x3f01f479	0.5076366
236	0x3ed68871	0.41900972
237	0x3ec872c8	0.3915007
238	0x3efb7b7b	0.49117646
239	0x3ed89b66	0.4230606
240	0x3ecd2440	0.4006672
241	0x3edcc7a3	0.4312106
242	0x3ec470f9	0.3836744
243	0x3ee80479	0.45315912
244	0x3edcfb92	0.43160683
245	0x3ef57af4	0.47945368
246	0x3ed0d6d2	0.40788895
247	0x3ee09676	0.43864793
248	0x3ef158db	0.47138104
249	0x3f05b29f	0.5222568
250	0x3ef437b8	0.4769876
251	0x3ebc2b28	0.36751676
252	0x3f057d5c	0.5214441
253	0x3c1bc70d	0.009507907
254	0x3edcf48f	0.43155333
255	0x3ed6c6a7	0.41948435

layer3.bias f4 [168]
0	0x3f13abc0	0.57683945
1	0x3e7f8e9c	0.24956745
2	0x4009d232	2.1534543
3	0x411799cd	9.475049
4	0x3f0386a8	0.51377344
5	0x3f20c5b6	0.6280168
6	0x3f8d49f2	1.1038191
7	0x3fe2b003	1.7709965
8	0x3ea4c319	0.32180098
9	0x411a122f	9.629439
10	0x40072fd0	2.1122932
11	0x4012f0a4	2.2959375
12	0x3f222337	0.63334984
13	0x4009c57f	2.1526792
14	0x3f1b5e42	0.606907
15	0x3f2f83c5	0.6856044
16	0x3f835bd5	1.02624
17	0x3f0a9093	0.5412685
18	0x3ed606be	0.4180202
19	0x400096f5	2.0092137
20	0x3f3e1fb4	0.74267125
21	0x3f583cc2	0.8446771
22	0x403bef39	2.936476
23	0x40297e08	2.6483173
24	0x401b54b4	2.4270449
25	0x3f0ae94a	0.5426222
26	0x3fb24d54	1.3929849
27	0x3fa7ec52	1.3118994
28	0x3fc93a07	1.5720834
29	0x3fa3b8db	1.2790788
30	0x3f88dca2	1.0692332
31	0x3f18e86b	0.5972964
32	0x411aa8a2	9.66617
33	0x3fdd88bd	1.7307354
34	0x3feaea1d	1.8352696
35	0x401a712e	2.413158
36	0x3f06a350	0.52592945
37	0x4022a396	2.5412345
38	0x3f4d3a12	0.80166733
39	0x3f1ee47f	0.6206741
40	0x3eda0def	0.42588755
41	0x3f02c48f	0.51081175
42	0x3f379dad	0.7172497
43	0x3fe01fc6	1.7509696
44	0x3e3903e4	0.1806789
45	0x3f14adc0	0.5807762
46	0x3f24883c	0.6427038
47	0x3f17b196	0.5925535
48	0x400aa692	2.1664166
49	0x4029ee2d	2.655162
50	0x40157ad6	2.3356223
51	0x3f1c7be9	0.6112657
52	0x3f287a4b	0.65811604
53	0x3fecc9a1	1.8499032
54	0x3fb86009	1.4404308
55	0x3fbbfbbd	1.46862
56	0x3f21227a	0.6294323
57	0x401f24de	2.4866252
58	0x41027a1d	8.154813
59	0x3fd6ecc0	1.6791
60	0x40248af3	2.5709808
61	0x3fb7dbde	1.4363973
62	0x3f3b5c5d	0.7318781
63	0x402e74c3	2.7258766
64	0x3f2509b7	0.6446795
65	0x3f9a8936	1.2073123
66	0x3f1fd5d4	0.6243565
67	0x3f642dae	0.891322
68	0x3f2e7c74	0.6815865
69	0x3eb348e7	0.35016558
70	0x3e98bd7a	0.2983206
71	0x3efdb754	0.4955393
72	0x3ec7bcb1	0.39011148
73	0x3eb3b230	0.35096884
74	0x3ff1e54e	1.8898103
75	0x3fb60719	1.4220916
76	0x3fb9769f	1.4489325
77	0x3f10fe8f	0.56638426
78	0x3ecd2fce	0.40075535
79	0x3ff42698	1.9074278
80	0x3fb4034f	1.406351
81	0x3fcc1314	1.5943322
82	0x3efaf778	0.4901693
83	0x3fb8b54f	1.4430331
84	0x40bccab7	5.8997455
85	0x3ff9ff68	1.9531069
86	0x3f88aba6	1.0677383
87	0x3fafe903	1.3742985
88	0x3f08c29a	0.5342194
89	0x3fd1cfbe	1.6391523
90	0x3f19832e	0.5996579
91	0x3f19fb2c	0.6014888
92	0x3ee95695	0.4557387
93	0x3fd323b9	1.6495277
94	0x3f4b37cc	0.79382014
95	0x3ef9f0e5	0.488166
96	0x3ef1562a	0.4713605
97	0x3ff0e8de	1.8821065
98	0x3f033d0b	0.5126502
99	0x3edc82ed	0.43068638
100	0x3ed6f575	0.41984144
101	0x3ec8e263	0.3923522
102	0x3f4ff4fa	0.8123318
103	0x3f30e445	0.6909831
104	0x3f040ec8	0.51585054
105	0x3ffad387	1.9595803
106	0x3ff8ce64	1.9437985
107	0x3fc12082	1.5088046
108	0x3efdc30e	0.49562877
109	0x4018b556	2.3860679
110	0x3f8778c9	1.0583736
111	0x3faba85f	1.3410758
112	0x4032c00a	2.7929711
113	0x3f25eb4c	0.6481216
114	0x3ef6dcd4	0.48215353
115	0x3f0cecfb	0.55049103
116	0x3f8f5c94	1.1200128
117	0x3f180828	0.59387445
118	0x3ef57fa0	0.47948933
119	0x401aa31f	2.4162061
120	0x3efe5b79	0.49679163
121	0x3f1f47b5	0.6221879
122	0x3f18d5b9	0.59701115
123	0x3ef93bbc	0.48678386
124	0x3f840d87	1.0316628
125	0x3ebce2f6	0.36891907
126	0x3f01c581	0.5069199
127	0x3ed409b6	0.4141366
128	0x3f0bc6a4	0.54599977
129	0x3fe372a3	1.7769359
130	0x3f218c1a	0.63104403
131	0x3f35ddb3	0.7104141
132	0x3f5d3bc1	0.864193
133	0x3f0c68c3	0.54847354
134	0x3f467adf	0.77531236
135	0x3edf2246	0.43580836
136	0x3ebfea04	0.37483227
137	0x3f1d1387	0.6135792
138	0x3f08986a	0.53357565
139	0x3f29234a	0.6606947
140	0x3ec886ec	0.39165437
141	0x4016d097	2.3564813
142	0x3edce83d	0.43145934
143	0x3f3d17e0	0.73864555
144	0x3e8fecd6	0.2811038
145	0x3f07f59e	0.5310916
146	0x3f31f346	0.6951183
147	0x3f892bdd	1.0716511
148	0x3ecb1674	0.39665568
149	0x3f072a88	0.5279927
150	0x3ea13d13	0.31491908
151	0x3e9791a3	0.296033
152	0x3f3e7b44	0.7440684
153	0x3fa882d7	1.3164929
154	0x3f1234eb	0.57111996
155	0x3f43a2b9	0.7642017
156	0x3ec21dd2	0.37913376
157	0x3e902048	0.2814963
158	0x3f39ebdb	0.7262551
159	0x400ea67f	2.228912
160	0x3f075294	0.5286038
161	0x3ef48832	0.4776016
162	0x3f1b7287	0.6072163
163	0x3eb00f24	0.3438655
164	0x3edb21d5	0.4279925
165	0x3f62698f	0.8844232
166	0x3ed2add6	0.4114825
167	0x3d6ef4b8	0.05833885
