models/32-33/coin_model_weights.pth (torch, 541892 bytes, 8 tensors)

layer1.weight f4 [128, 82]
00000000: 7eec 8a41 ae99 1641 36c0 da40 4f2d 2940
00000010: 98d6 1b41 dddd ce40 1534 f640 e1bb 4441
00000020: 85b5 1a41 5408 1e41 e95c 9b41 99c7 1141
00000030: 746c 7840 566d d040 a91c 5c41 dd4b bc41
00000040: f590 b840 eeb1 4d41 ca71 5b41 0376 8141
00000050: ae89 af40 193b cd40 d3fd 5c41 ee35 9541
00000060: 0a20 4e41 4059 3741 717d 5f41 13d4 cf40
00000070: f523 cd40 785e 9c3e 0519 d140 6e3f 2241
00000080: 0d1b c840 14e2 bf41 ef29 e741 3a37 d141
00000090: 6fab 8e41 76ab bb41 545a bc41 4033 2141
000000a0: 6984 c041 939f be41 1f05 ce41 fc33 c741
000000b0: 9151 c741 c50c c741 02d5 c341 c25d c141
000000c0: a39a d741 34b9 3c41 5962 c341 d1a7 c941
000000d0: b14e c041 8f65 c241 742e d141 266c e041
000000e0: a90f 6741 4341 1d41 6ea8 c041 08f4 c841
000000f0: 2396 ca41 789b dc41 5c18 c341 38e0 6141
00000100: c649 ba41 7034 c341 b8b8 cf41 e87c cb41
00000110: 4a89 db41 b5e1 e441 c6e6 d741 e991 d241
00000120: 9fcb d341 bde9 d141 6d50 cd41 0a33 2d41
00000130: 0fa4 c241 db92 bf41 b029 c541 37cc d041
00000140: 9db9 d341 b07d ce41 06b5 8a41 6e22 1641
00000150: b572 d840 74af 2440 d05e 1a41 3b82 ce40
00000160: dd97 f540 5891 4441 234d 1b41 f283 1e41
00000170: f8ac 9b41 f490 1041 22b2 7540 2fb3 cd40
00000180: 3c3e 5c41 32db bc41 aa9e b540 18be 4d41
00000190: a165 5b41 e2eb 8041 fdcb af40 8e44 cf40
000001a0: 3e0d 5c41 bc78 9541 698d 4e41 a358 3541
000001b0: 1645 5e41 efd7 ce40 37d3 c940 4fa8 3b3e
000001c0: c598 ce40 0bd8 2241 0428 c940 2850 bf41
000001d0: 9aca e741 db60 d041 3b33 8e41 c200 bb41
000001e0: 2361 bc41 138b 2041 5009 c041 8fb7 be41
000001f0: 0d94 cd41 8a3f c841 335a c741 f139 c741
00000200: c568 c341 bc6a c141 6865 d741 5e4e 3c41
00000210: 4d1e c341 bcc2 c941 44a7 c041 fa5a c241
00000220: aaa3 d041 ab5f e041 4e98 6741 6811 1d41
00000230: a6a7 c041 39f8 c841 4ab0 ca41 c273 dc41
00000240: 2aba c241 37c6 6141 5e2a ba41 ebca c341
00000250: 15d4 cf41 0cb5 cb41 e567 dc41 ece6 e341
00000260: 00d7 d741 aca7 d241 695e d341 5732 d141
00000270: 0177 cd41 8743 2d41 1332 c341 8ed4 be41
00000280: ef05 c541 6c72 d141 cfa7 d341 e50c ce41
00000290: b3d7 8a41 68ee 1441 9650 db40 a6bf 2340
000002a0: 5207 1c41 1c24 d140 880f f740 581f 4541
000002b0: e2c8 1a41 2e96 1e41 4e93 9b41 8cd7 1141
000002c0: 9670 7240 4bdc cf40 5209 5d41 afcf bc41
000002d0: 104d b740 10a4 4e41 e2be 5c41 7fc3 8041
000002e0: 109c ab40 3f02 cf40 e7f7 5b41 cb84 9541
000002f0: 8e6b 4e41 224b 3641 d865 5d41 f5ad cd40
00000300: bab6 c940 65d6 773e 8c39 ce40 b4ba 2241
00000310: fc99 c840 c407 bf41 f00e e741 2aed d041
00000320: 56db 8e41 b3ed bb41 d0fb bb41 78fd 2041
00000330: c47e c041 67c4 bd41 d1c4 cd41 a24f c741
00000340: a159 c641 b609 c741 32f1 c341 ec50 c141
00000350: 2477 d741 5cb6 3c41 a38e c241 2f0f ca41
00000360: c101 c141 c498 c241 2af0 d041 3387 e041
00000370: 6d7b 6641 9ce5 1b41 aa59 c041 3980 c941
00000380: 82bc ca41 3b83 dc41 0e0e c341 ef9a 6241
00000390: 783c ba41 7124 c441 f778 d041 bcf8 cb41
000003a0: 11d3 db41 4bb2 e441 a8ab d741 7ddf d241
000003b0: 04b3 d341 c7f3 d141 c77b cd41 3670 2d41
000003c0: 6953 c341 264c bf41 2201 c541 23c2 d141
000003d0: f95b d341 b41a cf41 591a 8b41 8b7e 1641
000003e0: 3fb9 da40 0a4f 2740 39a3 1b41 8867 d240
000003f0: 26cd f540 8866 4441 a75c 1b41 12f8 1d41
17.365475 9.412519 6.8359632 2.6433904 9.739891 6.464583 7.6938577 12.295869
9.669316 9.877033 19.420366 9.11123 3.8816195 6.5133467 13.756997 23.537043
5.767695 12.85594 13.715281 16.182623 5.4855566 6.413464 13.811969 18.651333
12.882822 11.45929 13.968125 6.494638 6.4106393 0.30540824 6.534304 10.140486
6.253302 23.98539 28.895475 26.151966 17.833708 23.458721 23.544106 10.075012
24.064653 23.827917 25.7525 24.900383 24.914827 24.881235 24.479008 24.17078
26.950506 11.795216 24.423021 25.206942 24.038424 24.29959 26.147682 28.052807
14.441323 9.828433 24.082241 25.119156 25.323309 27.575912 24.386894 14.117241
23.286022 24.400604 25.965195 25.43599 27.442036 28.610209 26.987682 26.321245
26.474424 26.23913 25.66427 10.824961 24.330107 23.946707 24.645355 26.099714
26.465631 25.81137 17.33839 9.383406 6.7640023 2.5732088 9.648148 6.4533973
7.674788 12.285484 9.706332 9.907213 19.459457 9.035389 3.8389974 6.428123
13.765194 23.607029 5.675618 12.85891 13.712312 16.115177 5.493651 6.4771185
13.753233 18.683952 12.909524 11.33414 13.891867 6.463859 6.307033 0.18325923
6.4561486 10.177745 6.2861347 23.914139 28.973927 26.047293 17.775015 23.37537
23.54743 10.033954 24.004547 23.839628 25.69729 25.031025 24.919043 24.903292
24.426157 24.177116 26.924515 11.769133 24.389795 25.220085 24.081673 24.294422
26.079914 28.046713 14.474684 9.81675 24.08186 25.121202 25.336079 27.556522
24.3409 14.110892 23.270687 24.474081 25.978556 25.463402 27.55073 28.487755
26.97998 26.331871 26.421099 26.14958 25.683107 10.828986 24.39945 23.853786
24.627897 26.18087 26.456938 25.756296 17.355322 9.308205 6.853587 2.5585723
9.751787 6.535658 7.720646 12.320152 9.674044 9.911665 19.446926 9.115124
3.7881217 6.495641 13.814775 23.601408 5.728157 12.915054 13.796602 16.095457
5.3628006 6.469024 13.748023 18.68984 12.901258 11.393343 13.837364 6.427485
6.3035555 0.24202879 6.444525 10.170582 6.268797 23.878792 28.882294 26.115803
17.857098 23.491064 23.497955 10.061882 24.061897 23.7209 25.721102 24.913883
24.793764 24.879742 24.492771 24.164513 26.933174 11.794521 24.319647 25.257414
24.125856 24.324593 26.117268 28.066015 14.405133 9.743557 24.043781 25.187609
25.342045 27.564077 24.381863 14.162826 23.279526 24.517794 26.059065 25.496452
27.47806 28.587057 26.958817 26.359125 26.46241 26.244032 25.685438 10.839895
24.415728 23.912182 24.625553 26.219793 26.419909 25.888039 17.387865 9.405894
6.835113 2.6141992 9.727349 6.575138 7.6812925 12.275032 9.71012 9.873064

layer1.bias f4 [128]
00000000: 2722 aa41 e682 a941 21aa a941 98cc a941
00000010: 828c a941 44f3 a941 88b5 a941 8055 a941
00000020: dc22 a941 e44a a941 0cb1 a941 a091 a941
00000030: 2a2a a941 47d4 a941 2572 a941 c37d a941
00000040: 81cf a941 b6d1 a941 f41a a941 cfc4 a941
00000050: 6419 aa41 3599 a941 b91a a941 4810 aa41
00000060: dfc4 a941 9203 aa41 a0c7 a941 7fc9 a941
00000070: b827 a941 7acc a941 0864 a941 cf05 aa41
00000080: 3815 aa41 c169 a941 f1dc a941 f2ef a941
00000090: c909 aa41 24fd a941 9543 a941 1192 a941
000000a0: ab98 a941 52f5 a841 2922 aa41 cf8e a941
000000b0: f1a2 a941 3df0 a941 fcac a941 ee49 a941
000000c0: a70b a941 b41f aa41 3af3 a841 4768 a941
000000d0: 7cf7 a841 6896 a941 0089 a941 4fd6 a941
000000e0: ae60 a941 483e a941 a41f aa41 2e14 a941
000000f0: 86ee a841 e650 a941 22fb a941 0e8a a941
00000100: 4485 a941 08b7 a941 50cf a841 34c1 a941
00000110: 48ec a941 1e07 a941 7432 a941 c3bc a941
00000120: 5c05 aa41 3c92 a941 bdc0 a941 ff21 a941
00000130: ca90 a941 146a a941 e05a a941 aaca a941
00000140: 217b a941 d31a aa41 f4d2 a941 7bbc a841
00000150: 4b62 a941 dcd3 a941 0f87 a941 6821 aa41
00000160: f5bb a941 8d8c a941 7cd0 a841 bc87 a941
00000170: 48d5 a941 2d0d a941 b2d5 a941 2823 a941
00000180: 4845 a941 d8b8 a941 6c25 a941 8d24 a941
00000190: c94d a941 5912 a941 d329 aa41 9d29 a941
000001a0: e125 aa41 04e8 a941 0535 a941 e6e2 a941
000001b0: 22f0 a941 8091 a941 c66a a941 8e50 a941
000001c0: 2ced a941 58d2 a941 c328 a941 7497 a941
000001d0: f4c4 a941 4271 a941 e8de b340 6a63 a941
000001e0: 044a a941 823e a941 0df5 a941 aa0e aa41
000001f0: fc01 a941 d279 a941 090d a941 89fb a841
21.266676 21.188915 21.20807 21.2249 21.193607 21.243782 21.213638 21.166748
21.142021 21.161568 21.211449 21.196106 21.145588 21.228651 21.180735 21.186407
21.22632 21.227398 21.13816 21.221098 21.262398 21.199808 21.138048 21.25795
21.221128 21.251743 21.222473 21.223387 21.144394 21.224842 21.173843 21.252836
21.26036 21.176638 21.232882 21.24216 21.254778 21.248604 21.157999 21.196321
21.199545 21.119785 21.26668 21.19473 21.204561 21.242304 21.209465 21.161098
21.13069 21.26548 21.118763 21.175917 21.120842 21.19844 21.191895 21.229643
21.172207 21.15541 21.26545 21.134853 21.116467 21.164501 21.247623 21.19241
21.190071 21.21437 21.101227 21.219337 21.240372 21.128475 21.149635 21.217169
21.252617 21.196404 21.21911 21.1416 21.195698 21.176796 21.169373 21.223957
21.185122 21.263098 21.228004 21.092031 21.172995 21.228447 21.190947 21.266312
21.216776 21.193628 21.101799 21.191277 21.229141 21.131433 21.229343 21.142166
21.158829 21.215256 21.143272 21.142847 21.162981 21.133959 21.270422 21.145319
21.268496 21.238289 21.150888 21.23579 21.242252 21.196045 21.177135 21.164333
21.240807 21.227707 21.144903 21.198952 21.221169 21.180302 5.62096 21.173542
21.16114 21.155521 21.244654 21.25716 21.125969 21.184483 21.131365 21.12282

layer2.weight f4 [256, 128]
00000000: 9f6f d041 1e2a d041 0c5e d041 9034 d041
00000010: 35d0 d041 fa5b d041 1603 d041 568b d041
00000020: f899 d041 e66f d041 fd3f d041 b05f d041
00000030: 36d9 d041 4504 d141 a06a d041 e499 d041
00000040: 420a d141 01e1 d041 ec7c d041 7e23 d041
00000050: 8f00 d041 019e d041 587f d041 6a31 d041
00000060: 454b d041 2ec2 d041 c697 d041 32b0 d041
00000070: 7017 d041 f249 d041 6022 d041 d89b d041
00000080: 6398 d041 044d d041 8417 d141 0955 d041
00000090: 1177 d041 2987 d041 ba96 d041 a21c d041
000000a0: 24c3 d041 529b d041 8d7d d041 c790 d041
000000b0: 1fd9 d041 b7bb d041 f5db d041 4c4a d041
000000c0: 072b d141 ab0d d141 80ee d041 fc4f d041
000000d0: aeb5 d041 4051 d041 b838 d041 516c d041
000000e0: ce54 d041 adce d041 a8ac d041 58a3 d041
000000f0: 12da d041 5a2d d141 2e0f d041 5439 d041
00000100: 88c2 d041 e12e d041 067d d041 4cff d041
00000110: f2d6 d041 ab61 d041 64c8 d041 7727 d041
00000120: ae94 d041 ae00 d141 5171 d041 555b d041
00000130: fc94 d041 d4db d041 0681 d141 9137 d141
00000140: c31e d041 181b d041 bd9d d041 2412 d141
00000150: 280a d141 ccf1 d041 9e9f d041 1681 d041
00000160: 933a d041 82dd d041 1325 d041 15df d041
00000170: e6eb d041 5c9a d041 a1d0 d041 4489 d041
00000180: 0031 d141 8dc6 d041 6e31 d041 a924 d141
00000190: fe35 d041 2e9e d041 48ef cf41 d692 d041
000001a0: 2208 d041 4999 d041 8459 d041 fd51 d041
000001b0: b875 d041 9c4f d041 72f0 d041 a483 d041
000001c0: d2c7 d041 f0c4 d041 0164 d041 b698 d041
000001d0: e47b d041 fd1c d041 edb6 e4c1 90c5 d041
000001e0: 44cb d041 8906 d141 cb0d d041 3cfa d041
000001f0: 22ff d041 ff34 d141 711c d041 3caa d041
00000200: 788c d041 05b5 d041 2d09 d041 f277 d041
00000210: 5a64 d041 8239 d041 55b5 d041 ec9a d041
00000220: c4c2 d041 36fb d041 c3e7 d041 f928 d041
00000230: 2cdd d041 c238 d141 3f1b d041 2ffb d041
00000240: e72b d141 2c88 d041 b491 d041 e9ec d041
00000250: 1643 d041 f194 d041 61cf d041 edc7 d041
00000260: 40ab d041 c8b9 d041 4a49 d041 8cd2 d041
00000270: d773 d041 ee81 d041 12d9 d041 76fa cf41
00000280: 30bb d041 022f d041 7f56 d041 7c2f d041
00000290: 9bbf d041 bee2 cf41 2d83 d041 427e d041
000002a0: d54e d041 ca72 d041 188e d041 fe14 d041
000002b0: 65a5 d041 6086 d041 1909 d041 bf6b d041
000002c0: 56b7 d041 c0d1 d041 92e0 d041 0682 d041
000002d0: e3e0 d041 f5c4 d041 8e85 d041 2427 d041
000002e0: bec9 d041 91ab d041 fba7 d041 32f8 cf41
000002f0: 98a9 d041 d0e9 d041 14f6 cf41 d37c d041
00000300: f889 d041 5489 d041 f7a3 d041 11ae d041
00000310: 3651 d041 6634 d041 2e27 d041 12e5 cf41
00000320: 083a d041 8639 d141 bc16 d041 9e11 d041
00000330: 5ae7 d041 a54c d041 6e60 d141 f5a9 d041
00000340: 8fcf d041 d0d5 d041 d68d d041 50b4 d041
00000350: 80ca d041 d854 d041 0452 d041 6d87 d041
00000360: 216a d041 0d48 d141 08c1 d041 2559 d041
00000370: e48e d041 458e d041 96f8 cf41 e627 d041
00000380: 668e d141 fdb7 d041 aa33 d041 da89 d041
00000390: 4c78 d041 fea7 d041 76d7 cf41 d11b d041
000003a0: cc6b d041 f6b4 d041 8c6a d041 8a4e d041
000003b0: 2a6e d041 76b6 d041 a5dd d041 a114 d041
000003c0: a763 d041 332c d041 a43e d041 cf31 d041
000003d0: 2e95 d041 2df7 cf41 e901 e4c1 71d8 d041
000003e0: 1901 d041 1496 d041 9abb d041 2011 d141
000003f0: 8ce6 d041 30f3 d041 e6c3 d041 6ce3 d041
26.054502 26.020565 26.045921 26.025665 26.101664 26.04491 26.001507 26.068035
26.07518 26.054638 26.031244 26.046722 26.10606 26.127085 26.052063 26.075142
26.130009 26.109865 26.060997 26.01733 26.000273 26.07715 26.06218 26.024128
26.036753 26.094814 26.074108 26.086033 26.011444 26.036106 26.016785 26.076096
26.074408 26.037605 26.136482 26.041521 26.058138 26.065996 26.073597 26.01398
26.095284 26.07584 26.061304 26.070692 26.106016 26.091658 26.1074 26.036278
26.14601 26.131674 26.116455 26.039055 26.08871 26.039673 26.027695 26.052889
26.041409 26.100916 26.084305 26.079758 26.10648 26.147144 26.007412 26.027992
26.094986 26.02289 26.061047 26.124657 26.104954 26.04769 26.097847 26.01927
26.072598 26.125332 26.05533 26.044596 26.072746 26.107338 26.188 26.152132
26.01502 26.01323 26.07702 26.133858 26.12996 26.118065 26.077938 26.06303
26.0286 26.108158 26.018103 26.108927 26.115185 26.07537 26.10187 26.067024
26.148926 26.096949 26.024136 26.1429 26.026363 26.077236 25.991837 26.071697
26.003971 26.074846 26.043709 26.040033 26.05748 26.038872 26.117405 26.064278
26.097569 26.09616 26.04883 26.074566 26.060493 26.014154 -28.58932 26.096466
26.09925 26.128191 26.006735 26.122185 26.124577 26.150877 26.013887 26.083122
26.068588 26.088388 26.00448 26.058567 26.049 26.02808 26.088541 26.075645
26.0951 26.122662 26.113165 26.020006 26.107994 26.152714 26.013304 26.122648
26.146437 26.06649 26.071144 26.115679 26.032757 26.072725 26.10126 26.09762
26.083618 26.090714 26.035786 26.102806 26.056562 26.063442 26.105991 25.997295
26.0914 26.022953 26.042234 26.023186 26.093557 25.985714 26.06405 26.06165
26.038492 26.05605 26.069382 26.01025 26.08076 26.065613 26.004442 26.05261
26.08952 26.102417 26.109653 26.063488 26.109808 26.09617 26.065212 26.019112
26.098507 26.083773 26.082022 25.99619 26.08281 26.114166 25.995155 26.06095
26.067368 26.067055 26.080061 26.084993 26.039654 26.025585 26.01913 25.98685
26.028336 26.153088 26.0111 26.008602 26.112965 26.037424 26.172085 26.082987
26.101347 26.1044 26.069256 26.088043 26.098877 26.041428 26.040047 26.066126
26.05182 26.160181 26.094254 26.043528 26.06977 26.069468 25.99638 26.019482
26.19453 26.089838 26.025227 26.06731 26.058739 26.082027 25.980206 26.013582
26.052635 26.08836 26.052025 26.03835 26.053791 26.089092 26.108225 26.010073
26.048658 26.021582 26.030586 26.02432 26.072842 25.995691 -28.500933 26.105684
26.000536 26.07328 26.091602 26.133362 26.112572 26.118744 26.095654 26.111046

layer2.bias f4 [256]
00000000: a66e ab41 46f2 aa41 9eb9 aa41 469a ab41
00000010: ec60 ab41 4c30 ab41 ec68 ab41 2cc7 aa41
00000020: c087 ab41 3972 ab41 691f ab41 2a47 ab41
00000030: a11c ab41 e6d9 aa41 0f04 ab41 d2d8 aa41
00000040: 8e57 ab41 5ef2 aa41 d611 ab41 2875 ab41
00000050: 8277 ab41 e48d ab41 4e31 ab41 54d8 aa41
00000060: 650d ab41 2a8f ab41 d193 ab41 868e ab41
00000070: 42eb aa41 b214 ab41 8692 ab41 84b3 aa41
00000080: b08a ab41 44eb aa41 5663 ab41 a6e1 aa41
00000090: 1796 2fbd 796e ab41 3a83 ab41 0eac aa41
000000a0: 120c ab41 5669 ab41 a2a3 ab41 2ecf aa41
000000b0: 9d59 ab41 88ca aa41 d9c8 aa41 cdf7 aa41
000000c0: 8b78 ab41 1ddd aa41 af0c ab41 ac94 ab41
000000d0: a15f ab41 d73b ab41 0aed aa41 115c ab41
000000e0: e545 1abd 12c6 aa41 c670 ab41 ce68 ab41
000000f0: ba5f ab41 4b84 ab41 4197 ab41 42db aa41
00000100: d2d8 aa41 616d ab41 2581 ab41 ce59 ab41
00000110: cad3 aa41 2ef9 aa41 6571 ab41 a51a 66bd
00000120: 077d ab41 f8bc aa41 4297 ab41 1760 ab41
00000130: b6c1 aa41 29de aa41 2aa9 aa41 894b ab41
00000140: 8b82 ab41 14d5 aa41 944a ab41 3d9b ab41
00000150: 01fc aa41 0def aa41 2937 ab41 fe07 ab41
00000160: 0b49 ab41 40c2 aa41 b30e 25bc e694 ab41
00000170: eac9 aa41 3143 ab41 f291 ab41 ca5c ab41
00000180: e355 ab41 88bb aa41 fefe 5fbd ea51 ab41
00000190: 2ebe aa41 86ea aa41 1277 69bc 7266 ab41
000001a0: 8c7f ab41 dfde aa41 0a5a ab41 dd26 ab41
000001b0: 6662 ab41 fa28 ab41 fb93 ab41 f711 ab41
000001c0: c438 ab41 01dd aa41 4297 ab41 0e50 ab41
000001d0: f97d ab41 62e7 aa41 9717 ab41 ce81 ab41
000001e0: fe65 ab41 d134 ab41 68ef aa41 36fc aa41
000001f0: 17df 30bd c2d9 aa41 1e6f ab41 ed78 ab41
00000200: e02b ab41 d3bd aa41 e81c ab41 ae9d aa41
00000210: cd20 ab41 2ad5 aa41 5842 ab41 4dcd aa41
00000220: 136e ab41 6a03 ab41 6506 ab41 9267 ab41
00000230: ca72 433c d1b7 aa41 31d0 aa41 aa51 ab41
00000240: 621e 3dbd ee1c ab41 3ef9 aa41 9d63 ab41
00000250: 04ce aa41 aefe aa41 fae0 aa41 f45f ab41
00000260: b38a ab41 2c7a 59bb 9032 ab41 5930 ab41
00000270: 5636 ab41 2389 ab41 2964 ab41 c2bd aa41
00000280: 6850 ab41 679b ab41 ea56 ab41 1190 ab41
00000290: 665d 723c 9475 ab41 8576 ab41 3e5d ab41
000002a0: 5c6b ab41 d551 ab41 5681 aa41 7abe aa41
000002b0: a2b8 aa41 eec5 aa41 522d ab41 da3f ab41
000002c0: 1d66 ab41 d3cc aa41 02a9 aa41 e85a ab41
000002d0: 20e9 aa41 602e ab41 203f ab41 d608 ab41
000002e0: 9e9c ab41 c881 ab41 c516 ab41 e6f2 aa41
000002f0: 5ffe aa41 9a4d ab41 1036 ab41 d108 ab41
00000300: bf16 ab41 7713 ab41 623e ab41 03b2 4abd
00000310: b841 ab41 dd2d ab41 aa79 ab41 b79b ab41
00000320: 50d2 aa41 4594 ab41 0226 ab41 f6be aa41
00000330: fa9c ab41 398b ab41 5a7b ab41 768e ab41
00000340: 96c9 aa41 d567 ab41 1596 ab41 42f5 aa41
00000350: bced aa41 c481 ab41 82fe aa41 83e3 aa41
00000360: dc90 ab41 c982 ab41 087c 59bd 7312 ab41
00000370: 9cde aa41 9cc0 aa41 a5d4 aa41 4298 ab41
00000380: a877 ab41 c79a ab41 da52 ab41 9e35 ab41
00000390: 0f7b ab41 4633 ab41 5a11 ab41 9d22 ab41
000003a0: 941f ab41 b3e0 aa41 60a4 ab41 96c4 aa41
000003b0: 563c ab41 be82 ab41 ee7a ab41 be16 ab41
000003c0: 916a ab41 9edf aa41 3977 ab41 bfa3 aa41
000003d0: 71c2 aa41 ce9b aa41 28d0 aa41 c6c3 aa41
000003e0: 86d9 aa41 0360 ab41 d0be aa41 1b74 ab41
000003f0: 6997 ab41 aaf9 aa41 b0c0 aa41 b3f9 aa41
21.429028 21.368298 21.340633 21.450329 21.422325 21.398582 21.426231 21.347252
21.441284 21.430773 21.390337 21.409748 21.388979 21.356396 21.376982 21.35587
21.417751 21.368343 21.383709 21.432205 21.433353 21.444283 21.399075 21.355629
21.38154 21.444904 21.447176 21.444592 21.364872 21.385105 21.446545 21.337654
21.442719 21.364876 21.423504 21.36018 -0.042867746 21.428942 21.439075 21.334011
21.380894 21.426434 21.454899 21.351162 21.418756 21.348892 21.34807 21.370996
21.433859 21.357965 21.381193 21.447594 21.421694 21.404219 21.365742 21.419954
-0.037664313 21.346714 21.430065 21.426174 21.421741 21.439596 21.448854 21.35706
21.35587 21.428408 21.438059 21.41885 21.353413 21.37167 21.430368 -0.056177754
21.436049 21.34227 21.448856 21.421919 21.344585 21.358477 21.3326 21.411882
21.438742 21.354042 21.411415 21.4508 21.373049 21.366724 21.401934 21.378902
21.410666 21.344849 -0.010074305 21.447704 21.34859 21.407808 21.446262 21.420307
21.416937 21.341568 -0.05468654 21.414997 21.342861 21.364513 -0.01424958 21.425022
21.437279 21.358824 21.418964 21.393976 21.423046 21.395008 21.447256 21.383772
21.402718 21.357912 21.448856 21.41409 21.43651 21.36298 21.386518 21.438381
21.4248 21.40079 21.366898 21.37315 -0.043181505 21.356327 21.429256 21.434046
21.396423 21.342688 21.389114 21.326992 21.391016 21.354084 21.407394 21.350245
21.428747 21.376667 21.378122 21.425571 0.011929223 21.339754 21.351656 21.414875
-0.046171553 21.389126 21.3717 21.42364 21.350594 21.374355 21.359852 21.421852
21.442724 -0.0033184392 21.399689 21.398607 21.401531 21.441961 21.423906 21.342655
21.41426 21.45088 21.417439 21.445345 0.014792776 21.432411 21.43287 21.420528
21.427422 21.414957 21.313152 21.343006 21.340153 21.346645 21.39713 21.406178
21.42486 21.350012 21.332523 21.419388 21.36383 21.397644 21.405823 21.379314
21.451473 21.43837 21.386118 21.368603 21.374205 21.412891 21.401398 21.379305
21.386106 21.384504 21.40546 -0.04948617 21.40709 21.397394 21.434406 21.451033
21.352692 21.447397 21.393559 21.343243 21.451649 21.44298 21.43523 21.444561
21.34843 21.4257 21.448282 21.369755 21.366081 21.438362 21.374271 21.36109
21.445732 21.43886 -0.0530968 21.384008 21.358696 21.344048 21.35383 21.449345
21.433426 21.450575 21.415455 21.40118 21.435087 21.400036 21.383472 21.391901
21.390419 21.359716 21.455261 21.34599 21.40446 21.438839 21.435024 21.386105
21.427034 21.359188 21.433214 21.329954 21.344942 21.326077 21.351639 21.345592
21.356213 21.42188 21.34317 21.431692 21.44893 21.371906 21.344086 21.371923

layer3.weight f4 [256, 256]
00000000: e354 d041 e818 d041 28f1 cf41 58ee cf41
00000010: 06eb cf41 8729 d041 ce79 d041 0c3a d041
00000020: 852e d041 6447 d041 c608 d041 ca43 d041
00000030: 3e4f d041 e23d d041 09cb cf41 3fdd cf41
00000040: cb39 d041 4310 d041 9d18 d041 0141 d041
00000050: ed20 d041 e5df cf41 c405 d041 19c0 cf41
00000060: ae0f d041 ec0a d041 882c d041 c43b d041
00000070: 0f51 d041 12e8 cf41 bbef cf41 f60a d041
00000080: 3440 d041 641a d041 3f0a d041 a7c0 cf41
00000090: 49bb 8bbc 9a48 d041 41de cf41 604a d041
000000a0: c80b d041 75eb cf41 2f4c d041 9025 d041
000000b0: e02e d041 b8ca cf41 0010 d041 590c d041
000000c0: 913d d041 0803 d041 aa3c d041 8e17 d041
000000d0: b438 d041 82f1 cf41 adbb cf41 27f3 cf41
000000e0: 5a16 ef3b ece7 cf41 4e11 d041 01ef cf41
000000f0: 20fa cf41 cccf cf41 dcde cf41 3c32 d041
00000100: def3 cf41 bae5 cf41 d430 d041 cdf7 cf41
00000110: 4822 d041 f551 d041 1d11 d041 d216 aa39
00000120: 3850 d041 d436 d041 d530 d041 68d0 cf41
00000130: 342b d041 91ed cf41 cefb cf41 d40d d041
00000140: fd30 d041 ec13 d041 ab61 d041 700e d041
00000150: 766b d041 9d0e d041 c7e1 cf41 60f0 cf41
00000160: 544d d041 7013 d041 16e0 6b3c 6bcd cf41
00000170: 32f3 cf41 b248 d041 ac4f d041 510a d041
00000180: 1bcd cf41 3ff9 cf41 faf2 ea3c 6929 d041
00000190: 6ad7 cf41 d542 d041 45fc e6bb f4e4 cf41
000001a0: 09ba cf41 c7f0 cf41 f9f1 cf41 c846 d041
000001b0: 68fd cf41 9d2f d041 683e d041 0653 d041
000001c0: b915 d041 2fc3 cf41 1446 d041 a448 d041
000001d0: 8bc0 cf41 d506 d041 4237 d041 fa2d d041
000001e0: 36f8 cf41 1851 d041 7621 d041 da3e d041
000001f0: 1ff4 183d 9dd5 cf41 0227 d041 1721 d041
00000200: a42e d041 e50f d041 37ea cf41 2eb8 cf41
00000210: e35e d041 fe41 d041 3a1b d041 c639 d041
00000220: f844 d041 5ad2 cf41 d868 d041 9942 d041
00000230: 7820 fdbc 55bb cf41 a515 d041 3832 d041
00000240: e4e0 aa3b 9d52 d041 ca50 d041 fa19 d041
00000250: 1f2a d041 58d5 cf41 022f d041 7e4a d041
00000260: bac4 cf41 015d 083d 20d6 cf41 d2e2 cf41
00000270: 75d7 cf41 0218 d041 4929 d041 ddbf cf41
00000280: 474d d041 d1c6 cf41 29db cf41 8e08 d041
00000290: dc3f d5bc 2743 d041 2548 d041 5a07 d041
000002a0: 243b d041 ebea cf41 1df8 cf41 0e26 d041
000002b0: f167 d041 05ff cf41 75cd cf41 7031 d041
000002c0: b4d4 cf41 19d4 cf41 1c3f d041 c338 d041
000002d0: 53d5 cf41 ec18 d041 0a1f d041 8601 d041
000002e0: 8b45 d041 4e30 d041 4e58 d041 6368 d041
000002f0: f81c d041 bd6e d041 c919 d041 f2f6 cf41
00000300: 76e6 cf41 fbdf cf41 d6d0 cf41 b668 22bc
00000310: 8b1b d041 ee4e d041 a4e3 cf41 8706 d041
00000320: 1503 d041 bb21 d041 c819 d041 7deb cf41
00000330: 7654 d041 e60b d041 bd07 d041 37ea cf41
00000340: 933b d041 720d d041 d9e9 cf41 fa2c d041
00000350: 38ff cf41 9e2a d041 613e d041 2f1a d041
00000360: aef2 cf41 42dc cf41 370e abbc 810c d041
00000370: c61c d041 68e3 cf41 ae34 d041 5a5a d041
00000380: 032d d041 a6fa cf41 ae25 d041 c068 d041
00000390: cbf6 cf41 70d6 cf41 c4fb cf41 55c5 cf41
000003a0: 4eda cf41 5132 d041 5c40 d041 5f0b d041
000003b0: 37d8 cf41 f94b d041 de54 d041 7923 d041
000003c0: a123 d041 39bc cf41 3732 d041 64d4 cf41
000003d0: 5540 d041 f4c1 cf41 1901 d041 ae2a d041
000003e0: cebd cf41 2129 d041 18d4 cf41 93de cf41
000003f0: 3223 d041 6248 d041 e818 d041 fec6 cf41
26.041449 26.012161 25.992752 25.991379 25.989758 26.020277 26.059475 26.028343
26.022715 26.034859 26.004284 26.0331 26.038692 26.030216 25.974138 25.98303
26.02822 26.00794 26.012018 26.03174 26.016077 25.984324 26.002815 25.968798
26.007656 26.005333 26.021744 26.029182 26.03958 25.988316 25.992056 26.005352
26.03135 26.012886 26.005003 25.969069 -0.017057078 26.03545 25.983522 26.036316
26.005753 25.98997 26.037199 26.018341 26.022888 25.973984 26.007812 26.00603
26.030062 26.00148 26.029621 26.011501 26.027687 25.992924 25.966639 25.993727
0.0072963657 25.988243 26.00845 25.991701 25.997131 25.976463 25.983818 26.024529
25.994076 25.987171 26.023842 25.995996 26.016739 26.040018 26.008356 0.0003244193
26.03917 26.026772 26.023844 25.97676 26.021095 25.991 25.997952 26.006752
26.02392 26.009727 26.04769 26.00705 26.052471 26.007135 25.985243 25.99237
26.037758 26.009491 0.014396688 25.975302 25.993748 26.035496 26.038902 26.005037
25.97515 25.996702 0.028680313 26.02022 25.980183 26.032633 -0.007049116 25.986794
25.965837 25.992567 25.99315 26.034561 25.998734 26.023249 26.030472 26.040539
26.010607 25.970304 26.034218 26.03547 25.969015 26.003336 26.026981 26.02245
25.996197 26.039597 26.016338 26.03069 0.037342187 25.979303 26.019047 26.016157
26.022774 26.007761 25.989363 25.964931 26.046331 26.032223 26.013294 26.02821
26.033676 25.97771 26.051193 26.032518 -0.030899271 25.96647 26.010569 26.02452
0.0052147973 26.040339 26.039448 26.012684 26.020567 25.979172 26.022953 26.036373
25.971058 0.03329182 25.979553 25.985752 25.980204 26.011723 26.020159 25.968683
26.037733 25.972078 25.982012 26.004177 -0.026031427 26.03279 26.035227 26.00359
26.028877 25.989706 25.99615 26.018581 26.050753 25.999521 25.97532 26.02414
25.978859 25.978563 26.030815 26.027716 25.979162 26.012169 26.015156 26.000744
26.033957 26.023586 26.043118 26.05097 26.014145 26.054071 26.01259 25.995579
25.98753 25.984365 25.97697 -0.00991266 26.013449 26.03854 25.986153 26.003187
26.001505 26.01647 26.012589 25.989985 26.04124 26.00581 26.003778 25.989363
26.029089 26.006565 25.989183 26.021961 25.999619 26.02081 26.030458 26.012785
25.993496 25.982548 -0.020880802 26.006105 26.01405 25.986038 26.025723 26.044117
26.021978 25.997387 26.018398 26.051147 25.995504 25.979706 25.997932 25.971354
25.981594 26.024569 26.031425 26.005552 25.980574 26.037096 26.04144 26.01732
26.017397 25.966906 26.024519 25.978706 26.031412 25.969704 26.000536 26.02084
25.967678 26.020082 25.978561 25.983679 26.017185 26.035343 26.012161 25.972164

layer3.bias f4 [256]
00000000: c760 a241 bbfe a141 88df a041 a0bf c73b
00000010: 55d9 a041 0130 a241 36c0 c6bc 6b13 a141
00000020: 97d5 a041 b604 5cbc 03a1 bd3b 3b6a 983c
00000030: 28fc a141 9b5d dabc 0612 a141 bdfe a041
00000040: ee15 cdbb f9b7 a041 37ae a141 84fe a041
00000050: 0df0 a041 98f7 a141 6b72 a141 668e a141
00000060: 7cc2 3c3c 23a1 a141 2322 a141 952a a141
00000070: a050 dd3c a7f0 a141 ebce a141 5945 a241
00000080: bc03 a241 61c4 a141 179f a141 75dd 1abd
00000090: 5f1c 10bd a1eb a141 f8d5 a041 43e0 1cbd
000000a0: 6a93 a141 a314 be3b a17f a141 efb2 bbbc
000000b0: ba1a a241 fb87 223c 46c3 a041 96f3 ecba
000000c0: 1b89 a041 19d5 a041 f2ae a141 8351 a141
000000d0: 6884 a141 35f6 0fbd 7875 a141 0bff fabb
000000e0: 38c7 a041 7316 11bc 9a03 f23b 8345 8abc
000000f0: f170 be3c 935c a141 0ed2 f0bb 42d3 a041
00000100: 5c51 dabc 8af4 a141 820f f2bc e7ca a141
00000110: f6ff a041 fdeb a141 2c88 3cbb ed33 10bb
00000120: 3119 a241 e7ed a041 b4df a141 9117 a141
00000130: c56d a141 cd20 1bbd cf17 133d f870 a141
00000140: 5b47 a141 cbd2 0ebd abfc a041 8dec a041
00000150: 6f56 a141 aeac a1bc 7851 a141 7f5b a141
00000160: 23ac a141 bfa6 a141 0f41 a141 77d8 0bbd
00000170: 90ce a141 d564 a141 6632 a141 3c16 d9bc
00000180: 4815 693c 2f51 a141 0b56 a141 b250 f6bc
00000190: fbac a141 2913 93b9 7c14 a141 1e17 a141
000001a0: 8c0c cbbc 908d a141 db26 a241 b964 a141
000001b0: 33f5 08bd 9c3f 51bc 9381 a141 0c34 a141
000001c0: 8caf a141 3ae2 a041 6f5b a141 5072 a141
000001d0: 3d0a 04bd e50c a141 85cf a141 2221 d3bb
000001e0: 299e a041 d9d5 783c 6713 b3bc c33a a141
000001f0: e7b6 a041 426c a7bc c73e a241 a10c a241
00000200: 6bc8 a141 3506 a141 805d 873c a92e a241
00000210: 7ed7 c73c 8f56 a141 795a 1fbd 3dd7 17bd
00000220: bf5d a141 6d9b a241 51e9 a041 fb8c a141
00000230: f3bb a041 1085 4cbc dd42 a141 d913 023d
00000240: 15d8 a141 81bf a141 f81f a241 3075 97bc
00000250: f857 a141 c9f7 a041 c9b9 a141 9d82 a141
00000260: ac1a a241 97a0 a141 d72c 0fbd ad75 a141
00000270: e9cb a141 96fe a141 96f6 a141 210b a241
00000280: b83c a141 4096 48bc 75d0 a141 d66d a141
00000290: 4978 c33b 299b a141 2fa2 a141 235b a141
000002a0: 8d48 a141 0c2d ccbc 5b23 a141 1bc3 a041
000002b0: 0263 a141 9f8b 823c 2ece 423c b1a9 a141
000002c0: 8d50 a141 95af a141 e351 a141 8d59 13bd
000002d0: 8d48 a141 8a41 a141 4b62 0dbd d7d4 a141
000002e0: ac25 a141 40b3 a141 fdd8 a041 af4d a141
000002f0: 610d 073d 57ce a141 a646 eebc 8e01 a241
00000300: cefc a041 e451 a141 8af8 a141 c964 a141
00000310: 85f3 a141 82c3 be3c affc b13c bd62 a141
00000320: 1000 a241 0fb7 06bd 0fe3 a141 f11c 20bd
00000330: 21d1 a141 f521 a141 3ebb a041 85b0 a041
00000340: 6104 22bd d905 a141 639f a241 1f06 a241
00000350: 56d8 a141 7968 a241 615c a141 c9dc a141
00000360: b8e6 a141 1d10 a241 9ffd a041 43e1 1bbd
00000370: b213 e5bc e0f2 c3bb a105 a7bc 5551 a141
00000380: 3940 a141 fb41 b2bc 3ece a041 9707 25bd
00000390: ad52 a141 e0bf a041 751d a141 f52a a241
000003a0: a3d4 1ebc a8e5 a041 f503 9fbc 19ab a241
000003b0: 8d15 a141 53b3 a141 9b84 a141 b505 a241
000003c0: c92d a141 d826 a141 3894 a041 2c41 a141
000003d0: c7e5 a041 ed81 a141 3511 a241 a6e7 a23c
000003e0: 727d a141 3f90 a141 e793 a141 9834 a141
000003f0: 6382 a141 817e a141 3b2a a141 1d11 a141
20.297255 20.24938 20.109146 0.0060958415 20.10612 20.27344 -0.024261575 20.134481
20.104292 -0.013428858 0.0057870164 0.018605342 20.248123 -0.026655963 20.1338 20.124384
-0.0062587177 20.08983 20.210066 20.124275 20.117212 20.245895 20.180868 20.19453
0.011520978 20.20368 20.141668 20.145792 0.027015984 20.242506 20.226034 20.283861
20.251823 20.220888 20.20268 -0.037808854 -0.035183307 20.240053 20.104477 -0.03829981
20.19698 0.0058008 20.187319 -0.02291247 20.26305 0.009920116 20.095348 -0.0018077965
20.066946 20.104052 20.210423 20.1648 20.189651 -0.03514691 20.182358 -0.007659798
20.097275 -0.00885545 0.0073856832 -0.016878849 0.023247214 20.170202 -0.007349259 20.103153
-0.026650123 20.244404 -0.02954841 20.224073 20.12498 20.240229 -0.0028767688 -0.0022003606
20.2623 20.116163 20.23423 20.136507 20.178598 -0.03787308 0.035911378 20.18016
20.159842 -0.034868997 20.123373 20.115503 20.167204 -0.01973566 20.16478 20.169676
20.209051 20.206419 20.156767 -0.034141984 20.22586 20.174234 20.149609 -0.02649986
0.014226265 20.16464 20.167013 -0.030067775 20.209463 -0.000280523 20.135002 20.136288
-0.024786256 20.194122 20.268972 20.174181 -0.033436965 -0.012771513 20.188269 20.150414
20.210716 20.110462 20.169645 20.180817 -0.032236326 20.131296 20.226328 -0.0064431587
20.077227 0.015187704 -0.021859838 20.153692 20.089308 -0.020437364 20.280653 20.256166
20.22286 20.12803 0.016524076 20.272783 0.024394747 20.167265 -0.03890464 -0.0370705
20.170774 20.325891 20.113924 20.193838 20.091772 -0.012482896 20.157648 0.03175721
20.230509 20.218508 20.26561 -0.018488497 20.167953 20.120989 20.215715 20.188776
20.263023 20.203413 -0.034954872 20.182459 20.224566 20.24931 20.245403 20.255434
20.154648 -0.012242854 20.226786 20.17863 0.005965267 20.200762 20.204191 20.1695
20.160425 -0.024923824 20.142263 20.095266 20.173344 0.015935717 0.011889977 20.207857
20.164331 20.210733 20.164984 -0.035974074 20.160425 20.157001 -0.034517568 20.228926
20.143394 20.212524 20.105951 20.162931 0.032971743 20.225752 -0.029086422 20.25076
20.12344 20.164986 20.246357 20.174212 20.243906 0.023286585 0.021726934 20.173212
20.25003 -0.032889422 20.235868 -0.0390901 20.227114 20.14158 20.091427 20.086191
-0.039554957 20.127855 20.327826 20.252989 20.230633 20.301012 20.170107 20.232805
20.237656 20.257868 20.123838 -0.038056623 -0.027963493 -0.0059798807 -0.020388426 20.164713
20.156359 -0.021759978 20.100704 -0.04029044 20.165369 20.093689 20.139383 20.270975
-0.009694251 20.112137 -0.019411067 20.333544 20.135523 20.21256 20.189749 20.252787
20.147356 20.143967 20.072372 20.156822 20.112196 20.18844 20.258402 0.01988585
20.186253 20.195433 20.197218 20.15068 20.188665 20.18677 20.14562 20.133356

layer4.weight f4 [98, 256]
00000000: 5ba5 a040 91c5 a140 2e5d a040 dd06 7fbc
00000010: 5960 a240 d1f0 9f40 2171 e63c 1b85 a140
00000020: 1565 a140 7271 ec3c a384 b4bc 6ef0 77bc
00000030: 14a9 a040 af53 0e3d 9f61 a040 69f4 a140
00000040: 14ac c43b 315d a140 6d18 a040 df1f a040
00000050: 1dc6 a040 ee39 a140 05ed a140 f9f9 9f40
00000060: c102 13bd 439e a140 3a5c a240 f777 a040
00000070: ed37 11bd 172c a040 c1f4 a040 38d2 a040
00000080: f1bb a140 e885 a140 1a24 a040 ba62 a73c
00000090: aa1b 6ebb f10f a240 5344 a040 dc67 cf3c
000000a0: 1c50 a140 4e00 4fbc e775 a140 6f12 e3ba
000000b0: 27d3 a140 3496 cbbc cd2d a240 66d0 f2bc
000000c0: 2d59 a140 73c7 a040 cda3 a140 7c1f a140
000000d0: 718c a040 4e00 a53c 6301 a140 cb36 60bb
000000e0: 1338 a240 19b1 093c 3fd1 9bbc a168 9ebc
000000f0: 8ba0 363c b20a a240 93f8 e7bc 8a9e a040
00000100: 03a9 963b 6986 a040 6f5e ae3c d7f6 a040
00000110: a62e a040 b90a a240 824a 073d 7022 86bc
00000120: 0343 a140 fa01 a040 e959 a040 21b7 a140
00000130: 7a81 a040 c7cc 5fbc 1360 18bc 1bdb a040
00000140: 7e6a a040 0421 4cbb 0564 a240 1217 a140
00000150: 535c a240 197d 18bd af24 a040 5614 a140
00000160: ea16 a040 da87 a140 e09b a040 782a 60bc
00000170: 8b05 a240 51f5 a140 dc42 a040 5973 04bd
00000180: bda5 19bd 4e12 a040 edb9 a140 6943 913c
00000190: 713b a240 2b75 93bc e72e a040 e9f5 9f40
000001a0: 4a4b 78bb f5e8 a140 ad83 a040 0a2c a140
000001b0: 1e77 e8bb ba16 ffb9 453b a240 863a a240
000001c0: 2b4d a140 8d14 a140 275b a240 4d07 a040
000001d0: 462f d8bc 6a2b a040 b2fd 9f40 6b93 473c
000001e0: 8691 a040 50fd d1bc 7946 1c3a 6034 a140
000001f0: 5bf5 9f40 3d73 12bd 5861 a140 f0fa a140
00000200: ab76 a140 355e a040 db01 b4bc 8f28 a140
00000210: 9312 3cbc 0a0f a140 2f7c 61bb 9009 033d
00000220: 167d a040 c8a8 a140 42f4 a140 6d0d a040
00000230: 125b a140 2e74 f43c b68e a140 9b78 183d
00000240: 4700 a040 7f41 a240 1b31 a140 d812 1d3c
00000250: 9b15 a040 465b a040 0936 a140 fb96 a040
00000260: 913b a040 0820 a140 9c21 aabc 5748 a240
00000270: 13dd a140 5ae7 a040 4e11 a140 45f3 a040
00000280: 2c13 a140 0d8a 413c 69d5 a040 e57b a040
00000290: d967 0d3d a9d5 a040 1934 a240 77de a040
000002a0: a74a a040 0ea6 6bbb cb2a a140 58ee a040
000002b0: 4727 a040 fa9f f73b 61f2 63bc 6302 a040
000002c0: c79c a140 36ba a040 c769 a040 9771 0f3d
000002d0: 8e22 a040 5ff2 9f40 449c ca3c b5a6 a140
000002e0: 364f a240 e913 a240 6146 a240 2a68 a040
000002f0: dfd4 fdbc 6a3e a240 4c5c c93c a856 a240
00000300: 8edb a140 34f3 a140 3a71 a040 410c a140
00000310: ab09 a140 9bbd 19bc 2a15 06bd 5d79 a040
00000320: 728b a140 2002 e8bc bb2b a140 b768 a0b9
00000330: 97e6 a140 4b5c a240 8f0d a040 275b a140
00000340: 623a 163c e1fd 9f40 4f17 a240 87e2 a040
00000350: 4928 a040 cf21 a040 6984 a140 e184 a140
00000360: ef1b a140 682a a040 7550 a140 7296 6b3c
00000370: 9441 a53b 9406 de3a 104a ddbc 0813 a240
00000380: 8c0f a140 28ee 59bc 410c a240 57d3 a83a
00000390: 3795 a040 ca40 a040 6704 a240 abf6 9f40
000003a0: 9e4a c63b a1da a140 4726 373c 4135 a040
000003b0: 0385 a040 ecd7 a040 a12b a040 0554 a140
000003c0: 283d a040 629d a040 ba01 a240 371f a040
000003d0: f35b a240 b577 a040 e374 a140 b90d 90bc
000003e0: ce29 a240 c476 a040 942e a240 a1e8 a040
000003f0: 636e a140 1b53 a140 cf3e a040 29a2 a040
5.020185 5.055367 5.0113745 -0.015565601 5.074261 4.9981465 0.028130116 5.047498
5.043589 0.028862689 -0.022035902 -0.0151330065 5.0206394 0.034747776 5.0119166 5.061085
0.0060019586 5.042626 5.0029817 5.0038905 5.0241838 5.0383215 5.060183 4.9992642
-0.0358913 5.050569 5.073758 5.014644 -0.035453726 5.005382 5.029877 5.0256615
5.054192 5.047596 5.004407 0.020432819 -0.0036332407 5.064446 5.0083404 0.025318079
5.041029 -0.01263435 5.0456424 -0.0017324219 5.0570254 -0.024851896 5.068091 -0.029640388
5.0421357 5.024347 5.051245 5.0350933 5.0171437 0.020141747 5.0314193 -0.0034212347
5.069345 0.00840404 -0.019020675 -0.019337 0.011146675 5.0638056 -0.028316772 5.019353
0.0045977845 5.0164075 0.021285264 5.030132 5.0056944 5.063809 0.03303004 -0.016373843
5.03943 5.0002413 5.0109754 5.0536046 5.0158052 -0.013659663 -0.00930025 5.0267463
5.0129995 -0.0031147609 5.0747094 5.034066 5.07377 -0.037228677 5.004478 5.0337324
5.002797 5.0478334 5.0190277 -0.013682 5.0631766 5.061196 5.0081615 -0.032336567
-0.037511576 5.0022345 5.053946 0.017732339 5.069756 -0.018000206 5.0057254 4.9987683
-0.0037886673 5.059687 5.0160737 5.036626 -0.007094278 -0.00048654323 5.069735 5.069644
5.04067 5.0337586 5.073627 5.000891 -0.02638973 5.0052996 4.9997187 0.012181143
5.017764 -0.025633484 0.0005961429 5.0376434 4.9987006 -0.03575443 5.043133 5.061882
5.045736 5.0115 -0.021973541 5.036201 -0.011479038 5.033086 -0.0034406295 0.03199154
5.0152693 5.051853 5.0610666 5.001639 5.042367 0.029840555 5.048671 0.037224393
5.000034 5.070495 5.0372443 0.009587012 5.0026374 5.011142 5.037846 5.01843
5.0072713 5.03516 -0.02076798 5.0713305 5.0582366 5.028241 5.0333624 5.029696
5.0335903 0.011812699 5.026051 5.015124 0.034522865 5.0260816 5.0688596 5.0271564
5.009113 -0.003595713 5.0364738 5.0290947 5.0047946 0.0075569125 -0.013912768 5.0002913
5.050388 5.022731 5.0129123 0.035020437 5.004218 4.9983363 0.024732716 5.0516
5.0721693 5.0649304 5.071091 5.0127153 -0.030985294 5.070119 0.024580143 5.073078
5.058051 5.060938 5.0138216 5.032746 5.03243 -0.009383584 -0.032735027 5.014815
5.048272 -0.028321326 5.036588 -0.00030595597 5.059398 5.073766 5.001655 5.042377
0.009169193 4.999741 5.0653453 5.0276523 5.0049176 5.004127 5.0474133 5.0474706
5.03466 5.0051765 5.0410714 0.014379131 0.005043218 0.0016939216 -0.027012855 5.064823
5.033148 -0.01330141 5.063996 0.0012880367 5.0182147 5.007909 5.0630374 4.998861
0.0060513755 5.057938 0.01117856 5.0065007 5.016237 5.0263577 5.005326 5.0415063
5.0074654 5.019212 5.062711 5.0038104 5.0737243 5.0146127 5.0455184 -0.017584668
5.067603 5.0144978 5.068186 5.028397 5.044725 5.0413947 5.007667 5.019795

layer4.bias f4 [98]
00000000: 2ad7 7a40 f8b0 b940 21a5 c040 edb9 fc3f
00000010: c1a5 dc40 55e5 653e 51db fd40 22b3 8840
00000020: 4f02 6740 e077 3640 882e b540 b772 9d40
00000030: d63d ae40 7708 2240 ea14 243d dc0c ae40
00000040: be8b c940 dec3 bf40 4b7a 1841 3cc2 a2bf
00000050: 19ab c740 1aff 8540 8bf4 5040 2fb8 4140
00000060: 5cd1 b240 2fc9 7b40 4a84 3f3f 0491 d640
00000070: 7b04 7240 935c 8d40 38b5 6340 ed16 9440
00000080: c128 843d d9de 173f d7bf 9040 e985 d240
00000090: 7708 4240 1e82 ac40 98ef 0441 23f2 ac40
000000a0: 9e09 0540 7aa4 8740 2522 6440 61ba 1840
000000b0: fc85 8c40 cb5b 8c40 9064 fa3e 7c9d 2a40
000000c0: bad9 b940 3fa8 b340 b87c bc40 3dd4 8740
000000d0: 2ef5 1a40 c6f7 d840 f765 4141 010d 453d
000000e0: 447d 8940 fe7f b140 5288 a240 5d07 8c40
000000f0: 51a0 d440 a262 2a40 c9d8 a240 5ba8 1e40
00000100: af33 4440 b9b2 943f 84bf 3241 20ad 1c40
00000110: 54b2 6140 67e8 6940 bbae ac40 a073 9b40
00000120: b123 aa40 2c8f 8a40 4331 1b40 93c3 1c40
00000130: 806a ac40 52ba 0940 6ac1 5240 c4e0 aa3f
00000140: a75f 5b40 b21a b840 b48b 9740 bd8e 8f40
00000150: 8806 9640 8676 af40 b83f 8e40 9953 c740
00000160: 6431 3540 3240 2b40 90fa b440 10ff 353f
00000170: 38b6 7040 5c05 5040 4b2f 8a40 1cb4 bd40
00000180: 35a3 b640 54bf 3740
3.9193826 5.8028526 6.0201573 1.974424 6.8952336 0.22450764 7.933022 4.271867
3.609516 2.8510666 5.66193 4.9202533 5.4450483 2.5317667 0.040059008 5.4390697
6.2983084 5.9926596 9.529857 -1.2715526 6.239636 4.1873903 3.2649257 3.0268667
5.5880566 3.9341543 0.7481123 6.705202 3.7815235 4.4175506 3.5579357 4.6277986
0.06453086 0.59324414 4.523418 6.5788465 3.0317667 5.3908834 8.308495 5.4045577
2.078712 4.2388277 3.564584 2.3863757 4.3913555 4.386205 0.48904848 2.665862
5.807828 5.614288 5.8902245 4.244658 2.4212146 6.780246 12.087394 0.048108105
4.296541 5.546874 5.0791407 4.375899 6.64457 2.66227 5.088963 2.4790256
3.0656545 1.1617042 11.171757 2.4480667 3.5265093 3.6548097 5.3963294 4.8578644
5.316857 4.329977 2.4248817 2.449437 5.3880005 2.151997 3.293055 1.3349843
3.4277132 5.7532587 4.7358036 4.486174 4.6882973 5.483218 4.445278 6.228955
2.8311396 2.6757932 5.6555862 0.7109232 3.7611217 3.250327 4.318273 5.928236
5.7074227 2.8710527
