models/30-31/guerrilla_model_weights.pth (torch, 198120 bytes, 6 tensors)

layer1.weight f4 [128, 82]
0	0x41773c36	15.4522
1	0x4112abec	9.166973
2	0x40284e03	2.6297615
3	0x4021ffd4	2.5312395
4	0x410904ff	8.56372
5	0x40c59d57	6.1754565
6	0x4120e28c	10.055309
7	0x41428464	12.157322
8	0x40e47cb2	7.1402216
9	0x414af596	12.6849575
10	0x4172f802	15.185549
11	0x415f8f4d	13.972486
12	0x40b3b957	5.6163745
13	0x414e2baa	12.88566
14	0x41714471	15.079209
15	0x4170dc32	15.053759
16	0x413b6dac	11.714275
17	0x415eb642	13.919497
18	0x4170313a	15.012018
19	0x416feefd	14.995847
20	0x40bb84b1	5.8599477
21	0x41122994	9.135151
22	0x415d2d6d	13.82359
23	0x4170155d	15.005216
24	0x41650075	14.312612
25	0x41350ce0	11.315643
26	0x416cd222	14.801302
27	0x41431c85	12.194463
28	0x40ad577d	5.4169297
29	0x4016ee61	2.3582995
30	0x4108d233	8.551318
31	0x410dc02e	8.859419
32	0x4048548d	3.1301606
33	0x415bc360	13.735199
34	0x416b0e4e	14.690992
35	0x416ef6a8	14.935219
36	0x416eaa04	14.916508
37	0x416fe1a4	14.992588
38	0x416de920	14.869415
39	0x416c74dc	14.77853
40	0x41698c1d	14.596707
41	0x416df43a	14.872126
42	0x41684946	14.517889
43	0x416c0ae9	14.752664
44	0x416b9483	14.723758
45	0x415145b4	13.079517
46	0x416e32b6	14.887381
47	0x416af90b	14.6858015
48	0x4165d738	14.365044
49	0x4163f84d	14.24812
50	0x41601a63	14.006442
51	0x4169a0c9	14.601754
52	0x4169a154	14.601887
53	0x416d3670	14.82579
54	0x416b3393	14.700091
55	0x4150492d	13.017865
56	0x41522149	13.133126
57	0x415eb939	13.92022
58	0x41616cd5	14.08907
59	0x41647aa1	14.279939
60	0x4168466c	14.517193
61	0x416c36f8	14.76342
62	0x4157e072	13.492296
63	0x416a9092	14.6602955
64	0x415a0eb4	13.62859
65	0x415e24af	13.883956
66	0x414d2982	12.822634
67	0x4166d070	14.425888
68	0x4171d72f	15.115035
69	0x4171f613	15.122577
70	0x41747647	15.278876
71	0x4157679b	13.462794
72	0x4162d03c	14.175838
73	0x4163aeae	14.230146
74	0x41699bea	14.600565
75	0x41050f6c	8.316265
76	0x416bc469	14.735452
77	0x416b8690	14.720352
78	0x4162fbf2	14.18651
79	0x41660943	14.377261
80	0x41646c30	14.276413
81	0x41631d12	14.194597
82	0x4177317d	15.449582
83	0x4114dd22	9.3039875
84	0x40252666	2.5804687
85	0x402a4555	2.6604817
86	0x410e11c4	8.879337
87	0x40cd7162	6.4200907
88	0x4124d18b	10.301158
89	0x413fef81	11.995973
90	0x40e6fdb1	7.218468
91	0x414a9dcd	12.663526
92	0x41752348	15.321114
93	0x415dd644	13.864811
94	0x40b390b5	5.6114144
95	0x41528627	13.157752
96	0x4173e936	15.244436
97	0x4174cc25	15.29984
98	0x413d762f	11.841353
99	0x41635561	14.208344
100	0x417500d0	15.312698
101	0x4176812e	15.406538
102	0x40bdfcd7	5.9371142
103	0x4115fa2f	9.37358
104	0x415cd0f3	13.801013
105	0x4175167f	15.317992
106	0x41678a60	14.471283
107	0x4138376e	11.513533
108	0x416e5e89	14.89808
109	0x4142fea8	12.187172
110	0x40b1caef	5.556022
111	0x402c3bb0	2.691143
112	0x4109898b	8.59608
113	0x4111bd44	9.108707
114	0x40429b74	3.040738
115	0x415d6fa3	13.839755
116	0x416c163b	14.755427
117	0x41714f0e	15.0818
118	0x416f49c8	14.955513
119	0x416f8097	14.968894
120	0x41706f0a	15.027109
121	0x416cc364	14.797703
122	0x416aec73	14.682727
123	0x416ef0e9	14.933816
124	0x416d8bda	14.846643
125	0x416dd6bd	14.864926
126	0x416fcdfa	14.987787
127	0x4155f04c	13.371166
128	0x416ea298	14.914696
129	0x416d98a1	14.849763
130	0x41683d66	14.51499
131	0x41695928	14.584267
132	0x4166f8a1	14.4357
133	0x416eb1b7	14.918387
134	0x416d633d	14.836728
135	0x416ded76	14.870474
136	0x416c8896	14.783346
137	0x415c1afd	13.756589
138	0x41577262	13.4654255
139	0x4166c6d4	14.423542
140	0x4166e5b2	14.431078
141	0x4169da6f	14.6158285
142	0x416b21b3	14.695727
143	0x416c0f8c	14.753796
144	0x4160ee79	14.058221
145	0x416f65b5	14.962331
146	0x41605602	14.020998
147	0x41624546	14.141912
148	0x4150e86f	13.0567465
149	0x416bb0d4	14.730671
150	0x41726b47	15.151191
151	0x41739c1b	15.225612
152	0x41757eb1	15.3434305
153	0x415ef27d	13.934201
154	0x416773f3	14.465808
155	0x416667f1	14.400376
156	0x416a3638	14.638237
157	0x410590fa	8.347895
158	0x416ed7a1	14.927644
159	0x416f9a53	14.975177
160	0x41695bf2	14.584948
161	0x4165d141	14.363587
162	0x4166b58b	14.419322
163	0x4163f8c4	14.248234
164	0x4176e972	15.4319935
165	0x41148334	9.282032
166	0x4022e2a4	2.545083
167	0x401c7b2c	2.4450178
168	0x410a4f03	8.64429
169	0x40ccae81	6.3963017
170	0x412549c6	10.330511
171	0x414154dc	12.083218
172	0x40e6dc88	7.2144203
173	0x414b53a8	12.707924
174	0x417593ec	15.348614
175	0x415e9cb4	13.913258
176	0x40b592e0	5.674179
177	0x41501637	13.005424
178	0x417153c7	15.082953
179	0x41744d5e	15.268888
180	0x413dca10	11.861832
181	0x416003ff	14.000976
182	0x41743f93	15.265521
183	0x4173ed2d	15.245404
184	0x40bf2bf2	5.9741144
185	0x4117e20a	9.492685
186	0x415da717	13.853293
187	0x4175dcca	15.366404
188	0x41655b6f	14.334823
189	0x41357b2c	11.342571
190	0x4169c675	14.610951
191	0x41448fda	12.28512
192	0x40ac59ea	5.385976
193	0x40212f84	2.5185251
194	0x41084b60	8.518402
195	0x410fbfa5	8.984288
196	0x4043716e	3.0537982
197	0x41588290	13.531876
198	0x416af5c8	14.685005
199	0x416e835c	14.90707
200	0x416e89a8	14.9086075
201	0x41701bfa	15.00683
202	0x416df866	14.873144
203	0x416afbe2	14.686495
204	0x4168cd3e	14.550108
205	0x416bba7b	14.733027
206	0x41656c09	14.338876
207	0x416a5e63	14.648044
208	0x416e31a5	14.88712
209	0x4151df93	13.117084
210	0x416bb51d	14.731717
211	0x416e050d	14.876233
212	0x4165c6a9	14.361001
213	0x4165bb37	14.358207
214	0x4162abac	14.166912
215	0x416ae8af	14.6818075
216	0x416b4fe6	14.707006
217	0x416dafdc	14.855434
218	0x416b1e5c	14.694912
219	0x415a0ac7	13.627631
220	0x4153fdda	13.2494755
221	0x4162d961	14.178071
222	0x41623baa	14.139566
223	0x4164a08e	14.289198
224	0x4169447d	14.579221
225	0x416d1c5d	14.819425
226	0x416105af	14.063888
227	0x416c169b	14.755519
228	0x4159800f	13.593764
229	0x41606441	14.024476
230	0x415221da	13.133265
231	0x41665f33	14.398242
232	0x417369db	15.213344
233	0x41714c85	15.081182
234	0x4170aec8	15.042671
235	0x415e1fff	13.882812
236	0x4160e639	14.056207
237	0x4162270c	14.134533
238	0x4167c5c0	14.485779
239	0x4103a6cf	8.228225
240	0x416d9f38	14.851372
241	0x416d24ef	14.821517
242	0x4162f61e	14.185087
243	0x4164ce42	14.300356
244	0x41600484	14.001102
245	0x41613ec0	14.07782
246	0x4176950b	15.411387
247	0x4118a2ce	9.539747
248	0x40250b75	2.5788243
249	0x401ec95e	2.4810405
250	0x410c0704	8.751713
251	0x40cc72e2	6.389024
252	0x412a4abe	10.643248
253	0x4143fcab	12.2491865
254	0x40ebbb91	7.3666463
255	0x414d49fe	12.8305645

layer1.bias f4 [128]
0	0x4173ffcd	15.249951
1	0x41762b58	15.385582
2	0x4174ee93	15.308246
3	0x4173a877	15.228629
4	0x417664dc	15.399624
5	0x417a4551	15.641923
6	0x416d7801	14.841798
7	0x417273fa	15.153315
8	0x416d4096	14.828268
9	0x41779e82	15.476198
10	0x416dee9b	14.870753
11	0x4175cd8f	15.362685
12	0x417a1f97	15.632712
13	0x416e42c8	14.891304
14	0x41784904	15.517826
15	0x41742da6	15.261145
16	0x4177146f	15.442489
17	0x41764ef2	15.394274
18	0x41738314	15.2195015
19	0x41740fa9	15.253823
20	0x416cdb51	14.803544
21	0x4174e09b	15.304835
22	0x417bb2dd	15.731168
23	0x41754355	15.3289385
24	0x41661e6e	14.382429
25	0x4176aa8c	15.416637
26	0x4173c4da	15.235559
27	0x41746495	15.274556
28	0x4173f96d	15.248395
29	0x41799bdf	15.600554
30	0x41774ca8	15.456215
31	0x4177e15e	15.492521
32	0x4175eb13	15.369891
33	0x41758ddd	15.347135
34	0x416f2ed8	14.948936
35	0x4174ead5	15.307332
36	0x41767794	15.404194
37	0x4178f64a	15.560129
38	0x417a4954	15.642902
39	0x4174f4a3	15.309726
40	0x4177bdb5	15.483815
41	0x4175c289	15.359994
42	0x41626364	14.149265
43	0x41727d6a	15.155619
44	0x41660906	14.377203
45	0x417a4320	15.641388
46	0x41753bb6	15.327078
47	0x4173ce84	15.237919
48	0x417ad3ad	15.676679
49	0x41735767	15.208838
50	0x417a2eb8	15.636406
51	0x4174b1cd	15.293408
52	0x41764600	15.39209
53	0x41708bb5	15.034108
54	0x4174c94a	15.299143
55	0x4177c13f	15.484679
56	0x4175adaa	15.354898
57	0x41780a7c	15.50256
58	0x417abf00	15.671631
59	0x417444da	15.266809
60	0x4170b998	15.045311
61	0x417478ca	15.2794895
62	0x41761bff	15.381835
63	0x41782993	15.51015
64	0x4173deb2	15.241869
65	0x41649a51	14.287675
66	0x416d4246	14.82868
67	0x417098dc	15.037319
68	0x41744ae6	15.268286
69	0x4166f0d1	14.433793
70	0x41764705	15.392339
71	0x4178131c	15.504665
72	0x417848cb	15.517772
73	0x4176ca8e	15.424452
74	0x4177b840	15.482483
75	0x4175b868	15.357521
76	0x41762e7a	15.386347
77	0x4173b28f	15.231093
78	0x4172e7e7	15.181617
79	0x4175e7cf	15.369094
80	0x4175012f	15.312789
81	0x4179b0e7	15.605689
82	0x41782ed9	15.511437
83	0x417514ec	15.317608
84	0x4173e3ac	15.243084
85	0x416cdfcc	14.804638
86	0x41747981	15.279664
87	0x416620ee	14.383039
88	0x41788466	15.532324
89	0x417b5ba3	15.709872
90	0x4173bd8c	15.233776
91	0x4177cfb5	15.48821
92	0x41730e9c	15.191067
93	0x41766ac4	15.401066
94	0x41741ad4	15.25655
95	0x41755a5b	15.334559
96	0x417592cb	15.348338
97	0x41753b9f	15.327056
98	0x417a0557	15.626304
99	0x41743583	15.263064
100	0x4179388d	15.576306
101	0x41762929	15.385049
102	0x4178a2fc	15.539791
103	0x41796f00	15.5896
104	0x417888c8	15.533394
105	0x4173393d	15.201474
106	0x4171dc3c	15.116268
107	0x4178bbba	15.545832
108	0x41744712	15.267351
109	0x4178365b	15.51327
110	0x41737f91	15.218644
111	0x41776fe2	15.464815
112	0x41757f10	15.343521
113	0x41751176	15.316763
114	0x4179cd8f	15.612685
115	0x4176e138	15.429985
116	0x4176029c	15.375637
117	0x41758750	15.345535
118	0x4174507e	15.269651
119	0x41769ea1	15.413728
120	0x41775784	15.458866
121	0x41743e2d	15.26518
122	0x4174a9f0	15.291489
123	0x416c2a7e	14.760374
124	0x4164fa24	14.3110695
125	0x4174f5f3	15.310046
126	0x4176d615	15.427266
127	0x41753236	15.324759

layer2.weight f4 [128, 128]
0	0x41555055	13.332112
1	0x415d1c45	13.819402
2	0x415cb887	13.795051
3	0x415b9305	13.723393
4	0x415c10df	13.754119
5	0x415c2dd2	13.761187
6	0x415e130d	13.879651
7	0x415be821	13.744172
8	0x415fb1f2	13.980944
9	0x415af5d5	13.685018
10	0x41613f2d	14.077924
11	0x415ccfb5	13.80071
12	0x415daf90	13.855362
13	0x415bfd4d	13.749341
14	0x415e85be	13.907652
15	0x415b06ac	13.689129
16	0x415b8850	13.720779
17	0x415b14da	13.692591
18	0x41588fc1	13.535096
19	0x415ad76d	13.677594
20	0x416044d8	14.016808
21	0x415cf660	13.81015
22	0x415f104a	13.941477
23	0x415c27d6	13.759726
24	0x4167f599	14.49746
25	0x415b613f	13.711242
26	0x415b4544	13.704411
27	0x415dd9c9	13.86567
28	0x415f5a20	13.959503
29	0x415dc72c	13.861126
30	0x415d22db	13.82101
31	0x415c035b	13.750819
32	0x415b5f99	13.710839
33	0x415d3af6	13.826895
34	0x415cb1da	13.793421
35	0x415f07c6	13.939398
36	0x415b2d56	13.698568
37	0x415d65c7	13.837348
38	0x415b5175	13.707387
39	0x415f4440	13.954163
40	0x415bdcd6	13.741415
41	0x415a9965	13.66245
42	0x416c2a8c	14.760387
43	0x41586174	13.523792
44	0x4166067e	14.376585
45	0x415c4be6	13.76853
46	0x416143f2	14.079088
47	0x415cab68	13.791847
48	0x415f9691	13.974259
49	0x41613a11	14.076676
50	0x415ef7c3	13.935489
51	0x415d9e60	13.851166
52	0x415c8dfd	13.784665
53	0x415bdfb2	13.742113
54	0x415b8ab0	13.721359
55	0x415de933	13.869433
56	0x415c1125	13.754186
57	0x415b772b	13.716594
58	0x415bfa7d	13.748654
59	0x415aa10f	13.664321
60	0x41545a1e	13.272001
61	0x415c3e75	13.765248
62	0x415f4e3f	13.956603
63	0x415cf09e	13.808744
64	0x415dfbce	13.873976
65	0x41671995	14.443746
66	0x415ddedd	13.86691
67	0x41603014	14.011738
68	0x415ab285	13.668584
69	0x4165cd7f	14.36267
70	0x415c2075	13.757924
71	0x415bb42d	13.731488
72	0x415abedb	13.671596
73	0x415ac800	13.673828
74	0x415c7385	13.778203
75	0x415d1a43	13.818912
76	0x415c1e32	13.757372
77	0x41588fd9	13.535119
78	0x415aec86	13.682745
79	0x415ca43b	13.790095
80	0x415f1eab	13.944987
81	0x415ce3a0	13.8055725
82	0x415d1421	13.817414
83	0x4159122b	13.566936
84	0x415bf040	13.746155
85	0x415e443c	13.891659
86	0x415c20b5	13.757985
87	0x4164965b	14.286708
88	0x415a9ec3	13.66376
89	0x415df806	13.873053
90	0x415c3a47	13.764228
91	0x415bf31b	13.746852
92	0x415bdf57	13.742026
93	0x415ce861	13.806733
94	0x415d540c	13.833019
95	0x415b7ddf	13.71823
96	0x415bfa05	13.74854
97	0x4157a8bf	13.478698
98	0x415e0d04	13.878178
99	0x415b6f56	13.714682
100	0x415eea7b	13.932246
101	0x415b8c05	13.721684
102	0x415b7a51	13.717362
103	0x415cbd73	13.796252
104	0x415cd7f0	13.802719
105	0x415db7b8	13.857353
106	0x415a6365	13.649266
107	0x415dcad3	13.862018
108	0x415daa75	13.8541155
109	0x41607646	14.028875
110	0x415e5850	13.896561
111	0x415f5d72	13.960314
112	0x415b9776	13.724478
113	0x4158a8f4	13.541248
114	0x415cd598	13.802147
115	0x415bcd3b	13.737605
116	0x415ddf79	13.867059
117	0x415d875d	13.845548
118	0x415854d6	13.520712
119	0x415d9194	13.848042
120	0x415d6c44	13.838932
121	0x41587852	13.529375
122	0x415e0e03	13.878421
123	0x4160eded	14.058087
124	0x41623c03	14.139651
125	0x415c3820	13.763702
126	0x4159ff84	13.624882
127	0x415a01fa	13.625483
128	0x4154ee55	13.308187
129	0x415b4497	13.704246
130	0x41565cb7	13.397635
131	0x415e07bc	13.876888
132	0x415c66dd	13.775113
133	0x415d90a8	13.847816
134	0x416189bd	14.0961275
135	0x415e0772	13.876818
136	0x4163cb78	14.237175
137	0x415da568	13.852882
138	0x416547a9	14.329995
139	0x415fe4e8	13.993385
140	0x415e5aed	13.897199
141	0x41624995	14.142964
142	0x415ef06d	13.933698
143	0x415638ee	13.388899
144	0x415cc3f8	13.797844
145	0x415bccd7	13.73751
146	0x415c8ff4	13.785145
147	0x415d2050	13.820389
148	0x41633bc5	14.202092
149	0x4159216f	13.5706625
150	0x41611fd7	14.070273
151	0x41556ea5	13.339513
152	0x416c221d	14.758328
153	0x416079aa	14.029703
154	0x415d7efb	13.843501
155	0x41616126	14.086218
156	0x415ea7a5	13.915929
157	0x415e308b	13.886851
158	0x41615199	14.082421
159	0x415cda51	13.8033
160	0x415c8520	13.782501
161	0x415600a8	13.37516
162	0x41613516	14.07546
163	0x415e9e8f	13.913711
164	0x415e4edb	13.894252
165	0x415cfe9a	13.812159
166	0x415e2dc5	13.886174
167	0x41615ce4	14.085178
168	0x415dad38	13.85479
169	0x415ce383	13.805545
170	0x4172110f	15.129165
171	0x41563440	13.387756
172	0x416df83c	14.873104
173	0x415ddd42	13.866518
174	0x416317a9	14.193276
175	0x4156ff56	13.437338
176	0x415f06fe	13.939207
177	0x4161ca44	14.111881
178	0x415f2f9e	13.949125
179	0x415d47da	13.830042
180	0x415d643e	13.836973
181	0x4160ce8e	14.050428
182	0x415d750b	13.841075
183	0x415feb4b	13.994945
184	0x4158e9d5	13.557088
185	0x415ce259	13.805261
186	0x415fe184	13.992558
187	0x415c49c1	13.768006
188	0x4159fe29	13.624551
189	0x4156d00d	13.425794
190	0x415eef85	13.933476
191	0x415d5a3f	13.834533
192	0x415f7ac7	13.967475
193	0x416bef07	14.745856
194	0x41652247	14.3208685
195	0x4163288b	14.197398
196	0x4155d134	13.363575
197	0x416bdaa4	14.740879
198	0x415e6b61	13.901216
199	0x415cbe64	13.796482
200	0x415d4680	13.829712
201	0x415d7da3	13.843173
202	0x415b3f53	13.70296
203	0x415c6632	13.77495
204	0x415be835	13.744191
205	0x4155bc90	13.358536
206	0x415989c1	13.596131
207	0x415b300d	13.699231
208	0x41617e86	14.0933895
209	0x415dea5d	13.869718
210	0x415d0caa	13.815592
211	0x415d5c34	13.835011
212	0x415b9892	13.724749
213	0x4162c1f6	14.172354
214	0x415af8e9	13.685769
215	0x416c2811	14.759782
216	0x415c4217	13.766135
217	0x41606509	14.024667
218	0x415c314d	13.762036
219	0x415e993f	13.912414
220	0x415ef04d	13.933667
221	0x4156b7ba	13.419855
222	0x415de6ad	13.868817
223	0x415dcafb	13.862056
224	0x415d3b71	13.827012
225	0x41589eb6	13.538748
226	0x4160dc73	14.053821
227	0x415c4916	13.767843
228	0x415edf8b	13.929576
229	0x415e26a1	13.884431
230	0x415ca571	13.790391
231	0x415f4c68	13.956154
232	0x415c6265	13.774022
233	0x415b7097	13.714988
234	0x4161cd8f	14.112685
235	0x415f47a5	13.954991
236	0x415eb9e3	13.9203825
237	0x415e9f3f	13.913878
238	0x41603c0f	14.014663
239	0x415fd715	13.99001
240	0x415bb4ee	13.731672
241	0x415a0ab2	13.627611
242	0x415d684f	13.837966
243	0x415b9694	13.724262
244	0x415ebb4d	13.920728
245	0x415ee64e	13.931227
246	0x41593c50	13.577225
247	0x4160cbd0	14.049759
248	0x415cde07	13.804206
249	0x415b09af	13.689864
250	0x415f3856	13.951254
251	0x416460fa	14.273676
252	0x416df6d6	14.872763
253	0x415a6641	13.649964
254	0x415b6f43	13.7146635
255	0x4154636d	13.274274

layer2.bias f4 [128]
0	0x4160d856	14.052816
1	0x415a78e9	13.654519
2	0x4157a588	13.477913
3	0x415d2de6	13.823706
4	0x415cd2da	13.801477
5	0x415f6c32	13.963915
6	0x415c9d4b	13.788402
7	0x4177d828	15.4902725
8	0x41577b70	13.467636
9	0x41598b03	13.596438
10	0x4174291d	15.260037
11	0x415b36e4	13.700901
12	0x41592103	13.5705595
13	0x41652b19	14.323022
14	0xbc91b2d9	-0.017785477
15	0x415f6526	13.962194
16	0x415929b3	13.57268
17	0x415cecc7	13.807807
18	0x4159d1af	13.613692
19	0x41767e0d	15.405774
20	0x415a2420	13.63382
21	0x4158db82	13.553591
22	0x417468fe	15.275633
23	0x4159c325	13.610143
24	0x4166b16e	14.418318
25	0x415c8548	13.782539
26	0x415f5152	13.957354
27	0x415886ae	13.532881
28	0x415d62f9	13.836663
29	0x415bdae5	13.740941
30	0x41603906	14.013922
31	0x41598d6a	13.597025
32	0x4178ba0f	15.545424
33	0x4158e3aa	13.555582
34	0x415e14b0	13.880051
35	0x4157a548	13.477852
36	0x415c0ca1	13.753083
37	0x415b2969	13.69761
38	0x41572376	13.446157
39	0x4159025c	13.563076
40	0x4159b52a	13.6067295
41	0x41585bd3	13.522418
42	0x415aee2f	13.68315
43	0x416223b2	14.133715
44	0x4173425a	15.203699
45	0x415bf039	13.746148
46	0x415cd2bc	13.801449
47	0x4170ea43	15.057193
48	0x416dd5ce	14.864698
49	0x4157e92e	13.494429
50	0x41731fa7	15.195228
51	0x4159af9f	13.605376
52	0x415a5ca6	13.647619
53	0x4157a53e	13.477842
54	0x4157b8b1	13.482591
55	0x416d274b	14.822093
56	0x4159c707	13.611091
57	0x4159651a	13.587183
58	0x416074a0	14.028473
59	0x415b3256	13.699789
60	0x41721bd5	15.131795
61	0x415f0474	13.938587
62	0x4158d7b4	13.552662
63	0x4159105c	13.566494
64	0x415f4766	13.954931
65	0x415a9512	13.661394
66	0x415f55f4	13.958485
67	0x416f75f8	14.966301
68	0x4174fe9a	15.312159
69	0x415ae1a2	13.680086
70	0x415cbfef	13.796859
71	0x415901bc	13.562923
72	0x415ac003	13.671878
73	0x41711ca5	15.069493
74	0x415e16bf	13.880553
75	0x41736fdf	15.214812
76	0x4159453a	13.579401
77	0x415903f7	13.563468
78	0x4173144e	15.192457
79	0x417a047d	15.626096
80	0x41722341	15.133607
81	0x41595656	13.583578
82	0x4176375d	15.388516
83	0x41744ddb	15.269008
84	0x4166c770	14.423691
85	0x416df458	14.872154
86	0x41596ce6	13.589087
87	0x4158042c	13.501019
88	0x4176571f	15.39627
89	0x417377be	15.216734
90	0x415b871b	13.720485
91	0x415c411f	13.765899
92	0x4166d450	14.426834
93	0x417a1a1e	15.631376
94	0x41622620	14.134308
95	0x415c94a9	13.786294
96	0x41595627	13.583533
97	0x41616b25	14.088658
98	0x415f9acd	13.975293
99	0x415f4b07	13.955817
100	0x4172a116	15.164328
101	0x4170dbc8	15.053658
102	0x4159f3a9	13.621987
103	0x415d690c	13.838146
104	0x41596f29	13.589639
105	0x4159d744	13.615055
106	0x41790582	15.563845
107	0x41598e9f	13.59732
108	0x415d9097	13.8478
109	0x41745c90	15.272598
110	0x415b0640	13.689026
111	0x41589005	13.535161
112	0x415b5ded	13.710431
113	0x415cc767	13.798682
114	0x415a48f6	13.642813
115	0x415951f9	13.582513
116	0x415931cf	13.57466
117	0x4176e892	15.43178
118	0x41588e5f	13.534759
119	0x4159546b	13.58311
120	0x41734908	15.20533
121	0x415caecc	13.792675
122	0xbd460f1a	-0.048354246
123	0x41749b15	15.287862
124	0x415ae2ea	13.680399
125	0x415fc387	13.985236
126	0x415ca33d	13.789853
127	0x415b0b26	13.690222

layer3.weight f4 [168, 128]
0	0x407a07d2	3.9067273
1	0x407556c6	3.8334212
2	0x407d5777	3.9584634
3	0x40762172	3.8457913
4	0x40790bb9	3.8913405
5	0x407994d7	3.8997095
6	0x4074899f	3.8208997
7	0x407da2ab	3.9630535
8	0x4073c9f4	3.8092012
9	0x407b04bc	3.922164
10	0x407d1b3a	3.9547868
11	0x4073e0b8	3.8105907
12	0x4078a644	3.885148
13	0x407a3c36	3.909925
14	0xbd87eb4e	-0.06636678
15	0x407e90f3	3.977597
16	0x407809fb	3.8756092
17	0x407ebb85	3.9801953
18	0x40721b05	3.7828991
19	0x4076565e	3.8490214
20	0x40777027	3.8662202
21	0x40750da7	3.8289583
22	0x4081c3de	4.0551596
23	0x4073e446	3.8108077
24	0x4077fc99	3.8747923
25	0x407797e0	3.8686447
26	0x40737a74	3.804349
27	0x40697758	3.6479092
28	0x40711997	3.7671869
29	0x40760fd8	3.844717
30	0x407734e6	3.8626037
31	0x40724c4c	3.7859068
32	0x407a2f38	3.909132
33	0x4075f5ad	3.8431199
34	0x407214f5	3.782529
35	0x40703106	3.7529922
36	0x407814b0	3.8762627
37	0x407136c2	3.7689672
38	0x4076bd9e	3.8553233
39	0x4074b5ea	3.8236032
40	0x40784cdd	3.8796914
41	0x40761165	3.8448117
42	0x4076321b	3.8468082
43	0x407cd144	3.9502726
44	0x40770655	3.8597615
45	0x4075d09d	3.8408577
46	0x406fbcf7	3.7459085
47	0x407ef5b6	3.983747
48	0x4079c871	3.902859
49	0x4074981a	3.8217835
50	0x407ab87e	3.9175105
51	0x407c61a9	3.9434607
52	0x40798778	3.8988934
53	0x4071f226	3.7804046
54	0x4075dd7f	3.841644
55	0x40768817	3.8520563
56	0x40785f82	3.8808293
57	0x407b7b15	3.9293873
58	0x4074185f	3.8139875
59	0x407487ce	3.8207889
60	0x407d9882	3.9624333
61	0x4074ebe8	3.8268986
62	0x407535ae	3.8314013
63	0x4073299a	3.7994142
64	0x4076d893	3.8569686
65	0x40737b0b	3.804385
66	0x40748d8f	3.82114
67	0x407a2f67	3.9091432
68	0x407dcfa0	3.9657974
69	0x40797249	3.8976004
70	0x4077f478	3.8742962
71	0x40755a4d	3.8336365
72	0x40756fb8	3.8349438
73	0x407fd07c	3.9970999
74	0x40730620	3.7972488
75	0x407f7a53	3.991841
76	0x40771c11	3.861088
77	0x4073b284	3.8077707
78	0x407c74aa	3.9446206
79	0x40815e4b	4.0427604
80	0x4076f3c7	3.858629
81	0x40770646	3.859758
82	0x4081e37b	4.0590186
83	0x407797fa	3.868651
84	0x407aae8c	3.9169035
85	0x40800a41	4.0012517
86	0x40768bc9	3.8522818
87	0x40745427	3.8176363
88	0x40816751	4.043862
89	0x407ecbf3	3.981198
90	0x4074ed0a	3.8269677
91	0x4076d92c	3.8570051
92	0x4073d37f	3.8097837
93	0x407d3e38	3.9569225
94	0x40787b02	3.8825078
95	0x40762f4c	3.8466368
96	0x407137c8	3.7690296
97	0x407950b3	3.8955505
98	0x40779465	3.8684323
99	0x4076118d	3.8448212
100	0x407d2296	3.955236
101	0x407ad2c5	3.9191144
102	0x40749178	3.8213787
103	0x406ae404	3.670167
104	0x406f777d	3.741668
105	0x40718170	3.7735252
106	0x4081909f	4.048904
107	0x4070649c	3.7561407
108	0x407daba0	3.9636002
109	0x4078ee1d	3.8895333
110	0x4076bfc8	3.8554554
111	0x40750b1e	3.8288035
112	0x40786a8f	3.8815038
113	0x4078e608	3.88904
114	0x4071ce7d	3.778228
115	0x4077e117	3.8731134
116	0x4077d4a8	3.8723545
117	0x407c63e7	3.9435976
118	0x407b123c	3.922988
119	0x407500e5	3.8281796
120	0x40761ccf	3.8455083
121	0x4072de10	3.7948036
122	0xbcb2df5b	-0.02183502
123	0x407a7184	3.9131784
124	0x4070b628	3.761118
125	0x407777f7	3.866697
126	0x406f3245	3.7374432
127	0x4076c3b5	3.855695
128	0x3cf8eeda	0.03038733
129	0x3ded3661	0.115826376
130	0x3d4dc03c	0.050232157
131	0x3d8f1a65	0.06987456
132	0x3de114e5	0.109903134
133	0x3d867078	0.065644205
134	0x3d529c2a	0.05141846
135	0x3e018c52	0.12651184
136	0x3e0cd1b4	0.1375187
137	0x3de076f5	0.10960189
138	0x3dd90406	0.105964705
139	0x3d18fa80	0.03734827
140	0x3deb1dad	0.114802696
141	0x3e1ac029	0.15112366
142	0xbcb26c70	-0.021780223
143	0x3d5fff80	0.054687023
144	0x3e24117f	0.16022299
145	0x3c0691fa	0.008213514
146	0x3e01c7cb	0.12673871
147	0x3cb2f8da	0.021847177
148	0x3d192d4e	0.03739672
149	0x3e232e20	0.15935564
150	0x3e01e244	0.1268397
151	0x3d836248	0.0641523
152	0x3dda9f16	0.106748745
153	0x3dbd946b	0.09256824
154	0x3e205631	0.1565788
155	0x3e109d96	0.14122614
156	0x3d8953b1	0.06705416
157	0x3dc8d4f2	0.09806241
158	0x3defad5c	0.117029876
159	0x3e0cc0e2	0.13745454
160	0x3e2592d7	0.16169296
161	0x3cecd750	0.028911263
162	0x3d12b749	0.035819326
163	0x3db40f24	0.0879195
164	0x3e1d6c9e	0.15373465
165	0x3e229676	0.15877709
166	0xbb88cc04	-0.004174711
167	0x3df5db77	0.1200475
168	0x3e104332	0.14088133
169	0x3ce215cc	0.027598284
170	0x3d70eb41	0.058818106
171	0x3dcc3a70	0.099720836
172	0x3e080e79	0.13286771
173	0x3d944a86	0.07240777
174	0x3d91c6d9	0.07118005
175	0x3da964ac	0.08271155
176	0x3d65eda4	0.056134835
177	0x3d146885	0.03623249
178	0x3e0e4a07	0.13895427
179	0x3e279bb2	0.16367987
180	0x3dc3f581	0.095683105
181	0x3dacac86	0.08431344
182	0x3d6f42fc	0.05841349
183	0x3ba72830	0.0051012263
184	0x3e15751d	0.14595456
185	0x3dc0cba8	0.09413844
186	0x3e0d975e	0.13827273
187	0x3decefa8	0.11569148
188	0x3e0eec97	0.1395744
189	0x3e190618	0.14943731
190	0x3e16bcea	0.14720502
191	0x3db3993f	0.08769464
192	0x3e19b2b6	0.15009579
193	0x3dc8761e	0.09788154
194	0x3c4a4c93	0.012347358
195	0x3d19c203	0.03753854
196	0x3de7edb6	0.11324637
197	0x3cab3600	0.020899773
198	0x3e17a621	0.14809467
199	0x3e257a59	0.16159953
200	0x3df8efb6	0.12155096
201	0x3de4d820	0.11174035
202	0x3dcfec94	0.101525456
203	0xbc93430e	-0.01797631
204	0x3df9ef83	0.12203886
205	0x3e08d6e3	0.13363223
206	0x3ddbe9ec	0.107379764
207	0x3d9d9045	0.07693533
208	0x3d17fe5f	0.03710782
209	0x3d03063e	0.031988375
210	0x3d9ddf66	0.077086255
211	0x3ca50ecb	0.020148655
212	0x3df34959	0.11879224
213	0x3d2b484f	0.041817006
214	0x3df6178f	0.12016212
215	0x3e0a016b	0.13477103
216	0x3cf6bebf	0.030120252
217	0x3e4a7f19	0.19775046
218	0x3e1c4539	0.15260781
219	0x3d70749e	0.058704965
220	0x3d96d5a7	0.0736497
221	0x3d8f7ab8	0.070058286
222	0x3d9cc66f	0.07655036
223	0x3e18beb7	0.14916502
224	0x3e2818b8	0.1641568
225	0x3d871d4c	0.06597385
226	0x3d099d04	0.033597007
227	0x3da1a8a5	0.078934945
228	0x3e08b73d	0.1335115
229	0x3dd95b94	0.1061317
230	0x3d2f118b	0.04274134
231	0x3c964b06	0.01834632
232	0x3db2bc8d	0.087273695
233	0x3db7bd9f	0.08971714
234	0x3d276420	0.04086697
235	0x3cee0867	0.02905674
236	0x3d066743	0.03281332
237	0x3c3baa7f	0.011454224
238	0x3db21f29	0.086973496
239	0x3d5b3be9	0.05352393
240	0x3d281cb8	0.041043013
241	0x3d8af064	0.06784132
242	0x3d9b8ac6	0.07594828
243	0x3d57fb28	0.052729756
244	0x3cdcea4a	0.026967186
245	0x3d8266e1	0.06367279
246	0x3d29bbdb	0.04143892
247	0x3e061057	0.1309217
248	0x3dab2110	0.083559155
249	0x3d1c3317	0.03813466
250	0xbc94e0ad	-0.01817354
251	0x3dcb3e3c	0.0992398
252	0x3e0b7f64	0.13622814
253	0x3cb816e9	0.022471862
254	0x3df2abfc	0.1184921
255	0x3d2c8cc3	0.04212643

layer3.bias f4 [168]
0	0x4066f556	3.608724
1	0x3d9b3c0f	0.07579815
2	0x3efa0cf6	0.48838013
3	0x3f0ff829	0.5623804
4	0x3e97c381	0.29641345
5	0x3f23dbd4	0.64007306
6	0x3eaf8754	0.34282935
7	0x414a0c60	12.628021
8	0x3efb98f4	0.4914013
9	0x3f28cba6	0.6593574
10	0x3f0575cb	0.5213286
11	0x3f2059ed	0.62637216
12	0x3eb04814	0.3442999
13	0x4142bff5	12.1718645
14	0x3dffc68e	0.12489043
15	0x3ea550f1	0.32288316
16	0x3eb2d6d2	0.3492952
17	0x4148c4b1	12.54802
18	0x3eb054a4	0.34439576
19	0x4132912e	11.160444
20	0x3eac2dea	0.3362878
21	0x3fc1af6f	1.5131663
22	0x41445199	12.269921
23	0x3f1fabd9	0.62371594
24	0x3f93c1ce	1.154352
25	0x3fd7c927	1.6858262
26	0x3f150a99	0.58219296
27	0x3f272c93	0.6530239
28	0x3f3eb6dd	0.7449778
29	0x414c11cd	12.754346
30	0x3f93e8e3	1.1555446
31	0x3f18839a	0.5957581
32	0x3f2e1bec	0.68011355
33	0x3f6f8508	0.93562365
34	0x3f2d3cb1	0.6767073
35	0x4145a087	12.351691
36	0x3f173eae	0.59080017
37	0x3fcffafa	1.6248467
38	0x3f40b56c	0.7527683
39	0x409094c9	4.5181623
40	0x40003de4	2.0037775
41	0x3f253f4c	0.6454971
42	0x3f11c64d	0.5694321
43	0x3f04089f	0.51575655
44	0x3f7e606a	0.99365866
45	0x3fc1ef9c	1.5151248
46	0x3e9f6cde	0.31137747
47	0x3eac7862	0.33685595
48	0x3f86f546	1.0543602
49	0x3e74ac31	0.23893811
50	0x40eaeb8f	7.3412547
51	0x3ef2d93c	0.47431362
52	0x3fdd9e30	1.73139
53	0x40e2d3f0	7.0883713
54	0x4015d4d4	2.341115
55	0x403134a9	2.7688391
56	0x3f42b982	0.7606431
57	0x3fc46104	1.5342107
58	0x4015afbf	2.3388517
59	0x3f828877	1.0197896
60	0x4023b228	2.5577488
61	0x3f191610	0.5979929
62	0x3f82a2eb	1.0205969
63	0x40129d91	2.290867
64	0x3f410dff	0.7541198
65	0x3f16a0e6	0.5883926
66	0x3f9c83a4	1.2227674
67	0x4145fcdf	12.374236
68	0x3eefd2dc	0.4684056
69	0x3f0def80	0.55443573
70	0x3f7545b1	0.95809466
71	0x400e6e5a	2.2254853
72	0x4080006d	4.000052
73	0x3ff292bf	1.8951033
74	0x3f7fb1fb	0.9988095
75	0x3f99c81b	1.2014192
76	0x3fded124	1.7407575
77	0x402e832c	2.726756
78	0x406fbb7a	3.7458177
79	0x3f3a3ad9	0.72746044
80	0x3f71e329	0.94487244
81	0x40259179	2.587004
82	0x4147b248	12.481026
83	0x3f53ec16	0.82782114
84	0x3fbf214a	1.4932034
85	0x3f48f662	0.7850095
86	0x3eb9b894	0.36273634
87	0x3f2ee67a	0.6832043
88	0x3fc16ca4	1.511128
89	0x3f26def1	0.6518393
90	0x3fc5f2a9	1.5464679
91	0x3f3246fd	0.6963957
92	0x3f0c4e8b	0.5480735
93	0x3fc94da6	1.5726821
94	0x3e888e12	0.2667089
95	0x3f600ff4	0.8752434
96	0x4145bf5b	12.359218
97	0x412cc2b0	10.797531
98	0x3eb74e47	0.35801908
99	0x3f314211	0.69241434
100	0x41089071	8.535264
101	0x3f40db6a	0.753348
102	0x40242133	2.5645263
103	0x3f87fec2	1.0624621
104	0x3fa9f7db	1.3278764
105	0x41476698	12.462547
106	0x3e90a9ba	0.2825449
107	0x3f46476f	0.7745275
108	0x3f818b95	1.0120722
109	0x3f9065ff	1.1281127
110	0x3ef10cb9	0.4708002
111	0x3f84fc42	1.0389483
112	0x4149e2ab	12.617839
113	0x3f05deb9	0.5229297
114	0x3e5b4407	0.21412669
115	0x400e6b96	2.2253165
116	0x3fea948a	1.832658
117	0x40f2d5dc	7.588606
118	0x3f5c1b97	0.859796
119	0x3fd2406e	1.6425912
120	0x3eae980a	0.34100372
121	0x4147dfb5	12.492116
122	0x3fabed7e	1.3431852
123	0x3fc201d0	1.5156803
124	0x3fa7d08c	1.3110518
125	0x3f148301	0.58012396
126	0x3f386cb9	0.720409
127	0x3fb0f025	1.3823286
128	0x4139e085	11.617314
129	0x3fef0310	1.867281
130	0x3f7f1d4b	0.9965407
131	0x3ebc3fbc	0.36767375
132	0x3f9d8225	1.2305342
133	0x40c413cf	6.127418
134	0x41494c58	12.581139
135	0x3fd655c7	1.6744927
136	0x4014b696	2.3236442
137	0x40a74c24	5.2280445
138	0x3e8dd53b	0.27701744
139	0x3fad0067	1.3515748
140	0x3fa062df	1.2530173
141	0x3f904ab8	1.1272802
142	0x3f6d2c74	0.92645955
143	0x3f947997	1.1599606
144	0x413c8ba5	11.784093
145	0x3e87e30e	0.26540416
146	0x3e7d287c	0.24722475
147	0x3fb40761	1.4064752
148	0x3ee5726a	0.44813854
149	0x3f592df9	0.84835774
150	0x3f9be769	1.2179996
151	0x3e4c47c9	0.19949259
152	0x3fa86462	1.3155634
153	0x3f977bc9	1.1834651
154	0x3f235806	0.6380619
155	0x4137cfde	11.488249
156	0x3f097525	0.53694373
157	0x3ffd7f99	1.9804565
158	0x3e42b6cf	0.19015048
159	0x3ff51d34	1.9149537
160	0x3f0bbb8d	0.54583055
161	0x413355e6	11.208471
162	0x3ed86e6f	0.42271754
163	0x3eb05440	0.34439278
164	0x3f148220	0.58011055
165	0x403744c1	2.8635714
166	0x3e62b2d4	0.2213853
167	0x4143da46	12.240789
