models/70-71/guerrilla_model_weights.pth (torch, 198120 bytes, 6 tensors)

layer1.weight f4 [128, 82]
000000 c4 97 c1 41 82 83 3b 41 81 e5 0d 41 8a 9d a6 41
       24.199104 11.719606 8.868531 20.826923
000010 e1 99 83 40 c1 d5 87 41 2c e3 93 41 12 4d b7 41
       4.112534 16.979372 18.485924 22.912632
000020 1f d2 75 41 f2 30 b7 41 f0 f2 c0 41 80 54 9e 41
       15.363799 22.8989 24.118622 19.79126
000030 66 a3 83 40 20 f3 87 41 9c 3d bf 41 cc 05 c0 41
       4.113696 16.993713 23.905083 24.00283
000040 a3 31 8f 41 8f f7 c0 41 0e 2d c0 41 ad 4f c0 41
       17.899237 24.120878 24.022 24.038904
000050 d5 58 9f 41 db bb 3d 41 38 f4 b6 41 cc 3f c1 41
       19.918375 11.858363 22.869247 24.15615
000060 c3 7b b5 41 01 9b ba 40 c9 8e 51 41 62 cf 72 41
       22.68543 5.8314214 13.09736 15.175631
000070 06 4c b8 41 35 84 82 41 2d de 17 40 0a c5 1a 41
       23.03712 16.314554 2.3729355 9.673105
000080 f6 a3 ad 41 ed 8d 45 41 c4 90 bc 41 0b 53 bc 41
       21.70506 12.34715 23.570686 23.540548
000090 df 15 bd 41 68 70 bd 41 12 55 b7 41 9c 54 61 41
       23.63568 23.679886 22.916538 14.083157
0000a0 5b 6f bb 41 69 5b bc 41 89 45 be 41 32 83 bb 41
       23.429373 23.544634 23.783953 23.43906
0000b0 f6 c0 be 41 32 d1 bb 41 83 ce bb 41 c4 a4 bc 41
       23.84422 23.477146 23.475836 23.580452
0000c0 e0 ae bc 41 09 02 c0 41 63 1d b0 41 52 0a c0 41
       23.585388 24.000994 22.014349 24.00504
0000d0 d6 81 bd 41 80 b5 bc 41 a0 fa be 41 45 e4 bf 41
       23.688396 23.588623 23.872375 23.98646
0000e0 b2 dd c0 41 df af bc 41 f0 3f bb 41 6b 34 c1 41
       24.10825 23.585875 23.40622 24.150595
0000f0 19 1d be 41 f6 f1 bd 41 16 11 bf 41 c8 33 c1 41
       23.764208 23.743145 23.883343 24.150284
000100 d2 3a c0 41 a2 d7 bf 41 dc 7e c0 41 e7 2a bf 41
       24.02872 23.98029 24.061943 23.895948
000110 13 27 bc 41 92 f6 be 41 30 18 c0 41 f5 1b bf 41
       23.51908 23.870396 24.01181 23.88865
000120 92 28 c0 41 63 a6 be 41 65 6f be 41 06 8d be 41
       24.01981 23.831244 23.804392 23.81886
000130 56 b0 bd 41 ce 53 be 41 3f b1 bf 41 d0 79 bf 41
       23.711102 23.79092 23.961546 23.934479
000140 6f 51 bd 41 0f b5 8e 41 6f 4f c2 41 57 7c 39 41
       23.664762 17.838408 24.288786 11.592856
000150 87 04 10 41 c4 2b a7 41 05 6b 78 40 4c dd 88 41
       9.001105 20.89637 3.881532 17.108055
000160 fe dd 92 41 5a be b7 41 b8 02 79 41 6a 7d b6 41
       18.358395 22.967945 15.563164 22.811237
000170 48 83 bf 41 37 8e 9e 41 b8 9d 83 40 bc b3 87 41
       23.939102 19.81944 4.113003 16.96276
000180 15 f4 c0 41 1f d7 bf 41 0b d6 8e 41 5f 46 bf 41
       24.11918 23.98004 17.854513 23.90936
000190 e3 3a be 41 bc ad bf 41 77 54 a0 41 e6 cf 3f 41
       23.778753 23.959831 20.041243 11.988256
0001a0 48 f9 b5 41 c8 6d bf 41 c3 c6 b5 41 1e d9 bc 40
       22.74672 23.928604 22.722052 5.9015036
0001b0 77 c0 4f 41 ae 0b 73 41 a8 e8 b7 41 f7 e1 82 41
       12.9844885 15.1903515 22.988602 16.360334
0001c0 2f ba 1b 40 11 4e 1c 41 be 84 ad 41 f4 6c 40 41
       2.4332387 9.769059 21.689816 12.0266
0001d0 4b 03 ba 41 42 23 bb 41 3a 17 bb 41 4b 60 bc 41
       23.251608 23.392216 23.386341 23.547018
0001e0 82 88 b4 41 78 d7 56 41 f0 70 b9 41 9b ad ba 41
       22.566654 13.427605 23.180145 23.334768
0001f0 e0 68 bc 41 db ef ba 41 8a 57 bd 41 e2 99 bb 41
       23.551208 23.367117 23.667744 23.450138
000200 1a c8 bb 41 63 54 ba 41 0f bc bc 41 4d 8c bf 41
       23.472706 23.291204 23.591825 23.943506
000210 84 23 b0 41 d5 3b bf 41 12 1d bd 41 ab 19 bc 41
       22.017342 23.904215 23.639194 23.512533
000220 97 a7 bd 41 b2 f1 bd 41 11 06 c0 41 c0 54 bd 41
       23.706831 23.743015 24.002962 23.666382
000230 e3 81 b9 41 4e 11 c0 41 80 81 bd 41 e9 be bc 41
       23.188421 24.00845 23.688232 23.593218
000240 6a 61 be 41 de 3a c0 41 7e e7 bf 41 3c 2b be 41
       23.797565 24.028744 23.988033 23.77111
000250 ee 18 c0 41 94 7a be 41 52 f9 bb 41 a3 57 be 41
       24.012173 23.809853 23.496738 23.792791
000260 d8 5e bf 41 4f 24 c0 41 d7 c8 bf 41 00 b0 bd 41
       23.92131 24.017729 23.973066 23.710938
000270 c3 5e be 41 52 86 bb 41 80 a8 bc 41 d8 3a bd 41
       23.79627 23.440586 23.582275 23.653732
000280 7c 35 bf 41 f8 b8 bf 41 a5 e9 bc 41 9b f1 8d 41
       23.901115 23.965317 23.614084 17.742971
000290 ce 0a c3 41 35 d7 39 41 e6 25 0e 41 04 7e a6 41
       24.380276 11.615041 8.884253 20.811531
0002a0 9a 75 6f 40 ba ea 88 41 db 4f 92 41 23 ba b7 41
       3.7415528 17.114613 18.288992 22.965887
0002b0 8a c0 78 41 4b 7f b6 41 5e 14 bf 41 58 51 9e 41
       15.547007 22.812155 23.884945 19.789719
0002c0 ff 45 81 40 d0 87 87 41 07 df be 41 1c d9 be 41
       4.0397944 16.941315 23.8589 23.85601
0002d0 af 3a 8d 41 fd 74 bf 41 27 3e bf 41 c0 01 bf 41
       17.653654 23.932123 23.905348 23.875854
0002e0 b7 85 9f 41 63 92 3c 41 5c 4d b5 41 e0 6e bf 41
       19.94029 11.785739 22.662773 23.929138
0002f0 8b 37 b4 41 45 6a bb 40 96 6a 4f 41 79 ff 70 41
       22.52712 5.8567224 12.963522 15.062371
000300 77 e0 b7 41 f9 fd 83 41 81 99 1c 40 b4 c0 1b 41
       22.984602 16.49901 2.4468691 9.734547
000310 49 66 ad 41 2d 93 41 41 4a 85 ba 41 d3 de ba 41
       21.674944 12.098432 23.315083 23.3588
000320 fa 74 bb 41 9d 91 bc 41 1a c4 b3 41 ec 68 55 41
       23.432117 23.5711 22.470753 13.338116
000330 ea e9 ba 41 62 d2 b9 41 52 4a bb 41 aa 71 b9 41
       23.364216 23.227726 23.41129 23.1805
000340 8b 92 bc 41 a2 03 ba 41 6a e6 bb 41 42 05 bb 41
       23.571554 23.251774 23.487507 23.377567
000350 0d c7 bc 41 7b 4f bd 41 7e bf ae 41 97 c9 be 41
       23.597193 23.663809 21.843502 23.848433
000360 52 7c bb 41 60 6f bd 41 6a be bb 41 9d 2c bd 41
       23.435703 23.679382 23.467976 23.646784
000370 ec 17 c0 41 0b 3b bc 41 fe 04 b9 41 d3 a9 bf 41
       24.01168 23.52883 23.127438 23.957922
000380 e7 2c bd 41 9b 5c bb 41 bd 8b be 41 47 86 c0 41
       23.646925 23.420218 23.818232 24.065565
000390 67 0d bf 41 24 c7 be 41 73 c9 c0 41 79 84 bd 41
       23.881544 23.847237 24.098364 23.689684
0003a0 dd 43 bc 41 1c 92 bd 41 25 2b bf 41 f9 b4 bf 41
       23.533136 23.696342 23.896067 23.963366
0003b0 47 0b c0 41 c3 b9 bd 41 0b 0a be 41 51 71 bd 41
       24.005507 23.715704 23.754904 23.68033
0003c0 cf 84 bc 41 1b 73 bd 41 b6 95 be 41 b2 c4 be 41
       23.564848 23.681204 23.823101 23.846043
0003d0 77 2b be 41 e6 ca 8d 41 f2 4d b8 41 41 d6 3a 41
       23.771223 17.724072 23.03806 11.677308
0003e0 8e 48 0c 41 db 63 a5 41 15 43 83 40 98 3f 88 41
       8.767714 20.673758 4.1019387 17.031052
0003f0 83 b3 91 41 23 68 b4 41 dc cb 72 41 13 ab b3 41
       18.212652 22.550848 15.17477 22.458532

layer1.bias f4 [128]
000000 e4 4d c1 41 37 35 c1 41 a7 a4 c0 41 ab c5 ba 41
       24.163033 24.150984 24.080397 23.346518
000010 c8 ab bf 41 15 0b c2 41 3f f8 c0 41 83 1c c1 41
       23.958878 24.255411 24.121214 24.138922
000020 c9 7c c1 41 b3 98 c1 41 77 ee c0 41 b2 27 ba 41
       24.18593 24.19956 24.116438 23.269382
000030 4e af c1 41 bf ad c1 41 6f 3d bf 41 ee 52 bf 41
       24.210598 24.209837 23.904997 23.915493
000040 52 ec b9 41 b1 93 be 41 e3 c6 c1 41 11 43 c1 41
       23.24039 23.822115 24.222113 24.157747
000050 d1 b6 c0 41 9e 85 bf 41 cd 1d bf 41 a2 cc bb 41
       24.089266 23.940243 23.889551 23.474918
000060 9c ba c0 41 26 34 c0 41 81 27 bf 41 b2 31 ba 41
       24.091118 24.025463 23.894289 23.274265
000070 d7 56 c2 41 de c4 bf 41 fa 0f c1 41 eb db c0 41
       24.292402 23.971127 24.132801 24.107382
000080 01 f8 bf 41 f3 01 c2 41 ab ed ba 41 d8 94 c1 41
       23.996096 24.250952 23.366049 24.197678
000090 cf 88 bf 41 d7 4b bf 41 15 b1 c0 41 e9 63 c0 41
       23.941801 23.912031 24.086466 24.048784
0000a0 82 06 bf 41 a0 6e c2 41 77 d5 c0 41 ea 25 bd 41
       23.878178 24.304016 24.10423 23.643513
0000b0 17 81 c0 41 fb d6 c0 41 76 7d c0 41 93 7c c1 41
       24.063032 24.10497 24.06126 24.185827
0000c0 2f 09 c0 41 52 a7 bf 41 c6 99 be 41 eb 2d c1 41
       24.004484 23.9567 23.825085 24.14742
0000d0 74 ac c1 41 33 2f c1 41 b1 13 bf 41 c6 56 c1 41
       24.209206 24.148046 23.884615 24.16737
0000e0 81 5c c0 41 23 1c ba 41 7f 27 bf 41 0b 07 ba 41
       24.045168 23.263739 23.894285 23.253439
0000f0 6d 03 c0 41 8f 1c c1 41 03 19 ba 41 5b ec bb 41
       24.001673 24.138945 23.262213 23.490408
000100 ac a7 c1 41 aa a5 c0 41 0a c8 bf 41 7a 2a c0 41
       24.206871 24.08089 23.972675 24.02074
000110 79 57 c1 41 36 40 c1 41 42 91 bb 41 a9 43 c2 41
       24.167711 24.156353 23.445927 24.283037
000120 03 a5 ba 41 3d 77 c1 41 82 07 ba 41 5e 04 c1 41
       23.330572 24.183222 23.253666 24.127132
000130 88 bf c1 41 9b b5 c0 41 4b 57 bd 41 c6 c2 bf 41
       24.218521 24.088675 23.667624 23.970104
000140 f2 12 bc 41 56 ed bf 41 2b 37 c1 41 b0 a9 c0 41
       23.50925 23.990887 24.151937 24.082855
000150 2e 43 c1 41 5b a1 bb 41 4a 95 b9 41 32 a8 b9 41
       24.157803 23.453787 23.197895 23.207127
000160 23 8d c0 41 05 a9 bf 41 b5 92 c0 41 98 71 bc 41
       24.068914 23.95753 24.071634 23.555466
000170 80 b3 bf 41 3e cc bf 41 bc ed c0 41 5c 71 bd 41
       23.962646 23.974728 24.116081 23.680351
000180 ea 00 bf 41 0d 8f bd 41 1a 1a ba 41 83 2d c2 41
       23.875446 23.694849 23.262745 24.272223
000190 e8 74 c1 41 91 d1 bf 41 eb b8 c0 41 d0 68 c1 41
       24.182083 23.977327 24.090292 24.176178
0001a0 d3 cf ba 41 ee 81 be 41 b0 1e c0 41 0a a3 c0 41
       23.351477 23.813442 24.014984 24.079609
0001b0 12 ce b8 41 29 04 c2 41 43 cb bd 41 bd 9e c0 41
       23.10062 24.252031 23.724249 24.077509
0001c0 5c 5f c0 41 5b de c0 41 e2 38 ba 41 3b 5d c0 41
       24.046562 24.108572 23.277775 24.045523
0001d0 89 48 c0 41 e6 c6 c0 41 60 30 c1 41 8e db be 41
       24.035418 24.097118 24.14862 23.857204
0001e0 bb d9 b9 41 d9 a3 c0 41 a4 b3 bc 41 52 1b c2 41
       23.231314 24.080004 23.587715 24.26334
0001f0 de 62 bc 41 29 18 bd 41 e7 87 c0 41 8c 2c c2 41
       23.548275 23.636797 24.066359 24.271751

layer2.weight f4 [128, 128]
000000 1a 57 b9 41 fa f0 b7 41 82 04 b8 41 53 17 bc 41
       23.16753 22.992664 23.002201 23.511389
000010 92 31 b7 41 22 96 b8 41 03 a2 b8 41 82 b3 b8 41
       22.899204 23.073307 23.079107 23.08765
000020 42 4e b8 41 33 c2 b8 41 53 7a b8 41 fe b2 bc 41
       23.038212 23.094824 23.059729 23.587399
000030 8b 64 b9 41 1a e4 b8 41 f0 e4 b8 41 c3 5c b6 41
       23.174093 23.111378 23.111786 22.795294
000040 41 ae bd 41 52 19 ba 41 c2 7d b8 41 ea f1 b7 41
       23.710085 23.262363 23.061405 22.993122
000050 52 df b7 41 a2 1f b9 41 c2 19 b8 41 4b 01 bc 41
       22.984043 23.140446 23.012577 23.500631
000060 8a 0a b9 41 43 e9 b8 41 b2 dd b8 41 ed df bc 41
       23.130146 23.113897 23.10825 23.609339
000070 33 d5 b9 41 73 04 b9 41 02 2a b8 41 da b5 b8 41
       23.229101 23.127172 23.020512 23.088795
000080 a3 34 b8 41 1b df b8 41 1f 06 bd 41 0b 6d b8 41
       23.025702 23.108938 23.627989 23.053244
000090 1a 2f b9 41 8b dd b8 41 7a 74 b9 41 ca f7 b8 41
       23.147999 23.108175 23.181873 23.12099
0000a0 12 96 b9 41 d2 68 b8 41 72 1e b8 41 62 36 ba 41
       23.198277 23.051182 23.014866 23.276554
0000b0 1a 4a b7 41 da 1e b9 41 4a e2 b7 41 2a cf b8 41
       22.911182 23.140064 22.985493 23.101154
0000c0 d3 a9 b8 41 d2 2b b9 41 43 6a ba 41 0b db b8 41
       23.082922 23.146397 23.301886 23.106955
0000d0 c2 3c b8 41 92 a7 b9 41 72 d6 b9 41 eb 69 b8 41
       23.029667 23.206821 23.22971 23.051718
0000e0 92 f2 b9 41 bf 06 be 41 6a 53 b8 41 01 29 be 41
       23.243443 23.753294 23.04073 23.770021
0000f0 0a 8b b8 41 fb 90 b8 41 bb 69 bd 41 1b c4 ba 41
       23.06789 23.070791 23.676626 23.345755
000100 1a db b7 41 12 ed b7 41 9a 41 b8 41 9a 77 b9 41
       22.981983 22.990757 23.032032 23.1834
000110 33 30 b9 41 7a 2f b8 41 72 48 bb 41 5b d6 b8 41
       23.148535 23.023182 23.410374 23.104666
000120 7b ae bb 41 e3 e9 b8 41 3b 2e bd 41 1a f3 b8 41
       23.460196 23.114202 23.647573 23.118702
000130 d2 0e b8 41 b2 ca b7 41 0a c0 ba 41 ca 4c b9 41
       23.007236 22.973972 23.34377 23.162495
000140 43 22 bc 41 9b 23 b8 41 f3 29 b9 41 8b 00 b9 41
       23.51673 23.017385 23.145483 23.125265
000150 8a 37 b9 41 48 94 bb 41 ff da bd 41 90 00 be 41
       23.152119 23.447403 23.731932 23.750275
000160 5a 03 b9 41 d3 99 b9 41 62 af b9 41 ba 51 ba 41
       23.126637 23.20011 23.210636 23.289906
000170 5a 35 b9 41 ca 5b b9 41 8b 64 b9 41 cb c8 ba 41
       23.15105 23.169819 23.174093 23.348043
000180 32 c3 b7 41 a3 63 bb 41 6c 28 bd 41 32 6c b9 41
       22.97031 23.42365 23.644737 23.17783
000190 da 06 b8 41 eb 12 ba 41 8b fa b9 41 92 bd b7 41
       23.003345 23.259237 23.247335 22.967564
0001a0 a4 86 bc 41 d2 b2 b4 41 e2 b6 b9 41 6b f3 b8 41
       23.565742 22.587315 23.214298 23.118856
0001b0 26 32 bd 41 5a c2 b8 41 0a 3d bb 41 22 04 b9 41
       23.649487 23.094898 23.404804 23.127018
0001c0 a3 47 b9 41 1a cb b8 41 e1 15 bd 41 83 8b b8 41
       23.159979 23.09917 23.635683 23.068121
0001d0 5b 4f b8 41 c3 ba b7 41 da 1f b8 41 6b d4 b9 41
       23.038748 22.966192 23.015553 23.22872
0001e0 70 d7 bc 41 4a d8 b7 41 33 ba bb 41 9a 22 b9 41
       23.605194 22.98061 23.465918 23.141895
0001f0 6a b4 bb 41 33 a7 ba 41 32 a4 b8 41 8a 14 b9 41
       23.463093 23.33164 23.080173 23.135029
000200 66 95 bc 41 db b0 bc 41 53 59 bc 41 48 0a bd 41
       23.572948 23.586355 23.543615 23.63002
000210 72 c7 bd 41 e3 50 bb 41 32 1f bb 41 2a 54 bb 41
       23.722385 23.414495 23.390232 23.416096
000220 ea 7f bb 41 79 91 bc 41 1b cd bb 41 67 c2 bc 41
       23.437458 23.571032 23.47515 23.594923
000230 c2 48 bb 41 65 37 bc 41 ea a9 bc 41 ab cb b9 41
       23.410526 23.527048 23.582966 23.224447
000240 95 25 bd 41 9c 3d bc 41 4a 70 bb 41 72 b1 bb 41
       23.64335 23.530083 23.429829 23.461643
000250 83 92 bb 41 81 9e bc 41 db 43 bf 41 ea 43 bb 41
       23.446539 23.577394 23.908133 23.408161
000260 d5 25 bc 41 7a 81 bb 41 b7 b2 bc 41 e5 73 bc 41
       23.518473 23.438221 23.587263 23.55659
000270 7a b8 bb 41 5a 4d bc 41 e4 a3 bc 41 2b 58 bc 41
       23.465076 23.53777 23.580025 23.54305
000280 0f 7d bc 41 bd 40 bc 41 02 f5 ba 41 72 06 bc 41
       23.561064 23.53161 23.369633 23.503147
000290 cd 34 bc 41 ba 88 bf 41 0a d3 bb 41 12 d2 bc 41
       23.525782 23.941761 23.478046 23.602573
0002a0 bd e9 bc 41 01 82 bc 41 13 21 bb 41 b8 0c be 41
       23.61413 23.563478 23.39115 23.75621
0002b0 86 44 bc 41 d9 25 bd 41 f3 5e bb 41 67 2d bc 41
       23.533459 23.64348 23.421362 23.52217
0002c0 9a a2 bb 41 d9 72 bd 41 54 14 bd 41 c7 bd bc 41
       23.454395 23.681078 23.634926 23.592665
0002d0 d3 14 bc 41 ea e9 ba 41 0a 38 bb 41 a2 a0 ba 41
       23.510168 23.364216 23.402363 23.328434
0002e0 2b 0d bc 41 4e 21 bc 41 6e 77 bc 41 48 c0 bd 41
       23.50643 23.516262 23.558315 23.718887
0002f0 1b 44 bd 41 c2 52 bb 41 04 67 bc 41 a9 84 bf 41
       23.658255 23.41541 23.5503 23.939775
000300 aa 15 bb 41 1a 13 bc 41 fb 39 bf 41 e9 4d bd 41
       23.385578 23.509327 23.90331 23.663042
000310 e3 6b bc 41 5b 47 bb 41 02 c9 b9 41 12 8a bb 41
       23.55268 23.409842 23.223148 23.442417
000320 52 03 bc 41 ea e8 bb 41 b2 c7 bc 41 2a ef bb 41
       23.501621 23.488728 23.597507 23.49178
000330 d3 0a bc 41 6b b9 bb 41 42 1a ba 41 7a f4 bb 41
       23.505285 23.465536 23.262821 23.494373
000340 79 c4 bd 41 57 7c be 41 a9 58 bc 41 90 85 bc 41
       23.720934 23.810713 23.543291 23.565216
000350 f2 c3 ba 41 ce a2 be 41 99 21 bd 41 a6 f9 bd 41
       23.345676 23.829494 23.641405 23.746899
000360 eb 6f bc 41 74 4d bc 41 73 6b bb 41 f2 bf bc 41
       23.554647 23.537819 23.427465 23.593723
000370 6b 13 bc 41 d9 db bc 41 79 77 bc 41 d5 d4 bc 41
       23.509481 23.607347 23.558336 23.603922
000380 59 6d be 41 08 10 bd 41 eb 3f bd 41 db 1b bc 41
       23.803392 23.632828 23.65621 23.513601
000390 52 96 ba 41 55 d9 bc 41 d2 15 bb 41 1a 0a bb 41
       23.323399 23.60612 23.385654 23.379932
0003a0 db 94 bb 41 6f 93 bd 41 5f e6 bc 41 d3 a6 bb 41
       23.447683 23.69699 23.612486 23.456457
0003b0 00 c5 bc 41 6a 2d bb 41 21 67 bd 41 d1 15 bc 41
       23.596191 23.397175 23.675356 23.510653
0003c0 ab 83 bb 41 ff 3a bc 41 ae ba bc 41 9b d3 bc 41
       23.439291 23.528807 23.591152 23.603323
0003d0 d2 ab bb 41 f3 fe bb 41 ca 36 bb 41 ab a2 ba 41
       23.458897 23.499487 23.401752 23.329428
0003e0 8e f4 bc 41 86 85 bc 41 63 b2 bb 41 7b 08 bc 41
       23.619411 23.565197 23.462103 23.50414
0003f0 32 4d ba 41 2a 85 be 41 42 ff bb 41 a2 68 bb 41
       23.287693 23.815022 23.499638 23.42609

layer2.bias f4 [128]
000000 fe a6 b7 41 f5 d4 bc 41 30 79 bc 41 62 1d 1e be
       22.95654 23.603983 23.559174 -0.15440896
000010 72 f1 b6 41 ee a3 be 41 4f e3 be 41 4b 34 b4 41
       22.867893 23.830044 23.86099 22.525534
000020 5f ee b6 41 00 5e ba 41 ad 3b c2 41 f7 36 b8 41
       22.866392 23.295898 24.279139 23.026838
000030 0d ae b7 41 58 6e c0 41 ec 38 b7 41 58 20 cf bc
       22.959986 24.053879 22.902794 -0.025283977
000040 f8 8b bc 41 63 1e b7 41 1c 90 c2 41 ce f0 be 41
       23.568344 22.889837 24.320366 23.86758
000050 08 01 c1 41 f6 71 b7 41 be f5 b3 41 f8 c3 b5 41
       24.125504 22.930645 22.494991 22.720688
000060 72 73 b8 41 77 3c be 41 37 39 bd 41 7f 7a be 41
       23.05637 23.779524 23.652937 23.809813
000070 9f 85 bd 41 de 4f b7 41 18 38 b3 41 c4 48 c2 41
       23.690245 22.913998 22.40239 24.28553
000080 64 1e 36 bd bd 74 b5 41 2d 38 bd 41 98 bf b9 41
       -0.044462577 22.682001 23.65243 23.218552
000090 ad c3 bc 41 59 4b b7 41 1c 01 b8 41 b2 1b 5b bd
       23.595545 22.91179 23.000542 -0.05349321
0000a0 5c a6 b8 41 8a 64 c2 41 43 f4 b9 41 a1 f1 bd 41
       23.08123 24.299091 23.244268 23.742983
0000b0 cd c2 b6 41 38 f5 b7 41 ff 1f b7 41 c7 24 b8 41
       22.845118 22.994736 22.890623 23.017958
0000c0 3c 10 bb 41 13 8f b1 41 05 22 bc 41 35 6b be 41
       23.382927 22.19486 23.516611 23.802347
0000d0 89 66 b5 41 60 64 b4 41 5e 3f b8 41 f6 92 bf 41
       22.675066 22.549011 23.030941 23.946758
0000e0 d8 1b c2 41 5c 94 b4 41 20 c8 bb 41 8a e0 ba 41
       24.263596 22.572441 23.472717 23.359638
0000f0 44 a6 b8 41 ef f5 b6 41 6f 06 b2 41 08 a9 b7 41
       23.081184 22.870085 22.253141 22.957535
000100 0f 3f 1b be 2d f9 bf 41 ae bb ba 41 92 e7 ba 41
       -0.15160774 23.996668 23.34164 23.363071
000110 64 ff c0 41 c7 d5 c0 41 12 c7 b5 41 59 56 b2 41
       24.124702 24.104383 22.722202 22.292162
000120 c6 55 b9 41 33 2d ba 41 ea 1a b3 41 b0 f6 c1 41
       23.166882 23.27207 22.388142 24.245453
000130 3a 2f b7 41 46 1a b6 41 87 31 be 41 e7 c8 bb 41
       22.89806 22.762829 23.774183 23.473097
000140 d3 a0 b3 41 d7 00 c3 41 a3 43 b5 41 c4 0d b9 41
       22.453527 24.37541 22.658026 23.131721
000150 df 18 b8 41 d1 53 70 be 02 83 b7 41 d8 dc b8 41
       23.012144 -0.23469473 22.938969 23.107834
000160 78 78 c0 41 87 ba be 41 30 70 bb 41 c4 08 b3 41
       24.058823 23.841078 23.42978 22.37928
000170 57 67 b8 41 8d 91 ba 41 16 a2 bb 41 f6 00 bd 41
       23.050459 23.32107 23.454144 23.62547
000180 52 27 b8 41 a5 dc b5 41 35 49 b7 41 b0 a8 b9 41
       23.0192 22.732737 22.910746 23.207367
000190 ed ea ba 41 3c 69 b5 41 84 88 b6 41 96 11 bb 41
       23.36471 22.676384 22.816658 23.383587
0001a0 b7 98 b2 41 0e 90 bb 41 d9 d0 bf 41 3e b4 bd 41
       22.324568 23.44534 23.976976 23.713009
0001b0 07 58 b4 41 91 d5 c1 41 ef 21 be 41 09 03 b5 41
       22.542982 24.22928 23.76657 22.626482
0001c0 d3 77 b6 41 0a eb b2 41 4c 6d b6 41 1f ec bd 41
       22.808508 22.364765 22.803368 23.740294
0001d0 b0 a3 c1 41 46 0a c2 41 41 68 b9 41 33 52 33 be
       24.204926 24.255016 23.175905 -0.17511825
0001e0 37 ec be 41 ac 4e bd 41 43 48 b6 41 30 ef b8 41
       23.86534 23.663414 22.785284 23.11679
0001f0 9e 28 be 41 df 0f ba 41 e8 ad c0 41 a9 9c b7 41
       23.769833 23.25775 24.084915 22.951494

layer3.weight f4 [168, 128]
000000 72 5c 44 40 af c7 48 40 dd 3b 3d 40 ee ff 24 bd
       3.0681424 3.1371877 2.9567788 -0.040283136
000010 ef cc 43 40 08 47 4c 40 80 92 47 40 30 67 35 40
       3.0593832 3.1918354 3.1183167 2.834423
000020 b2 9c 3f 40 00 49 45 40 8e 30 4b 40 96 f0 41 40
       2.993939 3.0825806 3.1748385 3.0303092
000030 91 c5 45 40 e2 2f 4d 40 ec 3d 46 40 ad b5 ab bd
       3.0901835 3.2060475 3.0975294 -0.08384261
000040 ce d7 40 40 6e f6 42 40 ee 55 4e 40 b6 31 4d 40
       3.0131717 3.0462909 3.2239947 3.206159
000050 c0 bb 4e 40 c0 b5 46 40 b0 d1 32 40 48 0c 43 40
       3.2302094 3.1048431 2.7940483 3.0476246
000060 97 13 40 40 9e 04 3e 40 10 cb 41 40 21 4e 47 40
       3.0011957 2.9690318 3.028019 3.1141436
000070 3b 82 3f 40 bb 77 43 40 ac f4 35 40 22 fb 4b 40
       2.9923236 3.0541828 2.8430586 3.187203
000080 7f 81 47 bd 5e b1 3f 40 ac c5 46 40 56 21 46 40
       -0.04870748 2.9952006 3.105815 3.0957847
000090 be 69 48 40 6d ce 47 40 70 ba 41 40 ad 92 87 bc
       3.131454 3.1219742 3.0270042 -0.016549433
0000a0 fc ba 40 40 19 70 50 40 d6 1a 47 40 6b 43 46 40
       3.0114126 3.256842 3.111013 3.0978649
0000b0 99 c2 44 40 c1 a3 43 40 77 c5 40 40 a0 82 42 40
       3.0743773 3.0568697 3.0120523 3.0392227
0000c0 49 31 41 40 a2 68 38 40 d5 9c 4a 40 91 57 48 40
       3.0186331 2.8813863 3.1658223 3.1303446
0000d0 84 2a 3c 40 fc 6e 3b 40 27 fa 42 40 44 c8 50 40
       2.940095 2.928649 3.046518 3.2622232
0000e0 24 01 49 40 a1 d4 3a 40 d9 65 41 40 1d 19 48 40
       3.1406946 2.9192278 3.0218413 3.1265328
0000f0 8a cf 45 40 a3 ee 45 40 1b 5a 31 40 76 a5 44 40
       3.0907922 3.0926902 2.7711246 3.072599
000100 0d b8 2c 3d 93 16 3e 40 0f 5d 48 40 aa 10 3c 40
       0.042167712 2.9701278 3.1306798 2.938517
000110 f3 55 49 40 cd ec 43 40 9d d0 47 40 bb 61 37 40
       3.145871 3.0613282 3.1221077 2.86534
000120 0c d0 46 40 09 cc 42 40 ac a3 3a 40 d6 4a 48 40
       3.1064482 3.0437033 2.9162397 3.1295676
000130 50 7b 3d 40 ee 0e 34 40 b6 9b 3f 40 39 9f 41 40
       2.9606514 2.8134112 2.9938788 3.0253432
000140 c4 9f 36 40 62 40 49 40 b5 21 3b 40 df 7f 48 40
       2.8535013 3.1445546 2.9239323 3.1328046
000150 8c 7f 44 40 a2 56 0a 3d 76 a8 3f 40 24 7f 43 40
       3.0702848 0.033774026 2.994657 3.054635
000160 e9 a8 48 40 8f 4c 3f 40 5f 5d 43 40 83 06 37 40
       3.1353095 2.9890478 3.052574 2.8597724
000170 b7 25 46 40 42 aa 3e 40 a9 75 46 40 52 62 41 40
       3.096052 2.9791417 3.1009314 3.021626
000180 e3 1e 47 40 d6 ac 40 40 df 75 41 40 c5 a4 3f 40
       3.1112602 3.010549 3.0228193 2.9944317
000190 bb 31 41 40 2f 58 35 40 20 27 46 40 d6 b6 46 40
       3.0186603 2.8335073 3.096138 3.1049094
0001a0 a9 e7 37 40 4f 8f 44 40 90 a1 4a 40 84 f4 4b 40
       2.8735144 3.0712469 3.166111 3.186799
0001b0 1b 8b 46 40 a5 ef 49 40 7e 63 45 40 c4 c1 45 40
       3.1022403 3.1552517 3.0841975 3.0899515
0001c0 5c 4e 46 40 c3 2e 3a 40 fe dc 43 40 c0 23 43 40
       3.0985327 2.909104 3.0603633 3.049057
0001d0 19 84 50 40 0d e4 46 40 19 e8 44 40 b3 4e 89 bc
       3.2580626 3.107669 3.076666 -0.01676116
0001e0 14 85 4b 40 86 7c 3f 40 a9 02 44 40 8f 9a 44 40
       3.1799974 2.9919753 3.0626624 3.0719335
0001f0 97 79 41 40 89 e5 44 40 66 47 4c 40 9a 7f 42 40
       3.0230463 3.0765097 3.1918578 3.0390382
000200 d2 d4 7f 3e bb 63 3e 3e 67 9a 12 3e c7 34 86 3c
       0.24983528 0.18592732 0.14316712 0.016382588
000210 e8 e1 79 3e 81 39 39 3e e5 65 37 3e dc 16 f4 3d
       0.24402583 0.18088342 0.17909963 0.119184226
000220 c6 92 5f 3e 4b 76 77 3e db d6 70 3e 74 aa 3a 3e
       0.21833333 0.24166219 0.23519461 0.18229085
000230 94 6e 3a 3e 05 a6 25 3e e0 44 52 3e ca 28 6f bd
       0.18206245 0.16176613 0.20534086 -0.05838851
000240 03 f3 74 3e 71 cc 3f 3e 0d 51 2d 3e be af 5a 3e
       0.23920827 0.18730332 0.1692545 0.21356103
000250 6e cf 2d 3e e4 1d 63 3e 74 49 06 3e 5c e3 0e 3e
       0.1697366 0.22179371 0.13113958 0.13953918
000260 6d 4e 45 3e 57 46 50 3e 52 11 5c 3e bf 37 39 3e
       0.19268198 0.20339333 0.21490982 0.18087672
000270 76 38 23 3e 88 bb 46 3e 87 57 17 3e 9f 95 30 3e
       0.15939507 0.19407475 0.14779483 0.17244576
000280 de 48 19 bd ba 28 2f 3e 7d ba 55 3e ed 08 fa 3d
       -0.037423007 0.1710538 0.20871921 0.12208734
000290 ca c0 60 3e 3b 34 35 3e 87 11 4b 3e c4 b5 1e 3d
       0.21948543 0.17695706 0.19830905 0.038747564
0002a0 b2 81 69 3e 4d 0b 03 3e 8c 6c 62 3e c7 74 64 3e
       0.22803381 0.1279728 0.2211172 0.22310172
0002b0 c1 7f 59 3e c2 f0 43 3e a8 06 4b 3e cc 07 62 3e
       0.2124014 0.1913481 0.19826758 0.22073287
0002c0 d0 db 4f 3e fb 5e de 3d ad 13 55 3e 3a f1 69 3e
       0.20298696 0.1085796 0.20808287 0.22845927
0002d0 ab 82 1d 3e 88 e1 25 3e fa 68 19 3e 34 e9 4a 3e
       0.15381877 0.16199315 0.14981452 0.19815522
0002e0 83 11 80 3e 85 73 16 3e 8f 8c 58 3e e1 c7 76 3e
       0.2501336 0.14692505 0.21147369 0.24099685
0002f0 c3 5c 42 3e 9d d2 12 3e 6c 7e 59 3d 84 15 01 3e
       0.18980698 0.14338155 0.05309908 0.12605864
000300 53 14 00 bd 5a e7 50 3e c3 bf 7b 3e e8 b1 22 3e
       -0.031269383 0.20400754 0.2458487 0.15888178
000310 3e fe 1c 3e a9 4c 2a 3e ad 5b 3e 3e cf 95 a4 3d
       0.1533136 0.16630806 0.18589659 0.08036386
000320 76 83 26 3e 9c 40 3f 3e e6 74 c5 3d 4f 39 35 3e
       0.16261086 0.1867699 0.09641437 0.17697643
000330 11 19 1c 3e d5 7e 2a 3e 01 51 7a 3e 6a ac 66 3e
       0.15243937 0.16649945 0.24444963 0.22526708
000340 ee da dd 3d bc 5a 1d 3e e1 43 3e 3e 3b 3d 04 3e
       0.10832773 0.15366644 0.18580581 0.12913983
000350 79 9e 1a 3e 8a 38 ac 3c 4a 5d 28 3e 8e 2e 47 3e
       0.15099515 0.021023054 0.16441837 0.19451353
000360 8c 6e ef 3d 71 cb 1d 3e 2b a1 3a 3e 9c 10 a3 3d
       0.11691007 0.15409638 0.18225543 0.07962152
000370 d9 30 80 3e 48 27 22 3e 34 f8 71 3e fe 0c e1 3d
       0.25037268 0.15835297 0.23629838 0.10988806
000380 5e 44 38 3e 19 f3 4f 3e 7b e7 0a 3e a1 e3 48 3e
       0.1799483 0.20307578 0.13564865 0.19618084
000390 22 67 66 3e 1c 98 08 3e 3c 02 39 3e 9b 78 ff 3d
       0.2250028 0.13339275 0.18067259 0.124741755
0003a0 ee 10 2d 3e de cd 16 3e 54 2d 5a 3e 32 37 09 3e
       0.1690099 0.1472697 0.21306354 0.13399962
0003b0 2f 48 21 3e f2 d0 35 3e 71 19 16 3e 9c 05 3c 3e
       0.15750192 0.17755488 0.14658143 0.18361515
0003c0 69 eb ee 3d 20 e8 3a 3d 24 71 03 3e 23 39 79 3e
       0.11665995 0.045631528 0.12836128 0.24338202
0003d0 f6 d8 0e 3e 91 1a 22 3e e3 7a 64 3e 6b ef 82 bd
       0.13949952 0.15830447 0.22312503 -0.063933216
0003e0 25 20 27 3e 3c 93 16 3e 8a 12 83 3e d4 ad 52 3e
       0.16320856 0.14704603 0.25600082 0.20574123
0003f0 27 a5 11 3e 22 42 6c 3e 9c 66 00 3e c2 91 25 3e
       0.14223157 0.23072103 0.12539142 0.16168883

layer3.bias f4 [168]
000000 4e 86 54 40 22 3d 0c 3e 44 ca 2f 3f 97 bd 90 3f
       3.3206973 0.13695195 0.6866801 1.1307858
000010 05 8e 93 3e 44 83 87 3f bc 86 1e 3f 26 d5 3b 3f
       0.2881929 1.0586934 0.6192434 0.73372114
000020 95 73 4a 3f 84 04 21 3f 43 c4 11 3f e5 77 29 3f
       0.79082614 0.62897515 0.56940097 0.6619857
000030 89 d6 0e 40 9e c4 3d 40 0b 16 43 40 13 78 b7 3f
       2.2318442 2.9651256 3.0482204 1.4333519
000040 a6 3f e8 3f 44 45 64 3f f4 93 c4 3f e4 3c ad 3f
       1.8144424 0.8916819 1.5357652 1.3534207
000050 d3 5e 90 3f b9 8b 0c 3f e1 2c 8c 41 56 4a e8 3f
       1.1278938 0.549007 17.521914 1.8147686
000060 e3 ac 23 40 71 b6 e2 3f 39 b3 94 41 e0 a3 91 3f
       2.5574272 1.7711927 18.587511 1.1378136
000070 32 ed 9e 3f b8 ee 28 3f d3 9b 83 41 b7 45 e5 3f
       1.2416136 0.65989256 16.451086 1.79119
000080 4c a1 a8 3f b8 f2 78 3f ff f7 7e 41 b4 ad f3 3e
       1.3174224 0.9724536 15.935546 0.47593462
000090 5b fa 56 3f f8 6d 99 3f ba 2f 94 41 f0 25 be 3f
       0.8397576 1.1986685 18.523304 1.4855328
0000a0 0d 42 02 40 06 ee 00 40 da f8 e4 3e 6b 05 d2 3e
       2.0352814 2.0145278 0.4472111 0.4101976
0000b0 94 11 b8 3e 25 47 83 41 5b 7f 91 3f a5 0e 58 3f
       0.3595091 16.409739 1.1366991 0.84397346
0000c0 05 d6 3a 3f cf 00 10 40 33 a5 b5 3f ef 54 32 40
       0.7298282 2.2500494 1.419104 2.786434
0000d0 41 ce 88 3f 68 b1 fa 3f 9e 2b 7d 41 a1 f2 7f 40
       1.0687944 1.958539 15.823149 3.999184
0000e0 e8 96 f2 40 c8 e0 ee 40 2d b3 19 40 5b 7b 88 3f
       7.580921 7.464939 2.401561 1.0662645
0000f0 c5 ab 63 3f d5 1f 90 3f 48 66 b9 3f 2b f7 a2 3f
       0.88933975 1.1259714 1.4484339 1.273168
000100 a0 a5 89 3f 7d 99 e6 3e 5c 27 9f 41 fb 4f 59 3f
       1.075367 0.45038977 19.894218 0.84887666
000110 ed 84 97 41 e2 12 eb 3e 32 58 2e 3f ea bc 11 3f
       18.939905 0.45912844 0.68103325 0.56928885
000120 ac 6c 0b 3f 96 91 ae 3d f1 b5 2b 40 ef 46 23 40
       0.54462695 0.08523862 2.6829798 2.5512044
000130 21 70 f8 3f dc d6 43 3f 3f b4 1a 3f 99 29 10 3f
       1.9409219 0.76499724 0.60431284 0.56313473
000140 f3 6e 9f 41 28 29 aa 3f d3 b9 bd 40 4a 53 65 3f
       19.929174 1.329381 5.9289336 0.89580214
000150 59 90 4c 3f 84 67 cb 40 10 ef 97 3f 0f 3a bf 40
       0.7990776 6.356386 1.1869831 5.975837
000160 fc 09 82 41 0c 94 9e 3f 6d a8 1f 3f 7c ff f4 3e
       16.254875 1.238893 0.6236637 0.4785117
000170 5d 49 7f 3f 27 fd a1 41 e0 27 63 3f 5b a8 49 3f
       0.9972132 20.24861 0.8873272 0.78772515
000180 54 82 14 3f e4 69 92 41 57 af 09 3f 8c b6 01 40
       0.58011365 18.301704 0.5378317 2.0267668
000190 7f 93 90 41 aa 0c 5d 3f 4c 06 47 40 e4 6b 19 40
       18.07202 0.8634745 3.1097593 2.3972101
0001a0 39 85 81 3f c4 32 d7 3e 4c 88 db 3f cf b6 8b 41
       1.0118781 0.4203092 1.715097 17.464262
0001b0 33 50 c5 3f 5e 2b 86 3e 59 dc 65 3f 10 37 df 3f
       1.54151 0.26204962 0.8978935 1.7438679
0001c0 e3 b1 76 40 2a 56 80 3f 44 8d c5 3f 52 79 9d 41
       3.8546073 1.0026295 1.5433736 19.684238
0001d0 90 f6 ce 3f d1 70 c7 3f 35 88 cf 40 d8 56 8b 40
       1.6168995 1.5581304 6.485377 4.354351
0001e0 ab ba 59 3f cc 2b 99 41 7d 93 f7 3f 98 2d ee 3f
       0.8505046 19.146385 1.9341885 1.8607664
0001f0 da 5c a3 41 eb 5a 14 3e 9a ee 94 3f 67 f9 3e 3f
       20.420338 0.14487807 1.1635315 0.7459931
000200 4e 39 d9 3f 1c 5f f7 3f 12 d0 4c 3f 53 ae 29 3f
       1.6970613 1.93259 0.8000499 0.6628162
000210 7d 61 9f 41 d0 ff c4 3f 0a 1a 62 3f f1 f0 9a 41
       19.922602 1.5390568 0.8832098 19.367647
000220 0d 55 3c 3f df 1a 9f 3f 94 a1 d2 3f e6 b0 99 41
       0.7356728 1.2430075 1.645556 19.211376
000230 52 a0 9a 3f 1f 8b 1c 41 d8 ad d0 3f f9 f7 9a 41
       1.2080176 9.783965 1.6303053 19.37108
000240 b9 79 ee 3f 42 98 95 3f 22 7b 04 40 61 4a 83 3e
       1.8630897 1.168709 2.0700154 0.25642684
000250 57 d1 cf 3e d9 f9 9a 3f ad 95 73 3e 76 fe 22 3f
       0.405894 1.2107497 0.23787566 0.63669527
000260 da da 12 3f f6 78 c9 3e 07 03 16 3f 81 d3 a3 41
       0.5736519 0.39350098 0.5859837 20.478273
000270 66 12 13 3f ce 7f 85 3f 22 69 00 3f 99 ef 8a 3f
       0.5744995 1.0429628 0.5016042 1.0854369
000280 2f eb 96 3f 9b 21 12 3f 82 68 7e 3f 5f 78 34 3f
       1.1790522 0.5708253 0.99378216 0.7049617
000290 07 cf 8a 3e 57 fa 50 3f 2b f8 18 3f 1b 2b 85 3f
       0.27111074 0.8163199 0.59753674 1.040378
