models/54-55/coin_model_weights.pth (torch, 161910 bytes, 6 tensors)

layer1.weight f4 [128, 82]
0	0x41c5d30a	24.728046
1	0x41109d0c	9.0383415
2	0x41651844	14.318424
3	0x40d00a95	6.5012918
4	0x412909a0	10.56485
5	0x40c3c435	6.117701
6	0x41877a53	16.934729
7	0x4153462b	13.204631
8	0x4194af8b	18.585714
9	0x4186337d	16.77514
10	0x41c75da2	24.92072
11	0x41871d08	16.889175
12	0x4110a280	9.039673
13	0x4106d971	8.428086
14	0x41c6e647	24.86244
15	0x41af04da	21.877369
16	0x417c23e2	15.75876
17	0x418caa1a	17.583057
18	0x41c6c71c	24.847221
19	0x41bedb55	23.857096
20	0x4122a33f	10.164855
21	0x411c4a04	9.76807
22	0x41937717	18.43315
23	0x419c293b	19.520132
24	0x417a2025	15.632848
25	0x411c1a3e	9.756407
26	0x415b0344	13.688297
27	0x419c5b91	19.54471
28	0x4119699a	9.588282
29	0x3fee2c00	1.8607178
30	0x40b8dbf1	5.7768483
31	0x41136a73	9.213489
32	0x4131a8e4	11.103733
33	0x4117bafc	9.4831505
34	0x410d908a	8.847788
35	0xc1373458	-11.450279
36	0x419ad768	19.355179
37	0x4190508c	18.03933
38	0x418e1a3c	17.76281
39	0x41922794	18.269325
40	0x418590b9	16.695665
41	0x417fff80	15.999878
42	0xc0b66fbf	-5.701141
43	0x419d0377	19.626692
44	0x41a45b86	20.54469
45	0x41029d25	8.163365
46	0x41944d27	18.537672
47	0x41940ac1	18.50525
48	0x4192cdd9	18.350512
49	0x4154ae2d	13.292523
50	0x41753451	15.325273
51	0x41ad40ab	21.656576
52	0x41a175ff	20.182615
53	0x419ae3a4	19.361153
54	0x41bcee39	23.61632
55	0x41979731	18.948824
56	0x3f63824e	0.88870704
57	0x41af1245	21.88392
58	0x41ae99c3	21.825079
59	0x418d040a	17.626972
60	0x418757b9	16.917833
61	0x41ba5f70	23.2966
62	0x41a4345a	20.525562
63	0x41adc039	21.718859
64	0x41b2e280	22.360596
65	0x4044a073	3.072293
66	0x41873548	16.901016
67	0x418f89b0	17.94223
68	0x41ba85da	23.315357
69	0x41ae1aae	21.763027
70	0x41aec39e	21.845516
71	0x41755066	15.332129
72	0x3ea3e3bf	0.32009694
73	0x415fa374	13.977406
74	0x4112ff97	9.1874
75	0x41b963af	23.173674
76	0x41ae35a3	21.77619
77	0x41ab671d	21.425348
78	0x416cbe3a	14.796442
79	0x4169f62b	14.6226
80	0x415c345e	13.762785
81	0x410d0674	8.814075
82	0x41c6abd0	24.833893
83	0x41104b2a	9.018351
84	0x4166b4c1	14.419129
85	0x40d1c29c	6.555006
86	0x4129d0ee	10.613508
87	0x40cd2282	6.4104624
88	0x4186eca7	16.865553
89	0x41546fc4	13.277287
90	0x419464b6	18.549175
91	0x41850fc6	16.632702
92	0x41c80dca	25.006733
93	0x4186974a	16.823872
94	0x411158ae	9.08415
95	0x4107d74b	8.490062
96	0x41c6931e	24.821835
97	0x41aeda9e	21.856747
98	0x417a72e3	15.6530485
99	0x418db4d8	17.713303
100	0x41c6f6e6	24.870556
101	0x41be4575	23.783915
102	0x4122d404	10.176762
103	0x411bc1e1	9.734834
104	0x4194b566	18.588573
105	0x419bcc66	19.474804
106	0x417c6eb1	15.777024
107	0x411e7fc1	9.90619
108	0x415961be	13.586363
109	0x419cbf0f	19.59329
110	0x411a0b6a	9.627787
111	0x3fe926bb	1.8214945
112	0x40b90220	5.7815094
113	0x41146202	9.273928
114	0x412f774a	10.966623
115	0x41170cc3	9.440616
116	0x410e1204	8.879398
117	0xc13765d7	-11.462363
118	0x419ab443	19.338018
119	0x4190dc0d	18.107447
120	0x418e96f2	17.823704
121	0x4192aefe	18.335445
122	0x4185cbce	16.724514
123	0x41807d28	16.061111
124	0xc0b677c2	-5.702119
125	0x419bf222	19.493229
126	0x41a429ea	20.520466
127	0x4100e16a	8.055033
128	0x4194a153	18.578772
129	0x41946a78	18.551987
130	0x41924758	18.284836
131	0x41565bad	13.397382
132	0x4175a029	15.351602
133	0x41ae3519	21.775927
134	0x41a19e86	20.202404
135	0x419aca93	19.348913
136	0x41bd66b8	23.675156
137	0x4197bfe0	18.968689
138	0x3f5d3953	0.86415595
139	0x41ae297b	21.770254
140	0x41ae1669	21.760942
141	0x418c997d	17.574945
142	0x4186bd6e	16.842495
143	0x41ba1fb7	23.265486
144	0x41a3efc9	20.492083
145	0x41ad3744	21.651985
146	0x41b31795	22.386515
147	0x40451f3b	3.0800312
148	0x41879268	16.946487
149	0x418f699b	17.926565
150	0x41bba7e7	23.456984
151	0x41adc318	21.72026
152	0x41aeb88a	21.840107
153	0x417723df	15.446258
154	0x3ea9838f	0.33108184
155	0x415f15f0	13.942856
156	0x4111dff3	9.117175
157	0x41b9ee48	23.241348
158	0x41aee597	21.862104
159	0x41ab1250	21.383942
160	0x416c6b20	14.776154
161	0x41695211	14.582536
162	0x415bcd09	13.737557
163	0x410fda75	8.990834
164	0x41c61c91	24.763948
165	0x410cf097	8.808738
166	0x4165341d	14.325223
167	0x40cffbe9	6.4995008
168	0x4128b4ab	10.544108
169	0x40c9f177	6.3107257
170	0x418756eb	16.91744
171	0x41541283	13.254519
172	0x41947fa8	18.562332
173	0x41854f4f	16.663725
174	0x41c6963e	24.82336
175	0x41866a3b	16.80187
176	0x41105581	9.020875
177	0x4107313b	8.449519
178	0x41c59027	24.695387
179	0x41aef6e4	21.870552
180	0x417bb1e2	15.730928
181	0x418cce9a	17.60088
182	0x41c5b9d9	24.715746
183	0x41bdb102	23.71143
184	0x41218c61	10.096772
185	0x411d6aeb	9.838603
186	0x419484b3	18.564795
187	0x419bd2c0	19.477905
188	0x417d7c4c	15.842846
189	0x411af0bd	9.683774
190	0x415aea00	13.682129
191	0x419c8017	19.562544
192	0x4117995e	9.474943
193	0x3fe8b8f0	1.8181438
194	0x40bc1e5d	5.8787065
195	0x4113cc84	9.237431
196	0x412f3a65	10.9517565
197	0x4117a3a0	9.4774475
198	0x410bd8d3	8.740436
199	0xc138ebad	-11.557538
200	0x419ac5cb	19.346579
201	0x4190cc79	18.09984
202	0x418f0216	17.876019
203	0x41929e46	18.327282
204	0x41856aa4	16.67707
205	0x417fc28a	15.984995
206	0xc0b71d7c	-5.722349
207	0x419d3923	19.652899
208	0x41a4a5c9	20.58095
209	0x4103b442	8.231508
210	0x4195550d	18.666529
211	0x41936c15	18.427774
212	0x41934624	18.409248
213	0x41559615	13.349141
214	0x41766233	15.398974
215	0x41ae6958	21.801437
216	0x41a263d5	20.298746
217	0x419a84e7	19.314894
218	0x41bca299	23.579393
219	0x4196d13d	18.852167
220	0x3f4ab3db	0.7918069
221	0x41ae4820	21.785217
222	0x41ae512f	21.78964
223	0x418bda8b	17.48171
224	0x41861938	16.762314
225	0x41ba5e04	23.295906
226	0x41a32585	20.39332
227	0x41acb3e3	21.587835
228	0x41b1d614	22.22953
229	0x4046ba66	3.1051269
230	0x41872363	16.892279
231	0x418eb9c5	17.840708
232	0x41ba8fd3	23.320227
233	0x41ae0059	21.75017
234	0x41ae87ed	21.81637
235	0x417736c6	15.450872
236	0x3e769131	0.24078824
237	0x415ee36d	13.930524
238	0x41112581	9.071656
239	0x41b9f4e1	23.24457
240	0x41aee064	21.859566
241	0x41ab3317	21.399946
242	0x416cf08c	14.808727
243	0x4167274d	14.447095
244	0x415afc14	13.6865425
245	0x410e077f	8.87683
246	0x41c61666	24.760937
247	0x410d5c18	8.834984
248	0x41666295	14.399068
249	0x40d096c2	6.518403
250	0x412a1923	10.631137
251	0x40cb9f61	6.3632054
252	0x41888a90	17.067657
253	0x4153bd88	13.233772
254	0x4194dcc4	18.607796
255	0x4185ec18	16.74028

layer1.bias f4 [128]
0	0x41bc657b	23.549551
1	0x41bcb22b	23.586996
2	0x41bc014f	23.500639
3	0x41bc38de	23.527767
4	0x41bc60f4	23.54734
5	0x41bbe571	23.487032
6	0x41bb9230	23.44638
7	0x41bc22ed	23.517054
8	0x41bba4ec	23.455528
9	0x41bc0bbc	23.50573
10	0x41bc24ed	23.51803
11	0x41bbe673	23.487524
12	0x41bc5162	23.539738
13	0x41bb81a5	23.438303
14	0x41bb738e	23.431423
15	0x41bbb98b	23.465597
16	0x41bc0d87	23.506605
17	0x41bbea0e	23.489285
18	0x41bc83fb	23.564444
19	0x41bc298b	23.520285
20	0x41bc961d	23.573298
21	0x41bbadb7	23.459822
22	0x41bc5369	23.540728
23	0x41bc9257	23.571455
24	0x41bcd123	23.602118
25	0x41bc9a03	23.575201
26	0x41bbb94a	23.465473
27	0x41bb98f8	23.449692
28	0x41bbd724	23.48005
29	0x41bc735d	23.55633
30	0x41bbf62f	23.495207
31	0x41bc3ad3	23.528723
32	0x41bc1b94	23.513466
33	0x41bbeed1	23.49161
34	0x41bd02bf	23.62634
35	0x41bcd1ba	23.602406
36	0x41bc6b0d	23.55227
37	0x41bba05e	23.453304
38	0x41bc0df8	23.50682
39	0x41bc1c1e	23.51373
40	0x41bc9856	23.574383
41	0x41bc997a	23.57494
42	0x41bc8d03	23.568853
43	0x41bccc1d	23.599665
44	0x41bbee0d	23.491236
45	0x41bc035f	23.501646
46	0x41bc3745	23.526987
47	0x41bb7059	23.429857
48	0x41bc8f6a	23.570026
49	0x41bb5419	23.416063
50	0x41bbd05c	23.476738
51	0x41bb9000	23.445312
52	0x41bb814b	23.438131
53	0x41bc3837	23.527449
54	0x41bcdbe0	23.60736
55	0x41bbfccc	23.498436
56	0x41bc6eae	23.554043
57	0x41bbbb2c	23.466393
58	0x41bc2636	23.518658
59	0x41bb3cdb	23.404715
60	0x41bdc98c	23.723412
61	0x41bce085	23.609629
62	0x41bad6df	23.354918
63	0x41bc5ffb	23.546865
64	0x41bc7d8d	23.561304
65	0x41bca121	23.578676
66	0x41bc7fc7	23.562391
67	0x41bcd534	23.604103
68	0x41bc1231	23.508883
69	0x41bce0e1	23.609804
70	0x41bbcddb	23.475515
71	0x41bbbf3f	23.468382
72	0x41bc10b0	23.508148
73	0x41bc5c4b	23.545065
74	0x41bc0e24	23.506905
75	0x41bcbccc	23.592186
76	0x41bc24d0	23.517975
77	0x41bc26ba	23.51891
78	0x41bca6e5	23.581491
79	0x41bb6bc0	23.427612
80	0x41bba6b8	23.456406
81	0x41bb490b	23.410666
82	0x41bd105a	23.632984
83	0x41bb804f	23.43765
84	0x41bc61bd	23.547724
85	0x41bbef2b	23.491781
86	0x41bbf4f0	23.494598
87	0x41bc728b	23.55593
88	0x41bc89a0	23.5672
89	0x41bb473a	23.409779
90	0x41bb53ca	23.415913
91	0x41bb8667	23.440626
92	0x41bc85ff	23.565428
93	0x41bcdc72	23.60764
94	0x41bcce79	23.600817
95	0x41bc353d	23.525995
96	0x41bcc0cc	23.59414
97	0x41bbf698	23.495407
98	0x41bc6a31	23.551851
99	0x41bb616d	23.422571
100	0x41bb235c	23.392265
101	0x41bb8655	23.440592
102	0x41bcf918	23.621628
103	0x41bc49e6	23.536083
104	0x41bb74d6	23.432049
105	0x41bc9fa3	23.577948
106	0x41bb50a7	23.414381
107	0x41bbdff9	23.484362
108	0x41bb2963	23.395208
109	0x41bc9350	23.57193
110	0x41bc01f5	23.500956
111	0x41bcc263	23.594915
112	0x41bbe6e2	23.487736
113	0x41bba179	23.453844
114	0x41bc5930	23.543549
115	0x3fa1ac83	1.2630771
116	0x41bbf5d4	23.495033
117	0x41bc7b90	23.560333
118	0x41bcb42d	23.587976
119	0x41bcc815	23.597696
120	0x41bc7355	23.556314
121	0x41bb8b3f	23.442991
122	0x41bc08d6	23.504314
123	0x41bc5889	23.54323
124	0x41bbc543	23.47132
125	0x41bb9e33	23.452246
126	0x41bc1faf	23.51547
127	0x41bbb28a	23.462177

layer2.weight f4 [128, 128]
0	0x41b9bab0	23.216156
1	0x41b979e2	23.184513
2	0x41ba9f4e	23.327785
3	0x41b91c76	23.138897
4	0x41b9f6ba	23.245472
5	0x41ba0813	23.253942
6	0x41ba1a4e	23.262844
7	0x41bb18cd	23.38711
8	0x41ba88ef	23.316862
9	0x41b9e34b	23.235983
10	0x41b91c7b	23.138906
11	0x41bb8779	23.441149
12	0x41ba0d4b	23.25649
13	0x41bac33d	23.345331
14	0x41b9bd07	23.217299
15	0x41bad58f	23.354277
16	0x41baefff	23.367186
17	0x41b9ed29	23.2408
18	0x41b9b54d	23.213526
19	0x41b9b2a3	23.212225
20	0x41b9727d	23.180902
21	0x41ba963c	23.323357
22	0x41bb20d1	23.391024
23	0x41b9ad03	23.209478
24	0x41b9ae7b	23.210196
25	0x41ba6a61	23.301943
26	0x41bb23f1	23.39255
27	0x41b94bdb	23.162039
28	0x41bbc869	23.472857
29	0x41ba7ac0	23.309937
30	0x41bb0f5c	23.3825
31	0x41b9213f	23.141233
32	0x41b91daa	23.139484
33	0x41b9d72f	23.23007
34	0x41b97a5d	23.184748
35	0x41b98d6a	23.19405
36	0x41ba79a9	23.309404
37	0x41b9e3aa	23.236164
38	0x41bb1f2c	23.39022
39	0x41b8d566	23.104198
40	0x41bab054	23.336098
41	0x41ba08b1	23.254244
42	0x41b998bc	23.199577
43	0x41b98d9f	23.19415
44	0x41bb7968	23.43428
45	0x41b9a4c9	23.205462
46	0x41b964fe	23.174313
47	0x41bae93b	23.363882
48	0x41ba9a69	23.325396
49	0x41bbf020	23.492249
50	0x41ba045e	23.252132
51	0x41bb1543	23.385382
52	0x41bb66ef	23.42526
53	0x41b97a03	23.184576
54	0x41b94178	23.156967
55	0x41b9953c	23.197868
56	0x41ba388e	23.277615
57	0x41bade78	23.358627
58	0x41ba79eb	23.30953
59	0x41bb3c5b	23.40447
60	0x41b83de0	23.030212
61	0x41b9a06a	23.203327
62	0x41b96a5c	23.176933
63	0x41b9adf7	23.209944
64	0x41bad29c	23.352837
65	0x41b90ef2	23.132298
66	0x41bb05ea	23.377888
67	0x41ba1058	23.25798
68	0x41b97ede	23.186947
69	0x41ba515a	23.289722
70	0x41bcc2cf	23.595121
71	0x41ba5546	23.291637
72	0x41b96b3c	23.17736
73	0x41b927da	23.144459
74	0x41babc53	23.341955
75	0x41b917be	23.136593
76	0x41b9eb03	23.239752
77	0x41b9f5a6	23.244946
78	0x41b99e11	23.20218
79	0x41bd3d9d	23.655085
80	0x41bac7a6	23.347485
81	0x41bb3cd8	23.404709
82	0x41b813dc	23.009697
83	0x41bac2f2	23.345188
84	0x41ba430b	23.282736
85	0x41bbac75	23.459208
86	0x41bac77c	23.347404
87	0x41b95b0c	23.169456
88	0x41ba45fc	23.284172
89	0x41bcf7c6	23.620983
90	0x41bb049c	23.37725
91	0x41bb6647	23.42494
92	0x41b9c1f6	23.219707
93	0x41b9d938	23.231064
94	0x41b969b6	23.176617
95	0x41bb14c2	23.385136
96	0x41b96386	23.173595
97	0x41bbf9eb	23.49703
98	0x41b96cdd	23.178156
99	0x41badbb6	23.35728
100	0x41bb2346	23.392223
101	0x41bc23ff	23.517576
102	0x41be16ba	23.761097
103	0x41baed43	23.36585
104	0x41bb5b68	23.419632
105	0x41ba136e	23.259487
106	0x41baad1c	23.334526
107	0x41b9db79	23.232164
108	0x41bb93ad	23.447107
109	0x41b9f1c0	23.243042
110	0x41baa5b4	23.33091
111	0x41ba93a3	23.322088
112	0x41bb2e86	23.397717
113	0x41b98526	23.190014
114	0x41ba573e	23.292599
115	0xc1974801	-18.910158
116	0x41bc6bab	23.552572
117	0x41b9af89	23.21071
118	0x41ba9936	23.32481
119	0x41b95402	23.16602
120	0x41b92db7	23.147322
121	0x41baf17a	23.367908
122	0x41bc2108	23.516129
123	0x41bc1e5a	23.51482
124	0x41bb121c	23.383842
125	0x41bacbc5	23.349497
126	0x41bdc29d	23.720026
127	0x41ba0e0a	23.256855
128	0x41b92a8c	23.145775
129	0x41ba5d8f	23.295683
130	0x41ba610e	23.29739
131	0x41b99d41	23.201784
132	0x41b9ed2c	23.240807
133	0x41b9f112	23.24271
134	0x41ba3809	23.27736
135	0x41bbc8af	23.47299
136	0x41baa43d	23.330194
137	0x41b9daf6	23.231915
138	0x41b92ab1	23.145845
139	0x41bb7fca	23.437397
140	0x41bab3b2	23.337742
141	0x41bb8b15	23.442911
142	0x41b9b819	23.214891
143	0x41bad949	23.356096
144	0x41bba3b6	23.454937
145	0x41bba83a	23.457142
146	0x41b9e029	23.234453
147	0x41b9eb14	23.239784
148	0x41b9ed83	23.240973
149	0x41ba9425	23.322336
150	0x41bb3616	23.40141
151	0x41baa157	23.32878
152	0x41b930ca	23.148823
153	0x41baea8d	23.364527
154	0x41bb7b6f	23.43527
155	0x41b9fe7e	23.249264
156	0x41bbf011	23.49222
157	0x41bac2dc	23.345146
158	0x41bb04c6	23.37733
159	0x41b96200	23.172852
160	0x41b8b0df	23.086363
161	0x41ba7636	23.30772
162	0x41b8e9c3	23.114141
163	0x41ba1eca	23.265034
164	0x41ba7ee4	23.311958
165	0x41b99991	23.199984
166	0x41bb0da0	23.381653
167	0x41b93ca7	23.154615
168	0x41bbd6cb	23.47988
169	0x41ba9b54	23.325844
170	0x41bacf9e	23.351376
171	0x41ba35aa	23.276203
172	0x41bc2d68	23.522171
173	0x41ba8f5a	23.319996
174	0x41ba9c19	23.32622
175	0x41bbe57c	23.487053
176	0x41bae38b	23.361105
177	0x41bc5ac9	23.544329
178	0x41ba3dbf	23.28015
179	0x41bb8ec6	23.444714
180	0x41bb63ef	23.423796
181	0x41ba38ea	23.27779
182	0x41b963ee	23.173794
183	0x41b9c428	23.22078
184	0x41bc3425	23.525461
185	0x41bb27d9	23.394457
186	0x41ba7b06	23.31007
187	0x41bbdfa5	23.484201
188	0x41b7ee68	22.99141
189	0x41baa1a4	23.328926
190	0x41b7ef0a	22.991718
191	0x41b9432a	23.157795
192	0x41bb6f2b	23.429281
193	0x41b9b849	23.214983
194	0x41bb6c0c	23.427757
195	0x41ba65fc	23.299797
196	0x41ba7cb3	23.310888
197	0x41ba7d78	23.311264
198	0x41be042a	23.752033
199	0x41baea04	23.364265
200	0x41b9600d	23.1719
201	0x41b954d2	23.166416
202	0x41bb144f	23.384916
203	0x41b9123f	23.13391
204	0x41b9fe57	23.24919
205	0x41ba8b24	23.31794
206	0x41ba510f	23.28958
207	0x41bdee3f	23.741331
208	0x41bbc151	23.469393
209	0x41bcb502	23.588383
210	0x41b7ac00	22.958984
211	0x41bb3254	23.399574
212	0x41bc459e	23.533993
213	0x41bbe611	23.487337
214	0x41bbe521	23.48688
215	0x41b961b1	23.1727
216	0x41babeb9	23.343126
217	0x41bee9a5	23.864084
218	0x41bc4009	23.531267
219	0x41bd439c	23.658012
220	0x41ba56e9	23.292437
221	0x41b99564	23.197945
222	0x41b9fff4	23.249977
223	0x41bb887b	23.44164
224	0x41b9af5c	23.210625
225	0x41bc8d2c	23.568932
226	0x41b9d845	23.2306
227	0x41bbb3d7	23.462812
228	0x41bbefb5	23.492044
229	0x41bd3419	23.650438
230	0x41bef3be	23.869015
231	0x41bb234f	23.39224
232	0x41bbaeff	23.460447
233	0x41bb1893	23.387
234	0x41bce024	23.609444
235	0x41bac6e1	23.347109
236	0x41bc82d1	23.563875
237	0x41ba8662	23.315617
238	0x41bb4a29	23.411211
239	0x41bad774	23.355202
240	0x41bb8510	23.439972
241	0x41ba0130	23.25058
242	0x41bb263d	23.393671
243	0xc197475e	-18.909847
244	0x41bd0b79	23.630602
245	0x41ba4e99	23.288378
246	0x41bb5332	23.415623
247	0x41b943af	23.158049
248	0x41b9a240	23.204224
249	0x41bc2505	23.518076
250	0x41bd54a8	23.666336
251	0x41bcf7e5	23.621042
252	0x41bb8fb6	23.445171
253	0x41bbf843	23.496222
254	0x41bf7377	23.93138
255	0x41baf46c	23.369347

layer2.bias f4 [128]
0	0x41a1e89c	20.238579
1	0x41a1f158	20.242844
2	0x41a2156f	20.260466
3	0x41a5d027	20.726637
4	0x41a2e967	20.363966
5	0x41a209cc	20.254784
6	0x41a316b5	20.386087
7	0x41a602bf	20.75134
8	0x41a36b96	20.427532
9	0x41a34d9d	20.412897
10	0x41a20e37	20.25694
11	0x41a35240	20.415161
12	0x41a1aed0	20.210358
13	0x41a29a05	20.325205
14	0x41a1fdd9	20.24895
15	0x41a0a990	20.082794
16	0x41a104d1	20.127352
17	0x41a28b92	20.31815
18	0x41a1b5f1	20.213839
19	0x41a307da	20.378834
20	0x41a19acd	20.200586
21	0x41a36a4c	20.426903
22	0x41a18705	20.190928
23	0x41a2a1bd	20.328974
24	0x41a3b142	20.461552
25	0x41a22bf1	20.271456
26	0x41a1f7d4	20.24601
27	0x41a287f5	20.316385
28	0x41a2aa46	20.333141
29	0x41a27fa5	20.312326
30	0x41a25f74	20.296608
31	0x41a18642	20.190556
32	0x41a20004	20.250008
33	0x41a23867	20.27754
34	0x41a32229	20.39168
35	0x41a2d04b	20.351706
36	0x41a2936b	20.321981
37	0x41a1d7fe	20.230465
38	0x41a4ca90	20.598907
39	0x41a18ee8	20.194778
40	0x41a296c6	20.32362
41	0x41a23aa6	20.278637
42	0x41a17a73	20.18479
43	0x41a38bf6	20.44334
44	0x41a298bb	20.324575
45	0x41a40dfa	20.506824
46	0x41a39aa9	20.450518
47	0x41a1cf7f	20.226316
48	0x41a2c770	20.347382
49	0x41a340e2	20.406681
50	0x41a1a4ee	20.205532
51	0x41a29840	20.32434
52	0x41a2543d	20.291132
53	0x41a20554	20.252602
54	0x41a17a98	20.18486
55	0x41a1ba0d	20.215845
56	0x41a27cab	20.310873
57	0x41a1b8c2	20.215214
58	0x41a150fb	20.164541
59	0x41a2baf2	20.341282
60	0x41a22a11	20.27054
61	0x41a2caa8	20.348953
62	0x41a3e58d	20.487085
63	0x41a3368d	20.401636
64	0xbad24673	-0.0016042724
65	0x41a1993e	20.199825
66	0x41a329c2	20.39539
67	0x41a45410	20.541046
68	0x41a2bf1a	20.343311
69	0x41a3196a	20.38741
70	0x419f213b	19.891226
71	0x41a1db6f	20.232145
72	0x41a2bb84	20.34156
73	0x41a2f826	20.371166
74	0x41a13544	20.151009
75	0x41a289f4	20.31736
76	0x41a3993d	20.449823
77	0x41a1f4e7	20.244581
78	0x41a1c40d	20.220728
79	0x41a1bdbf	20.21765
80	0x41a21b92	20.263462
81	0x41a299e9	20.325151
82	0x41a2659e	20.299618
83	0x41a362d2	20.423252
84	0x41a1515e	20.16473
85	0x41a0c12d	20.094324
86	0x41a21edf	20.265074
87	0x41a1d8f5	20.230936
88	0x41a253dc	20.290947
89	0x41a2feb5	20.374369
90	0x41a3475d	20.409845
91	0x41a218f9	20.262194
92	0x41a20e97	20.257124
93	0x41a1279e	20.144344
94	0x41a157a8	20.1678
95	0x41a33f3a	20.405872
96	0x41a28071	20.312716
97	0x41a3ff02	20.499516
98	0xbd125495	-0.035725195
99	0x41a2f460	20.369324
100	0x41a21f09	20.265154
101	0x41a38571	20.440157
102	0x41a43912	20.527866
103	0x41a34068	20.406448
104	0x41a24c18	20.287155
105	0x41a31460	20.384949
106	0x41a2accd	20.334375
107	0x41a32c26	20.396557
108	0x41a1dec5	20.233774
109	0x41a1ab49	20.208635
110	0x41a3946d	20.447474
111	0x41a42c8f	20.521757
112	0x41a446c4	20.534554
113	0x41a19682	20.19849
114	0x41a24c71	20.287325
115	0x41a31934	20.387306
116	0x41a37b23	20.435125
117	0x41a2b146	20.33656
118	0x41a2089d	20.254206
119	0x41a1a824	20.2071
120	0x41a39487	20.447523
121	0x41a3744f	20.431791
122	0x41a2f07b	20.367422
123	0x41a27a58	20.309738
124	0x41a1d2ff	20.228025
125	0x41a2a3c7	20.32997
126	0x41a34f6e	20.413784
127	0x41a3bb63	20.466497

layer3.weight f4 [98, 128]
0	0x411c44eb	9.766826
1	0x411ab70c	9.669689
2	0x411c7499	9.778466
3	0x411b0b9f	9.690337
4	0x411a9ed1	9.663774
5	0x411d42be	9.8287945
6	0x411cb7cb	9.794871
7	0x411b58b7	9.709159
8	0x411b094b	9.689769
9	0x411a84ff	9.65747
10	0x411ae7b0	9.681564
11	0x411ccc5c	9.799892
12	0x411af0f0	9.683823
13	0x411c1224	9.754429
14	0x411b5e73	9.710559
15	0x411cac9a	9.792139
16	0x411c72cd	9.778028
17	0x411b6aa6	9.713537
18	0x411be737	9.743949
19	0x411b87ee	9.720686
20	0x411c7b54	9.780109
21	0x411b54c0	9.708191
22	0x411bb5ff	9.731933
23	0x411cb3fb	9.793941
24	0x411a651f	9.649688
25	0x411ae261	9.680268
26	0x411bb8d0	9.73262
27	0x411c5d48	9.772774
28	0x411baee7	9.730201
29	0x411ca1dd	9.789517
30	0x411d3e6a	9.827738
31	0x411b767d	9.716428
32	0x411ccb36	9.799612
33	0x411d3d76	9.827505
34	0x411c771b	9.7790785
35	0x411c5ad7	9.772178
36	0x411c1520	9.755157
37	0x411c4d62	9.768892
38	0x411a6de4	9.651829
39	0x411c5a16	9.771994
40	0x411aacb8	9.667168
41	0x411bf0e8	9.746315
42	0x411afd9e	9.686918
43	0x411ba006	9.726568
44	0x411bd893	9.740375
45	0x411aa01a	9.664087
46	0x411c2406	9.758795
47	0x411d3d8f	9.827529
48	0x411d3a26	9.826696
49	0x411bc1e6	9.7348385
50	0x411c87cd	9.7831545
51	0x411abbd3	9.6708555
52	0x411a9d0e	9.663343
53	0x411c22cb	9.758494
54	0x411bb2ca	9.73115
55	0x411be9a5	9.744542
56	0x411cd652	9.802324
57	0x411cf793	9.810443
58	0x411c76d6	9.779013
59	0x411c6c1b	9.776393
60	0x411bf8ca	9.7482395
61	0x411becb2	9.745287
62	0x411b084c	9.689526
63	0x411af605	9.685063
64	0xbc642bd6	-0.013926467
65	0x411bad28	9.729774
66	0x411ae05e	9.679777
67	0x411ac54a	9.673166
68	0x411be74b	9.743968
69	0x411aab4f	9.666823
70	0x411ab9f6	9.670401
71	0x411ba911	9.728776
72	0x411d082e	9.814497
73	0x411d06f2	9.814196
74	0x411bb0a1	9.730622
75	0x411cca7c	9.799435
76	0x411c4aa4	9.768223
77	0x411b0b76	9.690298
78	0x411b11fe	9.691893
79	0x411c4b69	9.768411
80	0x411b14a0	9.692535
81	0x411aad27	9.6672735
82	0x411cf670	9.810165
83	0x411b203f	9.695373
84	0x411cf8f2	9.810778
85	0x411b9f6f	9.726424
86	0x411af0a7	9.683753
87	0x411bd6f0	9.739975
88	0x411cd25f	9.80136
89	0x411c5981	9.771852
90	0x411b9f62	9.726412
91	0x411b552a	9.708292
92	0x411c13ec	9.754864
93	0x411ba69a	9.728174
94	0x411a97f6	9.6621
95	0x411cc0ea	9.797098
96	0x411c7d16	9.780539
97	0x411aafcf	9.667922
98	0xbca884e2	-0.020571176
99	0x411af309	9.684335
100	0x411ca112	9.789324
101	0x411b7631	9.716355
102	0x411af4c4	9.684757
103	0x411d4da6	9.831457
104	0x411b4806	9.705084
105	0x411af4e5	9.684789
106	0x411b4659	9.704675
107	0x411d2c4b	9.823314
108	0x411cbc39	9.795953
109	0x411ac9e6	9.674292
110	0x411b7153	9.715167
111	0x411bf047	9.746161
112	0x411c7050	9.77742
113	0x411b2744	9.697086
114	0x411bed6b	9.745463
115	0x411b9f59	9.726403
116	0x411a8196	9.656637
117	0x411a01bf	9.625426
118	0x411d228f	9.820937
119	0x411cdb7e	9.803587
120	0x411c5fca	9.773386
121	0x411b71ae	9.715254
122	0x411b1f27	9.695106
123	0x411bd2ab	9.738933
124	0x411b896b	9.721049
125	0x411b3adf	9.701873
126	0x411cc38c	9.797741
127	0x411c0d73	9.7532835
128	0x4082c067	4.0859866
129	0x407b19e0	3.9234543
130	0x40800ff6	4.0019484
131	0x40a33663	5.100389
132	0x407f8ab0	3.9928398
133	0x4078f3da	3.8898835
134	0x4080e870	4.0283737
135	0x4096f016	4.7168074
136	0x4073dcb1	3.810345
137	0x407ad193	3.9190414
138	0x40728416	3.789312
139	0x4081230f	4.0355296
140	0x40789392	3.884007
141	0x407efad8	3.9840603
142	0x407a2f53	3.9091384
143	0x4074563b	3.817763
144	0x40757dd6	3.8358054
145	0x40738000	3.8046875
146	0x40731161	3.7979357
147	0x4076ea9c	3.8580694
148	0x4074f477	3.827421
149	0x40745173	3.8174713
150	0x4078efdc	3.8896399
151	0x407ec7fa	3.9809556
152	0x4084f1f0	4.1545334
153	0x4077f995	3.8746083
154	0x40767452	3.8508496
155	0x4077ed7e	3.8738704
156	0x407c4666	3.9417968
157	0x407bd092	3.9346051
158	0x407fe91c	3.9986029
159	0x4075a33e	3.8380885
160	0x4077be9d	3.871009
161	0x407ceb04	3.9518442
162	0x4080aed1	4.02134
163	0x407dc13a	3.9649186
164	0x4071ea29	3.779917
165	0x407cd2b7	3.950361
166	0x40788eb7	3.8837106
167	0x40782106	3.8770156
168	0x407bc206	3.9337173
169	0x408176cc	4.0457516
170	0x407ae14d	3.9200013
171	0x4082de79	4.0896573
172	0x4080243f	4.0044246
173	0x407d2f9a	3.9560304
174	0x407a6178	3.912199
175	0x40718319	3.7736266
176	0x4080dfff	4.0273433
177	0x4076833e	3.8517604
178	0x4081f0ff	4.0606685
179	0x406ecbdb	3.7311924
180	0x407dd4c4	3.9661112
181	0x407e4e5b	3.9735324
182	0x4079dfff	3.9042966
183	0x407bdcc1	3.9353487
184	0x407b908c	3.9306974
185	0x408e422b	4.445577
186	0x40831b3b	4.097074
187	0x4080bace	4.0228033
188	0x407f7bfe	3.991943
189	0x406d4557	3.7073572
190	0x4081ef35	4.06045
191	0x40775617	3.8646295
192	0x3d3369fa	0.04380224
193	0x4078bf6a	3.886683
194	0x407ea996	3.9791007
195	0x407b0380	3.9220886
196	0x40783529	3.8782446
197	0x4086a1ee	4.207267
198	0x40a69fc8	5.2070045
199	0x40812bd8	4.036602
200	0x408190f4	4.0489445
201	0x40787778	3.8822918
202	0x4076f1b0	3.8585014
203	0x4081a2e3	4.0511336
204	0x40816263	4.04326
205	0x407aa781	3.9164736
206	0x407fa41d	3.9943917
207	0x40737032	3.8037229
208	0x4083317d	4.099791
209	0x40793042	3.8935704
210	0x40770fc7	3.860338
211	0x4074f826	3.8276458
212	0x408205e4	4.063219
213	0x4080cec4	4.02524
214	0x4080a636	4.0202894
215	0x4079571c	3.8959417
216	0x40740c8a	3.8132653
217	0x40810a8e	4.0325384
218	0x40724f96	3.7861075
219	0x407a7894	3.9136095
220	0x407ee029	3.9824317
221	0x407b2665	3.9242184
222	0x407c4845	3.941911
223	0x4082d260	4.0881805
224	0x407a029b	3.906409
225	0x407dcd95	3.9656727
226	0x3d4f7ab0	0.050654113
227	0x4083000d	4.093756
228	0x4073fb11	3.8121989
229	0x4076ef67	3.858362
230	0x4075934e	3.8371158
231	0x40805213	4.010019
232	0x40702f87	3.7529008
233	0x4079b6c4	3.9017801
234	0x407da821	3.9633868
235	0x407a3098	3.909216
236	0x407de7ea	3.96728
237	0x407e08db	3.9692905
238	0x407ab054	3.9170122
239	0x406eb0e5	3.7295468
240	0x407745b7	3.86363
241	0x407d727d	3.9601128
242	0x407db154	3.9639482
243	0x407748b2	3.863812
244	0x4077aaa6	3.8697906
245	0x40834b59	4.1029477
246	0x407de9a1	3.9673846
247	0x4080d411	4.025887
248	0x407c24e9	3.9397528
249	0x407eaa94	3.9791613
250	0x407ee39b	3.982642
251	0x407b36d2	3.925221
252	0x407afde4	3.9217463
253	0x407fa1c5	3.9942486
254	0x407b3258	3.9249477
255	0x408844c5	4.2583947

layer3.bias f4 [98]
0	0x40320b00	2.7819214
1	0x3e8395da	0.25700265
2	0x40e03afa	7.0071993
3	0x40c64864	6.1963367
4	0x3fefcad1	1.873377
5	0x4015411d	2.3320992
6	0x40cf5858	6.479534
7	0x400e23be	2.2209315
8	0x4011b09d	2.2764046
9	0x3f5bd657	0.8587393
10	0x40ad6d23	5.4195724
11	0x3f533b13	0.82512015
12	0x413a5610	11.646011
13	0x40cfc434	6.4927006
14	0x405753df	3.364494
15	0x40c69493	6.2056365
16	0x3fd742dc	1.6817279
17	0x3fd330eb	1.6499304
18	0x4071e4aa	3.7795815
19	0x40d89be3	6.769029
20	0x40a39692	5.11213
21	0x408c4238	4.3830833
22	0x40460ac0	3.0944061
23	0x40b74b1e	5.7279196
24	0x4032f083	2.7959297
25	0x400d2c16	2.2058158
26	0x40c8a1db	6.2697577
27	0x40dfaab4	6.989588
28	0x40c1cf9e	6.056594
29	0x408be604	4.371828
30	0x40977b0f	4.733772
31	0x3ffa4622	1.9552653
32	0x40899a48	4.300083
33	0x407dce43	3.9657142
34	0x3f7e62b0	0.99369335
35	0x40e43d36	7.132472
36	0x40bba55b	5.863935
37	0x40aca876	5.395564
38	0x40380c92	2.8757672
39	0x40be72e2	5.951524
40	0x411b8920	9.720978
41	0x4080538e	4.0101995
42	0x40e47a18	7.139904
43	0x407c4a4e	3.9420352
44	0x4051b58a	3.2767053
45	0x3faed756	1.3659465
46	0x3fc99faf	1.5751857
47	0x408977ca	4.2958727
48	0x405fd799	3.497534
49	0x40cb510d	6.353644
50	0x3ffd426a	1.9785893
51	0x409f264e	4.973426
52	0x40aad4f9	5.3384976
53	0x41022101	8.133058
54	0x40c555db	6.1667304
55	0x408c6ef7	4.3885455
56	0x40a33c41	5.101105
57	0x40c8a42c	6.2700405
58	0x406ae5e6	3.670282
59	0x409d414f	4.9142222
60	0x40ec0c69	7.376515
61	0x407f64b2	3.990521
62	0x40a1ca36	5.055934
63	0x402e70cd	2.7256348
64	0x40ad3071	5.4121633
65	0x40be133c	5.939848
66	0x40812e6d	4.036917
67	0x408adb3e	4.339263
68	0x40956127	4.6681094
69	0x409e3162	4.943528
70	0x4145625f	12.336516
71	0x40d1b43e	6.553252
72	0xbefe9eff	-0.4973068
73	0x40e218cc	7.065527
74	0x40eb9d47	7.362949
75	0x40875d42	4.230134
76	0x40ad464f	5.4148326
77	0x4023b74f	2.5580633
78	0x40b5373a	5.6629915
79	0x40be3a0f	5.944587
80	0x3ef02338	0.4690187
81	0x404653ca	3.098864
82	0x40d9c69d	6.805495
83	0x409753ed	4.728995
84	0x406078e8	3.5073795
85	0x41755c51	15.335038
86	0x40b55994	5.667185
87	0x40b27efa	5.578
88	0x40d10410	6.531746
89	0x40966b43	4.7005935
90	0x40a2c68c	5.0867367
91	0x3f99410a	1.1972973
92	0x409adeda	4.8397036
93	0x3f0b059f	0.5430545
94	0x409d55de	4.916732
95	0x40b294ae	5.5806494
96	0x40bf33a9	5.975056
97	0x409c62df	4.887069
