models/5/guerrilla_model_weights.pth (torch, 613952 bytes, 8 tensors)

layer1.weight f4 [128, 82]
00000000: f2fc dd41 e34c dd41 419f dd41 0394 dd41
00000010: b1bd 4d41 dd09 de41 a8eb dd41 3834 b241
00000020: ecc5 5341 e7b4 dd41 c2bd db41 04a4 f13f
00000030: ed82 0340 d6f8 ac41 9282 dd41 71ae dd41
00000040: 955e 2a3f f6b4 a141 34cd dd41 9f33 de41
00000050: 6eac 20bc 54fd cc3f 1f71 8f3f 4910 de41
00000060: f4b3 dfbc 1ec7 aa3f c506 033f d939 683c
00000070: 0af0 8e3d 82d6 f03e 28c7 fb3e f5f6 22bd
00000080: 4e46 4b3d 493a dc41 4d1d dc41 da84 dc41
00000090: 5404 dd41 d13c dc41 eb6b d041 390a dd41
000000a0: 5910 dd41 1e3b dd41 2d26 dd41 0463 dd41
000000b0: d718 dd41 dbee dc41 fef9 dc41 eacf dc41
000000c0: 55a7 dd41 d276 dc41 b492 dd41 d895 dc41
000000d0: b994 dc41 2f43 dc41 ab78 dd41 d3aa dc41
000000e0: 804c dd41 665a dd41 b7bc dc41 7f44 dd41
000000f0: da9c db41 39a6 da41 0424 dd41 722d d941
00000100: ccf3 d941 08d5 d641 b333 d641 56e1 d541
00000110: dfd6 7041 2fa5 c841 f233 ca41 09b9 c741
00000120: dc30 be41 ae40 a841 22b5 8d41 9a9b 3741
00000130: 449e 4f41 d8ae 5941 b5fa 3d41 d026 4a41
00000140: 8f81 5c41 c00f 2c41 54c1 dd41 f42a dd41
00000150: a036 de41 89d8 dc41 f100 4d41 c162 dd41
00000160: d3d0 de41 13b6 b141 7ee3 5241 777f dd41
00000170: 8757 dc41 d382 e03f 5a82 0140 213d ad41
00000180: 3437 de41 3602 de41 f5cf 3b3f e7fc a141
00000190: 187d de41 e958 de41 4553 913d 6293 c83f
000001a0: ae42 893f 7bc5 dd41 99ef 91bc ab05 ad3f
000001b0: ced6 d23e 7082 51bc e001 2dbc f778 063f
000001c0: c2f5 f63e 939c 31bd 6e7a 0c3d 753d dc41
000001d0: 6207 dc41 14d0 dc41 793e dd41 c9de dc41
000001e0: d20c d141 5dcc db41 e61a dd41 ff1f dd41
000001f0: bbff dc41 f92b dd41 5867 dc41 0d70 dc41
00000200: 8726 dc41 aa63 dc41 a6d2 dc41 c269 dd41
00000210: a5e2 dc41 8144 dd41 0248 dc41 2531 dd41
00000220: 0556 dd41 daa3 dc41 7d5f dc41 9aaf dc41
00000230: b795 dd41 1da3 dc41 a374 db41 c8db da41
00000240: 5d76 dc41 83f6 d841 36aa d941 a413 d741
00000250: 9b5c d641 8ee8 d441 6395 7141 adf7 c841
00000260: 4a2f ca41 c0cd c641 28b0 bd41 8960 a841
00000270: 13cb 8c41 365d 3841 281d 5041 d57d 5b41
00000280: 5557 3c41 6031 4a41 b7a3 5c41 989d 2a41
00000290: 2d67 de41 0e7a dd41 cba8 dd41 0fb8 dc41
000002a0: 991a 4e41 4600 de41 f400 df41 86d3 b241
000002b0: dc62 5441 589e dd41 ad2d dc41 86ed e53f
000002c0: 7a3a 0840 7fb7 ac41 a986 dd41 c9dc dd41
000002d0: 839c 273f 2dcd a141 d23a de41 780d de41
000002e0: a892 3d3d 77e0 c93f 8be7 8d3f ad09 de41
000002f0: 170d 403d 8cbe b53f bcf2 f83e e4b5 683d
00000300: b6b0 a13d 89ad 013f 6358 003f 6759 ba3c
00000310: 2b1e 90bc 5d2e dc41 add2 db41 b7b8 dc41
00000320: a330 dc41 4144 dd41 9d6b d041 a4f6 dc41
00000330: 1b3e dd41 7f0b dd41 3ce3 dc41 59e4 dc41
00000340: 62f5 dc41 b054 dc41 74c5 dc41 c3ed dc41
00000350: cc65 dd41 20c1 dc41 426b dd41 756c dc41
00000360: c02b dd41 d0b3 dc41 1d3d dd41 01a3 dc41
00000370: 5e60 dd41 42c3 dd41 7e5b dd41 e746 dc41
00000380: 6c68 dc41 53fc da41 3211 dd41 cc09 d941
00000390: a642 da41 09af d641 8df6 d541 6a23 d541
000003a0: 91fe 7041 a760 c841 a217 cb41 7ea7 c741
000003b0: 89bd bd41 e746 a841 0b35 8d41 7600 3841
000003c0: 7928 4f41 4090 5a41 4514 3d41 8f72 4a41
000003d0: 7b40 5d41 15e8 2b41 48a2 de41 a3e8 dc41
000003e0: 451f de41 96f1 dc41 ae72 4c41 6c60 dd41
000003f0: bdec dd41 bbdb b141 4e67 5241 8f6e dd41
27.748508 27.662542 27.70276 27.697271 12.858811 27.754816 27.740067 22.275497
13.235821 27.713331 27.467655 1.8878179 2.054866 21.621502 27.688755 27.710176
0.6655057 20.21336 27.725197 27.775206 -0.009806735 1.601481 1.1206397 27.757952
-0.027307488 1.3342016 0.51182204 0.014173948 0.069793776 0.47038656 0.49175382 -0.039786298
0.049627595 27.52846 27.514307 27.564869 27.627113 27.529696 26.052694 27.629992
27.632982 27.653866 27.64364 27.673347 27.637129 27.616629 27.622066 27.60152
27.706705 27.558018 27.696632 27.573166 27.572618 27.532804 27.68392 27.58341
27.662354 27.66914 27.592146 27.658445 27.451588 27.331163 27.642586 27.14719
27.244041 26.85402 26.775244 26.735027 15.052459 25.080656 25.275364 24.96535
23.773857 21.031582 17.713444 11.475489 12.976139 13.605186 11.873708 12.634476
13.7816305 10.753845 27.719398 27.645973 27.776672 27.60573 12.81273 27.67322
27.851965 22.213903 13.18054 27.687239 27.542738 1.7539924 2.023581 21.654848
27.776955 27.75108 0.7336419 20.248487 27.81108 27.793413 0.070959605 1.5669978
1.0723474 27.721426 -0.017814444 1.3517355 0.41179508 -0.012787446 -0.010559529 0.5252833
0.48234373 -0.04336221 0.034296446 27.530008 27.503605 27.6016 27.655504 27.608782
26.13126 27.474787 27.638134 27.640623 27.624868 27.646471 27.55046 27.554712
27.518812 27.548664 27.602856 27.67664 27.610666 27.65845 27.53516 27.648996
27.667002 27.580006 27.546625 27.585743 27.698103 27.579645 27.431952 27.357315
27.557795 27.120367 27.20811 26.88459 26.795218 26.613552 15.098971 25.120935
25.27309 24.850464 23.711014 21.047136 17.599157 11.522757 13.007118 13.718221
11.771321 12.637054 13.789969 10.663475 27.800379 27.684597 27.707418 27.589872
12.881494 27.750134 27.875465 22.353283 13.274136 27.702316 27.522303 1.7963111
2.1285691 21.589598 27.690752 27.732805 0.6547319 20.225183 27.77872 27.756577
0.04628244 1.5771626 1.1086286 27.754725 0.046887483 1.4198775 0.48622692 0.05681409
0.07895033 0.5065542 0.5013487 0.022747708 -0.01759251 27.522638 27.477869 27.590193
27.523748 27.658327 26.052546 27.62043 27.655325 27.630613 27.610954 27.611498
27.619816 27.541351 27.596413 27.616095 27.674706 27.5943 27.677372 27.552958
27.646362 27.5878 27.65484 27.579592 27.672054 27.72034 27.669674 27.53462
27.550987 27.373205 27.633396 27.129784 27.282543 26.835466 26.745386 26.642292
15.06215 25.047194 25.38654 24.956783 23.717546 21.03462 17.6509 11.500113
12.947381 13.660217 11.817449 12.652968 13.828242 10.744161 27.829239 27.613592
27.765268 27.617962 12.777998 27.672081 27.740595 22.23229 13.150221 27.678984

layer1.bias f4 [128]
00000000: b9a6 dd41 5a53 de41 42d2 dd41 bad1 dd41
00000010: 1769 de41 b76a dd41 488a dd41 405f dd41
00000020: 7eac dd41 24ab dd41 f676 de41 7837 da41
00000030: 2793 dd41 4d7c dd41 6667 de41 928c de41
00000040: 6dc7 dd41 4547 de41 2825 de41 965e dd41
00000050: e3ca dd41 c41a de41 37c8 dd41 f482 de41
00000060: 90d0 dd41 0da8 dd41 d826 de41 0f53 de41
00000070: d8e1 dd41 6b60 dd41 1a7d dd41 8f01 de41
00000080: 692f 16be b30d de41 7092 de41 d7d9 dd41
00000090: e056 dd41 b7c9 dd41 23b8 dd41 f043 de41
000000a0: 06dd dd41 4c5e dd41 a1f1 dd41 fb8d dd41
000000b0: d4de dd41 003e de41 4f7d de41 792d de41
000000c0: 2527 de41 7325 de41 3739 de41 a002 de41
000000d0: 8c17 de41 0e10 de41 3c38 de41 0e6f de41
000000e0: f214 de41 66f8 eebd ba61 de41 d167 db41
000000f0: 1684 dd41 e741 dd41 7603 de41 c49d dd41
00000100: 6a83 de41 4df9 dd41 f6de dd41 2930 de41
00000110: 5840 de41 0538 de41 637e dd41 52b0 dd41
00000120: 0c6f dd41 d413 de41 b760 dd41 4001 db41
00000130: 38fb dd41 c6aa dd41 a9b2 dd41 2ef6 dd41
00000140: 890d de41 6541 de41 b758 de41 1b4f dd41
00000150: 5ebb dd41 e19d dd41 d278 dd41 7c40 dd41
00000160: d61f de41 18f6 dd41 e1a8 dd41 0223 de41
00000170: 9ddf dd41 c1fa dd41 a47b de41 f844 de41
00000180: 4c10 de41 1f85 dd41 fd82 de41 2da1 dd41
00000190: 5db6 dd41 a37c dd41 2c2a de41 0378 de41
000001a0: e946 de41 4b9e dd41 920c de41 f4c5 dd41
000001b0: 2784 dd41 eff5 dd41 dd20 de41 9474 dd41
000001c0: 0ed5 dd41 cd46 dd41 84ed dd41 2a34 de41
000001d0: 7dbd dd41 6c09 de41 53c3 dd41 536c dd41
000001e0: 6ef0 dd41 4757 de41 4795 dd41 2067 de41
000001f0: b1fc dd41 dbb7 dd41 8c1c de41 9d04 de41
27.706408 27.790699 27.727665 27.727406 27.801313 27.677107 27.69252 27.671509
27.709225 27.708565 27.808086 27.277084 27.696852 27.685694 27.800488 27.818638
27.722376 27.7848 27.768143 27.671185 27.724066 27.76307 27.722761 27.813942
27.726837 27.707056 27.768967 27.790556 27.735275 27.67208 27.686085 27.750761
-0.14666523 27.75669 27.821503 27.731367 27.66742 27.723494 27.71491 27.783173
27.732922 27.671043 27.742983 27.694326 27.733803 27.780273 27.811186 27.772203
27.769114 27.768286 27.777937 27.751282 27.761497 27.75784 27.777458 27.804226
27.760227 -0.11668472 27.797718 27.425692 27.689495 27.657179 27.75169 27.702034
27.814167 27.746729 27.733868 27.773516 27.781418 27.777353 27.686712 27.711094
27.679222 27.759682 27.672224 27.37561 27.747665 27.708385 27.712236 27.745205
27.756609 27.78193 27.793318 27.663626 27.716488 27.70209 27.683994 27.656487
27.765545 27.745163 27.70746 27.767094 27.734186 27.747438 27.810371 27.783676
27.757957 27.69 27.81396 27.7037 27.714045 27.685858 27.770592 27.8086
27.784624 27.702291 27.756138 27.721657 27.689528 27.745085 27.766047 27.681923
27.72903 27.65957 27.740974 27.77547 27.717524 27.7546 27.720373 27.677893
27.742397 27.792616 27.69789 27.800354 27.748384 27.714773 27.763939 27.752253

layer2.weight f4 [256, 128]
00000000: ef5d de41 9d14 de41 195e de41 0b81 de41
00000010: 0b25 de41 3b40 de41 d8c8 dd41 5bb5 de41
00000020: 9866 de41 4b17 df41 12a4 de41 83ce da41
00000030: b4dc de41 c2a1 de41 c302 de41 8411 de41
00000040: c94e de41 ec26 de41 f341 de41 e857 de41
00000050: 4152 de41 0819 de41 3858 df41 b8fd dd41
00000060: 5927 de41 b9a6 de41 0b79 de41 6978 de41
00000070: d91b de41 37a8 de41 24c6 dd41 d3b2 de41
00000080: 6dd6 1abe 6cdd dd41 225f de41 c94d de41
00000090: 5a04 de41 2d3f de41 2dfd dd41 6bfa de41
000000a0: 83af dd41 889e de41 4bb6 de41 1d49 de41
000000b0: 9c6a de41 32c6 de41 388f de41 6cde de41
000000c0: fcf3 de41 a09c de41 797f de41 d247 de41
000000d0: a306 de41 82d2 de41 544e de41 72c8 dd41
000000e0: 899a de41 08fd 79bd 0acb dd41 f7b5 dc41
000000f0: 16ea dd41 a9a6 de41 8440 de41 d887 de41
00000100: bd9d de41 143a de41 fe01 de41 92a8 dd41
00000110: 7131 de41 5a41 de41 893b de41 28c3 dd41
00000120: 31ad de41 03c4 dd41 3c1d de41 e308 dc41
00000130: 3967 de41 1673 dd41 b8a7 de41 868b dd41
00000140: fc1c de41 0dd8 dd41 0d0b de41 4ccf dd41
00000150: d2d2 dd41 4fd5 de41 b62e de41 9296 de41
00000160: aff0 dd41 326e dd41 b8ff dd41 1c01 df41
00000170: 6534 de41 7af5 dd41 af03 df41 6976 dd41
00000180: acc1 dd41 203a de41 27e7 dd41 df4c de41
00000190: 5518 de41 0966 de41 f325 de41 df99 dd41
000001a0: 21ab dd41 3305 de41 da3a de41 c677 de41
000001b0: 189d de41 92d7 dd41 0195 de41 2b0c de41
000001c0: 334a de41 93ab de41 bd07 de41 4d71 de41
000001d0: 6f58 de41 0a8b de41 2c18 de41 0cef dd41
000001e0: aae1 dd41 3573 de41 1d2a de41 f0a4 dd41
000001f0: 253e de41 e5c0 dd41 2bfa dd41 8c45 de41
00000200: a3db dd41 0e81 de41 afac dd41 6e77 de41
00000210: 7a40 de41 32ee dd41 e0d5 dd41 4277 de41
00000220: d3e3 dd41 18b7 de41 1837 de41 7407 db41
00000230: c7aa de41 06aa de41 a4fb dd41 da0f de41
00000240: 3791 de41 3470 de41 9365 de41 645e de41
00000250: 40cf de41 d72e de41 fdc0 de41 3ea7 dd41
00000260: 04e6 dd41 38b9 dd41 0a15 df41 b2b3 dd41
00000270: 61c4 dd41 7a6e de41 de19 de41 ced4 dd41
00000280: 23c8 ffbd 1179 de41 f031 de41 b238 de41
00000290: 8586 de41 25b3 dd41 4385 dd41 06ff de41
000002a0: f3c4 dd41 b55f de41 75c1 de41 e3b5 de41
000002b0: 50ab de41 f5b8 de41 8115 de41 6582 de41
000002c0: 216a de41 d327 de41 0c94 de41 249f de41
000002d0: df2d de41 8ef7 dd41 9d5b de41 245f de41
000002e0: 749b de41 766d f83b a488 de41 5c4f dc41
000002f0: ce7e de41 6e8f de41 c4ef dd41 36f8 dd41
00000300: cea1 de41 90cf de41 c083 dd41 4596 de41
00000310: e97b de41 3780 de41 520e de41 b17e dd41
00000320: bc50 de41 0781 de41 c710 de41 d93a dc41
00000330: 97b2 dd41 5c29 dd41 17a4 de41 e9bc dd41
00000340: 9963 de41 462c de41 fae7 dd41 1ccf dd41
00000350: 755a de41 e8b1 de41 599a de41 418b de41
00000360: 99e2 dd41 11de dd41 0949 de41 6891 de41
00000370: af64 de41 0a90 de41 2325 df41 dd3b de41
00000380: 9613 de41 62ed dd41 78be dd41 6566 de41
00000390: 0a75 de41 18f6 dd41 c5d9 de41 7d0f de41
000003a0: 0b96 dd41 0d64 de41 86a2 de41 932e de41
000003b0: e483 de41 f8a1 dd41 c6c2 dd41 466b de41
000003c0: 6535 de41 a4ba de41 1fbb dd41 b4a4 dd41
000003d0: e595 de41 ec66 de41 0129 de41 5379 dd41
000003e0: 39a2 dd41 1c7a de41 f861 de41 d2f9 dd41
000003f0: cce0 dd41 0ecb dd41 ecde dd41 8056 de41
27.795866 27.760065 27.795946 27.81301 27.768087 27.781363 27.723068 27.838552
27.800095 27.886374 27.830112 27.350836 27.857765 27.828983 27.751348 27.758553
27.78847 27.769005 27.782202 27.792923 27.790163 27.762222 27.918076 27.748886
27.769213 27.831408 27.809103 27.808794 27.763597 27.832136 27.721748 27.837317
-0.1512086 27.733116 27.796452 27.787981 27.752125 27.780848 27.748621 27.872274
27.7107 27.827408 27.83901 27.7857 27.802055 27.846775 27.819931 27.858604
27.869133 27.826477 27.812243 27.785069 27.75324 27.852787 27.788246 27.722874
27.825457 -0.061032325 27.72414 27.58885 27.7393 27.831377 27.781502 27.81633
27.82702 27.778358 27.750973 27.70731 27.774141 27.78191 27.77907 27.720291
27.834566 27.720709 27.764275 27.50434 27.800402 27.681194 27.831894 27.693127
27.764153 27.730494 27.755396 27.72622 27.72794 27.854155 27.772808 27.82352
27.742521 27.678806 27.749863 27.875542 27.775583 27.744862 27.876799 27.682817
27.719566 27.778381 27.737867 27.787535 27.76188 27.799822 27.76853 27.700132
27.708559 27.752539 27.778736 27.808483 27.826706 27.730259 27.822756 27.755941
27.78623 27.833776 27.753778 27.805323 27.79318 27.81789 27.761803 27.741722
27.735188 27.806253 27.770563 27.705536 27.780344 27.719187 27.747152 27.783958
27.732244 27.813015 27.709318 27.808315 27.781483 27.741306 27.729431 27.808231
27.736242 27.839401 27.776901 27.37864 27.833387 27.83302 27.747871 27.75774
27.820906 27.804787 27.799597 27.79609 27.851196 27.772871 27.844233 27.706661
27.737312 27.715439 27.885273 27.712742 27.720888 27.803944 27.76263 27.728909
-0.12489345 27.809114 27.774384 27.777683 27.815683 27.712473 27.69007 27.874523
27.721167 27.796732 27.844461 27.838812 27.833649 27.840311 27.7605 27.81367
27.80182 27.769445 27.822289 27.827705 27.772398 27.745876 27.794733 27.796455
27.825905 0.007581408 27.81672 27.53875 27.811916 27.820034 27.742073 27.746197
27.829006 27.851349 27.689331 27.823374 27.810503 27.812605 27.756992 27.686861
27.789421 27.813002 27.758192 27.528734 27.712202 27.645195 27.830122 27.717241
27.798632 27.771618 27.73827 27.726128 27.794168 27.836868 27.825365 27.817995
27.735643 27.73343 27.785662 27.821 27.799162 27.820332 27.893133 27.77923
27.759563 27.74091 27.718002 27.799997 27.807148 27.745163 27.856333 27.757563
27.698263 27.798853 27.829357 27.772741 27.8144 27.704086 27.720104 27.80238
27.776072 27.841133 27.716368 27.705421 27.82319 27.800255 27.770021 27.68424
27.70421 27.809624 27.797836 27.746983 27.734764 27.724148 27.733849 27.792236

layer2.bias f4 [256]
00000000: e741 df41 ff43 df41 b62c df41 54d2 de41
00000010: 6426 df41 b915 df41 604b df41 0e5c df41
00000020: c109 df41 26ff de41 7220 df41 87b7 de41
00000030: 5c18 df41 64dc de41 151c df41 f0cb de41
00000040: 3460 df41 0c4a df41 38e6 de41 5828 df41
00000050: 187a df41 7965 df41 6321 df41 35d8 de41
00000060: 7f00 df41 7bc7 de41 05a3 de41 9cc2 de41
00000070: 5e57 09bd 1e01 df41 c164 25bd 62c8 6fbd
00000080: ac4b df41 3cb2 de41 77ad de41 3200 df41
00000090: 4c11 df41 e451 df41 33b3 de41 14c5 de41
000000a0: 3d48 a8ba 0d50 df41 7f7a df41 4f05 df41
000000b0: b2cd de41 6a79 df41 c606 df41 7f57 df41
000000c0: 4513 df41 4ce8 7bbd 58e0 de41 08cd 4dbc
000000d0: 5612 df41 f3da de41 621c df41 8a34 df41
000000e0: 371d df41 f953 df41 2b10 df41 3c3a df41
000000f0: 9219 df41 d0ed de41 834b df41 161f df41
00000100: 3a2b df41 97ae de41 d991 de41 ef65 df41
00000110: ed52 df41 f4e2 de41 602d df41 a36d 9fbc
00000120: cc30 df41 e541 df41 e6e4 de41 dc76 df41
00000130: 2d04 df41 acce de41 a764 df41 bfc6 de41
00000140: 456c df41 5a69 df41 b115 df41 3962 df41
00000150: f395 de41 cdd4 de41 dbcd de41 78a5 de41
00000160: 36b2 de41 e06e df41 e1e9 de41 f51c 0ebd
00000170: f99f de41 5652 df41 e9ad de41 b156 df41
00000180: cf1e df41 9747 df41 3405 df41 6d71 df41
00000190: 3c80 de41 e23d df41 32ff de41 25ba de41
000001a0: 9e4e df41 bff7 de41 99eb de41 bd4b df41
000001b0: d5f1 de41 3d16 df41 90b6 de41 cebd de41
000001c0: de80 df41 b610 df41 c718 49bd c8ba de41
000001d0: 8f25 df41 17a4 de41 3d86 de41 0991 de41
000001e0: 089a de41 afef de41 58b3 de41 9ab4 de41
000001f0: c95f df41 5007 df41 068d de41 bc64 df41
00000200: aea0 de41 3635 7ebd 88ee 273d 54b4 de41
00000210: ba10 df41 4be0 de41 7745 df41 2004 df41
00000220: 7959 5dbd e383 7bbd 8b2f df41 4ac4 de41
00000230: b6c7 de41 d32c df41 0ca0 de41 1d02 df41
00000240: 6347 df41 223b df41 90fe de41 43e8 de41
00000250: 01cc de41 9365 df41 0a3d df41 ec5b df41
00000260: cf77 df41 763b df41 a2ce ccbc a8e5 de41
00000270: 43f3 de41 b158 df41 0d2b df41 f9d6 de41
00000280: 6cc6 de41 d9b9 de41 7607 df41 d96c df41
00000290: df61 df41 ddaf de41 ef71 df41 69d4 de41
000002a0: 7be0 de41 e61a df41 8d25 21bd 63af de41
000002b0: 9a10 df41 a020 df41 9c8e de41 307b df41
000002c0: 8f79 df41 75ee de41 93c7 de41 fcd1 de41
000002d0: bc78 df41 c768 df41 bed4 f5bb 5e45 df41
000002e0: 8891 de41 adf2 de41 1a54 df41 9d2b df41
000002f0: 264f df41 ee36 df41 be41 df41 b9f0 de41
00000300: bc33 df41 8033 df41 dccb de41 836a df41
00000310: 322a df41 9b8f de41 b784 de41 c7d5 de41
00000320: f28b de41 2977 df41 34cc a8bb e448 df41
00000330: 16b0 de41 17e5 de41 373b df41 2b1c df41
00000340: 5ea5 de41 f8f4 de41 3d36 df41 34f1 de41
00000350: 114a df41 cd64 df41 14c2 de41 1280 f03c
00000360: 4dcb de41 ffbf de41 c9a1 de41 f15d df41
00000370: a7c6 de41 8b55 df41 47b8 de41 9a61 df41
00000380: 537e df41 0a00 df41 aaaf 70bd 6e6a df41
00000390: 43fe de41 33ee b73c 67b4 de41 5795 de41
000003a0: ec70 df41 796a df41 129d 62bd fad0 6b3d
000003b0: 5bd7 de41 7f50 df41 c522 df41 868d de41
000003c0: 2181 de41 e758 df41 8aca de41 c878 df41
000003d0: 51fa de41 45cf 61bb 55ca 9bbc aec9 de41
000003e0: b21f 863c 0015 df41 3d0f df41 9008 df41
000003f0: b9a4 de41 044c df41 8098 de41 e572 df41
27.907179 27.908201 27.896832 27.8527 27.893745 27.885607 27.911804 27.919949
27.879763 27.874584 27.890842 27.839613 27.886894 27.857613 27.888712 27.849579
27.921974 27.911156 27.862411 27.8947 27.934616 27.924547 27.891302 27.85557
27.875242 27.847403 27.8296 27.845024 -0.033530585 27.875546 -0.04037929 -0.05854071
27.91195 27.837029 27.8347 27.875095 27.883446 27.914986 27.8375 27.84623
-0.0012838911 27.914087 27.934813 27.877592 27.850437 27.934284 27.878307 27.917723
27.884409 -0.061500832 27.859543 -0.01256109 27.883953 27.856909 27.888859 27.900654
27.889265 27.916002 27.882895 27.903435 27.887486 27.86612 27.911871 27.890179
27.896107 27.835249 27.821215 27.924772 27.915491 27.860817 27.897156 -0.019461459
27.898827 27.907175 27.861767 27.933037 27.877039 27.850914 27.924147 27.847044
27.927866 27.926441 27.885592 27.92296 27.823217 27.853907 27.850515 27.830795
27.837017 27.929138 27.864199 -0.034695584 27.828112 27.915203 27.834917 27.91733
27.890043 27.909956 27.87754 27.930384 27.812614 27.905216 27.874607 27.84089
27.913387 27.87097 27.865038 27.911982 27.868082 27.885859 27.839142 27.842678
27.937923 27.88316 -0.049095895 27.841202 27.89334 27.830122 27.815546 27.820818
27.82521 27.867033 27.83757 27.838184 27.92177 27.87857 27.81886 27.924187
27.828457 -0.062062465 0.040998966 27.83805 27.883167 27.859518 27.908918 27.877014
-0.054040406 -0.061405074 27.898214 27.845844 27.847515 27.896887 27.828148 27.876032
27.909857 27.903873 27.874298 27.863409 27.849611 27.924597 27.904804 27.919884
27.9335 27.904034 -0.025000874 27.862137 27.86878 27.918306 27.89602 27.854967
27.846886 27.840746 27.878643 27.928148 27.922789 27.83587 27.930632 27.853716
27.85961 27.888134 -0.03934245 27.835638 27.883106 27.89093 27.819633 27.93515
27.934355 27.866434 27.847448 27.852531 27.933952 27.92616 -0.0075021675 27.90887
27.82106 27.868494 27.916065 27.896296 27.913647 27.901821 27.9071 27.86754
27.90026 27.900146 27.84954 27.927008 27.895603 27.82012 27.814802 27.854383
27.818333 27.933184 -0.005151296 27.910591 27.83598 27.86186 27.903913 27.888754
27.830746 27.869614 27.901484 27.867775 27.911165 27.92422 27.844765 0.029357944
27.849268 27.843748 27.828997 27.92087 27.846998 27.916769 27.83998 27.922657
27.936682 27.87502 -0.058761276 27.926968 27.874151 0.02245245 27.838087 27.82292
27.930138 27.926989 -0.055325575 0.057572342 27.855154 27.914305 27.891977 27.819103
27.813051 27.91841 27.848896 27.933975 27.872225 -0.0034455818 -0.019017378 27.848476
0.016372535 27.885254 27.88244 27.87918 27.830431 27.912117 27.824463 27.9311

layer3.weight f4 [256, 256]
00000000: 8fa9 dd41 2e4a de41 d3dd dd41 e2cc dd41
00000010: 06c2 dd41 1f59 de41 882c de41 0261 de41
00000020: c31d de41 3f29 de41 bddb dd41 8d86 dd41
00000030: 9d45 de41 0194 dd41 d21d de41 194a de41
00000040: 7159 de41 7230 de41 5eae dd41 6be4 dd41
00000050: edc5 dd41 4164 de41 f304 de41 cc0b de41
00000060: 50e7 dd41 0e40 de41 fb5a de41 91ef dd41
00000070: af10 333d a53f de41 b257 263d c918 c13c
00000080: 491a de41 6a7f dd41 76b7 dd41 370d de41
00000090: df23 de41 28c5 dd41 0eed dd41 1907 de41
000000a0: 31ef 9a3c 39eb dd41 4f3e de41 41c1 dd41
000000b0: 58e3 dd41 a6e6 dd41 a75c de41 045d de41
000000c0: 0f03 de41 2af3 24bc 8ff5 dd41 e788 c9bc
000000d0: efd3 dd41 4155 de41 cb4b de41 002c de41
000000e0: 6f16 de41 66f8 dd41 f2c9 dd41 5fa4 dd41
000000f0: 4e38 de41 e1dc dd41 0149 de41 e1a1 dd41
00000100: b401 de41 6eb7 dd41 ca46 de41 4b57 de41
00000110: e56b de41 21f6 dd41 6aee dd41 90c5 583c
00000120: b81f de41 ba34 de41 2e04 de41 2d34 de41
00000130: 1b5e de41 c6bc dd41 35db dd41 ea1c de41
00000140: 454b de41 f44c de41 a8e1 dd41 db2e de41
00000150: 84c8 dd41 1f97 dd41 50ff dd41 bcd0 dd41
00000160: c1fb dd41 2d24 de41 bb0a de41 436f babc
00000170: b654 de41 fee6 dd41 6c71 de41 2b13 de41
00000180: 48ba dd41 d934 de41 33c1 dd41 c801 de41
00000190: 8fb6 dd41 5ddb dd41 0423 de41 d2e1 dd41
000001a0: ca0b de41 8e3c de41 7492 dd41 27cd dd41
000001b0: 78cb dd41 fee8 dd41 60fe dd41 a6ea dd41
000001c0: d233 de41 13cf dd41 db0f b3bc 00b5 dd41
000001d0: 9834 de41 49fb dd41 64ab dd41 f811 de41
000001e0: bb19 de41 c83f de41 0cc1 dd41 47dd dd41
000001f0: 1803 de41 3755 de41 b8ab dd41 8be4 dd41
00000200: 65fb dd41 f194 0fbd 33bf e0bc 2df9 dd41
00000210: 3552 de41 79b8 dd41 05ad dd41 9520 de41
00000220: 0144 04bd 8e7a 46bc a8e1 dd41 dc41 de41
00000230: b83b de41 a158 de41 9156 de41 27fd dd41
00000240: c20f de41 372c de41 e8b9 dd41 bc17 de41
00000250: 40a4 dd41 5db4 dd41 adbd dd41 6cef dd41
00000260: 67da dd41 0a4b de41 8477 fc3c 4ebf dd41
00000270: 0255 de41 b46d de41 df38 de41 d717 de41
00000280: a012 de41 a3fa dd41 e63c de41 f4eb dd41
00000290: 50fe dd41 9804 de41 a708 de41 caeb dd41
000002a0: 912c de41 f11b de41 2efb b1bb 08a4 dd41
000002b0: 3bb1 dd41 0efe dd41 0845 de41 90db dd41
000002c0: c400 de41 3cba dd41 0f59 de41 0411 de41
000002d0: 3126 de41 522b de41 b4f2 903c 62ea dd41
000002e0: 643b de41 2de7 dd41 d2e0 dd41 939c dd41
000002f0: b2ca dd41 cc12 de41 36d3 dd41 5d10 de41
00000300: 2c5f de41 4a05 de41 27e5 dd41 ead8 dd41
00000310: d230 de41 0440 de41 6850 de41 7aec dd41
00000320: ec3c de41 f037 de41 4ba6 433d e857 de41
00000330: c324 de41 65c9 dd41 8425 de41 2663 de41
00000340: d803 de41 a6ec dd41 5c04 de41 f6ee dd41
00000350: 95d2 dd41 e2b6 dd41 7600 de41 73ee 05bd
00000360: f0ba dd41 eaf5 dd41 37eb dd41 0dfc dd41
00000370: 9228 de41 91ef dd41 33f3 dd41 b440 de41
00000380: de5d de41 5962 de41 0ae1 f1bb 0025 de41
00000390: fa51 de41 1f6b ba3c 9fc6 dd41 401c de41
000003a0: d3e9 dd41 f60c de41 6289 6f3c 6c1b 283d
000003b0: d645 de41 9f27 de41 5722 de41 ce42 de41
000003c0: 39d2 dd41 b13f de41 39e7 dd41 4945 de41
000003d0: e21c de41 23ed 2fbd e475 063c 1913 de41
000003e0: 8e69 223d ebc1 dd41 4df1 dd41 f166 de41
000003f0: f0d2 dd41 0bd8 dd41 5d58 de41 0529 de41
27.707792 27.78622 27.733313 27.72504 27.719738 27.793516 27.771744 27.797367
27.764532 27.77014 27.732294 27.690699 27.78399 27.697268 27.76456 27.78618
27.793673 27.773655 27.71014 27.736532 27.721643 27.798952 27.752417 27.75576
27.737946 27.781277 27.794424 27.741976 0.043717083 27.781076 0.040610977 0.023571389
27.762835 27.687214 27.71458 27.756453 27.767515 27.721268 27.74075 27.753466
0.018912883 27.739855 27.780424 27.719362 27.736008 27.737621 27.79524 27.795418
27.751493 -0.01006774 27.744902 -0.024601413 27.728483 27.791628 27.787008 27.771484
27.760954 27.746288 27.723606 27.70526 27.777493 27.732851 27.785646 27.704042
27.750832 27.714565 27.784565 27.792624 27.802683 27.74518 27.741413 0.013230696
27.765488 27.775745 27.75204 27.775476 27.79595 27.717175 27.732035 27.764118
27.786753 27.787575 27.735184 27.772879 27.722908 27.69879 27.749664 27.726921
27.747927 27.767664 27.75524 -0.022758132 27.791363 27.73779 27.805382 27.75936
27.715958 27.775805 27.719336 27.75087 27.71414 27.732111 27.767097 27.735264
27.755756 27.779568 27.69651 27.725172 27.72435 27.738766 27.749207 27.739574
27.775303 27.72611 -0.021858146 27.713379 27.77568 27.747698 27.708687 27.758774
27.762564 27.781143 27.719261 27.733046 27.75151 27.791609 27.708847 27.736593
27.747751 -0.03505415 -0.02743492 27.746668 27.79014 27.715075 27.709482 27.76591
-0.032291416 -0.01211418 27.735184 27.782158 27.77916 27.793276 27.792269 27.74861
27.757694 27.77159 27.715775 27.76159 27.7052 27.713068 27.717615 27.741905
27.731642 27.78664 0.030818708 27.71841 27.791508 27.803566 27.77777 27.76164
27.759094 27.747381 27.779736 27.740211 27.749176 27.752243 27.754225 27.740131
27.77176 27.763643 -0.0054315543 27.705093 27.711538 27.74905 27.783707 27.732208
27.750374 27.715935 27.793486 27.758308 27.768648 27.771152 0.017693855 27.739445
27.779 27.737879 27.734776 27.701452 27.723972 27.759178 27.72813 27.75799
27.79647 27.752583 27.73689 27.730915 27.773838 27.781258 27.78926 27.740467
27.779747 27.777313 0.04776601 27.792923 27.76795 27.723337 27.768318 27.798412
27.751877 27.740551 27.752129 27.74168 27.727823 27.714298 27.750225 -0.032698106
27.716278 27.745075 27.739851 27.748072 27.76981 27.741976 27.74375 27.781593
27.795834 27.798021 -0.007381563 27.768066 27.790028 0.022756157 27.721983 27.763794
27.739172 27.756329 0.014620157 0.041041777 27.7841 27.769346 27.766768 27.78262
27.727648 27.7811 27.737902 27.78383 27.764103 -0.04295076 0.008206818 27.759325
0.039651446 27.719687 27.742823 27.800264 27.727997 27.73049 27.793146 27.77003

layer3.bias f4 [256]
00000000: 8fdc e041 15c6 e041 4e0a 1ebd 84fe 8c3a
00000010: 5274 e141 b13c e141 4666 e141 0d41 e141
00000020: ff23 e141 2df4 e041 216b e141 ff0d 023a
00000030: 5a20 e141 0648 e141 4304 e141 a6b8 e041
00000040: 37c5 11bd a216 de3a 4f13 e141 7484 083c
00000050: b8e8 e041 5c5d e141 e13d e141 d926 e141
00000060: 1c78 c6bc 4024 e141 e428 e141 5bc6 0e3d
00000070: 9bcf e041 c337 e141 cf1d e141 3d5b e141
00000080: f44f e141 7823 e141 622d e141 77c3 e041
00000090: cb31 e141 f375 e141 2844 e141 2e89 e141
000000a0: 4b58 e141 fe00 e141 25cf e041 5839 e141
000000b0: d422 e141 0869 e141 5f26 e141 b53b e141
000000c0: 6057 e141 d9f7 e041 2c1d e141 38df 253d
000000d0: ec5c e141 c05e e141 8342 0cbd 6764 e141
000000e0: 2acf e8bc 0625 e141 c659 e141 11d2 e041
000000f0: 613d e141 f0dd e041 b82f e141 126d e141
00000100: 38e5 e041 5372 e141 d978 3ebc 68c7 e041
00000110: 056d fdbc 2632 e141 ad18 e141 cfea e041
00000120: cd41 e141 d6e4 31bd 95ed e041 594e e141
00000130: 8754 14bd c837 e141 8467 e141 1616 e141
00000140: b204 e141 5f69 e141 91f1 e041 dbd2 b8b9
00000150: ff37 e141 e97a e141 1e31 24bd 8b1b e141
00000160: ea2d e141 7e1b 01bd 4b33 24bd 0ea1 e041
00000170: 94e4 e041 537c e141 8f5d e141 6c57 e141
00000180: 546d e141 61f9 e041 a2c9 e041 e022 0c39
00000190: fa52 e141 cb6d e141 e18b 19bd 4620 3039
000001a0: 6365 b1bc 2743 e141 f737 91bc a42c e141
000001b0: e3eb e041 ccf1 e041 70ca e041 7c63 e141
000001c0: 0e53 e141 9773 31bd 1812 c2bc 2751 e141
000001d0: 43cc 1cbd 55fb e041 fc0e e141 a7ce 1fbd
000001e0: 248a e141 9d14 e141 9530 e141 626f e141
000001f0: b318 e141 520a e141 4376 e141 b518 e141
00000200: ab35 34bc bc3d e141 b5d9 0dbd 2e60 e141
00000210: a280 2cbd 3a54 e141 2a73 e141 cf1f e141
00000220: 5846 e141 42f5 24bd 64fc e041 16d8 e041
00000230: ac1f e141 0221 c2ba f0c4 e041 f92c e141
00000240: 0f4c e141 5450 e141 7a3e f4bc f15e e141
00000250: 2c8a ff3c f474 e141 8df1 e041 9a12 e141
00000260: d92c e141 c364 e141 2e4c e141 8a04 e141
00000270: 5be5 2abd 384f e141 1c07 e141 acfa e041
00000280: 142d e141 91be 9d3c bdcb e041 46bc 07bd
00000290: f4e9 e041 852c e141 37c9 1c3d 0d20 e141
000002a0: 162e e141 7cee e0bc 7e48 e141 0f1f e141
000002b0: 0855 e141 a041 e141 5157 69bc f014 e141
000002c0: 3641 e141 a615 e141 6f73 e141 e660 efbc
000002d0: 163e e141 6666 eebc 8b57 c6bc e62c e141
000002e0: eb2e b2bb bb42 e141 ffb3 e041 32f9 e041
000002f0: a706 e141 b5ad e3bc c32e e141 4723 e141
00000300: 13cf e041 3c5d e141 3831 e141 123b e141
00000310: 7431 e141 1989 a5bc 7812 cd3c 1c3e e141
00000320: b883 e141 222b e141 8f84 1d3d f242 e141
00000330: 4c20 e141 b95f e141 de69 e141 5008 e141
00000340: 8aa2 e041 0f64 e141 af47 e141 0461 e141
00000350: 5550 e141 2a1f e141 3a10 e141 b730 e141
00000360: c5ec e041 dcd3 e041 9eb7 66ba 83d5 e041
00000370: bee9 e041 d2e2 f4bb 367a babc 0c79 cfbb
00000380: 1b47 e141 ff48 e141 fd39 e141 755a e141
00000390: a916 e141 f145 e141 1f70 e141 1d47 e141
000003a0: f269 e141 d707 e141 de69 e141 6a4e 0bbd
000003b0: 861e 1ebd e0d7 e041 c96a e141 ae3b e141
000003c0: c35b e141 73e9 e041 a3fc 0ebd fb19 e141
000003d0: 1929 e141 6c70 e141 2e82 d0bc 4f3e e141
000003e0: 3739 e141 9e73 e141 6c29 e141 f000 09bd
000003f0: b1c7 e041 69cf e041 1062 e141 ad72 dbbc
28.107695 28.09672 -0.038584046 0.0010757004 28.181797 28.154634 28.174938 28.156763
28.142576 28.119226 28.177309 0.0004961192 28.140797 28.160168 28.12708 28.09016
-0.03558847 0.0016944001 28.134428 0.008332361 28.113632 28.170586 28.155214 28.143969
-0.024227194 28.1427 28.144966 0.034857135 28.10137 28.152227 28.139555 28.16955
28.16404 28.142319 28.14716 28.095442 28.149313 28.182592 28.15828 28.191982
28.168112 28.125484 28.101145 28.153 28.142006 28.176285 28.143736 28.154154
28.167664 28.12102 28.139244 0.04049608 28.170372 28.171265 -0.034243118 28.174025
-0.028419096 28.143078 28.168835 28.102571 28.15497 28.108368 28.1483 28.178257
28.111923 28.180822 -0.011625492 28.097366 -0.030935774 28.149487 28.137049 28.114653
28.15713 -0.043431126 28.116007 28.163256 -0.036213424 28.152237 28.175545 28.135784
28.127293 28.17645 28.117952 -0.00035252314 28.152342 28.185015 -0.040085904 28.138449
28.147419 -0.03152036 -0.04008798 28.07864 28.11161 28.185705 28.170683 28.167686
28.178383 28.121767 28.098454 0.00013364432 28.165516 28.17861 -0.037486915 0.00016796691
-0.02165479 28.15779 -0.017726881 28.146797 28.11518 28.118065 28.098846 28.173576
28.165554 -0.043323126 -0.023690268 28.164625 -0.038280737 28.12272 28.132317 -0.03901544
28.192451 28.135065 28.148722 28.179386 28.13706 28.13004 28.182745 28.137064
-0.010999124 28.155144 -0.03463145 28.171963 -0.04211486 28.166126 28.181232 28.140532
28.159348 -0.04027296 28.123238 28.10551 28.140465 -0.0014810862 28.09616 28.14696
28.162138 28.164223 -0.029814947 28.171358 0.031193815 28.182106 28.117945 28.134083
28.146898 28.1742 28.162197 28.127216 -0.041722637 28.163681 28.128471 28.122398
28.14701 0.019255908 28.099482 -0.033138536 28.114235 28.146738 0.03827783 28.14065
28.147503 -0.027457468 28.160397 28.140165 28.16652 28.157043 -0.014242009 28.135223
28.156841 28.13557 28.181364 -0.02922101 28.155315 -0.029101562 -0.024211666 28.146923
-0.005437722 28.157583 28.087889 28.121677 28.128248 -0.02779279 28.147833 28.142225
28.10111 28.170525 28.149033 28.153843 28.149147 -0.020206975 0.02503322 28.155327
28.189316 28.14606 0.038456496 28.157688 28.14077 28.17174 28.176693 28.129059
28.079365 28.173857 28.160002 28.17237 28.164225 28.140217 28.132923 28.148787
28.11561 28.103447 -0.0008801165 28.104254 28.114132 -0.007473328 -0.022763353 -0.0063315686
28.15972 28.160643 28.153315 28.169168 28.136065 28.159151 28.179747 28.159723
28.176731 28.128828 28.176693 -0.03401033 -0.03860333 28.105408 28.177141 28.15414
28.169806 28.113989 -0.034908902 28.137686 28.145067 28.179893 -0.0254527 28.155424
28.152937 28.181454 28.145226 -0.03344816 28.097506 28.101274 28.172882 -0.02678808

layer4.weight f4 [168, 256]
00000000: 1257 4241 418b 4241 5462 81bc eb93 343d
00000010: 32a6 4241 720e 4341 77bb 4241 699a 4241
00000020: fa97 4241 3adf 4241 5696 4241 7f68 bfbc
00000030: d22d 4341 dbfc 4241 2a8a 4341 9227 4341
00000040: 11f4 ff3c 7332 33bd 9958 4241 d690 64bc
00000050: 2393 4341 683d 4241 864a 4341 0cf4 4241
00000060: bec2 6f3c 4669 4341 0335 4241 d3ae c1bb
00000070: b16c 4341 c53d 4341 b955 4341 8bbd 4241
00000080: ae4d 4241 0519 4341 5e33 4341 1a59 4341
00000090: 9e51 4241 2d25 4241 bcf7 4241 f286 4241
000000a0: 6d83 4341 817f 4241 873d 4241 f954 4341
000000b0: 2a8a 4341 919b 4341 a3c1 4241 9980 4241
000000c0: 7efa 4241 91d1 4241 e10a 4341 602e f93c
000000d0: 6d13 4341 1f7c 4241 3f0a 03bd 19a5 4341
000000e0: 4f88 2d3d 62ee 4241 fa99 4341 d693 4241
000000f0: 4994 4341 4d67 4341 19d8 4241 4e52 4341
00000100: 9a15 4341 21bc 4241 2ec7 d23b ef45 4241
00000110: 75d9 143d a009 4341 7a8f 4341 b578 4341
00000120: 82ce 4241 beb3 1d3b c84a 4341 fa59 4241
00000130: 3e01 d33b 4a3d 4341 7071 4341 527c 4241
00000140: ceff 4241 b791 4241 1154 4341 922e d5b9
00000150: 84ea 4241 e757 4241 2307 c43c d377 4241
00000160: afe7 4241 10cc 2b3d c499 cb3b caa9 4241
00000170: 7558 4341 0743 4341 d638 4341 9760 4341
00000180: 4bfb 4241 7471 4341 6d11 4341 7432 dcbc
00000190: 77b6 4241 c574 4341 b41b 833c f58f 2abd
000001a0: 11eb 2b3d 8967 4341 5ebe 72bc e729 4341
000001b0: 3387 4241 7a31 4241 72a1 4341 427b 4241
000001c0: 36de 4241 01ce 9bbb 7741 2ebd 8295 4341
000001d0: dbd9 973c bdc3 4241 7e39 4341 6fae 313d
000001e0: cd5b 4241 59ac 4241 2db1 4241 fca8 4241
000001f0: fd85 4241 70e5 4241 b22f 4341 5eac 4241
00000200: 452c 10bc 7791 4341 6d55 05bd 85b2 4241
00000210: ab0a 9cbc b596 4241 2ad4 4241 be86 4341
00000220: af6a 4241 8e6a 9f3b 8ecc 4241 3e80 4341
00000230: 8fa2 4241 2dc2 a7bc 9f59 4241 622a 4341
00000240: 6793 4341 e59c 4341 07db 17bd 8f6b 4241
00000250: 2846 04bd 673d 4341 5d25 4341 4b8a 4241
00000260: eb52 4341 b768 4341 feed 4241 bd4c 4341
00000270: 9050 d53b 7e82 4241 6140 4241 19a0 4341
00000280: 2887 4341 2a77 d6bc bb93 4341 480c d23b
00000290: a99d 4241 df90 4341 22a0 0abd 7e89 4341
000002a0: 89d4 4241 8dc6 423c 78a6 4241 2aa3 4341
000002b0: 2e21 4341 f70a 4341 ba6c f23c 659c 4241
000002c0: 2d0f 4341 9d61 4241 ea7a 4241 d6ad bebc
000002d0: c988 4241 63a9 10bd aacb 26bd 2469 4241
000002e0: 811f 18bd 2369 4341 a784 4341 9559 4341
000002f0: 26a1 4241 4163 bf3b 31a7 4241 d2bf 4241
00000300: 8d22 4341 f245 4241 d152 4241 81d9 4241
00000310: b348 4241 3add 2a3b 1c82 c03c 12c4 4241
00000320: f394 4241 facc 4241 92e2 2b3d 4165 4241
00000330: 2662 4241 d065 4341 0268 4241 6bb3 4241
00000340: 470e 4341 31ac 4241 4f1a 4341 d528 4341
00000350: 822e 4241 2d47 4241 a7a3 4241 e1c9 4241
00000360: edca 4241 4668 4241 baab f13c df66 4241
00000370: 6851 4341 bf21 073b 6a51 d6bb 0b0d 1e3d
00000380: 51be 4241 538e 4341 0077 4341 d281 4341
00000390: cfa8 4241 7e1d 4341 fa4b 4341 503d 4241
000003a0: a265 4341 51e1 4241 ed1d 4341 1919 13bd
000003b0: 30c6 09bd 8890 4241 817a 4241 e650 4241
000003c0: ca3a 4241 0240 4241 7abf d7bc 7e64 4241
000003d0: 5c80 4241 9765 4341 f6c9 fcba 4fbb 4241
000003e0: 8b98 4241 3fad 4241 da3e 4341 dc99 293d
000003f0: 4660 4241 5375 4241 9626 4341 727c d5bc
12.146257 12.158998 -0.015793957 0.044086378 12.165575 12.191027 12.170768 12.162698
12.162104 12.179499 12.161703 -0.023365257 12.198687 12.186732 12.221231 12.197161
0.03124431 -0.043749284 12.14663 -0.013950547 12.223422 12.139992 12.205694 12.184582
0.0146338325 12.2132015 12.137942 -0.0059107332 12.214036 12.20258 12.208428 12.171275
12.143965 12.193608 12.200041 12.209253 12.144926 12.134076 12.185482 12.157946
12.219586 12.156129 12.140021 12.208245 12.221231 12.22548 12.172275 12.156396
12.186155 12.176164 12.190156 0.030417621 12.192243 12.155303 -0.031992193 12.227807
0.042366322 12.183199 12.225092 12.161093 12.223702 12.21272 12.177758 12.207594
12.192774 12.17093 0.0064324355 12.142074 0.036340196 12.18985 12.222528 12.2169695
12.175417 0.0024063434 12.205757 12.146967 0.006439357 12.202463 12.215195 12.155352
12.187452 12.160575 12.208024 -0.00040661223 12.182255 12.146461 0.023929184 12.154254
12.181563 0.041942656 0.0062133987 12.166452 12.209096 12.203864 12.201376 12.2110815
12.186351 12.2151985 12.191754 -0.026879527 12.169547 12.216008 0.01600442 -0.041641194
0.041972224 12.212777 -0.014815895 12.19773 12.158008 12.137079 12.226915 12.155092
12.179251 -0.004754782 -0.0425429 12.224001 0.018536499 12.172788 12.201536 0.043379243
12.147412 12.167077 12.168256 12.166256 12.157712 12.181015 12.199144 12.167082
-0.008799617 12.223014 -0.03255217 12.168584 -0.019048056 12.161794 12.176798 12.220396
12.151046 0.004864997 12.17494 12.218809 12.164687 -0.020478332 12.14688 12.197847
12.223487 12.225804 -0.037074115 12.151259 -0.03229347 12.202491 12.196622 12.158763
12.207744 12.213065 12.183104 12.206235 0.006509848 12.156858 12.1407175 12.226586
12.220497 -0.026179869 12.223567 0.0064101554 12.163491 12.222869 -0.03384412 12.221067
12.176888 0.0118881585 12.165642 12.227335 12.1956005 12.190177 0.02959286 12.163182
12.191205 12.148831 12.155008 -0.02327625 12.158395 -0.03531779 -0.040721573 12.150669
-0.03713942 12.213168 12.219886 12.209371 12.164343 0.0058406894 12.165818 12.171831
12.195935 12.1420765 12.145219 12.178102 12.142749 0.0026071803 0.023499541 12.172869
12.161365 12.175043 0.04196412 12.14972 12.148962 12.212357 12.150393 12.168803
12.190986 12.167039 12.193923 12.197469 12.136354 12.142377 12.164954 12.174287
12.174542 12.150457 0.02950083 12.150115 12.207375 0.002061948 -0.006540467 0.038586657
12.171464 12.222247 12.216553 12.219194 12.166213 12.1947 12.206049 12.139969
12.212313 12.180009 12.194806 -0.035912607 -0.033636272 12.160286 12.154908 12.144751
12.139353 12.140627 -0.02633642 12.149534 12.156338 12.212302 -0.0019286263 12.17073
12.162242 12.167296 12.202845 0.041406497 12.148504 12.153644 12.19692 -0.026060317

layer4.bias f4 [168]
00000000: f184 1341 0a0f 993d d0dc 6841 0f7b c941
00000010: 5d36 8940 b460 e43f 6d62 af40 4913 a440
00000020: a8df b43f 2076 2e41 e3a4 c841 527b d740
00000030: ffcc af3f 0e83 3241 29ae 0541 4203 e13f
00000040: ec69 2840 a2ec 913f 6a51 803f 0d36 8f3f
00000050: 8bc3 8f40 4b19 a241 d396 0140 8550 0640
00000060: 2782 8f41 e7f8 cf3f 190e be41 7e7b 9440
00000070: df03 5e3f 9e31 923f bb41 b33f 62d1 d540
00000080: ce29 0240 e8df a63f 8cb6 b03e b261 e23f
00000090: b92e 863f 5593 7a41 b70b 133f f226 543f
000000a0: 4e8c f93e ff74 023f 40ff bc41 6cca 1b40
000000b0: 4029 f93e f666 113f 7e2e f53f 539d ab3f
000000c0: 9f1b 813f 441c 9441 ec44 7d40 f4a1 e63f
000000d0: b439 843f 1e0e 0041 877e 8340 a47c 8d41
000000e0: 647d ba41 fbe1 5940 7be7 0140 e25a 933f
000000f0: 54c4 313f b81b ad41 e963 9340 e666 aa3f
00000100: 5b44 b03e 95f5 0440 0c0c 0140 0ae3 bb41
00000110: b3ec a63e 18cb a540 766f 693e f28f 7a41
00000120: 1355 5b3f efbc ac3e 9b7f 7a41 8416 2e3f
00000130: a1b9 1f3f 7963 113f 059b a73f 94c6 e540
00000140: bc92 8940 e413 ab41 27a3 583f 6729 d840
00000150: 3eb5 e340 3855 b53f 9ed4 7a3f 8b9b ef3f
00000160: 0e48 e63e d831 ab3f d000 a53e a853 3841
00000170: d783 6b40 2783 c440 5a90 9f3e 3123 0f41
00000180: e576 c940 9331 ba3e 4849 0340 e063 e540
00000190: dfde 863e 0167 e53f 7e35 813f e3e5 3740
000001a0: cbdf 5e3f 6ab0 1c40 3d5d ec3f b189 1040
000001b0: aee6 fd3e 87b8 1940 94b7 3440 a2a3 e33f
000001c0: f72e 373f 1186 e740 4423 a840 d4a0 a340
000001d0: fefb cb3e 8818 723f fdfe 823f 6457 8c3f
000001e0: 5ed1 133f 0ed8 533f a8c8 463f bbd6 853e
000001f0: 6401 223f 7506 c73e 273c ac3e ce7c d33e
00000200: ac41 db3e 49ca 7b40 57e6 ba3e 53a2 f13e
00000210: 5ef0 bd3e 8eea bf3e 6284 f73f 3547 033f
00000220: 6b97 d43f 8368 7e3f fa4a a23f 2444 443f
00000230: 4f37 593f 5e28 f63e 6acd b03e cd97 1140
00000240: a4a0 483f 5545 1740 dd6a bd3e a7e3 2d3f
00000250: 83e5 083f 0a92 a93f e0b8 963e daec 773e
00000260: 923e a93e e7f0 ca3f 0bce 393e 23de eb3e
00000270: f1ba a93e 3e54 563e 2c4f c23e dec8 c83f
00000280: 0802 8f3e a64c 143f 294e be3e 5150 a33e
00000290: bb37 a23e 91fd dd3f 0317 8b3e cc87 b23e
9.219956 0.074735716 14.553909 25.185087 4.287886 1.7842011 5.480765 5.127354
1.4130754 10.903839 25.080511 6.7338037 1.3734435 11.156996 8.35502 1.7579119
2.631465 1.140034 1.0024846 1.118837 4.49262 20.26235 2.0248306 2.0986645
17.93855 1.6247834 23.756884 4.6400747 0.86724657 1.1421392 1.4004434 6.6818094
2.0338016 1.3037081 0.34514272 1.7686064 1.0483009 15.66097 0.5743975 0.82871926
0.48739856 0.5095977 23.624634 2.4342299 0.48664284 0.5679773 1.9154813 1.3407387
1.0086554 18.513802 3.9573317 1.8018174 1.033011 8.003447 4.109195 17.68586
23.311226 3.4044178 2.0297534 1.151211 0.694402 21.638535 4.605946 1.3312652
0.3442715 2.0774891 2.0163603 23.485859 0.32602462 5.1810417 0.22796425 15.660143
0.8567669 0.33737895 15.656154 0.68003106 0.6239262 0.5679241 1.3094183 7.1804905
4.299162 21.384712 0.8462395 6.755054 7.1158743 1.4166632 0.9798068 1.8719343
0.44976848 1.3374586 0.32227182 11.520424 3.6799219 6.14101 0.3116482 8.946092
6.2957635 0.36365947 2.0513477 7.168442 0.26341912 1.7922059 1.009445 2.8734062
0.8706023 2.4482675 1.8465954 2.258404 0.49590057 2.4018877 2.8237047 1.7784312
0.7155604 7.2351155 5.254305 5.1133823 0.39840692 0.9456868 1.0234066 1.096417
0.57741344 0.8275155 0.7764993 0.2614039 0.6328337 0.38872114 0.33639643 0.41306156
0.4282354 3.9342215 0.3650386 0.47194156 0.37097448 0.3748364 1.9337275 0.5128053
1.6608709 0.9937822 1.2679131 0.76666474 0.8485002 0.48077673 0.34531718 2.2748902
0.7837012 2.3636067 0.36995593 0.67925495 0.5347521 1.3247693 0.29437923 0.24211445
0.3305555 1.5854768 0.18145005 0.46067914 0.33150437 0.20930573 0.37951028 1.56863
0.27931237 0.57929456 0.37169006 0.31897214 0.31683144 1.7343007 0.27165994 0.3486923
