models/3/guerrilla_model_weights.pth (torch, 198120 bytes, 6 tensors)

layer1.weight f4 [128, 82]
21.344334 20.362446 20.832125 19.956532 17.077568 20.174553 21.236544 21.146955
21.023594 21.021948 21.273323 20.463755 18.591217 20.326628 21.206667 21.057724
20.883184 21.041418 21.1745 19.162788 18.742132 20.406096 20.769096 20.251263
20.803429 21.20655 21.005274 20.097721 19.313356 19.586205 20.18938 20.130938
19.4481 20.480055 20.673767 21.103577 21.359915 21.360788 21.381157 15.570363
21.101254 21.330814 21.197445 21.407953 21.376337 21.288492 21.401417 21.140669
21.385359 21.409653 21.364298 21.337587 21.346865 21.35595 21.394482 21.374992
21.407557 21.0416 21.425087 21.351015 21.288317 21.30934 21.330431 21.288736
21.39792 21.42177 21.276075 21.284748 21.429316 21.346794 21.31926 21.37738
21.26967 21.307003 21.383022 21.345882 21.35396 21.312197 20.723461 21.411705
21.385218 21.404 21.428768 20.375349 20.892017 20.017277 17.152594 20.121962
21.26079 21.17971 21.049297 21.107765 21.154875 20.503672 18.535934 20.409178
21.106457 21.172947 20.869717 21.074314 21.095764 19.139505 18.68469 20.394981
20.890936 20.248775 20.862747 21.181236 20.94305 19.992422 19.284678 19.439932
20.203117 20.13583 19.429255 20.453423 20.620867 20.971325 21.370388 21.403828
21.39892 15.550623 21.086412 21.415323 21.229168 21.346592 21.262901 21.29424
21.381945 21.095337 21.296638 21.355717 21.297253 21.245869 21.313618 21.336521
21.35827 21.300337 21.38348 20.958004 21.382648 21.416073 21.31354 21.267263
21.261707 21.309658 21.33512 21.26797 21.38097 21.330917 21.291756 21.436829
21.323526 21.417408 21.258091 21.284367 21.35538 21.366465 21.370092 21.374512
20.761051 21.25484 21.382994 21.320478 21.394104 20.407011 20.887905 20.034616
17.19391 20.26146 21.26537 21.27104 21.143429 21.166136 21.32182 20.540533
18.591515 20.344131 21.070171 21.139406 20.83407 21.207924 21.16581 19.056282
18.75369 20.424873 20.859312 20.156612 20.871445 21.185614 20.974026 20.029373
19.225264 19.563023 20.176855 20.13768 19.355688 20.406075 20.73237 21.0323
21.332909 21.311625 21.361927 15.674142 21.074446 21.383041 21.265188 21.339142
21.365831 21.384096 21.347057 21.207602 21.411995 21.343525 21.331388 21.326147
21.37678 21.438667 21.383059 21.3791 21.360434 20.970049 21.40094 21.391912
21.366796 21.33396 21.30601 21.242544 21.278227 21.362114 21.330698 21.338999
21.25876 21.335272 21.286898 21.261524 21.27402 21.283411 21.385769 21.370754
21.28554 21.355537 20.736536 21.352997 21.332901 21.2491 21.314117 20.418188
20.869556 20.061552 17.193974 20.185068 21.318083 21.269917 21.131107 21.191757
00000000: 32c1 aa41 4ae6 a241 31a8 a641 faa6 9f41
00000010: dc9e 8841 7c65 a141 71e4 a941 f72c a941
00000020: 5230 a841 f32c a841 c42f aa41 c5b5 a341
00000030: d0ba 9441 ef9c a241 41a7 a941 3876 a841
00000040: c310 a741 d354 a841 6065 a941 644d 9941
00000050: e3ef 9541 af3f a341 1c27 a641 9602 a241
00000060: 6c6d a641 04a7 a941 cd0a a841 22c8 a041
00000070: c181 9a41 8cb0 9c41 da83 a141 290c a141
00000080: b595 9b41 27d7 a341 e063 a541 20d4 a841
00000090: 1be1 aa41 e5e2 aa41 9c0c ab41 3520 7941
000000a0: 5ecf a841 82a5 aa41 5e94 a941 7d43 ab41
000000b0: bd02 ab41 d54e aa41 1a36 ab41 1720 a941
000000c0: 3715 ab41 f846 ab41 15ea aa41 61b3 aa41
000000d0: 61c6 aa41 fcd8 aa41 e627 ab41 fcff aa41
000000e0: ad42 ab41 3255 a841 9466 ab41 e1ce aa41
000000f0: 794e aa41 8779 aa41 b9a4 aa41 554f aa41
00000100: f12e ab41 c95f ab41 6735 aa41 2a47 aa41
00000110: 3d6f ab41 3cc6 aa41 d88d aa41 e004 ab41
00000120: 4928 aa41 be74 aa41 6e10 ab41 5ec4 aa41
00000130: e9d4 aa41 617f aa41 a6c9 a541 2c4b ab41
00000140: ed14 ab41 643b ab41 1e6e ab41 b700 a341
00000150: da22 a741 6223 a041 8338 8941 c7f9 a041
00000160: 1916 aa41 0c70 a941 f664 a841 b4dc a841
00000170: 2f3d a941 8507 a441 9849 9441 ff45 a341
00000180: 06da a841 3262 a941 2ef5 a641 3298 a841
00000190: 20c4 a841 b51d 9941 3f7a 9541 ec28 a341
000001a0: a320 a741 7efd a141 e8e6 a641 2c73 a941
000001b0: 5e8b a741 7bf0 9f41 0547 9a41 fb84 9b41
000001c0: fc9f a141 2e16 a141 1d6f 9b41 9ca0 a341
000001d0: 89f7 a441 46c5 a741 8ef6 aa41 0a3b ab41
000001e0: fd30 ab41 5acf 7841 f9b0 a841 9552 ab41
000001f0: 56d5 a941 d2c5 aa41 6c1a aa41 9b5a aa41
00000200: 390e ab41 40c3 a841 845f aa41 82d8 aa41
00000210: c660 aa41 8af7 a941 4a82 aa41 32b1 aa41
00000220: bddd aa41 1767 aa41 5e11 ab41 fea9 a741
00000230: aa0f ab41 1e54 ab41 2182 aa41 5b23 aa41
00000240: fa17 aa41 2e7a aa41 53ae aa41 cd24 aa41
00000250: 3a0c ab41 b8a5 aa41 8455 aa41 a07e ab41
00000260: 9596 aa41 da56 ab41 9210 aa41 6246 aa41
00000270: d1d7 aa41 85ee aa41 f3f5 aa41 00ff aa41
00000280: a216 a641 ea09 aa41 5f10 ab41 5790 aa41
00000290: 2027 ab41 8f41 a341 6e1a a741 e546 a041
000002a0: 218d 8941 7817 a241 7a1f aa41 172b aa41
000002b0: be25 a941 3f54 a941 1693 aa41 0353 a441
000002c0: 6cbb 9441 c8c0 a241 b68f a841 811d a941
000002d0: 2dac a641 d4a9 a941 9453 a941 4473 9841
000002e0: 8f07 9641 2466 a341 dfdf a641 be40 a141
000002f0: b8f8 a641 237c a941 ceca a741 283c a041
00000300: 57cd 9941 1281 9c41 336a a141 f819 a141
00000310: 73d8 9a41 a43f a341 e5db a541 2742 a841
00000320: cca9 aa41 357e aa41 3ae5 aa41 49c9 7a41
00000330: 7798 a841 7810 ab41 1b1f aa41 90b6 aa41
00000340: 39ed aa41 a112 ab41 c6c6 aa41 2ba9 a941
00000350: c44b ab41 8abf aa41 afa6 aa41 f39b aa41
00000360: a503 ab41 6482 ab41 8110 ab41 6608 ab41
00000370: 2be2 aa41 a9c2 a741 2035 ab41 a322 ab41
00000380: 33ef aa41 f3ab aa41 b572 aa41 bbf0 a941
00000390: cf39 aa41 9ce5 aa41 45a5 aa41 45b6 aa41
000003a0: f111 aa41 a3ae aa41 914b aa41 9a17 aa41
000003b0: 3131 aa41 6d44 aa41 0e16 ab41 4ef7 aa41
000003c0: c948 aa41 24d8 aa41 6de4 a541 f0d2 aa41
000003d0: c8a9 aa41 28fe a941 5083 aa41 7358 a341
000003e0: daf4 a641 0f7e a041 428d 8941 057b a141
000003f0: 6f8b aa41 ca28 aa41 820c a941 b888 a941

layer1.bias f4 [128]
21.36442 21.282972 21.276335 21.348211 21.243746 21.277834 21.26153 21.33497
21.372679 21.260988 21.316132 21.260202 21.383432 21.342377 21.332024 21.277954
21.30363 21.303286 21.291746 21.348463 21.38546 21.270735 21.291718 21.28701
21.339062 21.38523 21.282427 21.299044 21.308523 21.335236 21.257729 21.289143
21.34974 21.292192 21.366203 21.293095 21.27444 21.3842 21.256363 21.384
21.34257 21.28406 21.339182 21.35578 21.26001 21.264572 21.276367 21.266186
21.35667 21.22385 21.261515 21.348831 21.302664 21.273823 21.36484 21.342289
21.243645 21.333735 21.248718 21.250353 21.266909 21.350475 21.34367 21.241129
21.269135 21.369877 21.280287 21.26921 21.267597 21.317205 21.278578 21.239988
21.387451 21.313116 21.377928 21.341509 21.279268 21.361568 21.360035 21.361334
21.245094 21.232254 21.349478 21.322203 21.243057 21.359732 21.368605 21.32513
21.232004 21.38863 21.349634 21.252253 21.32673 21.34143 21.235811 21.242062
21.269453 21.23782 21.296028 21.314312 21.2326 21.26564 21.249165 21.394028
21.338358 21.366858 21.32161 21.327644 21.299753 21.238487 21.262896 21.279783
21.286804 21.236235 21.278208 21.276625 21.397894 21.315884 21.318537 21.332148
21.342922 21.315742 21.33545 21.266567 21.245117 21.361826 21.351234 21.276176
00000000: 55ea aa41 8743 aa41 ef35 aa41 23c9 aa41
00000010: 31f3 a941 0139 aa41 9d17 aa41 05ae aa41
00000020: 3ffb aa41 8116 aa41 7087 aa41 e514 aa41
00000030: 4511 ab41 30bd aa41 fca7 aa41 4039 aa41
00000040: d66d aa41 216d aa41 7f55 aa41 a7c9 aa41
00000050: 6c15 ab41 772a aa41 7055 aa41 cc4b aa41
00000060: 66b6 aa41 f314 ab41 6942 aa41 7164 aa41
00000070: db77 aa41 90ae aa41 d40f aa41 2a50 aa41
00000080: 44cc aa41 6956 aa41 fced aa41 4258 aa41
00000090: 0e32 aa41 d712 ab41 080d aa41 6f12 ab41
000000a0: 95bd aa41 c145 aa41 a5b6 aa41 a3d8 aa41
000000b0: 8014 aa41 d81d aa41 0036 aa41 2621 aa41
000000c0: 76da aa41 72ca a941 9517 aa41 68ca aa41
000000d0: db6b aa41 ca30 aa41 31eb aa41 02bd aa41
000000e0: fcf2 a941 7dab aa41 60fd a941 b900 aa41
000000f0: a122 aa41 c6cd aa41 d6bf aa41 d5ed a941
00000100: 3027 aa41 82f5 aa41 073e aa41 5827 aa41
00000110: 0a24 aa41 a389 aa41 873a aa41 7feb a941
00000120: 8019 ab41 4381 aa41 ff05 ab41 69bb aa41
00000130: f13b aa41 7ee4 aa41 5ae1 aa41 03e4 aa41
00000140: f4f5 a941 a8db a941 bbcb aa41 df93 aa41
00000150: c8f1 a941 bbe0 aa41 e7f2 aa41 de99 aa41
00000160: 25db a941 ea1b ab41 0dcc aa41 9d04 aa41
00000170: 259d aa41 40bb aa41 f1e2 a941 beef a941
00000180: d727 aa41 0ee7 a941 445e aa41 b683 aa41
00000190: 5ddc a941 0820 aa41 4afe a941 f826 ab41
000001a0: f5b4 aa41 53ef aa41 a892 aa41 049f aa41
000001b0: e565 aa41 6ce8 a941 691a aa41 ff3c aa41
000001c0: 604b aa41 cfe3 a941 c539 aa41 8736 aa41
000001d0: e32e ab41 ee86 aa41 5d8c aa41 3da8 aa41
000001e0: 4ebe aa41 a486 aa41 00af aa41 ee21 aa41
000001f0: 00f6 a941 05e5 aa41 54cf aa41 9c35 aa41

layer2.weight f4 [128, 128]
21.383099 21.403433 21.472387 21.38133 21.439104 21.433521 21.432278 21.478298
21.446028 21.435707 21.403524 21.40773 21.423794 21.372786 21.368975 21.353834
21.431656 21.441475 21.332052 21.37665 21.344288 21.365232 21.355944 21.40622
21.392792 21.394142 21.40014 21.352957 21.464401 21.486263 21.430723 21.312357
21.415361 21.427761 21.39102 21.329609 21.356829 21.35685 21.462294 21.484299
21.338888 21.448235 21.365612 21.385386 21.42781 21.354597 21.360073 21.467508
21.394228 21.376291 21.390713 21.386793 21.430117 21.455473 21.441994 21.42293
21.359095 21.435661 21.389471 21.371874 21.335516 21.470724 21.453667 21.386665
21.36251 21.34383 21.370663 21.416367 21.45026 21.422764 21.480267 21.398407
21.360891 21.47638 21.358976 21.32431 21.37948 21.35683 21.407434 21.345776
21.354538 21.372662 21.442081 21.496696 21.422934 21.431562 21.433752 21.319096
21.436031 21.390432 21.384018 21.381853 21.42391 21.366985 21.383797 21.351583
21.451355 21.343985 21.38446 21.375307 21.458378 21.35014 21.360083 21.401573
21.405628 21.379494 21.438812 21.334127 21.343246 21.346334 21.424646 21.423805
21.408058 21.345945 21.35646 21.438805 21.362583 21.394094 21.444433 21.416855
21.352278 21.387205 21.43845 21.420467 21.402264 21.473528 21.462511 21.470953
21.463194 21.374136 21.466938 21.402857 21.42849 21.379778 21.482597 21.459951
21.457245 21.3565 21.451084 21.487946 21.421265 21.47029 21.488888 21.461716
21.421404 21.366503 21.466105 21.372871 21.410278 21.410717 21.434946 21.389114
21.484772 21.480902 21.403177 21.4135 21.402653 21.453457 21.391624 21.360422
21.421553 21.470781 21.417221 21.503279 21.447968 21.395924 21.508507 21.41095
21.359762 21.469515 21.405487 21.386234 21.3768 21.420525 21.465105 21.445797
21.459631 21.513355 21.41072 21.494385 21.452478 21.36047 21.500162 21.413944
21.37824 21.415874 21.390715 21.389473 21.38293 21.373993 21.495272 21.452723
21.350603 21.385183 21.373516 21.467232 21.375696 21.370222 21.496859 21.395002
21.348263 21.475775 21.356913 21.489529 21.46983 21.40515 21.403824 21.447216
21.38377 21.440382 21.441479 21.500257 21.34512 21.455421 21.480745 21.427021
21.38264 21.377758 21.459444 21.380247 21.434029 21.424719 21.382336 21.50346
21.410284 21.483578 21.415445 21.4845 21.469835 21.35774 21.4753 21.454113
21.365633 21.423277 21.442638 21.439129 21.357578 21.398403 21.43183 21.440834
21.472057 21.399073 21.360128 21.373293 21.383545 21.34568 21.46621 21.460953
21.494549 21.397148 21.363003 21.436995 21.35272 21.438683 21.441624 21.457691
00000000: 9610 ab41 3b3a ab41 73c7 ab41 f70c ab41
00000010: 4983 ab41 da77 ab41 4e75 ab41 8ed3 ab41
00000020: 7791 ab41 547c ab41 6b3a ab41 0843 ab41
00000030: ee63 ab41 77fb aa41 a9f3 aa41 a7d4 aa41
00000040: 0874 ab41 2488 ab41 0ba8 aa41 6103 ab41
00000050: 1ac1 aa41 ffeb aa41 f9d8 aa41 f03f ab41
00000060: 7024 ab41 3427 ab41 7d33 ab41 dbd2 aa41
00000070: 18b7 ab41 dee3 ab41 1f72 ab41 b57f aa41
00000080: a952 ab41 0e6c ab41 cf20 ab41 0aa3 aa41
00000090: c9da aa41 d4da aa41 c7b2 ab41 d8df ab41
000000a0: 0bb6 aa41 fc95 ab41 c6ec aa41 4515 ab41
000000b0: 286c ab41 37d6 aa41 6ee1 aa41 75bd ab41
000000c0: 6127 ab41 a502 ab41 2e20 ab41 2718 ab41
000000d0: e170 ab41 cfa4 ab41 3489 ab41 2962 ab41
000000e0: 6ddf aa41 3c7c ab41 a31d ab41 99f9 aa41
000000f0: 23af aa41 0bc4 ab41 1ca1 ab41 e417 ab41
00000100: 6ce6 aa41 2ac0 aa41 1ef7 aa41 b854 ab41
00000110: 229a ab41 d261 ab41 96d7 ab41 f02f ab41
00000120: 1be3 aa41 a0cf ab41 2fdf aa41 3098 aa41
00000130: 2d09 ab41 cada aa41 6d42 ab41 26c4 aa41
00000140: 18d6 aa41 36fb aa41 6289 ab41 3cf9 ab41
00000150: 2b62 ab41 d773 ab41 5378 ab41 828d aa41
00000160: fe7c ab41 9b1f ab41 7812 ab41 090e ab41
00000170: 2b64 ab41 96ef aa41 0412 ab41 0bd0 aa41
00000180: 609c ab41 7bc0 aa41 6013 ab41 a100 ab41
00000190: c2aa ab41 16cd aa41 73e1 aa41 6c36 ab41
000001a0: ba3e ab41 3409 ab41 b082 ab41 4bac aa41
000001b0: f8be aa41 4bc5 aa41 ad65 ab41 f463 ab41
000001c0: b443 ab41 7fc4 aa41 08da aa41 ac82 ab41
000001d0: 92e6 aa41 1b27 ab41 338e ab41 b855 ab41
000001e0: 77d1 aa41 ff18 ab41 f281 ab41 1e5d ab41
000001f0: d637 ab41 c9c9 ab41 39b3 ab41 83c4 ab41
00000200: 9fb4 ab41 3bfe aa41 4abc ab41 0d39 ab41
00000210: 8c6d ab41 c909 ab41 5cdc ab41 fbad ab41
00000220: 70a8 ab41 1dda aa41 d29b ab41 50e7 ab41
00000230: c05e ab41 27c3 ab41 3ee9 ab41 98b1 ab41
00000240: 095f ab41 99ee aa41 95ba ab41 a4fb aa41
00000250: 4048 ab41 2649 ab41 c57a ab41 e81c ab41
00000260: d0e0 ab41 e3d8 ab41 b539 ab41 d94e ab41
00000270: a238 ab41 aea0 ab41 0c22 ab41 25e2 aa41
00000280: 575f ab41 29c4 ab41 7856 ab41 b706 ac41
00000290: 7095 ab41 da2a ab41 6c11 ac41 a049 ab41
000002a0: cbe0 aa41 91c1 ab41 703e ab41 0217 ab41
000002b0: b003 ab41 3c5d ab41 89b8 ab41 fe90 ab41
000002c0: 53ad ab41 5a1b ac41 2849 ab41 80f4 ab41
000002d0: ad9e ab41 3ee2 aa41 5500 ac41 c24f ab41
000002e0: a306 ab41 b653 ab41 2f20 ab41 a41d ab41
000002f0: 3e10 ab41 f0fd aa41 51f6 ab41 2d9f ab41
00000300: 09ce aa41 db14 ab41 f6fc aa41 e4bc ab41
00000310: 6d01 ab41 37f6 aa41 91f9 ab41 f728 ab41
00000320: 3ec9 aa41 63ce ab41 f5da aa41 8eea ab41
00000330: 36c2 ab41 bf3d ab41 083b ab41 e693 ab41
00000340: f611 ab41 e785 ab41 2688 ab41 8700 ac41
00000350: cec2 aa41 b4a4 ab41 91d8 ab41 8a6a ab41
00000360: a60f ab41 a605 ab41 f1ac ab41 bf0a ab41
00000370: e478 ab41 d365 ab41 060f ab41 1607 ac41
00000380: 4348 ab41 5ede ab41 d552 ab41 42e0 ab41
00000390: 39c2 ab41 a7dc aa41 6acd ab41 06a2 ab41
000003a0: d1ec aa41 df62 ab41 868a ab41 5683 ab41
000003b0: 52dc aa41 ee2f ab41 6374 ab41 d486 ab41
000003c0: c6c6 ab41 4d31 ab41 8be1 aa41 81fc aa41
000003d0: 8011 ab41 f4c3 aa41 ccba ab41 08b0 ab41
000003e0: d6f4 ab41 5c2d ab41 6ee7 aa41 f77e ab41
000003f0: 5fd2 aa41 6c82 ab41 7288 ab41 5aa9 ab41

layer2.bias f4 [128]
21.55001 21.52212 21.495794 21.479065 21.452484 21.485897 21.540188 21.460014
21.450695 21.481049 21.509594 21.422115 21.541508 21.501385 21.463718 21.541862
21.57171 21.460361 21.549637 21.466942 21.486237 21.541862 21.472965 21.540007
21.533741 21.456545 21.529457 21.49549 21.437702 21.514225 21.503204 21.533535
21.512665 21.520447 21.506908 21.547646 21.50274 21.555115 -0.054755755 21.473114
21.447395 21.468906 21.455803 21.492893 21.519903 21.526608 21.431822 21.532448
21.501266 21.49435 21.48611 21.467052 21.509735 21.530321 21.54403 21.535034
21.441359 -0.031833664 21.502846 21.564354 21.519924 21.54897 21.554443 21.55067
21.47311 21.494692 21.54749 -0.039216943 21.428913 21.525387 21.520863 21.503178
21.493515 21.538342 21.43996 21.518822 21.460842 21.528275 21.507095 21.505291
21.509266 21.515804 21.491901 21.515402 21.52238 21.443325 21.494354 21.516487
21.51595 21.479662 21.490349 21.408504 21.536278 21.49173 21.508137 21.493103
21.530365 21.535728 21.513084 21.557522 21.529816 21.483593 21.551188 21.529774
21.206738 0.001742216 21.563992 21.518013 21.42537 21.442024 21.543709 21.503468
21.49393 21.48671 21.480793 21.496304 21.471882 21.507248 21.550167 21.46529
-0.01776486 21.476501 21.56425 21.487717 21.516817 21.552036 21.556625 21.430458
00000000: 6c66 ac41 4d2d ac41 63f7 ab41 20d5 ab41
00000010: b09e ab41 1ee3 ab41 4e52 ac41 1cae ab41
00000020: 069b ab41 30d9 ab41 a613 ac41 7e60 ab41
00000030: 0255 ac41 d602 ac41 b2b5 ab41 bc55 ac41
00000040: dd92 ac41 d2ae ab41 a865 ac41 4cbc ab41
00000050: d0e3 ab41 bc55 ac41 a2c8 ab41 ef51 ac41
00000060: 1a45 ac41 01a7 ab41 543c ac41 c3f6 ab41
00000070: 6a80 ab41 221d ac41 9006 ac41 ae44 ac41
00000080: f019 ac41 e029 ac41 260e ac41 9461 ac41
00000090: 9d05 ac41 e070 ac41 9247 60bd f0c8 ab41
000000a0: 4494 ab41 52c0 ab41 7ca5 ab41 72f1 ab41
000000b0: c328 ac41 7e36 ac41 5f74 ab41 7442 ac41
000000c0: 9802 ac41 6ef4 ab41 8ee3 ab41 86bc ab41
000000d0: f013 ac41 193e ac41 2c5a ac41 c047 ac41
000000e0: e787 ab41 0464 02bd d405 ac41 cc83 ac41
000000f0: ce28 ac41 4a64 ac41 806f ac41 c667 ac41
00000100: eec8 ab41 21f5 ab41 4261 ac41 f2a1 20bd
00000110: 6a6e ab41 fe33 ac41 ba2a ac41 8206 ac41
00000120: b8f2 ab41 864e ac41 0a85 ab41 8c26 ac41
00000130: ceaf ab41 e839 ac41 880e ac41 d60a ac41
00000140: fa12 ac41 5e20 ac41 6aef ab41 8b1f ac41
00000150: d62d ac41 ee8b ab41 70f4 ab41 c421 ac41
00000160: aa20 ac41 59d6 ab41 3cec ab41 9e44 ab41
00000170: 4c4a ac41 10ef ab41 aa10 ac41 e0f1 ab41
00000180: 303e ac41 2c49 ac41 cc1a ac41 ce75 ac41
00000190: 103d ac41 66de ab41 d568 ac41 fa3c ac41
000001a0: 66a7 a941 115b e43a 0e83 ac41 e424 ac41
000001b0: 2867 ab41 4489 ab41 8459 ac41 1a07 ac41
000001c0: 92f3 ab41 c8e4 ab41 aad8 ab41 6ef8 ab41
000001d0: 6ac6 ab41 d80e ac41 be66 ac41 eab8 ab41
000001e0: 9d87 91bc e0cf ab41 9683 ac41 d8e6 ab41
000001f0: 7122 ac41 926a ac41 f873 ac41 9471 ab41

layer3.weight f4 [168, 128]
2.4034672 2.3934882 2.4276202 2.3728654 2.446439 2.4396079 2.3932567 2.4506886
2.4414103 2.4922192 2.423572 2.3984473 2.43285 2.4961643 2.4832168 2.4932945
2.382187 2.4033132 2.389329 2.416177 2.4598687 2.366232 2.4557486 2.4561489
2.3771021 2.4726856 2.4479191 2.3788204 2.485508 2.3867486 2.404446 2.449214
2.3957531 2.4291747 2.4549046 2.4892163 2.3994818 2.3903008 0.014643325 2.4048057
2.3766024 2.3989277 2.4371712 2.3940046 2.3916667 2.4130256 2.4014187 2.406842
2.4196093 2.4768639 2.4817662 2.4221463 2.3938546 2.4856079 2.465214 2.4535227
2.4162614 -0.0142771695 2.462832 2.3936608 2.4058764 2.457661 2.4327667 2.369625
2.4898837 2.3934782 2.4982173 0.027525324 2.440676 2.4391196 2.372278 2.4395747
2.38311 2.4028745 2.4262516 2.400505 2.4649804 2.4827027 2.4175758 2.4911609
2.4914079 2.426566 2.4711008 2.4010832 2.4571726 2.493975 2.3737676 2.4022214
2.4293034 2.4729064 2.4819074 2.5003843 2.4463005 2.4694297 2.441871 2.4469981
2.4488657 2.5007493 2.494434 2.4835646 2.3791535 2.414784 2.4926143 2.4074266
2.4525778 -0.009675163 2.4839118 2.3744328 2.44883 2.4273171 2.4823241 2.3823996
2.4977384 2.48137 2.4739232 2.4522154 2.4687567 2.4467986 2.4963574 2.448621
-0.04826485 2.4114447 2.459301 2.4877775 2.3964918 2.4784 2.3940127 2.4497619
2.725513 2.7040145 2.775042 2.6789105 2.799803 2.8061597 2.781528 2.7483666
2.722161 2.7065787 2.6924098 2.7906864 2.7234554 2.7808692 2.750417 2.7256684
2.7445223 2.7771714 2.7027404 2.7572021 2.790967 2.721031 2.7751665 2.8096805
2.7729917 2.7522051 2.6988761 2.7883842 2.7868664 2.7027435 2.718225 2.781297
2.8022306 2.734945 2.8049052 2.6913862 2.7679658 2.7290711 0.03269124 2.76397
2.6945286 2.7518516 2.779993 2.7483094 2.7076595 2.7169275 2.8129208 2.724425
2.7012758 2.7406387 2.7722566 2.7362778 2.6913624 2.8034604 2.7864938 2.7144527
2.6832857 -0.05160907 2.7983222 2.6812646 2.8019881 2.72206 2.774246 2.7686849
2.6944885 2.7115617 2.690676 0.029325832 2.8087246 2.8065455 2.7046862 2.7546551
2.7399695 2.7251606 2.7365055 2.6945174 2.7299755 2.781609 2.8106441 2.6820486
2.788469 2.713316 2.7783575 2.7197268 2.7568421 2.7454202 2.6855469 2.67939
2.7378576 2.67593 2.7207217 2.772824 2.802094 2.7269301 2.7285209 2.7123644
2.6839955 2.7864182 2.67875 2.8003716 2.7632105 2.6933858 2.7213874 2.7587485
2.7637649 -0.007965896 2.7906191 2.7091146 2.678602 2.7012765 2.7551875 2.7810822
2.7196324 2.7299755 2.6863286 2.7673638 2.7096622 2.8045592 2.6997967 2.6985586
-0.026194148 2.7759135 2.7655523 2.6892872 2.6858225 2.7219884 2.7369182 2.7562873
00000000: 68d2 1940 e92e 1940 215e 1b40 07dd 1740
00000010: 7592 1c40 8922 1c40 1e2b 1940 15d8 1c40
00000020: 1140 1c40 8580 1f40 ce1b 1b40 2980 1940
00000030: d0b3 1b40 28c1 1f40 06ed 1e40 2392 1f40
00000040: c075 1840 e2cf 1940 c4ea 1840 a5a2 1a40
00000050: 7d6e 1d40 5870 1740 fc2a 1d40 8b31 1d40
00000060: 7122 1840 7b40 1e40 b5aa 1c40 983e 1840
00000070: 9012 1f40 7dc0 1840 71e2 1940 ecbf 1c40
00000080: 0554 1940 9977 1b40 281d 1d40 524f 1f40
00000090: 1c91 1940 b0fa 1840 8eea 6f3c 56e8 1940
000000a0: 411a 1840 0888 1940 9dfa 1b40 5f37 1940
000000b0: 1111 1940 036f 1a40 d8b0 1940 b309 1a40
000000c0: e1da 1a40 f084 1e40 42d5 1e40 7204 1b40
000000d0: ea34 1940 3314 1f40 11c6 1d40 8406 1d40
000000e0: 07a4 1a40 caea 69bc 0a9f 1d40 bd31 1940
000000f0: e1f9 1940 514a 1d40 73b2 1b40 f0a7 1740
00000100: 415a 1f40 bf2e 1940 cbe2 1f40 ca7c e13c
00000110: 0934 1c40 891a 1c40 67d3 1740 fe21 1c40
00000120: e084 1840 b2c8 1940 b547 1b40 e0a1 1940
00000130: 3dc2 1d40 9ae4 1e40 90b9 1a40 2e6f 1f40
00000140: 3a73 1f40 db4c 1b40 8426 1e40 59ab 1940
00000150: 5142 1d40 499d 1f40 cfeb 1740 ffbd 1940
00000160: b579 1b40 1944 1e40 92d7 1e40 4c06 2040
00000170: 3090 1c40 230b 1e40 9d47 1c40 9e9b 1c40
00000180: 37ba 1c40 470c 2040 cfa4 1f40 b9f2 1e40
00000190: 0d44 1840 d28b 1a40 fe86 1f40 4713 1a40
000001a0: 09f7 1c40 9384 1ebc 69f8 1e40 b5f6 1740
000001b0: a1b9 1c40 2a59 1b40 66de 1e40 3c79 1840
000001c0: f2da 1f40 c4ce 1e40 c254 1e40 19f1 1c40
000001d0: 1c00 1e40 5998 1c40 52c4 1f40 35b6 1c40
000001e0: 5db1 45bd 1c55 1a40 3065 1d40 bf37 1f40
000001f0: 1f60 1940 1b9e 1e40 8137 1940 e6c8 1c40
00000200: ce6e 2e40 930e 2d40 4a9a 3140 4573 2b40
00000210: f92f 3340 1f98 3340 8e04 3240 3de5 2f40
00000220: e337 2e40 9638 2d40 7150 2c40 9b9a 3240
00000230: 184d 2e40 c3f9 3140 d506 3040 5a71 2e40
00000240: 41a6 2f40 2dbd 3140 b3f9 2c40 0076 3040
00000250: 349f 3240 5f25 2e40 549c 3140 ced1 3340
00000260: b278 3140 2124 3040 63ba 2c40 e374 3240
00000270: 055c 3240 c0f9 2c40 66f7 2d40 c500 3240
00000280: bf57 3340 5709 2f40 9183 3340 ac3f 2c40
00000290: 5a26 3140 1aa9 2e40 40e7 053d e2e4 3040
000002a0: 2873 2c40 561e 3040 68eb 3140 4de4 2f40
000002b0: 4b4a 2d40 24e2 2d40 e506 3440 fb5c 2e40
000002c0: b4e1 2c40 a066 2f40 a76c 3140 2d1f 2f40
000002d0: 483f 2c40 e56b 3340 ea55 3240 98b9 2d40
000002e0: f4ba 2b40 0864 53bd b617 3340 d799 2b40
000002f0: c653 3340 3b36 2e40 3f8d 3140 2232 3140
00000300: 8072 2c40 3a8a 2d40 0934 2c40 ba3c f03c
00000310: 25c2 3340 719e 3340 9419 2d40 454c 3040
00000320: a95b 2f40 0869 2e40 e822 2f40 f972 2c40
00000330: ebb7 2e40 e205 3240 98e1 3340 afa6 2b40
00000340: 4776 3240 f8a6 2d40 9cd0 3140 0110 2e40
00000350: 1a70 3040 f7b4 2f40 00e0 2b40 207b 2b40
00000360: 0f39 2f40 7042 2b40 4e20 2e40 f375 3140
00000370: 8255 3340 0686 2e40 16a0 2e40 6197 2d40
00000380: 95c6 2b40 ad54 3240 a470 2b40 4a39 3340
00000390: 71d8 3040 6f60 2c40 362b 2e40 568f 3040
000003a0: 86e1 3040 6483 02bc 8199 3240 2262 2d40
000003b0: 376e 2b40 b7e1 2c40 fe54 3040 40fd 3140
000003c0: 750e 2e40 ebb7 2e40 cfec 2b40 7d1c 3140
000003d0: 1b6b 2d40 e67d 3340 78c9 2c40 2fb5 2c40
000003e0: 1c95 d6bc 91a8 3140 cffe 3040 481d 2c40
000003f0: 84e4 2b40 0f35 2e40 ab29 2f40 0367 3040

layer3.bias f4 [168]
2.2689958 2.632409 3.256028 12.316604 3.3938816 13.570551 2.1567974 1.849903
1.001384 2.691775 1.350625 1.0350046 2.19784 17.069284 1.2089598 3.2400746
1.8888419 1.950934 2.724917 2.9850845 2.7048073 3.274523 1.7027962 1.3534555
1.2221255 1.4980037 6.353035 1.9881761 2.0923004 3.5258462 18.220205 1.5455567
2.3006847 1.2669775 1.9701264 1.2424108 1.9024488 1.3901596 1.2466351 1.2480122
1.4002508 2.0695238 1.4042649 1.0550573 1.0956106 15.020169 1.2383713 1.1970696
18.003323 2.2830763 3.2159376 2.4754608 1.4602464 1.3417732 1.112293 1.4056387
1.1464472 2.1994913 19.046118 0.7882077 19.082119 1.3389678 2.2827902 3.2881255
19.087843 1.0422071 2.349005 2.5672953 18.81111 1.0271677 0.7085233 2.191822
2.9370677 1.0715551 1.1051748 1.9218225 1.3991219 2.197413 1.2874962 3.7755725
18.921627 2.6094832 3.457316 2.463102 5.3755937 1.9494896 1.3229407 1.4894528
4.2744975 1.7072976 3.4583902 19.096117 2.849526 1.6039124 1.9808404 3.579413
2.4658911 16.671362 1.7217659 0.3493625 0.9197384 18.677776 1.6612024 0.8638264
1.0761672 1.2946495 1.9738781 1.7706572 1.7876148 0.65240735 0.9600188 0.7501612
18.795935 1.1312156 1.0428786 2.8049424 2.5585458 1.4936398 1.1600293 3.8732069
16.722311 1.1498051 0.4894575 2.2481358 16.821774 0.423631 0.92021114 1.9316072
1.2953244 1.4451323 19.032999 1.6456975 1.823389 1.0090959 18.921688 1.7165726
1.285281 1.1858238 0.5202931 1.2040436 0.76355314 19.24433 0.5160907 0.9957343
0.59583175 0.9161054 2.9236073 16.035746 0.36860907 0.74698246 0.45216295 0.9095987
2.6720834 2.573454 0.3670368 12.68536 3.8280287 0.6658089 6.0990415 2.3900058
0.47640616 2.76539 16.135635 0.7511665 4.302718 1.380232 2.4175732 0.42845806
00000000: 3a37 1140 6479 2840 c362 5040 cf10 4541
00000010: 5b35 5940 fa20 5941 f808 0a40 9fc9 ec3f
00000020: 5a2d 803f 0b46 2c40 48e1 ac3f 087b 843f
00000030: 69a9 0c40 e58d 8841 32bf 9a3f 625d 4f40
00000040: 92c5 f13f 35b8 f93f 0a65 2e40 a00b 3f40
00000050: 901b 2d40 c991 5140 3af5 d93f 083e ad3f
00000060: 9c6e 9c3f 96be bf3f 104c cb40 8e7c fe3f
00000070: 40e8 0540 77a7 6140 fbc2 9141 cdd4 c53f
00000080: 6b3e 1340 522c a23f 1a2d fc3f 5107 9f3f
00000090: 7183 f33f c0f0 b13f bd91 9f3f ddbe 9f3f
000000a0: 6b3b b33f 1473 0440 f4be b33f 1e0c 873f
000000b0: f83c 8c3f 9d52 7041 f382 9e3f 9439 993f
000000c0: ce06 9041 ec1d 1240 ecd1 4d40 f36d 1e40
000000d0: 5be9 ba3f 39bf ab3f 9e5f 8e3f f8eb b33f
000000e0: c8be 923f 77c4 0c40 735e 9841 fbc7 493f
000000f0: 2ea8 9841 4c63 ab3f 3c19 1240 a670 5240
00000100: e7b3 9841 0b67 853f 1956 1640 914e 2440
00000110: 277d 9641 3b7a 833f c861 353f d046 0c40
00000120: ebf8 3b40 b828 893f 5e76 8d3f 48fe f53f
00000130: 6d16 b33f 6aa2 0c40 adcc a43f fba2 7140
00000140: 7e5f 9741 c601 2740 aa44 5d40 77a3 1d40
00000150: dd04 ac40 e088 f93f 1f56 a93f 64a6 be3f
00000160: afc8 8840 ba88 da3f 4456 5d40 d9c4 9841
00000170: a25e 3640 004d cd3f 2e8c fd3f 1a15 6540
00000180: 29d1 1d40 f35e 8541 d362 dc3f a4df b23e
00000190: fa73 6b3f 166c 9541 48a2 d43f ba23 5d3f
000001a0: d9bf 893f 13b7 a53f 0aa8 fc3f e5a4 e23f
000001b0: 90d0 e43f 2b04 273f cbc3 753f 900a 403f
000001c0: 135e 9641 accb 903f 0c7d 853f 2d84 3340
000001d0: 37bf 2340 972f bf3f d77b 943f 9fe2 7740
000001e0: 4bc7 8541 d02c 933f 2c9a fa3e 75e1 0f40
000001f0: fe92 8641 2ae6 d83e f592 6b3f e83e f73f
00000200: 31cd a53f 18fa b83f 9543 9841 37a6 d23f
00000210: d064 e93f 0e2a 813f 9e5f 9741 a7b8 db3f
00000220: 1684 a43f 13c9 973f ee31 053f 1a1e 9a3f
00000230: 3878 433f 63f4 9941 851e 043f 71e8 7e3f
00000240: 6e88 183f e285 6a3f 621c 3b40 3549 8041
00000250: 54ba bc3e 3e3a 3f3f e781 e73e 76db 683f
00000260: 6a03 2b40 78b3 2440 3fec bb3e 3cf7 4a41
00000270: 6cfe 7440 7472 2a3f 592b c340 dbf5 1840
00000280: 82eb f33e 26fc 3040 c815 8141 734c 403f
00000290: deaf 8940 71ab b03f 85b9 1a40 db5e db3e
