models/3/guerrilla_model_weights.pth (torch, 613952 bytes, 8 tensors)

layer1.weight f4 [128, 82]
24.871675 24.890926 21.032999 12.690583 2.166603 24.826706 24.897623 19.757635
7.194383 24.8187 24.950968 5.334473 0.6779928 17.633295 24.851984 24.808178
0.98478365 16.510134 24.909681 24.830736 0.01635065 24.168966 6.244322 24.936134
0.026798911 4.431422 1.6841037 0.7843564 -0.045226958 2.7188675 -0.009628484 -0.075686105
-0.0128180105 24.862364 24.740486 24.749752 24.76511 23.100496 24.77715 23.765097
24.744957 24.767221 24.718733 24.843409 24.695639 24.781649 24.829973 24.723793
24.81901 24.765734 24.808336 24.748043 24.856838 24.838486 24.75159 24.831707
24.701403 24.807966 24.838814 24.852499 24.74585 24.768595 24.753235 24.818218
24.852442 24.756302 24.741663 24.773407 19.219116 24.842173 24.764359 24.707043
24.743258 24.866972 23.439774 24.725395 24.73711 20.274273 24.833967 24.841732
24.844637 24.687353 24.882854 24.829592 21.022943 12.65646 2.1508234 24.763357
24.93876 19.7624 7.1013856 24.855062 24.940685 5.3140974 0.71325254 17.620514
24.767723 24.796478 0.99968696 16.572548 24.838406 24.890448 0.031343196 24.11378
6.125701 24.935453 -0.07593533 4.400595 1.5959378 0.85816675 -0.022142267 2.7463405
-0.028965835 0.019345801 -0.079759724 24.850407 24.711874 24.762312 24.707235 23.076006
24.659822 23.782078 24.601755 24.720314 24.690454 24.72024 24.700289 24.852716
24.72471 24.723797 24.702824 24.702621 24.804476 24.818426 24.855225 24.814495
24.684559 24.697102 24.737131 24.724314 24.682905 24.845652 24.783772 24.831465
24.709993 24.765497 24.811434 24.823332 24.81147 24.81657 19.360897 24.822777
24.854023 24.846169 24.728815 24.839254 23.332466 24.69786 24.780981 20.315945
24.816376 24.711784 24.700632 24.661942 24.953974 24.8903 21.072983 12.642296
2.1278644 24.838133 24.863407 19.800945 7.134809 24.788216 24.9959 5.337199
0.72386724 17.660225 24.826414 24.91611 0.921564 16.526142 24.912151 24.910501
-0.030417396 24.155514 6.0938907 24.860737 0.059041567 4.416611 1.6144134 0.76662564
-0.010651005 2.7036939 -0.07467975 -0.021124296 -0.073840894 24.833717 24.58119 24.669825
24.764269 23.064423 24.76627 23.75867 24.70277 24.807209 24.801075 24.764252
24.697475 24.791372 24.753765 24.705132 24.769579 24.744356 24.817524 24.717657
24.88455 24.743118 24.687443 24.70328 24.674576 24.850063 24.723616 24.826601
24.794556 24.765 24.832039 24.822779 24.835625 24.829128 24.759163 24.748215
19.223206 24.740643 24.707302 24.7883 24.834991 24.797306 23.441877 24.821611
24.797653 20.382317 24.767044 24.713982 24.771534 24.669304 24.90955 24.781769
21.080523 12.753456 2.1197908 24.853168 24.906603 19.887896 7.18931 24.824337
00000000: 31f9 c641 9e20 c741 9543 a841 a10c 4b41
00000010: a0a9 0a40 189d c641 552e c741 a30f 9e41
00000020: 6338 e640 b38c c641 959b c741 01b4 aa40
00000030: f090 2d3f fd10 8d41 ddd0 c641 2677 c641
00000040: c81a 7c3f c114 8441 0747 c741 59a5 c641
00000050: ccf1 853c 0b5a c141 7cd1 c740 347d c741
00000060: 6489 db3c 36ce 8d40 b690 d73f 95cb 483f
00000070: e73f 39bd ed01 2e40 cac0 1dbc 5101 9bbd
00000080: a202 52bc 1fe6 c641 84ec c541 7eff c541
00000090: f21e c641 d1cd b841 9a37 c641 eb1e be41
000000a0: acf5 c541 4523 c641 f7bf c541 4dbf c641
000000b0: ab90 c541 d140 c641 c9a3 c641 54ca c541
000000c0: 558d c641 3920 c641 7977 c641 fefb c541
000000d0: ceda c641 38b5 c641 4203 c641 56a7 c641
000000e0: 799c c541 b776 c641 e4b5 c641 ebd1 c641
000000f0: 80f7 c541 1526 c641 a006 c641 b68b c641
00000100: cdd1 c641 e80c c641 edee c541 f02f c641
00000110: c0c0 9941 c5bc c641 681d c641 06a8 c541
00000120: 31f2 c541 8fef c641 a884 bb41 9ccd c541
00000130: 9ae5 c541 b631 a241 f7ab c641 debb c641
00000140: d1c1 c641 b37f c541 1610 c741 01a3 c641
00000150: fd2e a841 dc80 4a41 17a7 0940 5b1b c641
00000160: 9582 c741 6519 9e41 8d3e e340 2bd7 c641
00000170: 8686 c741 160d aa40 b897 363f d0f6 8c41
00000180: 4c24 c641 305f c641 7ceb 7f3f 9494 8441
00000190: 0eb5 c641 a31f c741 b961 003d 05e9 c041
000001a0: be05 c440 cf7b c741 fb83 9bbd add1 8c40
000001b0: b147 cc3f d1b0 5b3f b363 b5bc 0bc4 2f40
000001c0: c249 edbc 167b 9e3c 1159 a3bd a2cd c641
000001d0: ebb1 c541 3719 c641 6ba8 c541 a99b b841
000001e0: 5147 c541 b241 be41 65d0 c441 34c3 c541
000001f0: 0d86 c541 0dc3 c541 319a c541 5dd2 c641
00000200: 35cc c541 56ca c541 629f c541 f89e c541
00000210: 916f c641 238c c641 80d7 c641 1684 c641
00000220: fa79 c541 aa93 c541 a5e5 c541 65cb c541
00000230: 9776 c541 e5c3 c641 2a45 c641 d7a6 c641
00000240: 11ae c541 bd1f c641 d17d c641 2f96 c641
00000250: e47d c641 5688 c641 1ee3 9a41 0c95 c641
00000260: 0ad5 c641 f4c4 c641 9dd4 c541 cbb6 c641
00000270: e4a8 ba41 3895 c541 733f c641 0e87 a241
00000280: f087 c641 bcb1 c541 e59a c541 a84b c541
00000290: bda1 c741 561f c741 7895 a841 d846 4a41
000002a0: ee2e 0840 7fb4 c641 42e8 c641 5668 9e41
000002b0: 5b50 e440 444e c641 9af7 c741 56ca aa40
000002c0: 5d4f 393f 2448 8d41 7f9c c641 3154 c741
000002d0: 9eeb 6b3f 8a35 8441 164c c741 b548 c741
000002e0: e72d f9bc 7e3e c141 2701 c340 cae2 c641
000002f0: 92d5 713d e154 8d40 19a5 ce3f 9441 443f
00000300: 8e81 2ebc 5209 2d40 b2f1 98bd dc0c adbc
00000310: e539 97bd 74ab c641 47a6 c441 cd5b c541
00000320: 391d c641 f083 b841 5221 c641 c211 be41
00000330: 469f c541 2a75 c641 9a68 c641 301d c641
00000340: 6e94 c541 bb54 c641 b607 c641 1ca4 c541
00000350: 1928 c641 71f4 c541 4a8a c641 c3bd c541
00000360: 8f13 c741 e8f1 c541 e27f c541 51a0 c541
00000370: 8865 c541 eecc c641 f7c9 c541 e19c c641
00000380: 405b c641 b81e c641 04a8 c641 0d95 c641
00000390: 5caf c641 0ea2 c641 c412 c641 58fc c541
000003a0: 20c9 9941 d6ec c541 8ea8 c541 704e c641
000003b0: 10ae c641 e260 c641 f788 bb41 a992 c641
000003c0: 9861 c641 fc0e a341 e822 c641 3cb6 c541
000003d0: 1a2c c641 bc5a c541 c246 c741 1041 c641
000003e0: e9a4 a841 280e 4c41 a7aa 0740 4ad3 c641
000003f0: b940 c741 691a 9f41 d40e e640 3e98 c641

layer1.bias f4 [128]
24.85035 24.862099 24.931032 24.881407 24.925968 24.949114 24.838907 24.907991
24.84218 24.896027 24.90541 24.865242 24.817476 24.8261 24.816381 24.834637
24.871721 24.819014 24.771366 24.910118 24.92286 24.849657 24.859447 24.949192
24.799398 24.866577 24.799122 24.933937 24.945429 24.855131 24.826311 24.83498
24.887028 24.908201 24.805637 24.766619 24.774107 24.91419 24.922415 24.838806
-0.121648334 24.740114 24.942686 24.897758 24.904566 24.93841 24.698942 24.795242
24.788368 24.850319 24.932493 24.709011 24.94122 24.859253 24.848356 24.943338
24.859306 24.897348 24.723694 24.855873 24.785648 24.905258 24.935934 24.796337
24.8601 24.81983 24.897938 24.617533 24.87801 24.92273 24.834448 24.918753
24.902784 24.76469 24.871319 24.715979 24.897867 24.830389 24.850565 24.875475
24.810728 24.827059 24.850431 -0.13390917 24.828928 24.85235 24.872992 24.817741
24.817371 24.872782 24.924082 24.76619 24.821608 24.881767 24.84798 24.892565
24.870287 24.890383 24.799015 24.878418 24.791485 24.875793 24.893951 24.895542
24.77955 -0.04041495 24.887966 24.837048 24.914305 24.842146 24.80974 24.903101
24.884176 24.809801 24.814875 24.816338 24.947119 24.815203 24.890253 24.814472
24.905584 24.828537 24.92999 24.788612 24.847635 24.953442 24.902498 24.93831
00000000: 84cd c641 94e5 c641 c172 c741 1f0d c741
00000010: 6268 c741 c997 c741 15b6 c641 9143 c741
00000020: c9bc c641 102b c741 483e c741 04ec c641
00000030: 318a c641 da9b c641 f387 c641 56ad c641
00000040: 49f9 c641 578d c641 c22b c641 ec47 c741
00000050: 0462 c741 19cc c641 26e0 c641 f297 c741
00000060: 2b65 c641 c0ee c641 9a64 c641 b478 c741
00000070: 3d90 c741 4fd7 c641 499c c641 0aae c641
00000080: a218 c741 ff43 c741 f271 c641 0922 c641
00000090: 5f31 c641 4350 c741 1b61 c741 e0b5 c641
000000a0: c322 f9bd c1eb c541 9f8a c741 9c2e c741
000000b0: 8d3c c741 dd81 c741 6f97 c541 a85c c641
000000c0: 944e c641 74cd c641 bf75 c741 0eac c541
000000d0: 9e87 c741 c0df c641 6fc9 c641 f58b c741
000000e0: dcdf c641 c52d c741 20ca c541 d4d8 c641
000000f0: 0249 c641 f83d c741 cb7c c741 e65e c641
00000100: 7ce1 c641 038f c641 fa2e c741 b5f0 c441
00000110: 2a06 c741 c061 c741 f3ac c641 9b59 c741
00000120: e738 c741 161e c641 76f8 c641 53ba c541
00000130: d52e c741 a3a4 c641 f5cd c641 f900 c741
00000140: 5f7c c641 d19d c641 afcd c641 7c1f 09be
00000150: a5a1 c641 9dd1 c641 e3fb c641 bc8a c641
00000160: fa89 c641 75fb c641 8564 c741 2821 c641
00000170: a792 c641 dc0d c741 aac8 c641 f923 c741
00000180: 59f6 c641 811f c741 6264 c641 0007 c741
00000190: f654 c641 a001 c741 d026 c741 122a c741
000001a0: 853c c641 268a 25bd 8e1a c741 46b2 c641
000001b0: 7f50 c741 b7bc c641 597a c641 8d39 c741
000001c0: cb12 c741 797a c641 dd84 c641 dc87 c641
000001d0: b393 c741 8985 c641 3d1f c741 0a84 c641
000001e0: a33e c741 d8a0 c641 9f70 c741 144f c641
000001f0: f5c7 c641 a6a0 c741 5138 c741 a981 c741

layer2.weight f4 [256, 128]
24.816692 24.840624 24.924526 24.867603 24.9605 24.80366 24.902885 24.865055
24.882322 24.869333 24.792492 24.913671 24.782763 24.929516 24.875608 24.788881
24.837318 24.866957 24.81957 24.879492 24.834978 24.861174 24.83415 24.859512
24.898216 24.905643 24.801779 24.865973 24.87388 24.972801 24.901402 24.863478
24.832006 24.886293 24.837864 24.829006 24.929256 24.834288 24.961147 24.880444
-0.0284257 24.912525 24.88887 24.85944 25.026197 24.864094 24.863636 24.86726
24.976389 24.897684 24.932386 24.85265 24.819553 25.064133 24.853708 24.815117
24.953405 24.81981 24.860956 24.904634 24.848282 24.830885 24.895433 25.033236
24.84886 24.96543 24.847673 24.752243 24.871479 24.9774 24.902842 24.824364
24.841614 24.904377 24.84155 24.923578 24.895247 24.803442 24.906277 24.85083
24.910961 24.805706 24.855549 -0.058715083 24.878012 24.898739 24.802166 25.019453
24.846853 24.839916 25.035036 24.825806 24.925646 24.872377 24.846924 24.935984
24.886927 24.802322 24.851322 24.853462 24.792686 24.907408 24.871315 24.98471
24.858202 -0.001198074 24.882824 24.877195 24.780733 24.81669 25.034283 24.95143
24.873888 24.788675 24.894659 24.870264 24.885996 24.89396 24.928741 24.830868
24.806185 24.969015 24.826872 24.961613 24.837132 25.025639 24.781956 24.85986
24.86298 24.854345 24.85719 24.848917 25.02602 24.807962 24.971663 24.863813
24.901321 24.87437 24.924444 24.845247 24.875626 24.928843 24.933687 24.910309
24.93566 24.887005 24.849617 24.843752 24.831177 24.81049 24.858648 24.917679
24.887632 24.855942 24.805712 24.828516 24.896547 24.90513 24.851463 24.876083
24.907278 24.955906 24.889906 24.871752 24.948238 24.860147 24.990341 24.925793
-0.059534617 24.934341 24.869741 24.803698 25.019712 24.918661 24.824194 24.835768
24.856007 24.820354 24.908888 24.84983 24.85867 25.006887 24.84298 24.846546
25.021606 24.917332 24.886322 24.804394 24.872852 24.848652 24.876665 24.997341
24.85179 25.023605 24.810516 24.75176 24.927675 24.989283 24.808908 24.920261
24.897171 24.791039 24.81678 24.85769 24.809504 24.853798 24.862194 24.917816
24.81971 24.926613 24.848642 -0.055909142 24.879196 24.891716 24.904818 24.977188
24.80466 24.827915 24.93703 24.889917 24.985025 24.894476 24.836594 24.927324
24.842697 24.824474 24.869732 24.815868 24.910807 24.90572 24.857513 24.944881
24.908396 0.01646686 24.91005 24.83508 24.91436 24.909676 25.001532 24.895334
24.844385 24.915148 24.906563 24.809856 24.839369 24.908047 24.810976 24.86815
24.899525 24.97117 24.81321 25.014587 24.807507 24.923134 24.864292 24.903816
00000000: 9688 c641 99b9 c641 6e65 c741 daf0 c641
00000010: 1baf c741 e56d c641 1c39 c741 a2eb c641
00000020: ff0e c741 65f4 c641 0657 c641 334f c741
00000030: 1943 c641 a66f c741 3f01 c741 a14f c641
00000040: d4b2 c641 87ef c641 7b8e c641 3309 c741
00000050: 09ae c641 afe3 c641 57ac c641 48e0 c641
00000060: 8c2f c741 c23e c741 0b6a c641 83ed c641
00000070: b5fd c641 4cc8 c741 1236 c741 67e8 c641
00000080: f3a7 c641 2117 c741 f2b3 c641 cea1 c641
00000090: 1e6f c741 9fac c641 6eb0 c741 260b c741
000000a0: 03dd e8bc da4c c741 681c c741 22e0 c641
000000b0: a735 c841 aae9 c641 bae8 c641 26f0 c641
000000c0: a5cf c741 752e c741 8775 c741 3ad2 c641
000000d0: 728e c641 5883 c841 65d4 c641 5c85 c641
000000e0: 93a0 c741 f98e c641 3de3 c641 b13c c741
000000f0: 48c9 c641 a7a5 c641 d929 c741 1144 c841
00000100: 77ca c641 33b9 c741 09c8 c641 9804 c641
00000110: caf8 c641 b7d1 c741 0539 c741 4c98 c641
00000120: a0bb c641 2a3c c741 7fbb c641 7d63 c741
00000130: 7729 c741 736d c641 0e40 c741 80ce c641
00000140: a649 c741 1672 c641 2ad8 c641 3a7f 70bd
00000150: 2b06 c741 9e30 c741 d66a c641 d727 c841
00000160: 5bc6 c641 26b8 c641 c147 c841 409b c641
00000170: b967 c741 a1fa c641 80c6 c641 e57c c741
00000180: 6d18 c741 286b c641 82cf c641 e4d3 c641
00000190: 6c57 c641 5f42 c741 74f8 c641 b0e0 c741
000001a0: 99dd c641 b108 9dba 0610 c741 7f04 c741
000001b0: f13e c641 9588 c641 3646 c841 879c c741
000001c0: b9fd c641 354f c641 4328 c741 4df6 c641
000001d0: 8516 c741 d526 c741 106e c741 9ea5 c641
000001e0: 1173 c641 8bc0 c741 6f9d c641 62b1 c741
000001f0: 72b2 c641 8234 c841 7241 c641 fee0 c641
00000200: 62e7 c641 b3d5 c641 86db c641 95ca c641
00000210: 4a35 c841 b576 c641 f7c5 c741 17e9 c641
00000220: e835 c741 b6fe c641 4365 c741 11c3 c641
00000230: 4801 c741 456e c741 3178 c741 5048 c741
00000240: 3b7c c741 9618 c741 04cc c641 01c0 c641
00000250: 40a6 c641 e27b c641 83de c641 6857 c741
00000260: df19 c741 f8d8 c641 1972 c641 cda0 c641
00000270: 212c c741 b53d c741 cccf c641 3802 c741
00000280: 1b42 c741 b2a5 c741 871e c741 59f9 c641
00000290: fe95 c741 95e1 c641 38ec c741 0668 c741
000002a0: 92da 73bd 8879 c741 3bf5 c641 f96d c641
000002b0: 5f28 c841 6b59 c741 f397 c641 a7af c641
000002c0: 1ad9 c641 1690 c641 6745 c741 74cc c641
000002d0: 8ede c641 1b0e c841 6cbe c641 bac5 c641
000002e0: 402c c841 b256 c741 3017 c741 666f c641
000002f0: 9afb c641 0aca c641 6903 c741 8efa c741
00000300: 77d0 c641 5830 c841 f07b c641 9b03 c641
00000310: e16b c741 0dea c741 a578 c641 b25c c741
00000320: 682d c741 0c54 c641 c488 c641 8ddc c641
00000330: dd79 c641 94d4 c641 c6e5 c641 b057 c741
00000340: c48e c641 b469 c741 05ca c641 fc00 65bd
00000350: 9808 c741 3c22 c741 113d c741 48d1 c741
00000360: f26f c641 929f c641 0a7f c741 8d1e c741
00000370: 55e1 c741 e327 c741 58b1 c641 296b c741
00000380: d8bd c641 8698 c641 36f5 c641 e686 c641
00000390: 5549 c741 ea3e c741 30dc c641 1e8f c741
000003a0: 6544 c741 82e5 863c c847 c741 3eae c641
000003b0: 9c50 c741 0447 c741 2303 c841 a529 c741
000003c0: 4dc1 c641 3952 c741 a440 c741 967a c641
000003d0: 07b7 c641 ae43 c741 e17c c641 f9f1 c641
000003e0: 3a32 c741 f5c4 c741 7481 c641 e01d c841
000003f0: c675 c641 9462 c741 12ea c641 043b c741

layer2.bias f4 [256]
25.050642 24.948969 25.061935 25.083193 25.048437 25.06346 25.061972 25.076683
25.055788 24.978424 25.04536 25.013275 25.000328 24.991507 25.0824 25.029922
25.00405 25.072723 24.972645 25.026913 25.00893 -0.054128993 25.024319 24.959255
24.970007 25.00679 24.986021 24.997055 25.074835 25.063332 24.979979 -0.012785273
24.985271 25.039394 25.040003 25.00089 25.056242 24.980623 24.97571 25.01796
25.062033 25.077183 25.027233 25.081455 25.081154 25.072363 24.97071 0.017991526
25.07696 24.993399 25.080803 24.972136 -0.026662203 24.978214 24.95895 -0.007195859
25.03124 25.057545 25.064943 25.002832 24.98421 25.00682 25.017088 24.990147
25.01869 25.052101 25.069803 25.021183 25.049267 -0.05390989 25.052814 0.040061865
24.962017 24.972935 24.999554 24.981205 24.972631 25.011833 25.075136 25.033886
25.064278 25.065884 24.993822 25.032312 24.964504 25.018513 25.024776 24.984665
25.057695 25.016357 24.97173 24.944258 25.038492 -0.03435572 25.013248 25.091227
24.988297 25.04236 25.03804 24.976118 25.054642 25.050884 24.975939 24.956223
25.044315 25.04635 24.963734 24.974232 25.053556 25.078959 25.054232 0.06281254
25.019636 25.047903 25.04109 25.015743 24.986132 25.035578 25.062424 25.01818
24.966412 25.028526 25.021944 0.0045357305 24.987879 24.984781 25.035244 24.997053
-0.055799488 25.034208 0.047696188 25.025576 25.094418 24.980015 25.028555 25.0569
-0.012545098 24.984913 25.07253 25.072102 25.001442 25.08018 -0.009086101 25.025398
24.95808 -0.05689165 25.060379 25.002039 25.061926 25.04655 25.036795 -0.054031316
25.052534 -0.06248809 25.046076 24.980667 24.995033 25.02736 -0.03201406 25.065218
25.01312 25.002474 24.977507 25.026642 25.067015 24.935478 25.036692 25.017487
25.000607 24.978436 25.021154 24.987637 25.048576 24.96769 25.066545 25.029043
24.957314 24.985762 0.061669827 25.078457 25.047764 24.97259 25.001644 25.053034
25.055336 24.961409 25.056927 24.929361 -0.010834767 25.026516 25.026125 24.974754
25.037899 24.96471 24.995005 24.977781 25.050636 25.009256 0.017223647 25.05379
24.941893 25.044582 24.981607 25.058722 24.959406 24.972298 25.067955 24.938847
25.041481 0.025396388 25.031162 24.983356 25.067707 -0.06294596 25.013662 24.953093
25.079096 24.969378 25.063845 25.046196 24.974163 24.967505 25.006618 25.036266
24.972496 25.02798 25.071615 25.024368 24.970299 25.06129 25.000189 24.959938
25.047173 24.99962 25.001448 25.058773 25.003119 -0.038661122 25.080496 25.04052
25.048126 25.07188 25.042084 25.003696 -0.04947259 25.054144 -0.03889437 24.97691
24.989544 25.019424 24.978168 24.985952 24.980194 24.979061 24.929705 25.083136
00000000: b767 c841 7d97 c741 d87e c841 61aa c841
00000010: 3363 c841 f781 c841 eb7e c841 0c9d c841
00000020: 4172 c841 d0d3 c741 e65c c841 301b c841
00000030: ac00 c841 9bee c741 c1a8 c841 483d c841
00000040: 4b08 c841 f094 c841 fac7 c741 1e37 c841
00000050: 4a12 c841 5db6 5dbd ce31 c841 8eac c741
00000060: 93c2 c741 e80d c841 5fe3 c741 f8f9 c741
00000070: 4399 c841 b481 c841 ffd6 c741 5279 51bc
00000080: d6e1 c741 ae50 c841 ed51 c841 d301 c841
00000090: 2f73 c841 51d8 c741 41ce c741 c824 c841
000000a0: 0b7f c841 129e c841 c637 c841 d2a6 c841
000000b0: 34a6 c841 3394 c841 04c4 c741 f762 933c
000000c0: 9d9d c841 7bf2 c741 7ca5 c841 efc6 c741
000000d0: b16a dabc 62d3 c741 eeab c741 3ecb ebbb
000000e0: fb3f c841 da75 c841 0185 c841 cd05 c841
000000f0: a9df c741 f80d c841 ff22 c841 d2eb c741
00000100: 4726 c841 b46a c841 f58e c841 622b c841
00000110: e664 c841 9ed0 5cbd 2a6c c841 e917 243d
00000120: 36b2 c741 92c8 c741 16ff c741 82d9 c741
00000130: f3c7 c741 3c18 c841 e199 c841 6645 c841
00000140: a483 c841 ee86 c841 59f3 c741 2d42 c841
00000150: 4eb7 c741 ea25 c841 be32 c841 98e0 c741
00000160: 2976 c841 8021 c841 1ac6 c741 d78d c741
00000170: d54e c841 95b8 0cbd 221b c841 d5ba c841
00000180: 08e8 c741 c156 c841 e84d c841 17cf c741
00000190: e86f c841 3668 c841 b9ce c741 58a6 c741
000001a0: c25a c841 ed5e c841 bab5 c741 3acb c741
000001b0: af6d c841 b5a1 c841 116f c841 dca3 803d
000001c0: 3728 c841 1b62 c841 2754 c841 3e20 c841
000001d0: 99e3 c741 dd48 c841 d87f c841 3c25 c841
000001e0: 36bb c741 6c3a c841 f12c c841 77a0 943b
000001f0: 2de7 c741 d5e0 c741 2e48 c841 f7f9 c741
00000200: 018e 64bd 0f46 c841 145d 433d 6134 c841
00000210: 5ec1 c841 12d7 c741 7b3a c841 8874 c841
00000220: f489 4dbc 1ae1 c741 8b94 c841 aa93 c841
00000230: f402 c841 35a4 c841 dfdd 14bc 0434 c841
00000240: 26aa c741 3807 69bd a87b c841 2d04 c841
00000250: d37e c841 565f c841 5b4b c841 f14f 5dbd
00000260: 976b c841 83f3 7fbd 5d5e c841 68d8 c741
00000270: d4f5 c741 0938 c841 2d21 03bd 9185 c841
00000280: df1a c841 1105 c841 efd1 c741 9036 c841
00000290: 3f89 c841 dc7b c741 254b c841 d023 c841
000002a0: 3e01 c841 d6d3 c741 532b c841 aee6 c741
000002b0: 7c63 c841 d4bd c741 4988 c841 7b3b c841
000002c0: 94a8 c741 d7e2 c741 8099 7c3d aea0 c841
000002d0: d261 c841 ddc7 c741 5e03 c841 9d6c c841
000002e0: 5471 c841 f7b0 c741 9674 c841 556f c741
000002f0: 4e84 31bc 4e36 c841 8135 c841 4ccc c741
00000300: 9e4d c841 bab7 c741 c5f5 c741 7fd2 c741
00000310: b467 c841 f512 c841 9b18 8d3c 296e c841
00000320: ff88 c741 4e5b c841 55da c741 4378 c841
00000330: ddac c741 44c7 c741 2c8b c841 c282 c741
00000340: f454 c841 160c d03c d23f c841 eadd c741
00000350: aa8a c841 d0e9 80bd fb1b c841 ef9f c741
00000360: fda1 c841 49c1 c741 c182 c841 9c5e c841
00000370: 16cb c741 73bd c741 8e0d c841 464a c841
00000380: acc7 c741 4e39 c841 ab92 c841 e831 c841
00000390: 2cc3 c741 867d c841 6300 c841 f4ad c741
000003a0: 9c60 c841 39ff c741 f702 c841 5e78 c841
000003b0: 6306 c841 205b 1ebd dba4 c841 fc52 c841
000003c0: 9062 c841 3693 c841 3056 c841 9207 c841
000003d0: c5a3 4abd e36e c841 b44f 1fbd b6d0 c741
000003e0: 96ea c741 c827 c841 4ad3 c741 3be3 c741
000003f0: 70d7 c741 1ed5 c741 0970 c741 43aa c841

layer3.weight f4 [256, 256]
0.0024632332 0.016617563 -0.034739926 -0.016555252 -0.0006187723 0.039542597 -0.00028291185 0.01707188
0.0053726374 -0.0378578 0.002466487 0.036946896 -0.033578627 -0.030328024 -0.03329167 0.013109241
-0.03776903 0.03068297 0.026680438 -0.025950346 0.015783587 0.01749515 -0.0028859782 -0.02034573
-0.031581342 -0.007251301 -0.025481567 -0.017135235 -0.01731186 0.033367608 0.049400948 0.03213962
-0.023530083 -0.018724682 0.018030977 0.0068595684 -0.02259772 -0.020157363 -0.0068985256 0.0029798837
-0.050887555 -0.03310471 0.025901247 -0.03373486 0.04745837 0.025816709 -0.04472009 -0.002489546
-0.0077685406 -0.032444343 0.033349704 -0.026931113 0.037658017 -0.00562307 0.047657784 0.0006810223
-0.015417108 -0.020666365 0.03518338 0.016476827 -0.010374716 -0.011032434 -0.009587684 -0.023391599
0.016105419 -0.014249781 -0.040277295 -0.029097695 0.03805357 0.00058530696 -0.034465846 -0.035761584
-0.00087877334 0.023494465 -0.027572207 -0.021502217 0.037624825 -0.00841196 -0.03338085 -0.018130256
0.030549457 0.025507104 0.032938406 -0.024790587 0.0030844095 0.014333358 -0.046793904 -0.033508547
0.04354931 0.017832417 -0.013404345 -0.023556013 -0.005744664 -0.02008674 0.042423047 -0.030947926
0.04092745 0.01722121 0.043980207 0.031755656 -0.024193222 0.04635737 -0.009618604 -0.020156818
-0.005158441 -0.04082151 0.0147397835 0.0047814134 0.033226077 -0.03487846 -0.022727897 -0.0039276932
0.021039486 0.008633095 -0.0050452873 -0.046913546 0.015652461 0.03969986 0.020687118 -0.004773376
-0.027200526 0.040531646 -0.023465205 -0.037881646 0.014992079 0.019160708 0.035907727 0.021553842
0.026691614 0.012251827 -0.023354648 0.026561733 -0.027876629 0.019325476 -0.03984294 -0.014830412
0.00055970025 -0.0031157462 -0.0039717127 -0.035607878 -0.026064757 -0.017550545 0.02423701 0.011853841
-0.040133186 0.034005485 -0.03091503 -0.024971284 -0.04533535 0.01555744 -0.04425601 -0.015927542
-0.011443774 0.018554641 -0.0036695763 0.00045405707 0.030755008 -0.017903926 0.002260992 0.014421025
-0.039182723 0.018628865 0.04991652 -0.04011367 0.043608468 -0.0111251045 0.0069248704 -0.011756311
-0.019645454 0.007526514 0.022519898 -0.033055235 -0.01871222 0.04442022 0.04243311 -0.03609034
-0.023776757 -0.03787263 0.03481317 -0.034420256 0.019898163 0.036006223 0.020718796 -0.02038593
0.01606134 0.0009463694 -0.008406173 -0.041501265 -0.033342235 0.0016614364 0.006839766 0.04274277
-0.041281868 -0.01885706 -0.04382473 -0.020973006 -0.004933886 -0.00025331054 0.017858608 0.042256694
-0.0414535 -0.02272605 0.018065492 0.00022174486 0.030853996 -0.0019361835 0.02042291 0.027394744
0.012960363 0.0029178166 -0.010204829 -0.038555328 -0.04859426 -0.005592811 -0.019255964 -0.03870084
0.045146268 -0.02147658 -0.031298406 0.0319111 0.04179193 -0.012959 0.032053158 -0.0077601005
-0.021395734 0.035340924 -0.040976137 -0.027615635 0.01715014 0.024468761 0.020594202 0.037203196
-0.015217399 -0.036118355 0.0036245086 0.018632537 0.042231135 -0.028749395 -0.003675735 0.040773924
-0.033998605 -0.037531096 -0.00092730985 0.028267914 -0.040108204 -0.0014790447 -0.004681948 -0.0012220568
-0.004789935 -0.035663646 0.0009828229 -0.025616907 0.027426716 0.0013437736 0.038016167 0.028119331
00000000: 326e 213b 8e21 883c 744b 0ebd e19e 87bc
00000010: 1b35 22ba 6bf7 213d c953 94b9 54da 8b3c
00000020: f30c b03b c810 1bbd c9a4 213b a155 173d
00000030: be89 09bd 7a72 f8bc d95c 08bd 24c8 563c
00000040: b3b3 1abd da5a fb3c ef90 da3c d295 d4bc
00000050: 954c 813c fd51 8f3c ae22 3dbb 17ac a6bc
00000060: 705b 01bd 529c edbb b8be d0bc 315f 8cbc
00000070: 9ad1 8dbc 79ac 083d a658 4a3d d6a4 033d
00000080: 29c2 c0bc 8164 99bc b3b5 933c 3bc6 e03b
00000090: db1e b9bc 0e21 a5bc 070d e2bb 274a 433b
000000a0: 786f 50bd ce98 07bd da2e d43c 912d 0abd
000000b0: b563 423d 907d d33c 6a2c 37bd a727 23bb
000000c0: 3e8f febb 5ce4 04bd b399 083d a39e dcbc
000000d0: 4b3f 1a3d bb41 b8bb cf34 433d a286 323a
000000e0: 0a98 7cbc 824c a9bc 731c 103d 69fa 863c
000000f0: b6fa 29bc 62c1 34bc a915 1dbc bd9f bfbc
00000100: 83ef 833c ea77 69bc cef9 24bd 4a5e eebc
00000110: 0fde 1b3d 496f 193a 0f2c 0dbd bd7a 12bd
00000120: 7b5d 66ba 7777 c03c 1cdf e1bc 6b25 b0bc
00000130: 7d1c 1a3d 51d2 09bc 5cba 08bd e785 94bc
00000140: db42 fa3c 46f4 d03c 6cea 063d a115 cbbc
00000150: ce23 4a3b 76d6 6a3c f7aa 3fbd 4240 09bd
00000160: c360 323d 4a15 923c e69d 5bbc 8af8 c0bc
00000170: bc3d bcbb f28c a4bc cac3 2d3d 8186 fdbc
00000180: 8ba3 273d 7f13 8d3c 9724 343d 3812 023d
00000190: dd30 c6bc 3ae1 3d3d 5997 1dbc e91f a5bc
000001a0: 2408 a9bb 7534 27bd 227f 713c 67ad 9c3b
000001b0: 1118 083d b7dc 0ebd db2f babc e1b3 80bb
000001c0: 005b ac3c d371 0d3c f052 a5bb 6b28 40bd
000001d0: 9739 803c 529c 223d 0878 a93c fb69 9cbb
000001e0: a3d3 debc 8304 263d 1a3a c0bc c929 1bbd
000001f0: 56a1 753c ebf6 9c3c fb13 133d af91 b03c
00000200: 5fa8 da3c e3bb 483c 3f52 bfbc fe97 d93c
00000210: 875d e4bc 7650 9e3c 5a32 23bd 42fb 72bc
00000220: d9b8 123a 8c31 4cbb 2425 82bb 91d9 11bd
00000230: c285 d5bc 29c6 8fbc b28c c63c 9d36 423c
00000240: b262 24bd 5649 0b3d 8441 fdbc 9490 ccbc
00000250: 8fb1 39bd a2e4 7e3c ca45 35bd 7a7a 82bc
00000260: ab7e 3bbc e7ff 973c 467d 70bb 820e ee39
00000270: edf1 fb3c 41ab 92bc 272d 143b 2a46 6c3c
00000280: 107e 20bd 909b 983c 4475 4c3d 3b4e 24bd
00000290: cb9e 323d 1246 36bc 06ea e23b 8b9d 40bc
000002a0: 81ef a0bc faa0 f63b a67b b83c ed64 07bd
000002b0: 5f4a 99bc faf1 353d 57ce 2d3d 77d3 13bd
000002c0: 79c7 c2bc 5520 1bbd 4198 0e3d 41fc 0cbd
000002d0: 7901 a33c 437b 133d 77ba a93c 6500 a7bc
000002e0: 1293 833c c615 783a 0cba 09bc 3bfd 29bd
000002f0: de91 08bd 8ec4 d93a 1e20 e03b 0b13 2f3d
00000300: 2d17 29bd 1f7a 9abc 8f81 33bd 95cf abbc
00000310: 70ac a1bb c4ce 84b9 374c 923c 5b15 2d3d
00000320: 25cb 29bd fb2b babc 15fe 933c 2f84 6839
00000330: 85c1 fc3c 8ac7 fdba f24d a73c f16a e03c
00000340: b457 543c d738 3f3b 2832 27bc 31ec 1dbd
00000350: c60a 47bd e643 b7bb afbe 9dbc c684 1ebd
00000360: 4beb 383d a7ef afbc c232 00bd 37b5 023d
00000370: 042e 2b3d fc51 54bc 2c4a 033d 7148 febb
00000380: 1b46 afbc a5c1 103d 98d6 27bd 2f3a e2bc
00000390: 737e 8c3c b672 c83c 2cb5 a83c 6162 183d
000003a0: 6652 79bc d7f0 13bd 2a89 6d3b 43a3 983c
000003b0: 8efa 2c3d da83 ebbc 9ae4 70bb 8f02 273d
000003c0: 1f42 0bbd 35ba 19bd b616 73ba 1d92 e73c
000003d0: 8048 24bd 81dc c1ba 076b 99bb 6c2d a0ba
000003e0: e3f4 9cbb 0b14 12bd 10d2 803a 8cda d1bc
000003f0: fead e03c 8f21 b03a d7b6 1b3d 835a e63c

layer3.bias f4 [256]
-0.010631329 -0.00734911 25.220577 -0.021273708 25.279533 25.25327 25.25451 0.046122935
25.28249 -0.011256824 25.260197 25.222675 25.27805 25.250816 25.231869 -0.0077637145
25.284729 25.19624 25.1779 25.24915 -0.02240256 25.193226 25.23223 25.235455
25.258703 -0.02483762 -0.019873459 25.229914 25.22102 25.241999 25.223957 -0.021747096
25.234081 25.204556 -0.03992583 25.251272 25.276577 25.234959 0.04298974 -0.031279746
25.225346 -0.041833937 25.269203 25.217764 0.038248178 -0.03333693 0.022196217 -0.028391566
-0.025891826 25.209782 0.00019450855 -0.03061905 0.033420436 25.279524 0.025228485 -0.042106807
-0.04418051 25.209476 -0.030675726 25.246717 25.220844 -0.034978006 -0.026484955 -0.013213966
-0.044438254 25.236408 -0.03443972 0.008368355 -0.0014016394 0.02044149 -0.03298852 25.26557
25.257257 -0.045151915 -0.029815782 -0.0445296 25.259954 25.120174 25.269405 25.283062
-0.035814855 25.249073 25.251324 25.220348 25.233395 0.030748377 25.180065 25.236734
25.25121 25.259249 -0.016664242 0.0013658468 25.233803 -0.023792941 25.187428 0.004875326
-0.042697858 -0.0145175215 25.225765 -0.0149718765 0.035961296 -0.010635483 25.273283 25.1983
-0.030390488 25.272762 25.26929 25.200655 0.023470793 -0.016284114 -0.021983776 25.17339
-0.013046352 0.03894247 25.187962 -0.0261897 25.196459 25.194012 25.287601 25.264046
25.261166 -0.035269134 25.271904 25.233683 25.245754 -0.03776538 -0.019639594 25.246426
25.228474 25.215885 -0.03088317 25.252087 25.196774 25.242092 25.250006 25.2086
25.263988 25.184778 0.043833666 -0.02725051 25.224201 25.261547 25.278141 25.2028
-0.04614637 25.276768 25.261623 25.252163 0.016612265 25.21965 0.03329497 25.258558
0.028368153 0.009053114 0.019432355 0.048371505 25.228092 -0.0010465297 -0.010414037 25.20115
25.222132 25.277668 25.19397 0.017267462 25.265657 -0.009756286 25.281841 -0.0135063715
25.283749 0.0017188118 0.042658728 25.208027 25.257559 25.257427 0.00807537 -0.020605225
0.023866175 -0.0430759 25.249226 25.284206 25.25613 0.014182642 -0.0043375962 25.275661
0.0050034234 25.291021 0.021744309 25.273983 25.237991 0.0023915286 25.275509 25.228092
-0.0050391816 25.258839 25.265877 25.230703 -0.021313189 25.262272 25.243809 25.25552
25.258865 25.285036 -0.03541636 25.25684 25.241695 0.009530612 -0.004508238 25.182459
25.218136 25.288975 25.246267 25.27065 25.229733 -0.02911831 -0.044248845 25.216286
-0.006584473 25.208904 25.260954 25.227156 -0.04504969 25.222523 25.236065 0.02433735
25.217894 25.188114 0.033072993 0.01039904 25.243757 25.269825 -0.030294258 25.244747
25.268261 25.24419 25.228418 25.228207 25.264433 25.194942 -0.042968135 0.040294167
-0.013159085 25.278828 25.207989 25.241444 0.014158446 0.021847468 0.027301248 0.03910747
-0.0063925264 25.263607 25.255215 0.026390083 -0.04547308 25.23576 25.167706 25.22836
00000000: 072f 2ebc ced0 f0bb bec3 c941 3346 aebc
00000010: 7c3c ca41 b206 ca41 3d09 ca41 67eb 3c3d
00000020: 8a42 ca41 8b6e 38bc e214 ca41 0ac8 c941
00000030: 7239 ca41 ac01 ca41 deda c941 c266 febb
00000040: 2047 ca41 e691 c941 576c c941 42fe c941
00000050: 9385 b7bc ba8b c941 9bdb c941 36e2 c941
00000060: d311 ca41 4478 cbbc aacd a2bc ddd6 c941
00000070: a6c4 c941 9def c941 aaca c941 f726 b2bc
00000080: 66df c941 eea2 c941 4489 23bd 9b02 ca41
00000090: 6e36 ca41 32e1 c941 0216 303d 311f 00bd
000000a0: 82cd c941 105a 2bbd 5427 ca41 fbbd c941
000000b0: 1faa 1c3d 4e8c 08bd d7d4 b53c 6e95 e8bc
000000c0: 181b d4bc a2ad c941 fef4 4b39 cdd4 fabc
000000d0: dee3 083d 773c ca41 f8ab ce3c 3078 2cbd
000000e0: 9ff6 34bd 02ad c941 a94b fbbc 47f9 c941
000000f0: 4ac4 c941 1945 0fbd faf6 d8bc 647f 58bc
00000100: e304 36bd 2ae4 c941 aa10 0dbd 6d1b 093c
00000110: 37b7 b7ba e974 a73c f81e 07bd e31f ca41
00000120: dd0e ca41 37f1 38bd 3a40 f4bc ab64 36bd
00000130: 6314 ca41 1ef6 c841 be27 ca41 b643 ca41
00000140: 99b2 12bd 1afe c941 b602 ca41 46c3 c941
00000150: fedd c941 05e4 fb3c c670 c941 d5e4 c941
00000160: 7a02 ca41 f112 ca41 7383 88bc 3706 b33a
00000170: d4de c941 6ae9 c2bc da7f c941 33c1 9f3b
00000180: f3e3 2ebd e6da 6dbc 5ece c941 9a4c 75bc
00000190: 274c 133d 7340 2ebc af2f ca41 1e96 c941
000001a0: 79f5 f8bc 9e2e ca41 8227 ca41 f19a c941
000001b0: d245 c03c 4366 85bc 5217 b4bc 1a63 c941
000001c0: 5ec0 55bc 2482 1f3d f280 c941 c88b d6bc
000001d0: 5992 c941 568d c941 024d ca41 c41c ca41
000001e0: de16 ca41 5e76 10bd dc2c ca41 95de c941
000001f0: 4ef7 c941 dfaf 1abd 37e3 a0bc aef8 c941
00000200: ead3 c941 22ba c941 b4fe fcbc 4604 ca41
00000210: fe92 c941 ceef c941 0300 ca41 36ab c941
00000220: a61c ca41 6d7a c941 ee8a 333d 763c dfbc
00000230: 2acb c941 a617 ca41 a239 ca41 569f c941
00000240: fa03 3dbd d236 ca41 ce17 ca41 6e04 ca41
00000250: 7216 883c d8c1 c941 4e60 083d 8711 ca41
00000260: 5464 e83c 8353 143c 9a30 9f3c 3321 463d
00000270: 22d3 c941 b62b 89ba a39f 2abc f59b c941
00000280: edc6 c941 aa38 ca41 408d c941 7e74 8d3c
00000290: 1120 ca41 d4d8 1fbc 3641 ca41 d449 5dbc
000002a0: 1e45 ca41 c149 e13a ebba 2e3d 0aaa c941
000002b0: 7b0f ca41 360f ca41 8f4e 043c 4acc a8bc
000002c0: ff82 c33c 5b70 30bd 6afe c941 0e46 ca41
000002d0: 8e0c ca41 505e 683c 6522 8ebb 8e34 ca41
000002e0: c2f3 a33b 0354 ca41 1f21 b23c 1e31 ca41
000002f0: 68e7 c941 31bb 1c3b 3e34 ca41 22d3 c941
00000300: b81f a5bb 1a12 ca41 8420 ca41 7bd8 c941
00000310: ff98 aebc 2219 ca41 52f3 c941 4e0b ca41
00000320: 2812 ca41 c147 ca41 bf10 11bd 020e ca41
00000330: feee c941 4926 1c3c d7b9 93bb ad75 c941
00000340: bebe c941 d24f ca41 5bf8 c941 4b2a ca41
00000350: 7ed6 c941 8689 eebc 473e 35bd f4ba c941
00000360: 90c2 d7bb d6ab c941 6f16 ca41 37d1 c941
00000370: 0686 38bd bac7 c941 76e3 c941 1f5f c73c
00000380: 3fbe c941 4281 c941 8c77 073d bc60 2a3c
00000390: 37f3 c941 9a28 ca41 aa2b f8bc 3ef5 c941
000003a0: 6625 ca41 1af4 c941 cdd3 c941 5ed3 c941
000003b0: 8f1d ca41 3e8f c941 5bff 2fbd 7f0b 253d
000003c0: 3499 57bc 0a3b ca41 f6a9 c941 7aee c941
000003d0: d4f8 673c 76f9 b23c dea6 df3c 282f 203d
000003e0: 6678 d1bb de1b ca41 ae0a ca41 0430 d83c
000003f0: fb41 3abd d6e2 c941 7657 c941 aed3 c941

layer4.weight f4 [168, 256]
-0.030434256 -0.04351824 1.3406111 -0.02159669 1.289031 1.3524696 1.3725429 0.03397329
1.3151371 0.046048805 1.3194963 1.3071376 1.3279305 1.3242084 1.287062 -0.026473142
1.2887259 1.3740213 1.3736243 1.3807169 0.032671515 1.2986666 1.3115156 1.3750501
1.365257 0.022846146 0.00051372906 1.3595395 1.2845062 1.3573604 1.2825499 -0.0029925946
1.3635336 1.2966309 0.02238497 1.3022335 1.2844177 1.3103243 -0.03438685 -0.014241511
1.337158 0.036076706 1.3655334 1.325853 -0.037435245 0.04445457 -0.015007654 -0.023688933
0.035305124 1.3148153 0.03181429 0.02912118 0.011275626 1.3368132 -0.0333778 0.021818127
-0.04257035 1.3273712 -0.005492703 1.3501173 1.3488537 0.038374092 0.01771647 0.0014174993
-0.021728266 1.3207983 0.012120733 0.041188058 0.01030297 0.0059141754 -0.038739324 1.3294685
1.3557068 0.030004788 0.015933532 -0.04219997 1.2951863 1.3798878 1.3573815 1.366376
0.005284097 1.2847869 1.3289876 1.3662727 1.2945988 0.034260783 1.2808008 1.2931772
1.3734035 1.3278232 -0.0048947213 0.0021437488 1.3615758 -0.014887562 1.345055 -0.0138458945
-0.035564106 -0.026639879 1.3081402 -0.04660729 -0.04192444 -0.016649371 1.3681518 1.3650457
-0.0057399883 1.3296158 1.3014644 1.3019195 -0.035709094 -0.013589171 -0.017432895 1.2970741
-0.018111257 0.012450565 1.3426727 -0.006995502 1.363454 1.2864866 1.3578535 1.3207157
1.3013786 0.002505152 1.2844145 1.3433897 1.2922289 -0.0067114322 0.03859858 1.311412
1.2820452 1.365141 -0.027699947 1.361172 1.3385925 1.2800215 1.3326961 1.3149185
1.3423593 1.3753082 0.02331328 -0.012975229 1.3376627 1.3653879 1.3255537 1.3377267
-0.021831973 1.3263958 1.2923118 1.322579 0.004711848 1.2756929 0.022128453 1.3704474
-0.0183534 0.014526853 0.019931069 0.04333965 1.3678057 -0.03826874 -0.036220837 1.362545
1.2973511 1.2963083 1.287515 0.013752855 1.367108 0.03810073 1.3675244 0.047908127
1.3027802 0.014915796 0.024093613 1.2884371 1.2920138 1.314432 0.017911524 0.033194933
0.04845306 0.007261346 1.290297 1.3467362 1.3264809 -0.046468537 -0.018946579 1.3267725
-0.03723177 1.3695927 -0.04437407 1.3665406 1.312173 -0.031208014 1.3176551 1.3238195
-0.012382168 1.3282878 1.2997615 1.3706045 -0.022430642 1.2836603 1.3678442 1.3657622
1.3611734 1.2759563 0.022329515 1.3122486 1.3647847 0.0009830683 0.021117019 1.3023905
1.3417033 1.2983103 1.3526042 1.3690381 1.3154776 -0.03382526 0.012625849 1.3634973
-0.036298808 1.2963855 1.3646566 1.3489317 -0.0082806 1.2822598 1.368208 -0.035776895
1.2929391 1.3012408 0.010174367 0.0077953744 1.340317 1.3079486 -0.042446088 1.3600217
1.3006127 1.2911726 1.3421601 1.3035014 1.3294632 1.2761078 -0.022971597 -0.019792989
-0.014742183 1.3561182 1.3159409 1.294406 -0.026711442 -0.027839674 -0.02716617 -0.03932526
-0.026416454 1.3147333 1.2821286 0.033995632 -0.021312809 1.3169144 1.3017979 1.3214219
00000000: 4351 f9bc 2f40 32bd 2599 ab3f 8beb b0bc
00000010: f8fe a43f b91d ad3f 7caf af3f 9427 0b3d
00000020: 6a56 a83f ac9d 3c3d 41e5 a83f 4950 a73f
00000030: a0f9 a93f a97f a93f 73be a43f 34de d8bc
00000040: f8f4 a43f eedf af3f ecd2 af3f 55bb b03f
00000050: 91d2 053d b53a a63f bedf a73f a401 b03f
00000060: bec0 ae3f d727 bb3c c6ab 063a 6405 ae3f
00000070: b36a a43f fcbd ad3f 982a a43f 681f 44bb
00000080: 4588 ae3f 00f8 a53f af60 b73c 96af a63f
00000090: cd67 a43f b5b8 a73f 3ad9 0cbd 3a55 69bc
000000a0: fe27 ab3f 2bc5 133d ccc9 ae3f 8db5 a93f
000000b0: b355 19bd ff15 363d aae2 75bc 4b0f c2bc
000000c0: 1b9c 103d de4b a83f b34f 023d 8a8f ee3c
000000d0: 67bd 383c b21c ab3f 29b7 08bd eebb b23c
000000e0: 3f5e 2ebd 4de7 a93f 22fc b3bb a5d0 ac3f
000000f0: 3da7 ac3f 272e 1d3d 2122 913c 62cb b93a
00000100: 7aff b1bc eb0f a93f 0a96 463c cfb4 283d
00000110: cacd 283c b3cb c13b 20ad 1ebd 062c aa3f
00000120: cd87 ad3f 9acc f53c 0a87 823c e0d9 2cbd
00000130: aac8 a53f 2aa0 b03f adbe ad3f 69e5 ae3f
00000140: 3826 ad3b e673 a43f 441c aa3f 06e2 ae3f
00000150: 6ab5 a53f 0955 0c3d 48f1 a33f d586 a53f
00000160: b0cb af3f 1cf6 a93f e663 a0bb 237e 0c3b
00000170: 1e48 ae3f f6ea 73bc c32a ac3f e4d9 62bc
00000180: abab 11bd e03b dabc 2371 a73f 49e7 3ebd
00000190: f6b8 2bbd 4364 88bc 991f af3f d1b9 ae3f
000001a0: 8316 bcbb da30 aa3f 6396 a63f 4ca5 a63f
000001b0: b343 12bd 1da5 5ebc 6ecf 8ebc 8606 a63f
000001c0: 0f5e 94bc 74fd 4b3c b3dc ab3f 863a e5bb
000001d0: a985 ae3f 98ab a43f 25ce ad3f 360d a93f
000001e0: 9393 a63f 7a2d 243b b267 a43f 32f4 ab3f
000001f0: c267 a53f 93eb dbbb 8b19 1e3d 59dc a73f
00000200: 0f1a a43f f1bc ae3f 00eb e2bc e23a ae3f
00000210: 0057 ab3f bfd7 a33f c995 aa3f 404f a83f
00000220: 6ed2 ab3f 190a b03f 7efb be3c 0e96 54bc
00000230: 8838 ab3f 08c5 ae3f beab a93f a13a ab3f
00000240: f7d8 b2bc 56c7 a93f 796a a53f 454a a93f
00000250: d965 9a3b e849 a33f bb46 b53c d26a af3f
00000260: df59 96bc 0a02 6e3c 7b46 a33c eb84 313d
00000270: 4214 af3f afbf 1cbd 4d5c 14bd e067 ae3f
00000280: 9a0f a63f 6eed a53f 4bcd a43f a853 613c
00000290: 65fd ae3f 830f 1c3d 0a0b af3f 503b 443d
000002a0: 80c1 a63f 6261 743c f85f c53c 82eb a43f
000002b0: b560 a53f 4f3f a83f 30bb 923c 69f7 073d
000002c0: b776 463d 96f0 ed3b 7428 a53f da61 ac3f
000002d0: 20ca a93f cb55 3ebd db35 9bbc aed3 a93f
000002e0: 5780 18bd d04e af3f 96c1 35bd cdea ae3f
000002f0: 49f5 a73f f3a7 ffbc eca8 a83f eb72 a93f
00000300: 94de 4abc 5605 aa3f 965e a63f f86f af3f
00000310: 77c0 b7bc fb4e a43f 8515 af3f 4cd1 ae3f
00000320: ee3a ae3f 8952 a33f 63ec b63c c3f7 a73f
00000330: 44b1 ae3f 4cda 803a 99fd ac3c bbb4 a63f
00000340: efbc ab3f 082f a63f 2222 ad3f a43c af3f
00000350: 9261 a83f 5b8c 0abd a6dc 4e3c 1487 ae3f
00000360: 0fae 14bd f6ef a53f 11ad ae3f cba9 ac3f
00000370: 5bab 07bc 1721 a43f 7121 af3f cb8a 12bd
00000380: 077f a53f 0f8f a63f 63b2 263c 5770 ff3b
00000390: 828f ab3f dc6a a73f f3db 2dbd 3115 ae3f
000003a0: 7a7a a63f 2545 a53f e7cb ab3f 22d9 a63f
000003b0: da2b aa3f 8057 a33f ee2e bcbc e824 a2bc
000003c0: 3289 71bc 4895 ad3f c070 a83f 19af a53f
000003d0: f4d1 dabc 0710 e4bc 968b debc 8613 21bd
000003e0: 5267 d8bc 2e49 a83f ca1c a43f 013f 0b3d
000003f0: 3398 aebc a790 a83f 50a1 a63f 5a24 a93f

layer4.bias f4 [168]
0.84241295 0.23808801 4.4470797 24.098043 0.9760531 1.7711724 1.5719341 0.9850206
1.0025078 1.0113348 1.081453 5.4312706 1.5466182 4.8362947 0.5954491 0.85204065
1.1359642 0.5815207 4.218625 6.8935823 1.1245636 0.8252903 1.7097789 1.9852283
24.12496 0.75394243 24.039207 1.6533169 1.9271683 1.6546531 23.997923 1.4219669
1.1377121 1.2449106 2.3957431 3.0497746 0.8418799 3.7172556 7.8316245 1.429349
1.4078599 2.0713513 0.63454396 0.7545216 0.42421332 1.0245473 4.5266294 3.3626986
4.215163 6.9971867 4.404325 1.2662687 0.97481734 2.0062277 23.018902 1.8384423
1.934933 21.288916 4.732255 6.9702635 21.445637 1.4580832 1.1301935 1.339819
1.2129498 21.3873 0.57718086 1.0196428 20.773932 1.4299082 0.67867136 6.953349
1.0019298 0.97358024 1.5229281 2.019978 4.0122523 2.6008432 1.8260807 7.811174
7.356163 2.8876376 1.1424911 0.84678787 1.2891117 1.3886195 1.5194421 6.449796
2.6523252 4.4816885 0.83912414 0.8802549 0.6880492 0.85880023 1.5441504 3.546964
0.41080493 0.99771667 1.4032468 0.6321816 1.5096874 1.202452 9.032517 0.9669024
1.3310479 0.89348817 1.0626137 1.0338037 1.6847014 3.094822 20.537302 4.2210383
10.907669 2.1205494 1.3338273 1.698777 0.6973059 19.333345 3.7294059 2.522162
6.59076 1.3693821 0.5637186 1.9808145 1.3949695 0.6468994 0.59117365 1.0288593
0.9425815 0.88635045 0.7550175 1.1756698 10.952676 1.0596385 0.83441764 8.220837
1.1929893 3.0221632 1.6661998 8.367912 1.6121305 0.75897443 1.9367716 0.82334846
0.73090196 1.1562177 2.0055373 2.1842644 0.8440256 0.89120996 0.53896075 0.28750175
6.0738335 1.0858229 0.7612214 1.4724206 1.2401668 1.1237727 0.8297145 0.8089432
0.5132624 0.78060323 0.6865677 0.6820872 1.673827 6.523257 0.75908273 0.71822256
00000000: 60a8 573f 58cd 733e 7a4e 8e40 cbc8 c041
00000010: 9ede 793f c7b5 e23f 2335 c93f 4f2a 7c3f
00000020: 2d52 803f 6b73 813f 0d6d 8a3f f8cc ad40
00000030: 96f7 c53f edc2 9a40 5a6f 183f 561f 5a3f
00000040: 4667 913f 8ade 143f fafe 8640 3a98 dc40
00000050: b3f1 8f3f 3a46 533f 09da da3f f61b fe3f
00000060: ebff c041 5f02 413f 4c50 c041 e39f d33f
00000070: 73ad f63f accb d33f bffb bf41 0303 b63f
00000080: 8da0 913f 3b59 9f3f db53 1940 822f 4340
00000090: 7185 573f 84e7 6d40 ab9c fa40 e8f4 b63f
000000a0: c134 b43f 0591 0440 7971 223f 5428 413f
000000b0: 7d32 d93e 5e24 833f 26da 9040 7436 5740
000000c0: 9ee2 8640 f4e8 df40 3bf0 8c40 1815 a23f
000000d0: a18d 793f 0966 0040 b626 b841 1452 eb3f
000000e0: e2ab f73f b34f aa41 a26e 9740 660c df40
000000f0: aa90 ab41 78a2 ba3f 2eaa 903f 307f ab3f
00000100: f041 9b3f 3119 ab41 20c2 133f a883 823f
00000110: 0331 a641 3b07 b73f 68bd 2d3f d681 de40
00000120: 3c3f 803f 8e3c 793f 4fef c23f 5247 0140
00000130: 5f64 8040 3774 2640 03bd e93f 23f5 f940
00000140: b065 eb40 0ecf 3840 263d 923f 17c7 583f
00000150: 9d01 a53f 49be b13f 147d c23f bb64 ce40
00000160: b2bf 2940 fe69 8f40 d7d0 563f 6358 613f
00000170: fe23 303f 55da 5b3f b8a6 c53f 7501 6340
00000180: 0655 d23e 5c6a 7f3f 979d b33f a7d6 213f
00000190: 703d c13f f2e9 993f 3185 1041 ea86 773f
000001a0: c75f aa3f a4bb 643f ba03 883f ae53 843f
000001b0: 4ca4 d73f 9011 4640 654c a441 bf12 8740
000001c0: d085 2e41 15b7 0740 daba aa3f 8671 d93f
000001d0: a482 323f b1aa 9a41 96ae 6e40 1a6b 2140
000001e0: 82e7 d240 ea47 af3f dd4f 103f 548b fd3f
000001f0: 5c8e b23f 339b 253f 2857 173f a9b1 833f
00000200: 054d 713f dde7 623f d448 413f 597c 963f
00000210: 293e 2f41 3ca2 873f 659c 553f 8c88 0341
00000220: e0b3 983f 1f6b 4140 0946 d53f f8e2 0541
00000230: 4b5a ce3f 264c 423f 22e8 f73f f7c6 523f
00000240: 641c 3b3f f1fe 933f b95a 0040 fdca 0b40
00000250: 1012 583f 5626 643f 55f9 093f 6e33 933e
00000260: d85c c240 3ffc 8a3f 68df 423f 4778 bc3f
00000270: c9bd 9e3f c9d7 8f3f 2b68 543f e716 4f3f
00000280: 2a65 033f 9dd5 473f e7c2 2f3f 449d 2e3f
00000290: f73f d63f 85be d040 3f53 423f 6fdd 373f
