models/6/guerrilla_model_weights.pth (torch, 613952 bytes, 8 tensors)

layer1.weight f4 [128, 82]
000000 cc 45 ab 41 45 0a 74 41 df 40 26 41 13 ff 4f 41
       21.40908 15.252507 10.390838 12.999774
000010 70 19 6b 41 5a 8f 96 41 77 f5 a4 41 c2 00 a5 41
       14.69371 18.819996 20.619856 20.62537
000020 f2 bc a3 41 ca d8 a7 41 90 8e a3 41 05 7e a6 41
       20.467258 20.980854 20.44461 20.811533
000030 4b 6e 96 41 19 16 a0 41 c0 2d a1 41 e6 b6 a6 41
       18.803854 20.01079 20.147339 20.839306
000040 a9 a1 a2 41 c8 2f a6 41 1b 80 a9 41 d3 75 a3 41
       20.328936 20.77333 21.187551 20.432531
000050 c3 6e a3 41 c7 00 9c 41 f2 72 a5 41 76 65 a7 41
       20.429083 19.50038 20.681126 20.924541
000060 79 a1 a7 41 d0 5d a8 41 3f 8c a7 41 63 05 a4 41
       20.953844 21.045807 20.94348 20.50263
000070 ca 63 95 41 19 71 90 41 0b d8 a1 41 78 e2 a4 41
       18.673725 18.055223 20.23049 20.61058
000080 23 6e 75 41 76 b2 aa 41 7e 9a a9 41 9c fa a8 41
       15.339389 21.33714 21.200436 21.122368
000090 42 fa a7 41 be 4d a7 41 8e 9d a8 41 bb 88 a3 41
       20.997196 20.91296 21.076931 20.441763
0000a0 61 91 a8 41 60 dc a2 41 01 4c a7 41 3f b8 a7 41
       21.070986 20.357605 20.912111 20.964964
0000b0 f6 94 a0 41 d2 62 a7 41 a9 a9 a6 41 50 fe a7 41
       20.072735 20.923252 20.832842 20.999176
0000c0 dc 28 a8 41 c5 99 a6 41 db 03 a7 41 33 12 a6 41
       21.01995 20.825083 20.876883 20.758886
0000d0 12 47 a8 41 b5 de 96 41 dc f0 a6 41 78 f8 a4 41
       21.034702 18.858744 20.867607 20.621323
0000e0 d1 fb a4 41 69 b9 a4 41 29 6e a7 41 ae 1d a8 41
       20.622957 20.590532 20.92879 21.014492
0000f0 e2 89 a7 41 5c 5d a6 41 10 a8 a6 41 9b f7 a0 41
       20.942326 20.795586 20.832062 20.120901
000100 7b bd a1 41 14 30 a7 41 47 fc a5 41 e4 91 a5 41
       20.21752 20.898476 20.748182 20.696236
000110 27 5d a6 41 df 50 a6 41 06 ce a6 41 16 22 a6 41
       20.795485 20.789488 20.850597 20.766644
000120 97 a1 a7 41 41 0a a5 41 3f 93 a5 41 9b 8d a5 41
       20.953901 20.630007 20.696898 20.694143
000130 a6 e5 81 41 cc e8 a5 41 72 a2 8f 41 06 e9 a7 41
       16.237133 20.73867 17.954319 20.988781
000140 c0 4e a7 41 a5 11 a8 41 09 9d 1a bf 6d 3c 61 be
       20.913452 21.008615 -0.60395867 -0.21995707
000150 57 8f 5a bc 05 94 0d be 44 c2 54 be b1 bd 75 bc
       -0.013339839 -0.13825996 -0.20777231 -0.014998839
000160 37 c2 36 be 77 b0 de 3c ed df 45 be b1 a1 82 bc
       -0.17847525 0.027183754 -0.19323702 -0.015946241
000170 4d 3c a2 be c9 1d 6e 3c 4f 2c ec 3c f8 40 0e 3c
       -0.3168663 0.0145334685 0.028829722 0.008682482
000180 33 dd 09 3c c6 46 52 3c 5c 73 dd bd ab 39 45 be
       0.008414554 0.0128342565 -0.10813019 -0.1926028
000190 1e 3b f0 bd 9b 10 2f 3c 34 d5 13 be 68 e6 38 bd
       -0.11730026 0.010685111 -0.144368 -0.045141608
0001a0 c5 dc 90 be 4a c4 06 3d 0a c7 19 be f8 8b 0a be
       -0.28293434 0.03290204 -0.15017334 -0.13529956
0001b0 5f 06 5e be da 11 13 be 95 f7 a0 3c 73 d1 a2 bd
       -0.21682118 -0.14362279 0.019649306 -0.079501055
0001c0 99 63 90 bd 00 13 8e bd 0b 52 0b 3d b5 01 1a bd
       -0.07050247 -0.06937218 0.03401379 -0.037599284
0001d0 02 b8 a5 bd 8e 6a b5 3d 3e ec 8b 3d 05 62 2b 3e
       -0.08091737 0.08858214 0.06832169 0.1673661
0001e0 ea ca 3b bd cc 23 39 bd ab a2 ac 3c e5 c3 9d 3d
       -0.04584781 -0.045200154 0.02107366 0.077033795
0001f0 35 77 15 bd 7c 4c fe bd f9 60 c5 3d 8f a0 25 be
       -0.036490638 -0.12416932 0.09637637 -0.1617453
000200 a6 1a 92 bd 12 b7 00 3d 98 cd b4 bd ba d0 ca bb
       -0.07133989 0.03142459 -0.088282764 -0.006189433
000210 b0 5b 39 3d e4 0b 5c 3d 0d dc f0 bc 4b 3f 4b bd
       0.045253456 0.053722277 -0.029401803 -0.049620908
000220 45 d3 b2 3d 7b 42 93 bd d6 04 e9 3d 7c 61 2c 3d
       0.08731703 -0.071904145 0.113778755 0.042085156
000230 3f dc 39 bd 64 08 2d be ff 34 6a bd 8a 11 4d 3d
       -0.04537606 -0.16897732 -0.057179447 0.050065555
000240 04 4a 11 bd 70 cb 6f 3d dd ee 02 3e 66 4f a9 bb
       -0.035470977 0.058543622 0.12786432 -0.0051669357
000250 9e d0 0e 3e ed 1c 90 3d 82 fc b0 3c 21 3e bd bd
       0.13946769 0.07036767 0.02160478 -0.09240366
000260 ca 9e 14 bd 70 82 d9 bd 30 05 63 be ae ff 37 3e
       -0.036284246 -0.10620582 -0.22169948 0.17968628
000270 6b fa 7b 3c 4a bd dc 3c 8b 65 60 3d 7e 3e ba bd
       0.0153795285 0.026945729 0.05478434 -0.09093951
000280 4b 18 32 bd d5 db 36 3c b2 e5 11 be 41 19 76 bd
       -0.0434802 0.0111608105 -0.14247778 -0.060082678
000290 31 db ab 41 99 ec 72 41 2c 06 24 41 06 8d 4d 41
       21.482027 15.182763 10.251507 12.84693
0002a0 03 ee 6b 41 bc 18 96 41 ce cc a6 41 62 4d a5 41
       14.745608 18.762077 20.850002 20.662785
0002b0 99 c0 a2 41 fe 9c a7 41 c8 d8 a3 41 ec 79 a6 41
       20.344042 20.951656 20.48085 20.809532
0002c0 98 03 96 41 d5 7f a0 41 d6 d6 a2 41 a2 60 a8 41
       18.751755 20.062418 20.3549 21.047184
0002d0 59 bf a2 41 82 eb a5 41 6b c9 a8 41 ef ae a4 41
       20.343431 20.739994 21.098349 20.585417
0002e0 da 41 a3 41 71 30 9b 41 ef 2d a5 41 fe c5 a6 41
       20.407154 19.398653 20.647429 20.846676
0002f0 1b a1 a7 41 c7 58 a8 41 e9 95 a8 41 43 e8 a2 41
       20.953665 21.043348 21.073198 20.363409
000300 0f a1 96 41 1e 89 90 41 01 d7 a2 41 d9 b8 a4 41
       18.828642 18.066952 20.354982 20.590258
000310 db 3b 75 41 bb 05 a9 41 e5 1b aa 41 b4 c2 a7 41
       15.327113 21.127798 21.26362 20.97007
000320 2a a6 a7 41 5a 32 a8 41 61 d1 a7 41 6d 80 a4 41
       20.956135 21.024586 20.977236 20.562708
000330 c6 33 a8 41 52 8c a3 41 8a 97 a7 41 0e e2 a8 41
       21.02528 20.443516 20.948994 21.110378
000340 85 ba 9f 41 d7 8b a7 41 22 77 a6 41 f6 d1 a8 41
       19.966074 20.943281 20.80817 21.10252
000350 48 05 a8 41 bf ac a8 41 54 57 a6 41 91 db a6 41
       21.002579 21.084349 20.79264 20.85721
000360 d2 fa a7 41 74 62 96 41 ae 40 a6 41 9c 23 a6 41
       20.99747 18.798073 20.781582 20.767387
000370 d6 a0 a5 41 df 99 a5 41 86 c8 a7 41 ea 65 a7 41
       20.703533 20.700132 20.972912 20.924763
000380 69 b9 a6 41 20 46 a7 41 69 93 a7 41 d6 4d a0 41
       20.840532 20.90924 20.946978 20.038006
000390 18 10 a3 41 96 31 a7 41 9d 67 a4 41 16 c4 a4 41
       20.382858 20.899212 20.550592 20.595745
0003a0 c8 f3 a5 41 78 48 a7 41 e3 6e a7 41 fb 85 a7 41
       20.744034 20.910385 20.929144 20.94042
0003b0 7c 21 a8 41 01 ae a5 41 81 cc a5 41 51 bf a4 41
       21.01635 20.709963 20.724855 20.593416
0003c0 ef a7 81 41 c2 7f a6 41 2f 94 8f 41 55 a1 a7 41
       16.206999 20.812382 17.947355 20.953775
0003d0 79 10 a7 41 58 7b a6 41 91 e4 ab 41 47 90 72 41
       20.883043 20.810226 21.486605 15.160224
0003e0 ee 05 25 41 9f 1a 4f 41 c0 d1 6a 41 5c b6 96 41
       10.313948 12.943999 14.6762085 18.839043
0003f0 68 e8 a5 41 41 5f a4 41 11 ba a3 41 38 25 a7 41
       20.73848 20.54651 20.465853 20.893173

layer1.bias f4 [128]
000000 4a 45 aa 41 6e 82 c0 be 80 6f ab 41 cd 3b aa 41
       21.283833 -0.3759951 21.429443 21.2792
000010 d7 48 5c bf a3 54 a9 41 87 a4 aa 41 e6 82 ab 41
       -0.86048645 21.166327 21.330336 21.438915
000020 b2 28 27 bf 55 f4 ab 41 a9 bf aa 41 55 46 ab 41
       -0.6529647 21.494303 21.343584 21.409342
000030 21 e4 aa 41 d1 37 aa 41 4e fe a9 41 27 fa aa 41
       21.361391 21.277254 21.249172 21.372145
000040 e0 cc aa 41 1f d4 aa 41 c0 4e ab 41 d6 2c aa 41
       21.350037 21.353575 21.413452 21.271893
000050 0a bc ab 41 ee eb aa 41 5c bd 79 bf fa 75 ab 41
       21.466816 21.3652 -0.97554564 21.432606
000060 62 2a ab 41 c8 88 a9 41 09 3a ac 41 5d 85 aa 41
       21.395695 21.191788 21.528337 21.315119
000070 27 7a aa 41 b6 83 aa 41 4e 32 aa 41 af 26 ab 41
       21.309645 21.314312 21.274563 21.393888
000080 46 d8 aa 41 72 10 aa 41 2a d9 ab 41 be fe bc be
       21.355602 21.25803 21.481037 -0.36913103
000090 2d da aa 41 73 94 aa 41 fa d5 aa 41 a7 83 ab 41
       21.356531 21.322485 21.35448 21.439283
0000a0 68 57 eb be 92 ac aa 41 4c 41 aa 41 8e 5c ab 41
       -0.45965123 21.334263 21.281883 21.420193
0000b0 84 e8 a9 41 06 3e aa 41 fc 40 a9 41 db 0d aa 41
       21.238533 21.280285 21.15673 21.256765
0000c0 7a 67 aa 41 f0 5d b4 be 2f 42 ab 41 99 db aa 41
       21.300526 -0.3522792 21.407316 21.357225
0000d0 5c ba ab 41 91 91 aa 41 99 b9 aa 41 ec 39 ab 41
       21.465996 21.321077 21.340624 21.403282
0000e0 bb b9 aa 41 09 3b ac 41 49 1c ab 41 76 9e aa 41
       21.340689 21.528826 21.388811 21.327374
0000f0 e9 88 a9 41 58 19 ac 41 fb 66 aa 41 56 87 ab 41
       21.19185 21.512375 21.300283 21.441082
000100 e4 ba aa 41 70 d1 ab 41 4e ca ab 41 2d 8c aa 41
       21.341255 21.477264 21.473782 21.318445
000110 e9 c2 aa 41 a5 1a ab 41 d9 2f ab 41 83 66 ab 41
       21.345171 21.38801 21.398363 21.425055
000120 0a df ab 41 0e 21 ab 41 9c a1 aa 41 6f 9d fb be
       21.483906 21.39114 21.32891 -0.4914355
000130 78 be ab 41 b0 3d ab 41 d8 3f aa 41 05 ac ab 41
       21.468002 21.40512 21.281174 21.458994
000140 d0 0d df be 3e 40 ab 41 ec 92 3b bf c4 c6 60 bf
       -0.43565226 21.406368 -0.7327106 -0.8780329
000150 bd 5d aa 41 b9 b4 aa 41 1d 66 aa 41 9c 03 ab 41
       21.29577 21.338243 21.29986 21.376762
000160 72 37 ab 41 25 2c ab 41 6f cb e9 be c4 80 ab 41
       21.402073 21.396555 -0.4566302 21.437874
000170 73 c5 ab 41 d4 f6 a9 41 69 e0 ab 41 d2 06 ab 41
       21.47141 21.245522 21.484575 21.37833
000180 a2 bc aa 41 b9 17 0a bf da bd ff be 2d f2 aa 41
       21.342106 -0.5394245 -0.49949533 21.36825
000190 97 03 4f be 81 b2 a9 41 91 a1 ab 41 1f e6 aa 41
       -0.20216213 21.21216 21.45389 21.362364
0001a0 89 9c aa 41 3f 26 aa 41 0c 8d ab 41 92 37 ab 41
       21.326433 21.268675 21.44387 21.402134
0001b0 93 1f ab 41 ef d4 aa 41 6a 71 aa 41 29 56 ab 41
       21.390417 21.353971 21.305378 21.41707
0001c0 5b 7a ab 41 8e 1d d1 be 62 25 aa 41 35 fd aa 41
       21.434744 -0.4084286 21.268253 21.373636
0001d0 5c b1 aa 41 2d c4 aa 41 1a ba ab 41 9e 60 58 bf
       21.336601 21.345789 21.46587 -0.84522426
0001e0 d6 d5 ab 41 4e 09 aa 41 02 f2 aa 41 cb c1 ab 41
       21.479412 21.254543 21.368168 21.469625
0001f0 30 e9 aa 41 2d c4 aa 41 42 62 ab 41 02 53 ab 41
       21.363861 21.345789 21.422977 21.415531

layer2.weight f4 [256, 128]
000000 07 53 aa 41 c7 f4 17 bf ce d2 aa 41 72 fd aa 41
       21.29054 -0.59357876 21.352932 21.373753
000010 dc 40 71 c0 ce 07 ab 41 cd 3d aa 41 e8 5e aa 41
       -3.7695837 21.37881 21.280176 21.29634
000020 ff 21 51 c0 45 be ab 41 30 2f aa 41 a1 09 ab 41
       -3.2677 21.467905 21.27304 21.379702
000030 a8 cf a9 41 f1 38 ab 41 3b 7d ab 41 97 c9 a9 41
       21.226395 21.402803 21.436148 21.223433
000040 07 bf ab 41 0e fd aa 41 11 98 aa 41 ab 6e aa 41
       21.468275 21.373562 21.324251 21.304037
000050 e1 ad a9 41 ca 56 a9 41 b2 63 83 c0 ce 76 aa 41
       21.209902 21.167377 -4.10592 21.30801
000060 ae f8 a9 41 69 97 aa 41 b7 d4 a9 41 ae 36 aa 41
       21.246426 21.32393 21.228865 21.2767
000070 bf 5b aa 41 e3 2d ab 41 a7 96 ab 41 da 25 aa 41
       21.294798 21.397406 21.44856 21.268482
000080 20 c2 aa 41 b5 03 ab 41 cd a7 aa 41 5b 33 6b bf
       21.344788 21.37681 21.331934 -0.9187524
000090 27 a7 aa 41 1c 62 aa 41 90 52 aa 41 00 17 aa 41
       21.331617 21.297905 21.290314 21.26123
0000a0 0b da 95 bf f0 72 aa 41 49 e5 aa 41 5c 68 aa 41
       -1.1707166 21.306122 21.361956 21.300957
0000b0 95 70 ab 41 da 1d aa 41 aa bb ab 41 b1 0c ab 41
       21.429972 21.264576 21.466633 21.381197
0000c0 7b d4 a9 41 0b c6 80 bf 34 de aa 41 15 68 aa 41
       21.22875 -1.0060438 21.358498 21.300821
0000d0 81 f2 a9 41 32 0d aa 41 ec fb a9 41 da f9 a8 41
       21.24341 21.256443 21.248009 21.121998
0000e0 f8 68 ab 41 47 32 aa 41 ec 67 a9 41 56 8d aa 41
       21.426254 21.27455 21.175743 21.319012
0000f0 d3 b2 aa 41 aa 73 a9 41 b8 35 aa 41 68 4c a9 41
       21.337317 21.181477 21.27623 21.162308
000100 b9 ec a9 41 b7 c2 a9 41 ca 36 a9 41 d1 0c ab 41
       21.240587 21.220076 21.151752 21.381258
000110 6a 4a aa 41 d3 42 ac 41 35 0b ab 41 1f 38 aa 41
       21.286335 21.532629 21.380472 21.277403
000120 e5 4e aa 41 b4 5f aa 41 e8 29 aa 41 bf bc 2d c0
       21.288523 21.29673 21.270462 -2.7146451
000130 ef 17 aa 41 33 5d ab 41 de 34 aa 41 36 6e aa 41
       21.261686 21.420507 21.275814 21.303814
000140 2b bc e4 be a4 6e ab 41 80 8b 61 c0 bf da 71 c0
       -0.4467481 21.429024 -3.5241394 -3.7789762
000150 a1 09 aa 41 91 9d ab 41 ef 8a aa 41 70 7a aa 41
       21.254702 21.451937 21.317839 21.309784
000160 90 68 aa 41 e1 b5 aa 41 9a 10 f0 bf 31 83 aa 41
       21.301056 21.338808 -1.8755066 21.314058
000170 b2 3d a9 41 7b 74 aa 41 e3 e8 a9 41 58 84 a8 41
       21.155125 21.306875 21.238714 21.064621
000180 17 9b aa 41 31 63 e5 bf d9 7f 6c c0 78 81 ab 41
       21.325727 -1.7920896 -3.6953032 21.438217
000190 28 5e a6 c0 95 30 ac 41 67 19 aa 41 45 b4 a7 41
       -5.1989937 21.523722 21.262403 20.963022
0001a0 23 b2 aa 41 94 56 aa 41 07 a0 aa 41 a4 ad ab 41
       21.33698 21.292274 21.328138 21.459785
0001b0 3a 9b aa 41 f9 5f aa 41 37 70 aa 41 bc 9e aa 41
       21.325794 21.296862 21.304792 21.327507
0001c0 8c f6 aa 41 ae 64 53 bf fb aa aa 41 b7 fd a9 41
       21.370384 -0.825755 21.333487 21.248884
0001d0 e9 19 aa 41 8c 3f aa 41 cc 53 a9 41 47 ed 71 c0
       21.262651 21.281029 21.165916 -3.7801073
0001e0 8d 17 a9 41 92 0e aa 41 2a d0 a9 41 b2 2a aa 41
       21.1365 21.257114 21.226643 21.270847
0001f0 ff 02 ab 41 ee 2c ab 41 ad 94 ab 41 80 3c aa 41
       21.376463 21.396938 21.447596 21.279541
000200 4a 30 aa 41 c0 1d 1c bf 3c 41 aa 41 90 7a aa 41
       21.273579 -0.60982895 21.281853 21.309845
000210 cd c5 74 c0 3a 0f ab 41 76 31 ac 41 a2 9d ab 41
       -3.8245728 21.382435 21.52415 21.45197
000220 10 cb 50 c0 b0 10 ad 41 08 37 aa 41 ec b5 aa 41
       -3.262394 21.633148 21.27687 21.338829
000230 15 2c ac 41 9d 32 ab 41 ec a7 aa 41 36 be ad 41
       21.521524 21.399714 21.331993 21.717876
000240 db d1 ab 41 90 f9 ab 41 bf 05 aa 41 2b 50 ab 41
       21.477468 21.496857 21.252806 21.414145
000250 40 26 ab 41 10 78 ac 41 2d 68 80 c0 75 8c aa 41
       21.393677 21.558624 -4.012717 21.318583
000260 c9 1f ac 41 26 2a ab 41 10 1c ab 41 90 c7 a9 41
       21.51552 21.39558 21.388702 21.222443
000270 b8 c7 aa 41 da 23 ab 41 07 98 aa 41 31 33 ab 41
       21.347519 21.392506 21.324232 21.399996
000280 91 d6 ab 41 3e ea aa 41 0e 86 ae 41 93 5b 43 bf
       21.479769 21.364376 21.815456 -0.76311606
000290 de cc ab 41 62 4b ab 41 14 09 ab 41 3c 7b ab 41
       21.475033 21.411808 21.379433 21.435173
0002a0 96 f7 95 bf a5 f6 a9 41 d9 bf aa 41 40 86 aa 41
       -1.1716182 21.245432 21.343676 21.315552
0002b0 bf e5 aa 41 82 94 ab 41 ed 11 ab 41 cd 7d ab 41
       21.36218 21.447514 21.383753 21.436426
0002c0 83 0e aa 41 d4 93 6d bf 15 1b ab 41 ea ef aa 41
       21.257086 -0.9280369 21.388224 21.367146
0002d0 ab 51 ac 41 c9 69 a9 41 dc e1 a9 41 36 12 a9 41
       21.539877 21.176653 21.235283 21.133892
0002e0 82 1b ab 41 65 6a ac 41 ae cc aa 41 21 50 aa 41
       21.388432 21.55195 21.349941 21.289125
0002f0 95 70 ab 41 31 aa aa 41 98 ae aa 41 70 39 aa 41
       21.429972 21.333101 21.33525 21.278046
000300 13 9d ab 41 e1 57 a9 41 b1 72 ab 41 34 27 ab 41
       21.451696 21.16791 21.431002 21.394142
000310 81 2f ab 41 59 db ab 41 3b 68 ab 41 4a 29 ab 41
       21.398195 21.482103 21.425894 21.39516
000320 15 f6 ac 41 f7 65 ab 41 d9 0b ab 41 99 29 2a c0
       21.620157 21.424788 21.380785 -2.658789
000330 65 22 ab 41 64 cb ab 41 4b 79 aa 41 07 4f ab 41
       21.391794 21.474312 21.309225 21.413588
000340 b0 4e d8 be 39 f0 aa 41 25 0a 65 c0 f2 37 6b c0
       -0.42247534 21.367296 -3.5787442 -3.6752896
000350 69 30 aa 41 1f a3 ab 41 5d 05 aa 41 f5 36 aa 41
       21.273638 21.454649 21.252619 21.276834
000360 05 50 aa 41 ed 16 ab 41 de f9 f1 bf 34 52 aa 41
       21.289072 21.386194 -1.8904378 21.290138
000370 aa a6 a9 41 c6 81 a9 41 a1 7d ab 41 99 08 a9 41
       21.206379 21.188366 21.436342 21.129198
000380 c3 5d aa 41 bb 28 e6 bf f3 31 70 c0 2f 97 ab 41
       21.295782 -1.798118 -3.7530487 21.44882
000390 ef ca a5 c0 1d 0e ac 41 e8 1a ab 41 0b ef aa 41
       -5.181022 21.506891 21.388138 21.36672
0003a0 2b 71 aa 41 c1 06 ab 41 f9 07 ad 41 8d 1d ac 41
       21.305258 21.378298 21.628893 21.51443
0003b0 c9 7f aa 41 7a 62 aa 41 cc de a9 41 9d 1e ae 41
       21.312395 21.298084 21.233788 21.764948
0003c0 02 f5 aa 41 2a 8f 3f bf 10 70 a9 41 22 06 ab 41
       21.369633 -0.74827826 21.179718 21.377995
0003d0 b4 22 ab 41 76 10 ab 41 6f e5 aa 41 06 06 77 c0
       21.391945 21.383038 21.362028 -3.8597426
0003e0 d8 8c aa 41 fc d4 a9 41 09 13 ab 41 71 43 ab 41
       21.318771 21.228996 21.384295 21.40793
0003f0 f1 d2 aa 41 5e c6 aa 41 12 66 ac 41 75 14 ab 41
       21.352999 21.346859 21.549839 21.384989

layer2.bias f4 [256]
000000 32 7a ab 41 e8 53 ac 41 84 82 ac 41 ad 8d ac 41
       21.434666 21.54097 21.563728 21.569178
000010 17 2b ac 41 cd ff ac 41 5f 07 ac 41 51 4e ac 41
       21.52104 21.624903 21.5036 21.53824
000020 a5 27 ac 41 63 84 ac 41 1a cc 5e bd a5 a4 ab 41
       21.519358 21.564642 -0.054393865 21.455393
000030 ab fd ab 41 d4 d9 ab 41 74 ca ac 41 91 a4 ac 41
       21.498861 21.481361 21.598854 21.580355
000040 92 ba ac 41 13 b6 ab 41 4f 0b a0 bc a4 35 ac 41
       21.591099 21.463903 -0.019536642 21.526192
000050 e0 b7 ac 41 83 1d ac 41 c2 5d ac 41 9a 2e ac 41
       21.589783 21.51441 21.54578 21.522755
000060 2e c2 ac 41 22 c4 ac 41 92 39 ac 41 2f 8d ac 41
       21.594814 21.595768 21.52811 21.568937
000070 65 e4 ab 41 2e 6f ac 41 e9 be ac 41 2d 80 06 bc
       21.48652 21.554287 21.593218 -0.00820927
000080 25 53 ab 41 da ae ac 41 d1 bd ac 41 18 7d ac 41
       21.415598 21.585377 21.592684 21.56108
000090 53 2e ac 41 ec 86 ac 41 20 18 ad 41 1b 16 ac 41
       21.52262 21.56588 21.63678 21.510794
0000a0 86 1b ab 41 8f c4 ac 41 f9 e4 ac 41 1c 5e ac 41
       21.38844 21.595976 21.611803 21.545952
0000b0 af 8c 92 bd 07 c5 ac 41 1d 14 ac 41 dc 92 ab 41
       -0.071557395 21.596205 21.50982 21.446709
0000c0 9f d2 ab 41 c0 5e ac 41 2d 28 ac 41 92 25 ac 41
       21.477842 21.546265 21.519617 21.518345
0000d0 65 4d ac 41 21 7e ac 41 1d 5d ac 41 30 96 ac 41
       21.53779 21.561586 21.545465 21.573334
0000e0 94 a8 ac 41 f5 3b ac 41 ad 41 ac 41 b2 47 19 bb
       21.582314 21.529276 21.532068 -0.002338868
0000f0 38 df ab 41 09 ee ab 41 e3 0d ac 41 3d 54 ac 41
       21.483994 21.491228 21.50678 21.541132
000100 bf a5 ab 41 a1 a9 ac 41 01 80 ac 41 a4 7a ac 41
       21.45593 21.582827 21.562502 21.559883
000110 fa 1a ac 41 be 61 ac 41 f5 ca a8 3b 59 fc ac 41
       21.513172 21.547726 0.0051511475 21.623217
000120 f0 d2 ab 41 7a 78 ab 41 e1 c2 ac 41 2f 33 ab 41
       21.477997 21.433826 21.595156 21.399992
000130 85 f4 ac 41 ad 53 ac 41 76 31 ac 41 e0 e2 ac 41
       21.619394 21.540857 21.52415 21.610779
000140 f6 c2 ac 41 ac 84 ac 41 cb 1e 47 bd c2 9f ac 41
       21.595196 21.564781 -0.04861335 21.578007
000150 17 fc ab 41 08 bb ac 41 30 be ec bd cc 79 ab 41
       21.49809 21.591324 -0.11559713 21.434471
000160 b0 2a ac 41 e4 a3 ac 41 d6 a9 ac 41 88 d7 ac 41
       21.520844 21.580025 21.582928 21.60524
000170 94 dc ab 41 ad 8c ac 41 52 3b 65 bd 31 f3 ab 41
       21.482704 21.56869 -0.055964775 21.493746
000180 54 c7 ac 41 f1 94 ac 41 e6 3c ac 41 a3 4e ac 41
       21.597328 21.572725 21.529736 21.538397
000190 15 ca ab 41 ad 90 ac 41 b9 d6 aa 41 09 d1 ab 41
       21.473673 21.570642 21.354845 21.477068
0001a0 35 82 ab 41 e4 88 ac 41 e7 e5 ab 41 73 db ae bd
       21.438578 21.566841 21.487257 -0.0853795
0001b0 f6 4e ac 41 5e 5e ac 41 e9 bb ab 41 d6 4b ac 41
       21.538555 21.546078 21.466753 21.53703
0001c0 50 18 ac 41 e7 99 ab 41 49 23 2d bd dc 98 ac 41
       21.511871 21.450148 -0.04226998 21.574638
0001d0 8f eb ab 41 c8 f8 ab 41 dc 4e ac 41 1d 29 ac 41
       21.490019 21.496475 21.538506 21.520075
0001e0 d9 b8 75 3b ee 16 ad 41 19 80 ab 41 97 24 ac 41
       0.003749421 21.636196 21.437548 21.517866
0001f0 fe 22 ad 41 d1 72 ac 41 9f 0d 68 bd 77 00 ac 41
       21.642086 21.556063 -0.056653615 21.500227
000200 d2 8f ac 41 2a a0 ac 41 24 f7 ab 41 e0 e4 ab 41
       21.570225 21.578205 21.495674 21.486755
000210 cd 14 ab 41 b3 68 ac 41 e4 f3 ab 41 8b ec ac 41
       21.385157 21.551123 21.494087 21.6155
000220 55 74 ac 41 ce 11 ac 41 93 df ab 41 cd d3 ab 41
       21.556803 21.508694 21.484167 21.478418
000230 53 68 ac 41 ea 53 40 3b 1e d8 ab 41 53 84 ac 41
       21.55094 0.0029346892 21.480526 21.564611
000240 4d fb ac 41 d1 cf ac 41 57 4c ac 41 c1 7c ac 41
       21.622705 21.601473 21.537275 21.560915
000250 2b c2 ab 41 b8 9f ab 41 7b 8a 85 bd bc d7 ac 41
       21.469809 21.452988 -0.06520554 21.60534
000260 3c 26 ac 41 b6 8d ab 41 85 c2 80 bd 94 ab ac 41
       21.51867 21.444195 -0.06287102 21.583778
000270 3b f7 ab 41 d9 f4 ab 41 b3 c5 ab 41 86 cc ac 41
       21.495718 21.494555 21.471533 21.599865
000280 9e 43 ac 41 37 0d ac 41 27 3a ac 41 3b 62 ac 41
       21.533016 21.506453 21.528395 21.547964
000290 ca e7 ab 41 42 ee ab 41 6f c3 ac 41 e2 eb ab 41
       21.488178 21.491337 21.595427 21.490177
0002a0 ad f4 ac 41 08 0c ac 41 84 82 ac 41 26 a7 ac 41
       21.61947 21.505875 21.563728 21.581615
0002b0 1f dd ac 41 a7 c5 ac 41 66 60 ac 41 63 65 ab 41
       21.60797 21.59651 21.54707 21.424505
0002c0 9f 01 ac 41 0a c2 ab 41 61 1c ab 41 dd 0b ac 41
       21.500792 21.469746 21.388857 21.505793
0002d0 a0 0f ad 41 e2 d4 ab 41 eb ba ac 41 13 16 ac 41
       21.63263 21.478947 21.591269 21.510778
0002e0 3e 77 ac 41 a7 ec ab 41 6d c2 ac 41 e7 d1 ac 41
       21.558224 21.490553 21.594934 21.602491
0002f0 66 c0 ac 41 30 c4 ab 41 2b c8 ab 41 8b 0b ac 41
       21.593945 21.470795 21.472738 21.505636
000300 78 e1 ab 41 77 fb ab 41 51 82 ac 41 dc 1e ac 41
       21.485092 21.497786 21.563631 21.515068
000310 5d d3 ab 41 fe 19 ac 41 2d 1e ac 41 40 75 ab 41
       21.478205 21.512691 21.514734 21.432251
000320 42 e4 ac 41 b6 eb ab 41 22 4c ac 41 97 82 ac 41
       21.611454 21.490093 21.537174 21.563765
000330 d6 85 ac 41 87 3b ac 41 84 43 ac 41 31 63 ac 41
       21.56535 21.529066 21.532967 21.548433
000340 01 5f ac 41 e8 d6 ab 41 71 f0 ab 41 ca a0 ac 41
       21.546389 21.479935 21.492403 21.57851
000350 6d 88 ab 41 b2 9b e3 bc db 28 ab 41 54 c1 ac 41
       21.441614 -0.027784202 21.394949 21.594398
000360 29 cf ab 41 a2 97 ac 41 38 76 ac 41 b0 15 ac 41
       21.476152 21.57404 21.557724 21.51059
000370 32 3a ac 41 44 e5 ac 41 64 cf ab 41 20 cf ac 41
       21.528416 21.611946 21.476265 21.601135
000380 f3 ba ac 41 35 dc ab 41 61 0d ac 41 ee 38 d4 bd
       21.591284 21.482523 21.506533 -0.10362421
000390 d0 12 ac 41 05 95 ab 41 3a 55 ac 41 ab dc ac 41
       21.509186 21.447763 21.541615 21.607748
0003a0 1c d4 ab 41 d0 4d 80 bd bb d7 ab 41 f3 54 ac 41
       21.478569 -0.062648416 21.480337 21.54148
0003b0 e4 9f ab 41 1b 0a 7a bd 51 48 ac 41 fa 16 ac 41
       21.453072 -0.061044794 21.53531 21.511219
0003c0 cc 5b ac 41 33 e2 ac 41 d3 5a ac 41 ac c1 ab 41
       21.544823 21.610449 21.544348 21.469566
0003d0 53 d2 ab 41 47 80 ac 41 09 d9 ab 41 12 fe ac 41
       21.477697 21.562635 21.480974 21.624058
0003e0 07 05 ad 41 75 2a ac 41 74 2c ac 41 dc 46 ac 41
       21.627455 21.520731 21.521706 21.5346
0003f0 a6 4d ac 41 9f 71 ac 41 36 4c 46 bd 3b 64 ac 41
       21.537914 21.55548 -0.048412524 21.54894

layer3.weight f4 [256, 256]
000000 46 57 ab 41 02 f8 aa 41 e9 54 ab 41 29 c1 ab 41
       21.417614 21.371098 21.41646 21.469316
000010 f9 51 ab 41 57 65 ab 41 d1 4f ab 41 5d 34 ab 41
       21.415026 21.424482 21.413973 21.400568
000020 b1 c8 aa 41 0c 2d ab 41 30 7e 32 3d d1 c6 aa 41
       21.347994 21.396996 0.043577373 21.347078
000030 f0 bd aa 41 fb 28 ab 41 0a 6d ab 41 19 66 ab 41
       21.342743 21.39501 21.428242 21.424852
000040 58 04 ab 41 c9 89 aa 41 d6 7c 8c be f6 56 ab 41
       21.377121 21.317278 -0.27438992 21.417461
000050 41 bb ab 41 a1 63 ab 41 6d ac ab 41 bc 2e ab 41
       21.466433 21.423647 21.459192 21.39782
000060 fa 2f ab 41 28 6e ab 41 fc e3 ac 41 08 72 ab 41
       21.398426 21.428787 21.61132 21.43068
000070 6b 0f ab 41 ff 45 ab 41 fd c1 aa 41 96 62 8c be
       21.382528 21.409178 21.34472 -0.27418965
000080 ac a2 aa 41 52 9c aa 41 db 9a ab 41 68 4d ab 41
       21.32943 21.326328 21.450613 21.412796
000090 de 76 ab 41 49 06 ab 41 f6 43 ab 41 cd 74 ab 41
       21.43304 21.378069 21.408184 21.432032
0000a0 27 cd aa 41 fd f9 aa 41 2a 33 ab 41 16 bb aa 41
       21.350172 21.372065 21.399982 21.34135
0000b0 d3 59 44 be c2 e5 ab 41 ef 16 ab 41 28 5c aa 41
       -0.1917489 21.487186 21.386198 21.294998
0000c0 c1 33 ab 41 b6 e2 aa 41 76 05 ab 41 18 2c ab 41
       21.40027 21.360699 21.377666 21.39653
0000d0 f7 2e ab 41 83 fa aa 41 a4 8d ab 41 96 e1 aa 41
       21.397932 21.37232 21.44416 21.36015
0000e0 52 de aa 41 d1 60 ab 41 fe b3 ab 41 3b 1a 44 be
       21.358555 21.422274 21.462887 -0.19150631
0000f0 ab 0f ab 41 0d d5 aa 41 c5 2a ab 41 25 3b aa 41
       21.38265 21.354029 21.395884 21.27888
000100 3d bb ad 41 c2 2b ab 41 6a 5a ab 41 17 1c ab 41
       21.716425 21.396366 21.419147 21.388716
000110 13 68 ab 41 d9 0f ab 41 ad 0e 95 be 67 3d ab 41
       21.425817 21.382738 -0.2911276 21.404982
000120 c1 38 ab 41 cd ba aa 41 ba fc ab 41 79 f8 aa 41
       21.402712 21.341211 21.498402 21.371325
000130 72 8c ab 41 56 22 ab 41 25 96 aa 41 47 90 ab 41
       21.443577 21.391766 21.323313 21.445448
000140 f8 ef ab 41 b3 4f aa 41 43 bd 96 be 6d 6c ab 41
       21.492172 21.288916 -0.2944127 21.427942
000150 11 1b ab 41 10 9e ab 41 e6 13 85 be 63 70 aa 41
       21.388216 21.452179 -0.25991744 21.304876
000160 8d 84 ad 41 73 a5 aa 41 6f eb aa 41 4c ad ab 41
       21.689722 21.330786 21.364958 21.459618
000170 a8 fb aa 41 24 50 ab 41 2f f0 90 bc 63 d8 aa 41
       21.372879 21.414131 -0.017692653 21.355658
000180 5b 64 ab 41 b5 03 ab 41 29 51 aa 41 19 e0 aa 41
       21.424002 21.37681 21.289629 21.359423
000190 ee 06 ab 41 fc 26 ab 41 63 65 ab 41 97 db aa 41
       21.378384 21.394035 21.424505 21.357222
0001a0 ee 49 ab 41 72 fd aa 41 82 e8 aa 41 66 dd 75 be
       21.411098 21.373753 21.36353 -0.24010238
0001b0 08 23 ab 41 04 3d ab 41 f2 a6 aa 41 e1 25 ab 41
       21.392105 21.404793 21.331516 21.393496
0001c0 61 56 ab 41 db fb aa 41 3d 3e 94 be 1f b8 ab 41
       21.417177 21.372976 -0.28953734 21.464903
0001d0 bb 64 ab 41 7b 54 ab 41 9c 90 ab 41 c4 c9 aa 41
       21.424185 21.41625 21.44561 21.348518
0001e0 02 71 4d be 7a 2d ab 41 09 7e aa 41 be 83 ab 41
       -0.2006264 21.397205 21.31154 21.439327
0001f0 ed 81 ab 41 1e 0b ab 41 57 9c 68 be 6d 47 ab 41
       21.43844 21.380428 -0.22715889 21.409876
000200 c6 a3 ab 41 f4 53 ab 41 e2 f6 aa 41 6c 3c ab 41
       21.454967 21.415993 21.370548 21.404503
000210 6f ea aa 41 0b 8a ab 41 e8 cf aa 41 fc 92 ab 41
       21.36447 21.442404 21.351517 21.44677
000220 7d ec aa 41 d5 42 ab 41 1e 8d ab 41 3c 88 ab 41
       21.365473 21.407633 21.443905 21.44152
000230 41 c0 aa 41 45 9c 7a be b8 f8 ab 41 66 ff aa 41
       21.343874 -0.24473675 21.496445 21.374706
000240 ca 64 ab 41 51 79 ab 41 aa f5 aa 41 9d b2 ab 41
       21.424213 21.434237 21.369953 21.462214
000250 7f d5 aa 41 ab 73 ab 41 ad 33 a5 be 89 b5 ab 41
       21.354246 21.431479 -0.32265988 21.46364
000260 3d 44 ab 41 04 2f ab 41 21 16 53 be 6c ed ab 41
       21.40832 21.397957 -0.2061391 21.490929
000270 da 3a ab 41 09 ef aa 41 b7 33 aa 41 50 6f ab 41
       21.403736 21.366716 21.275251 21.429352
000280 9b a6 aa 41 7b d7 aa 41 e2 20 ab 41 ce c4 aa 41
       21.33135 21.355215 21.391056 21.346096
000290 e9 22 ab 41 b1 ef aa 41 07 f4 aa 41 3e 50 ab 41
       21.392046 21.367037 21.369154 21.41418
0002a0 64 9b ab 41 1d cb aa 41 b0 31 aa 41 a6 56 aa 41
       21.450874 21.349176 21.274261 21.292309
0002b0 c9 bd ab 41 cb 75 ab 41 b6 2f ab 41 81 7c aa 41
       21.467669 21.432516 21.398296 21.310793
0002c0 7e d2 aa 41 46 b1 aa 41 c1 3e ab 41 5e e0 aa 41
       21.35278 21.33656 21.405642 21.359554
0002d0 d2 12 ab 41 7b 94 aa 41 17 79 ab 41 69 2f ac 41
       21.38419 21.3225 21.434126 21.52315
0002e0 66 30 ab 41 be 4c ab 41 91 6d ab 41 09 52 ab 41
       21.398632 21.412472 21.4285 21.415056
0002f0 0e 2f ab 41 85 ab ab 41 c1 d4 ac 41 90 18 ab 41
       21.397976 21.45875 21.603884 21.386993
000300 af 05 ab 41 6c 43 ab 41 58 7e aa 41 af 4a ab 41
       21.377775 21.40792 21.311691 21.411467
000310 ce 72 ab 41 17 c5 ab 41 19 b8 aa 41 e3 b8 aa 41
       21.431057 21.471235 21.339891 21.340277
000320 be 94 ae 41 89 c9 aa 41 36 f4 aa 41 93 47 ab 41
       21.822628 21.348406 21.369244 21.409948
000330 17 3d ab 41 77 e8 aa 41 fb 52 ab 41 00 30 ab 41
       21.404829 21.363508 21.415518 21.398438
000340 7a 11 ab 41 b1 f4 aa 41 09 2c ab 41 37 0e ab 41
       21.383533 21.369478 21.396502 21.38194
000350 4a 55 aa 41 56 cf a7 be 45 11 ab 41 ae 0c ab 41
       21.291645 -0.32775372 21.383432 21.381191
000360 6d 8c ab 41 59 9e ab 41 03 9a ab 41 b9 d5 aa 41
       21.443567 21.452318 21.450201 21.354357
000370 a1 8e ab 41 e8 50 ab 41 26 81 ab 41 67 70 ab 41
       21.444643 21.414505 21.43806 21.429884
000380 52 a3 aa 41 51 88 ab 41 74 80 aa 41 ce 7a 58 be
       21.329746 21.44156 21.312721 -0.21140596
000390 7a 40 ab 41 cd 05 ab 41 6f c7 aa 41 1a fc aa 41
       21.406483 21.377832 21.34738 21.373096
0003a0 e6 19 ab 41 a5 d7 e5 3c 8f 70 ac 41 89 39 ab 41
       21.387646 0.028056929 21.55496 21.403093
0003b0 75 f3 aa 41 fb a6 32 3d 9e 2f ab 41 be 7f ab 41
       21.368876 0.043616276 21.39825 21.437374
0003c0 c6 66 ab 41 f7 11 ab 41 82 53 ab 41 db 1f ab 41
       21.425182 21.383772 21.415775 21.390554
0003d0 5c 86 ab 41 1c 36 ab 41 c1 46 ab 41 01 27 ab 41
       21.440605 21.40142 21.409548 21.394045
0003e0 c3 1d ab 41 61 24 ab 41 d6 b1 aa 41 56 54 ab 41
       21.389532 21.392763 21.336834 21.41618
0003f0 95 75 ab 41 e2 66 aa 41 9d d7 2c bc 8f e3 aa 41
       21.432413 21.300236 -0.010549453 21.361113

layer3.bias f4 [256]
000000 f7 d3 ad 41 24 70 ad 41 a3 30 ad 41 fa fa ac 41
       21.728498 21.679756 21.648748 21.622547
000010 2d c6 ad 41 9b 44 ad 41 56 a7 ad 41 85 bf ac 41
       21.721766 21.658499 21.706707 21.593515
000020 e9 c5 ad 41 1c 6c ad 41 40 8b ad 41 b2 bf ac 41
       21.721636 21.677788 21.692993 21.593601
000030 95 09 ae 41 41 69 ad 41 a8 6d ad 41 66 76 ad 41
       21.754679 21.676394 21.678543 21.682812
000040 1d d8 ad 41 c5 9d ad 41 68 da ac 41 44 e8 ac 41
       21.730524 21.702036 21.606644 21.61341
000050 79 55 ad 41 73 29 ac 41 6c 64 ad 41 75 26 ad 41
       21.666735 21.520239 21.674034 21.643778
000060 15 53 ad 41 d6 38 ad 41 d2 7d ad 41 67 d1 ad 41
       21.665567 21.652752 21.686436 21.727247
000070 2b 22 ad 41 b7 16 ad 41 40 d5 ac 41 8b 06 ad 41
       21.641684 21.636091 21.604126 21.628195
000080 b0 85 ad 41 80 9b ad 41 51 ee dc bc f7 96 ad 41
       21.690277 21.700928 -0.026969107 21.698713
000090 61 97 ad 41 72 ac ad 41 73 3f ad 41 f3 65 27 bc
       21.698915 21.709202 21.655981 -0.010217178
0000a0 68 25 ad 41 11 4f ad 41 cc 74 ad 41 60 fb ac 41
       21.643265 21.663607 21.68203 21.622742
0000b0 82 70 ad 41 d6 7b ad 41 69 4d ad 41 21 bc 3c 3c
       21.679935 21.685467 21.662798 0.011519463
0000c0 86 dd ac 41 d0 f3 ad 41 03 34 ad 41 2b 2a ad 41
       21.608166 21.74405 21.650396 21.64559
0000d0 10 58 ad 41 7c 63 ad 41 9a a2 ad 41 b4 df ad 41
       21.668 21.673576 21.704395 21.73423
0000e0 70 3f ad 41 db 3d 40 3c 12 6e ac 41 7f 51 ad 41
       21.655975 0.0117334975 21.553745 21.664793
0000f0 22 32 ad 41 2c f3 ad 41 1f 2e ad 41 c4 60 ad 41
       21.649479 21.743736 21.64752 21.672249
000100 31 9a ad 41 b7 06 ad 41 28 1b ad 41 b6 5a ad 41
       21.700289 21.628279 21.63826 21.669292
000110 58 b4 ac 41 06 b2 ad 41 8d 03 ad 41 43 81 ad 41
       21.588058 21.711926 21.626734 21.688116
000120 08 86 ad 41 e7 4f ad 41 03 6a ad 41 19 7c ad 41
       21.690445 21.664015 21.676764 21.685595
000130 42 c3 ad 41 f2 95 ad 41 f0 9a ac 41 f4 03 97 ba
       21.72034 21.698215 21.575653 -0.0011521564
000140 00 c4 40 3e 7b 5c ad 41 e9 10 ad 41 84 a4 ad 41
       0.18824768 21.670156 21.633257 21.70533
000150 10 37 ad 41 b2 39 ad 41 14 8a ad 41 07 a3 ad 41
       21.651886 21.653172 21.692421 21.704603
000160 5e 5a ad 41 16 a4 ad 41 5a ba ad 41 19 9b ad 41
       21.669125 21.70512 21.715992 21.700731
000170 50 35 ad 41 88 b8 ad 41 62 9e ad 41 fe 4a ad 41
       21.651031 21.715103 21.702335 21.661617
000180 9f 0b ad 41 eb 4f ad 41 a4 d9 ad 41 b8 e5 25 bd
       21.630674 21.664022 21.73127 -0.04050228
000190 05 79 1f bd 37 c8 ad 41 49 ac ad 41 16 21 ad 41
       -0.038933773 21.722761 21.709124 21.641155
0001a0 59 60 ad 41 f9 d5 ad 41 30 41 ad 41 ac 21 ad 41
       21.672045 21.729479 21.65683 21.641441
0001b0 52 98 ad 41 a1 5e ad 41 ac b5 0c bd 61 09 3a bc
       21.699375 21.671206 -0.034352943 -0.011354775
0001c0 9b 75 47 bd 99 fb 26 bd c4 de ac 41 b5 d3 e7 3c
       -0.04869614 -0.040767286 21.608772 0.028299192
0001d0 f6 53 ad 41 35 d1 ad 41 39 24 ad 41 a3 61 9c bc
       21.665997 21.727152 21.642687 -0.019089526
0001e0 ef 99 29 bd f3 d0 ad 41 e6 50 46 bd 70 c7 ac 41
       -0.04140657 21.727026 -0.048416995 21.597382
0001f0 07 1f ad 41 e3 48 ad 41 73 3f ad 41 04 25 ae 41
       21.64015 21.66059 21.655981 21.768074
000200 db 9f ad 41 18 80 ad 41 5e 38 ad 41 8f c5 ad 41
       21.703054 21.687546 21.652523 21.721464
000210 f4 c0 ac 41 77 65 ad 41 3d 87 ad 41 a4 68 ad 41
       21.594215 21.674543 21.691034 21.676094
000220 ce 3d ad 41 f4 37 ad 41 11 bf ad 41 a6 8f ad 41
       21.655178 21.65232 21.718294 21.69514
000230 7a 8c ad 41 f5 c9 ad 41 aa 2b ad 41 51 da ad 41
       21.693592 21.723612 21.64632 21.7316
000240 e3 1c 86 bc 49 f1 ac 41 25 27 ad 41 b1 01 37 bd
       -0.016371196 21.617815 21.644114 -0.044679347
000250 ea f2 ad 41 bf bb ad 41 97 5c ad 41 04 28 ad 41
       21.74361 21.716673 21.67021 21.644539
000260 d6 b0 ad 41 63 21 ad 41 d1 6b ad 41 26 70 ad 41
       21.711346 21.641302 21.677645 21.67976
000270 b5 03 67 bc e3 09 3c bd 3a 04 ad 41 de a3 c9 bb
       -0.014100005 -0.045907866 21.627064 -0.0061535677
000280 d8 04 33 bd d4 ac ad 41 4d 53 ad 41 63 4c ad 41
       -0.04370579 21.709389 21.665674 21.662298
000290 1c ad ad 41 25 89 58 bd 49 34 ad 41 11 a6 3d bd
       21.709526 -0.052865166 21.65053 -0.04630095
0002a0 98 e5 ad 41 72 a2 ad 41 02 b6 ad 41 a3 f3 ac 41
       21.737106 21.704319 21.713871 21.618963
0002b0 81 bc ad 41 b3 8a ad 41 09 60 ad 41 da cc ac 41
       21.717043 21.692724 21.671892 21.600025
0002c0 02 04 ad 41 20 51 ad 41 3b a9 ad 41 e9 6c ad 41
       21.626957 21.664612 21.707632 21.678179
0002d0 0c e7 ad 41 40 ce ad 41 90 5f ad 41 77 cc ac 41
       21.737816 21.725708 21.671661 21.599836
0002e0 a5 a3 ad 41 9c d4 ad 41 ac 08 ad 41 fa 8e ac 41
       21.704905 21.728813 21.629234 21.569813
0002f0 e2 aa ad 41 f2 4c ad 41 00 bb ad 41 93 47 ad 41
       21.708439 21.66257 21.716309 21.659948
000300 ae 86 ad 41 2e 95 ad 41 c4 8a ad 41 8f 6d ad 41
       21.690762 21.697842 21.692757 21.678495
000310 50 c4 ad 41 0e 65 ad 41 7f a9 ad 41 98 54 ad 41
       21.720856 21.674343 21.707762 21.666306
000320 56 27 ae 41 9d 19 ac 41 f4 b5 2b 3e 54 2c ad 41
       21.769207 21.512506 0.16768628 21.646645
000330 ce 26 ad 41 3b ad ad 41 34 b5 ad 41 21 8a ad 41
       21.643948 21.709585 21.713478 21.692446
000340 a1 52 ad 41 3b 5b ad 41 8b 53 ad 41 ca 38 ad 41
       21.665346 21.669546 21.665792 21.652729
000350 28 7d ad 41 c4 2f ad 41 ae 9d ad bb aa b9 ac 41
       21.686111 21.648323 -0.005298338 21.590656
000360 39 82 1a 3b c3 d0 ac 41 de f4 ac 41 d7 49 ad 41
       0.0023576154 21.601934 21.619564 21.661055
000370 6a 55 ad 41 d7 51 ad 41 b5 1c ad 41 a4 50 ad 41
       21.666706 21.66496 21.639017 21.664375
000380 26 a7 b4 bc 64 6d ad 41 fa d5 2c bd f4 8a ad 41
       -0.022052359 21.678413 -0.04219625 21.692848
000390 82 ed ac 41 b5 c3 ad 41 c4 dd ac 41 a2 9e ad 41
       21.61597 21.72056 21.608284 21.702457
0003a0 dc 45 ad 41 12 6c ad 41 70 31 ad 41 f3 80 ad 41
       21.659111 21.677769 21.64914 21.687963
0003b0 05 d4 ad 41 fa 47 ad 41 d0 dd 14 3d 91 c2 ad 41
       21.728525 21.660145 0.03634435 21.720003
0003c0 14 95 ad 41 8a d3 ad 41 e7 73 16 3d ab a8 ad 41
       21.697792 21.72829 0.036731627 21.707357
0003d0 b2 ad ad 41 49 84 ad 41 0f 1b ad 41 79 a5 ad 41
       21.709812 21.689592 21.638212 21.705797
0003e0 6f 0d ae 41 04 1b ad 41 75 19 ad 41 01 2a ad 41
       21.75656 21.638191 21.63743 21.64551
0003f0 b3 45 ad 41 8e bd ac 41 ab c9 ad 41 fc 3a ad 41
       21.659033 21.592556 21.72347 21.653801

layer4.weight f4 [168, 256]
000000 31 e8 16 3f c2 30 1e 3f 00 1c 16 3f 54 66 24 3f
       0.58948046 0.6179315 0.58636475 0.6421864
000010 35 ef 2b 3f 6e 75 20 3f be e5 1a 3f 6a 09 28 3f
       0.67161876 0.62679183 0.6050681 0.65639365
000020 66 e2 26 3f 3a f1 19 3f eb 65 28 3f 6b ee 23 3f
       0.65189207 0.6013371 0.65780514 0.6403567
000030 4e 0a 26 3f 54 94 2b 3f 83 07 0d 3f b7 d4 0c 3f
       0.64859474 0.67023206 0.55089587 0.5501208
000040 ef cc 19 3f 9a a8 16 3f 6b 76 0d 3f 2a be 0c 3f
       0.6007833 0.58851016 0.55258816 0.5497767
000050 6e e1 1f 3f 2e e6 21 3f 26 ac 24 3f 9b 9f 0b 3f
       0.62453353 0.6324185 0.6432518 0.54540414
000060 8f d8 13 3f 0c e6 24 3f 42 c3 28 3f 35 75 26 3f
       0.5775232 0.64413524 0.6592294 0.65022594
000070 2b 34 12 3f f7 40 28 3f f1 c2 17 3f 53 06 e7 3e
       0.5711085 0.6572413 0.5928183 0.45122012
000080 58 52 18 3f 38 a4 25 3f 66 5b f3 3c 5a 83 22 3f
       0.59500647 0.647037 0.029706668 0.63481677
000090 b8 89 24 3f a8 11 13 3f f0 07 33 3f 9f 7e 8b bc
       0.6427264 0.57448816 0.69933987 -0.017028151
0000a0 dc 15 0d 3f 8f fb 28 3f eb 91 17 3f 4a 43 2e 3f
       0.5511148 0.6600885 0.5920703 0.68071425
0000b0 47 d1 23 3f 1b e5 0e 3f 2a b2 0a 3f 56 de 88 3c
       0.63991207 0.5581834 0.54178107 0.01670758
0000c0 f1 ff 03 3f 92 f5 23 3f 40 74 08 3f 08 43 22 3f
       0.5156241 0.64046586 0.53302383 0.6338353
0000d0 91 25 15 3f 62 37 1a 3f e1 5a 20 3f 86 bb 18 3f
       0.58260447 0.6024076 0.6263867 0.5966114
0000e0 8e 3b 25 3f bb af c7 bb db 8e 09 3f 2a f7 24 3f
       0.64544 -0.0060939468 0.53733605 0.6443964
0000f0 93 26 1c 3f a4 a6 25 3f 20 ca 19 3f 61 c6 1c 3f
       0.6099636 0.647074 0.60074043 0.612402
000100 23 ae 0b 3f 13 75 25 3f b3 ac 09 3f be 8c 29 3f
       0.54562587 0.64631766 0.53779143 0.6623038
000110 2a d3 e8 3e a2 3b 25 3f 5b c9 1a 3f 0f a2 1a 3f
       0.45473605 0.6454412 0.60463494 0.6040353
000120 35 be 14 3f a2 ad 18 3f d5 a0 19 3f 4d 74 14 3f
       0.5810273 0.5963994 0.60011035 0.5798996
000130 a4 ba 1d 3f 97 96 2c 3f b8 08 ef 3e ee a7 f1 3c
       0.61612916 0.6741728 0.4668634 0.02949902
000140 1b 77 22 39 66 e1 1f 3f 68 2d 0a 3f 08 b4 25 3f
       0.00015493894 0.62453306 0.53975534 0.6472783
000150 f1 16 27 3f 66 68 0e 3f 87 5c 22 3f f9 6b 20 3f
       0.6526938 0.5562805 0.63422436 0.62664753
000160 c7 9e 10 3f 76 46 28 3f f3 33 1d 3f 9a fe 0e 3f
       0.56492275 0.65732515 0.61407393 0.5585724
000170 d6 a8 11 3f 5c bc 1f 3f bb b7 0d 3f ac 80 23 3f
       0.5689825 0.6239679 0.55358475 0.6386821
000180 ab 51 1a 3f bb 33 fe 3e 15 a8 1f 3f 7e 6f 1c 3d
       0.60280865 0.49648842 0.6236585 0.038192265
000190 e0 7c 6a 3b 77 b5 26 3f fa 84 1e 3f 38 66 32 3f
       0.0035779998 0.65120643 0.61921656 0.69687223
0001a0 54 88 14 3f 52 94 0e 3f 31 0a 18 3f 5f 09 13 3f
       0.5802052 0.5569507 0.5939055 0.57436174
0001b0 5b 33 1a 3f 8a 07 21 3f ef 60 08 bd 1a ac 43 bd
       0.6023461 0.6290213 -0.033295568 -0.04777155
0001c0 c8 c6 eb 3c 82 fe 06 3d 80 85 17 3f 6c b0 d6 3c
       0.02878131 0.03295756 0.5918808 0.026207171
0001d0 cd d1 13 3f 40 35 2b 3f 96 c3 19 3f 77 5b 86 3c
       0.57742006 0.6687813 0.60064065 0.016401036
0001e0 a4 b8 cb bc 3e b5 1a 3f 9b 75 a5 bc 67 39 0a 3f
       -0.024868317 0.60432804 -0.02019768 0.5399384
0001f0 a3 e5 0a 3f 31 98 1b 3f c1 4f 22 3f a3 06 20 3f
       0.5425665 0.607791 0.63402945 0.62510127
000200 99 b5 1d 3f 78 c6 35 3f f5 e1 23 3f d7 16 0c 3f
       0.6160522 0.71005964 0.6401666 0.5472235
000210 74 30 23 3f 16 67 1d 3f 77 54 23 3f a4 31 1f 3f
       0.6374581 0.6148542 0.6380076 0.6218512
000220 45 10 02 3f 01 e8 19 3f 49 cc 1e 3f 05 cc 13 3f
       0.50806075 0.60119635 0.62030464 0.57733184
000230 ab 08 2f 3f 73 a0 27 3f 31 06 fe 3e d8 50 1c 3f
       0.683726 0.654792 0.496141 0.6106086
000240 4e 8a e4 bb e8 f0 17 3f 24 24 1b 3f 4e 26 41 3c
       -0.006974495 0.5935197 0.6060202 0.011788918
000250 7b b1 23 3f 75 77 11 3f 42 3a 09 3f ee 45 07 3f
       0.6394269 0.568229 0.5360452 0.5284108
000260 53 ca 30 3f db 82 26 3f 7a b1 23 3f cc 14 0d 3f
       0.6905872 0.6504342 0.6394268 0.5510986
000270 a2 9d 1f 3d d0 fb 31 bd f7 50 24 3f 74 0b 23 bd
       0.03896869 -0.043453038 0.6418604 -0.039805844
000280 e4 42 42 bc f5 3b 25 3f 8d 44 08 3f 02 ab 0a 3f
       -0.011856768 0.6454461 0.532296 0.5416719
000290 e0 0c 24 3f 8b b6 60 3d 1d 17 10 3f 7a df 94 3c
       0.64082146 0.054861587 0.5628527 0.018172968
0002a0 ac 3f 28 3f 4f 98 1b 3f c3 96 2d 3f 56 ec 0d 3f
       0.65722156 0.6077928 0.6780817 0.55438745
0002b0 b5 2e 1a 3f fa a4 1a 3f ec ba 25 3f fd ff 0e 3f
       0.6022752 0.60407984 0.64738345 0.5585936
0002c0 a0 58 15 3f 53 83 2d 3f ed 6f 24 3f 73 b1 0d 3f
       0.58338356 0.6777851 0.64233285 0.5534889
0002d0 30 03 17 3f f9 38 12 3f 07 ee 0d 3f 11 8a 12 3f
       0.5898924 0.57118183 0.55441326 0.5724192
0002e0 51 fc 22 3f 00 9d 11 3f 47 77 17 3f e5 55 0a 3f
       0.63666254 0.5688019 0.5916638 0.54037315
0002f0 a0 1e 0e 3f 61 d6 11 3f 75 f0 29 3f 48 05 0b 3f
       0.5551548 0.5696774 0.66382533 0.54304934
000300 0b da 13 3f 78 57 0f 3f 50 1a 24 3f b9 98 05 3f
       0.5775458 0.5599284 0.6410265 0.5218616
000310 58 44 24 3f a5 4d 06 3f 32 64 18 3f 7e 7a 11 3f
       0.64166784 0.52462226 0.59527886 0.56827533
000320 4d 2b 1c 3f a8 27 0d 3f c6 25 cc bd 3d cf 19 3f
       0.6100357 0.55138636 -0.09968142 0.60081846
000330 a3 34 17 3f 29 7f 22 3f df 78 21 3f e1 b9 1c 3f
       0.5906469 0.6347528 0.6307506 0.6122113
000340 1d 5d 10 3f c7 50 26 3f cb aa 2e 3f ed 88 19 3f
       0.5639208 0.64967006 0.6822936 0.5997456
000350 c5 a1 25 3f ae 9b 09 3f 14 02 28 3d 70 2d 11 3f
       0.64699966 0.53753173 0.041017607 0.5670996
000360 fa 0b 93 bc a0 ba 27 3f 0d 57 17 3f 5b b1 f8 3e
       -0.017950047 0.6551914 0.59117204 0.4857281
000370 f6 fa 24 3f 21 68 1a 3f 37 db 18 3f a7 db 16 3f
       0.64445436 0.6031514 0.59709495 0.5892891
000380 b6 15 10 bd 02 3d 1a 3f 34 75 3e 3d 5e dc 20 3f
       -0.035176955 0.6024934 0.046498492 0.62836254
000390 96 3b 23 3f 9b 02 1a 3f 57 bb 05 3f 05 98 1a 3f
       0.63762796 0.60160226 0.5223898 0.60388213
0003a0 c2 b0 18 3f b9 29 2e 3f 13 08 0c 3f 5d ae 22 3f
       0.5964471 0.68032414 0.5469982 0.6354731
0003b0 49 34 12 3f d6 fc 0e 3f 6b 66 b7 3b 75 3b 16 3f
       0.5711103 0.5585455 0.005596926 0.58684474
0003c0 b0 7f 24 3f 4e b3 1e 3f fb 4f 17 bd d2 22 09 3f
       0.64257336 0.6199235 -0.03694151 0.53568757
0003d0 aa a9 1f 3f fe 68 15 3f a2 bc 26 3f f4 64 24 3f
       0.6236826 0.5836333 0.6513158 0.6421654
0003e0 4b e3 24 3f 45 19 1d 3f 65 13 24 3f 64 df 10 3f
       0.6440932 0.61366683 0.64092094 0.5659087
0003f0 a2 87 16 3f f5 12 19 3f 50 d7 30 3f ff 5d 0f 3f
       0.5880071 0.5979455 0.6907854 0.560028

layer4.bias f4 [168]
000000 af 77 08 3f 5f f9 6d 3c ef 93 a4 3f c3 27 3d 41
       0.5330762 0.014524787 1.2857646 11.822207
000010 5c 8e 20 3f 8c bb ac 3e 20 ff 27 3f 6e e8 69 41
       0.62717223 0.33736837 0.65623665 14.619246
000020 e5 0b 21 3f fc 21 6d 3f 58 eb 21 3f eb f9 1c 3f
       0.62908775 0.9262998 0.6324973 0.61318845
000030 74 78 c2 3e 07 5c 74 41 47 4b b3 3e f8 b0 ca 3e
       0.37982523 15.272468 0.3501837 0.3958814
000040 df 2c e7 3e c6 71 be 3f b2 16 1f 3e d0 4c 38 3f
       0.4515142 1.4878471 0.15536001 0.71992207
000050 a0 22 26 41 15 21 8f 3f ee 0e 2d 40 3f 60 0d 40
       10.383453 1.1181971 2.7040362 2.2089994
000060 df 5d ce 40 47 1e cf 3f 73 c7 ca 3f 2d 80 06 3f
       6.448959 1.6181115 1.5842117 0.5253933
000070 58 23 dc 40 fa ca e7 3f 9e b9 12 3f ce d9 3e 3f
       6.8793144 1.8108819 0.5731448 0.74551094
000080 fc a5 7d 41 5b c5 68 3f a3 c4 b7 3f ae ad f7 40
       15.853024 0.9092614 1.4356884 7.739951
000090 4d a5 d8 3f 3f d1 37 40 05 b6 22 3f c9 81 6b 41
       1.6925446 2.8721464 0.6355899 14.719186
0000a0 62 b8 17 3f 17 fa 27 3f ee 5a fc 40 fe 53 09 40
       0.5926572 0.6561598 7.8861 2.1457515
0000b0 1a 5b 63 3e 68 67 46 40 51 20 a5 3f 15 ee 47 3f
       0.22202721 3.1000614 1.2900487 0.7809766
0000c0 9f a4 0d 3f a4 39 cb 3e 72 dc 0f 3f 54 8c 51 3f
       0.55329317 0.39692414 0.5619575 0.8185475
0000d0 65 e2 3b 3f bc 78 aa 3f b6 b8 95 41 89 1e 7c 3f
       0.73392326 1.3318095 18.71519 0.9848409
0000e0 92 90 d0 3f 08 41 36 41 e8 c8 37 3f 9b da cf 3f
       1.6294119 11.390877 0.71790934 1.6238588
0000f0 67 1e d8 3f 16 c0 a0 3f f7 b9 73 41 54 34 b5 3f
       1.6884278 1.255862 15.232902 1.4156594
000100 7e 8e f0 3f 22 92 88 3f 45 11 04 40 73 6c 66 40
       1.8793485 1.0669596 2.063554 3.6003692
000110 9a ed 3e 40 5d cb cb 3e 7d 72 c0 3f 65 14 f2 3e
       2.983252 0.3980359 1.5034939 0.47281185
000120 ec a8 80 41 0b 2f 17 3f 08 04 10 3f 2a 6f 8b 3f
       16.082481 0.59056157 0.5625615 1.08933
000130 0c 10 ed 3f 81 6a 60 41 11 10 0a 3f cf d5 f7 3f
       1.8520522 14.026002 0.53930765 1.9362124
000140 f0 14 86 3f 72 27 f5 3f 54 b5 10 40 d2 bb 2c 40
       1.047514 1.9152663 2.2610674 2.6989636
000150 2c 1e 9a 40 ac 6e cc 3f 30 a2 8e 3f 3b 41 91 41
       4.816183 1.5971274 1.1143246 18.15685
000160 59 7a bd 3f 89 52 21 3f 13 7b 4a 3f 59 f3 7a 3f
       1.4802963 0.63016564 0.79094046 0.9802757
000170 da c1 42 3f b3 89 90 41 24 c3 3c 3f da cc 8f 3e
       0.76077044 18.067236 0.7373526 0.28085977
000180 d4 8d 57 3e d0 47 8a 3f d5 b8 93 3f f6 49 cc 3e
       0.21050197 1.0803165 1.1540781 0.39900178
000190 c8 60 54 3f 60 2a 8f 3f 54 56 98 3f 8b e3 b4 3f
       0.82960176 1.1184807 1.1901345 1.4131941
0001a0 3c f3 4c 40 1b 62 93 3f 29 56 28 3f 1b 78 3c 41
       3.2023458 1.1514314 0.6575647 11.779323
0001b0 f3 a9 6e 40 3d d4 ad 3f 5b 3e ae 40 e4 be 37 3f
       3.7291229 1.3580395 5.4451118 0.7177565
0001c0 9f a2 1c 3f bc 40 a8 40 55 49 59 3f bd bf 49 3f
       0.6118564 5.257902 0.8487752 0.78808194
0001d0 46 01 c7 3e d3 0b 88 41 aa 15 8c 3f f0 88 9d 40
       0.3886816 17.005774 1.0944111 4.922966
0001e0 23 7d 2f 3e 36 1b 86 40 1f 86 42 40 b4 5e 79 3f
       0.1713758 4.1908216 3.039436 0.9741013
0001f0 e1 6d 6b 41 6c 89 2b 3f ba df 94 41 ac fa fc 3f
       14.714326 0.67006564 18.609241 1.9763999
000200 8c 12 6f 3f 99 08 2b 3f 6d 77 8c 3f 28 ff 22 41
       0.93387675 0.66809994 1.0973946 10.187294
000210 b2 c3 a8 3e 4b 2f 43 3f 55 47 18 40 4c 27 f6 3f
       0.32961804 0.7624404 2.3793538 1.9230742
000220 63 13 7a 41 aa 76 7b 3f 7b dd 11 3f c4 37 90 41
       15.629733 0.9822794 0.5697858 18.02723
000230 f4 7b 50 3f 54 d9 55 3f c2 da 07 40 30 e2 df 3f
       0.8143914 0.8353474 2.122727 1.7490902
000240 0d 4b e7 3e 9f 35 ba 3f 01 a7 72 41 c2 b6 70 3e
       0.45174447 1.4547614 15.165772 0.23507217
000250 cd 47 28 3f 07 3b 39 3e ed 8a 40 3e c4 ed 43 3f
       0.6573456 0.18088923 0.18802996 0.76534677
000260 bb 05 69 3f 0a 6a f9 3f 91 33 e9 3d 0b 3d be 3f
       0.9102437 1.9485486 0.11386789 1.4862379
000270 0f c0 2e 40 20 a6 cc 3f d9 da a4 40 93 24 1a 3f
       2.7304723 1.5988197 5.151715 0.6021206
000280 2c c2 c3 3e 78 9d 01 3f 35 61 c2 3f 7a cf e0 3f
       0.3823408 0.50630903 1.5185915 1.7563317
000290 04 55 36 3e 72 ed 87 41 4c e3 c3 3e 28 e0 f5 3e
       0.17805868 16.99094 0.3825935 0.4802258
