models/6/guerrilla_model_weights.pth (torch, 613952 bytes, 8 tensors)

layer1.weight f4 [128, 82]
000000 ee 2a e3 41 b3 88 e2 41 69 1a b5 41 a7 08 fb 40
       28.395962 28.316748 22.637896 7.844806
000010 aa f7 17 3f 1e 97 e2 41 a9 d0 e2 41 6f 81 a7 41
       0.5936228 28.323788 28.351885 20.9382
000020 5d b1 75 40 13 5a e2 41 e1 d9 e2 41 61 69 0f 40
       3.8389504 28.293982 28.356386 2.2408068
000030 1c e7 cc 3e 85 5f 89 41 1f 0d e2 41 93 0f e2 41
       0.40020072 17.17164 28.256407 28.257605
000040 cf 99 39 3d 81 02 71 41 34 aa e2 41 c8 3d e2 41
       0.0453127 15.063111 28.333107 28.280167
000050 b3 72 2d 3d 22 94 58 40 22 90 92 40 58 1e e3 41
       0.042345714 3.3840413 4.5800943 28.389816
000060 6e 53 69 3d 2c 82 81 3f 03 01 bc 3e 08 ac 18 3f
       0.05696433 1.011785 0.36719522 0.596375
000070 92 24 5b bc 60 bf af 3f 13 a2 78 3d 1c c2 d2 bc
       -0.013375418 1.3730278 0.06070144 -0.025727324
000080 49 6e 0b 3c 25 60 e1 41 be ea e0 41 40 45 e1 41
       0.008510181 28.171946 28.11462 28.158813
000090 9f f3 e0 41 ce d4 dd 41 27 8f e1 41 21 ec d5 41
       28.118956 27.728909 28.194899 26.740297
0000a0 cb fe e0 41 53 0c e2 41 6f 12 e1 41 f9 53 e2 41
       28.12441 28.256018 28.134 28.291002
0000b0 9e da e1 41 ca 1c e2 41 37 a0 e1 41 e6 98 dd 41
       28.231747 28.264057 28.20323 27.699657
0000c0 1f f8 cb 41 e9 cb e1 41 dd d9 e1 41 ef 66 e2 41
       25.496153 28.224566 28.231379 28.30026
0000d0 f5 e4 e1 41 00 ef e0 41 26 4c d8 41 ae f8 e1 41
       28.236795 28.1167 27.037182 28.246426
0000e0 f7 b5 e1 41 05 3a e1 41 62 64 e1 41 e8 1e e2 41
       28.21385 28.15333 28.174015 28.26509
0000f0 8f b5 e1 41 66 5c 90 41 06 29 bd 41 d1 71 e0 41
       28.213652 18.045116 23.645031 28.055574
000100 00 97 e1 41 65 c1 e1 41 52 6f c3 41 19 a7 e1 41
       28.19873 28.21943 24.429356 28.20659
000110 3c 76 19 41 82 74 84 41 3f 2d 9a 41 98 56 c6 41
       9.591366 16.556889 19.272093 24.792282
000120 33 76 c4 41 a5 34 e2 41 3b f1 e1 41 78 a7 e6 40
       24.557714 28.275705 28.242788 7.207943
000130 bf 03 17 41 d6 72 48 41 27 9d 4d 41 9b 02 9b 41
       9.438415 12.528036 12.850867 19.376272
000140 b5 17 a6 41 8a 1c 7a 41 7f 32 e3 41 d3 69 e2 41
       20.761576 15.631968 28.399656 28.301672
000150 bc 92 b3 41 b4 5a fd 40 c7 c8 1f 3f d8 ad e1 41
       22.446648 7.917322 0.62415737 28.209885
000160 8a 18 e3 41 dc ca a7 41 1f 2d 6e 40 41 c0 e1 41
       28.386982 20.974052 3.721504 28.218874
000170 40 d8 e2 41 a3 4e 13 40 d6 61 ae 3e 99 1a 89 41
       28.35559 2.3016746 0.34059018 17.137987
000180 8e 05 e3 41 59 20 e3 41 f4 fb d1 3c 32 c3 71 41
       28.377712 28.390795 0.025632836 15.110155
000190 6e 22 e2 41 01 6e e2 41 22 b8 46 bd 70 6d 55 40
       28.266811 28.303713 -0.048515446 3.3348045
0001a0 46 3b 91 40 ff 59 e3 41 b8 a5 85 3c d1 81 84 3f
       4.5384855 28.418943 0.016314372 1.0352117
0001b0 a3 b1 b4 3e 23 81 1b 3f 03 a3 22 bc 10 b0 ad 3f
       0.35291776 0.6074392 -0.00992656 1.3569355
0001c0 10 22 8b bc 2c 57 07 3d dd 5c 0b bd bc e5 e1 41
       -0.016984016 0.033042118 -0.03402411 28.237175
0001d0 8d 74 e1 41 e5 32 e2 41 80 8c e1 41 f3 c2 dd 41
       28.18191 28.27485 28.193604 27.72019
0001e0 00 e4 e1 41 5d b5 d5 41 56 b7 e1 41 04 ac e1 41
       28.236328 26.713556 28.21452 28.208992
0001f0 ea 97 e1 41 98 97 e1 41 43 fc e1 41 70 e9 e0 41
       28.199177 28.19902 28.248175 28.113983
000200 5d 3e e1 41 70 14 de 41 41 bc cc 41 ff 80 e1 41
       28.15545 27.75998 25.59192 28.187986
000210 a1 3c e1 41 28 8d e1 41 d8 c7 e1 41 28 f2 e1 41
       28.154604 28.193924 28.22258 28.24324
000220 71 90 d7 41 2a 39 e1 41 a9 3b e1 41 5a 37 e1 41
       26.945528 28.152912 28.15413 28.152027
000230 c9 5a e1 41 26 f7 e0 41 48 3c e1 41 66 13 91 41
       28.169329 28.120678 28.154434 18.134472
000240 9b 95 bc 41 f9 ef e0 41 cb d9 e1 41 82 e3 e1 41
       23.57305 28.117174 28.231344 28.236088
000250 92 2f c3 41 9d 2c e1 41 67 76 1a 41 ba 32 84 41
       24.398228 28.146784 9.653907 16.524769
000260 ca 5d 9a 41 6c e1 c5 41 21 30 c4 41 62 d1 e0 41
       19.295795 24.73507 24.5235 28.102238
000270 49 a0 e1 41 09 01 e8 40 f9 79 17 41 65 6f 4a 41
       28.203264 7.2501264 9.4672785 12.652196
000280 74 86 4d 41 ce e7 9a 41 1e aa a5 41 24 39 78 41
       12.845325 19.363186 20.708065 15.51395
000290 c5 bf e3 41 1d e8 e2 41 ad ba b3 41 38 20 fd 40
       28.468637 28.363337 22.46615 7.910183
0002a0 08 eb 3c 3f af c7 e1 41 8d 97 e2 41 4c 28 a8 41
       0.7379613 28.222502 28.324 21.019676
0002b0 c0 88 6d 40 0d 7a e1 41 e9 41 e3 41 55 aa 16 40
       3.7114716 28.184595 28.407183 2.3541462
0002c0 5d b7 c8 3e 6f e6 88 41 3a 3c e3 41 2d c4 e2 41
       0.39202395 17.112516 28.404408 28.345789
0002d0 0c 09 80 3d 7a 60 72 41 c2 46 e3 41 9a 25 e2 41
       0.062517256 15.148554 28.40955 28.26836
0002e0 7e 4b f2 bc 85 92 5a 40 5d 17 93 40 be f2 e2 41
       -0.029577013 3.4151928 4.596602 28.368526
0002f0 28 a1 cc bb a9 0b 79 3f 69 a5 93 3e a8 a1 17 3f
       -0.0062447973 0.97283417 0.28837135 0.5923104
000300 9a 44 43 3d 25 0d ad 3f b5 85 8f bd 49 ea 7e 3d
       0.047672845 1.3519636 -0.070079245 0.06223515
000310 37 3a 88 bd cc ed e0 41 2d b9 e0 41 6a 17 e2 41
       -0.066517286 28.116112 28.090418 28.261433
000320 b2 6c e1 41 36 cc dd 41 ef 25 e1 41 aa fe d4 41
       28.178074 27.724712 28.143522 26.624348
000330 e5 e8 e0 41 28 9e e1 41 8f fa e1 41 79 3d e1 41
       28.113718 28.202225 28.247343 28.155016
000340 74 c4 e1 41 51 42 e1 41 15 88 e0 41 3b 91 de 41
       28.220924 28.157381 28.066446 27.820913
000350 56 32 cc 41 4d 5f e1 41 8b eb e0 41 f7 3e e1 41
       25.524578 28.171534 28.115011 28.155745
000360 24 94 e0 41 88 95 e0 41 31 93 d8 41 b2 27 e2 41
       28.072334 28.073013 27.07187 28.269382
000370 a5 a9 e1 41 25 57 e1 41 78 e8 e0 41 5c 88 e1 41
       28.207834 28.167551 28.11351 28.191582
000380 e3 90 e0 41 a6 32 90 41 79 0a bc 41 d5 a9 e0 41
       28.070745 18.02473 23.505114 28.082926
000390 6b f3 e1 41 0b de e0 41 e6 00 c4 41 94 93 e0 41
       28.243856 28.10842 24.500439 28.07206
0003a0 21 bd 19 41 73 37 84 41 19 43 9a 41 bf 2e c6 41
       9.608674 16.527075 19.282763 24.772825
0003b0 1d 4f c3 41 55 e9 e0 41 ee 6a e0 41 88 d2 e7 40
       24.41363 28.113932 28.052212 7.2444496
0003c0 ec db 16 41 b0 81 47 41 87 48 4b 41 37 d2 9a 41
       9.428692 12.469162 12.705207 19.352644
0003d0 99 cf a5 41 11 c4 76 41 d4 c0 e2 41 67 d9 e2 41
       20.726366 15.422868 28.344154 28.356153
0003e0 21 fd b3 41 5b 33 f8 40 64 88 32 3f 47 02 e2 41
       22.498598 7.756269 0.69739366 28.251112
0003f0 1e b4 e3 41 98 bf a7 41 fe 31 68 40 59 78 e1 41
       28.462948 20.968552 3.6280513 28.183764

layer1.bias f4 [128]
000000 08 df e2 41 0e 3d e2 41 69 58 e3 41 86 f5 e2 41
       28.358902 28.279812 28.418169 28.369884
000010 ee af e2 41 68 f4 e1 41 de 46 e2 41 19 ad e2 41
       28.335903 28.244339 28.284603 28.33452
000020 8a 62 e2 41 d5 32 e3 41 cb e2 e2 41 80 96 e2 41
       28.298115 28.39982 28.360739 28.323486
000030 d8 da e2 41 25 87 e2 41 60 af b1 41 b4 0c e0 41
       28.356857 28.315989 22.210632 28.006203
000040 6c 24 e3 41 f6 34 e2 41 4c 29 e2 41 eb d5 e2 41
       28.392784 28.27586 28.270164 28.354452
000050 5a 89 e2 41 27 f8 e2 41 7d d2 e1 41 48 16 e3 41
       28.317066 28.371168 28.227777 28.38588
000060 bb e0 e2 41 29 26 e3 41 8b 63 e2 41 b5 04 e3 41
       28.359732 28.393633 28.298605 28.377298
000070 94 e2 e2 41 22 ae e2 41 25 b3 e2 41 80 64 e2 41
       28.360634 28.335026 28.337473 28.299072
000080 45 c1 e2 41 8e 39 e2 41 83 b2 99 bd f2 f2 e2 41
       28.34437 28.278103 -0.075047515 28.368626
000090 76 69 e2 41 ec 11 e3 41 c7 dc e2 41 c8 b0 e2 41
       28.301495 28.38375 28.357801 28.336319
0000a0 e8 08 e3 41 da 72 e2 41 0d af e0 41 78 53 e3 41
       28.379349 28.30608 28.085474 28.415756
0000b0 f6 fc e2 41 b3 5c e3 41 81 ea e2 41 c7 11 e2 41
       28.373516 28.420263 28.364504 28.25868
0000c0 7b 36 e3 41 c9 c8 e1 41 c4 ec e2 41 5a 97 e2 41
       28.401602 28.22304 28.365608 28.323902
0000d0 93 1c e3 41 63 31 e3 41 60 0f e3 41 ec 75 e2 41
       28.388952 28.399115 28.382507 28.307579
0000e0 cb fc e2 41 e0 64 e2 41 77 d0 e2 41 e0 d7 e1 41
       28.373434 28.299255 28.35179 28.230408
0000f0 82 5f e3 41 68 55 e3 41 67 5e e3 41 09 5e e2 41
       28.421635 28.416702 28.421095 28.295916
000100 25 5f e3 41 5d 6a e2 41 12 37 e3 41 8c 49 e3 41
       28.421457 28.301935 28.40189 28.410912
000110 34 5a e2 41 45 61 e2 41 33 4c e2 41 33 c5 e2 41
       28.294044 28.297495 28.287207 28.346289
000120 97 df e2 41 c6 58 e2 41 66 7c e2 41 1b 60 e2 41
       28.359175 28.293346 28.310741 28.296926
000130 5c b4 e2 41 80 fd e2 41 4f b8 b7 bd c4 10 e3 41
       28.338066 28.37378 -0.08970701 28.383186
000140 9a 9a e2 41 6c a9 e2 41 47 e8 e2 41 63 57 e3 41
       28.325489 28.332726 28.363417 28.41767
000150 63 34 97 bd f1 71 e2 41 6e 7a e2 41 74 5c e2 41
       -0.07383039 28.305635 28.30978 28.295143
000160 5c 6e e3 41 3a 36 e3 41 8e 56 e2 41 9a 7a e2 41
       28.428886 28.401478 28.292263 28.309864
000170 a6 7f e2 41 fc 73 e1 41 5c 44 e3 41 48 4a e2 41
       28.312328 28.181633 28.408379 28.28627
000180 25 62 e1 41 ee e9 e2 41 22 f3 e2 41 93 f3 e2 41
       28.172922 28.364223 28.368717 28.368933
000190 c0 d0 d8 bd 6b f8 e2 41 c8 29 e2 41 b7 01 e3 41
       -0.10586691 28.371298 28.270401 28.375837
0001a0 dc 35 e2 41 b2 39 e3 41 1c b9 e2 41 c5 56 e3 41
       28.276299 28.403172 28.340385 28.417368
0001b0 85 85 e2 41 dc 24 e2 41 d4 20 e2 41 a2 43 e2 41
       28.315195 28.267998 28.26603 28.283024
0001c0 73 1b e3 41 b3 d2 e1 41 b0 eb e2 41 ce 98 e2 41
       28.388403 28.22788 28.365082 28.324612
0001d0 b1 51 e2 41 01 37 e3 41 f6 1e e2 41 d2 c6 e2 41
       28.289888 28.401857 28.265118 28.34708
0001e0 ae ce e2 41 70 54 e2 41 e2 0a e3 41 4a 26 e3 41
       28.350918 28.29123 28.380314 28.393696
0001f0 ed e0 e2 41 98 50 e2 41 7f d1 e2 41 19 62 e2 41
       28.359827 28.289352 28.352293 28.2979

layer2.weight f4 [256, 128]
000000 49 d0 78 bd a1 bb be 3c 1b 9a 38 bd 95 6b 17 3d
       -0.06074551 0.023282828 -0.04506884 0.036967833
000010 76 5c fd bc b9 3a 25 3b b7 4b 01 3d 40 7b e0 3b
       -0.030927878 0.0025212003 0.031566348 0.00685063
000020 12 9e 6f bd df 16 b4 3c ef ac a8 3c 7e 6e d8 bc
       -0.058500357 0.021983562 0.020590274 -0.026419874
000030 63 b1 ad bc 85 fa 15 bd d1 6c 0d 3d 72 93 ed bc
       -0.021202749 -0.036615867 0.034527604 -0.029000971
000040 8c fd a6 3c ec fa 0a 3c 22 67 ee b9 6f 8c 17 bc
       0.020384572 0.008482676 -0.00045471737 -0.009249791
000050 8b bd 42 bc ff f3 2f 3d 3b 52 23 3c cf 2a 14 bd
       -0.011886011 0.042957302 0.009968336 -0.036173638
000060 78 79 61 bd ac 95 00 3d d8 15 4a bb 38 8b 4d 3d
       -0.055047482 0.03139274 -0.0030835774 0.050181597
000070 2f 94 e7 bc a5 71 28 bd 7c 46 68 3c e8 e8 4a 3d
       -0.028268902 -0.041124005 0.014176961 0.049538523
000080 fe 76 49 3c 49 e0 e0 bc 7c 2c 69 3d 6c dc 53 bc
       0.012296436 -0.027450697 0.05692719 -0.012930971
000090 ec 2c 04 3d 16 b0 19 3c 05 c2 63 3d c4 4b 27 bd
       0.032269403 0.009380361 0.055604953 -0.04084374
0000a0 03 55 c9 3c ea 29 06 bd 62 83 ad 3c a7 d4 94 bc
       0.02457667 -0.032754816 0.021180812 -0.018167807
0000b0 69 f0 9f bc b4 d7 8c 3c 14 13 41 3d e7 0e 32 3d
       -0.019523816 0.017192699 0.047137335 0.043471243
0000c0 3e 21 a5 bc fb 5b 38 3d a9 ba 62 bd f1 46 a4 3b
       -0.020157453 0.045009594 -0.055353794 0.0050133397
0000d0 fa 11 0a bd 63 c4 c5 bc 1b 34 b3 bc ca 60 6c bd
       -0.03370855 -0.024141496 -0.021875432 -0.057709493
0000e0 2e ab cd bc cd ba 92 bb db 8f 20 bd 7b 78 c8 ba
       -0.025106039 -0.004477835 -0.03919969 -0.0015294695
0000f0 ad 03 97 3b 03 04 9b 3c 22 b9 42 bd 5b 07 87 bd
       0.0046085925 0.018922811 -0.047539838 -0.065932
000100 3b 30 b9 3c 92 46 58 3d 9d 70 c6 3c ef 3c 25 3b
       0.022606006 0.052801676 0.02422362 0.0025213321
000110 97 be b9 3c a2 d5 70 bc b2 4e 48 bd 83 35 35 3c
       0.022673888 -0.0146993715 -0.048903175 0.0110601215
000120 70 ef 58 3d f9 26 84 bc 81 d5 0e bd 43 f9 af 3c
       0.05296272 -0.016131865 -0.034871582 0.021481162
000130 3a fe ea 3c 3f fd 61 bd 1a 5b a8 bc 6a 5b 65 3d
       0.028685678 -0.055173155 -0.020551253 0.055995382
000140 98 80 48 3d 3a 83 87 bd 75 09 17 bd de dc 7f bc
       0.04895076 -0.06616826 -0.036874253 -0.015616624
000150 d9 ea dc bc ee 5b 6a 3d b9 40 14 3d e3 b3 0b bd
       -0.026967453 0.057216577 0.036194537 -0.0341071
000160 03 95 33 bc 6a 39 45 bd 75 e5 24 3c fc 60 5a bc
       -0.01096082 -0.048150457 0.010064472 -0.013328787
000170 fc 59 5a 3c fb 80 37 bd 38 f4 fa 3c 05 56 79 bc
       0.013327118 -0.04480074 0.03063403 -0.015218263
000180 02 71 86 bd a6 1c 27 bd db c8 ae 3c 73 05 48 3d
       -0.06564523 -0.040798806 0.02133601 0.04883332
000190 fc ec ac bc b9 7a 80 3c ae e6 54 bd e4 6f 80 bd
       -0.021109097 0.015683519 -0.051977806 -0.062713414
0001a0 f3 9a a0 3c e1 ad 9a 3c af cc 99 3c 1b b1 14 39
       0.019605136 0.01888174 0.018774359 0.00014180357
0001b0 14 e4 23 bd 23 fd 38 3d 40 14 88 bd 09 b4 14 bd
       -0.040012434 0.045163285 -0.066444874 -0.036304507
0001c0 77 4b ab bc 72 90 69 bd 1e b3 3f bd 04 b2 d1 3c
       -0.020910008 -0.05702252 -0.04680168 0.02559758
0001d0 7d e8 11 3d 98 d7 d4 bc f2 77 6f bd 1a 3e f1 bc
       0.03562211 -0.02598171 -0.058464 -0.029448558
0001e0 d2 f1 72 bc 1e 7b 78 3c 13 cd 68 3d 16 0d f0 bc
       -0.014828162 0.015166072 0.0568362 -0.029303115
0001f0 9e 74 4b bd 51 cf a2 3c f8 dd c3 bc aa 84 ca 3c
       -0.04967176 0.019874247 -0.023909554 0.024721462
000200 76 4e e3 41 d4 7a e3 41 d3 88 e3 41 c2 d9 e3 41
       28.413311 28.434975 28.441809 28.481327
000210 30 f7 e2 41 ee d6 e2 41 2d 70 e2 41 2c 0f e3 41
       28.370697 28.354946 28.304773 28.382408
000220 6b 5d e2 41 56 a4 e2 41 12 f5 e2 41 62 3d e3 41
       28.295614 28.330242 28.369663 28.404972
000230 f6 81 e2 41 cb c3 e2 41 f0 64 b2 41 31 52 e1 41
       28.313457 28.345602 22.299286 28.165133
000240 79 d2 e2 41 49 41 e3 41 2f 05 e3 41 c2 b9 e2 41
       28.35277 28.406878 28.377531 28.340702
000250 42 3f e2 41 1a 43 e3 41 a1 df e2 41 47 73 e2 41
       28.280888 28.407764 28.359194 28.306288
000260 47 5e e2 41 41 1a e4 41 d0 80 e2 41 2d b7 e2 41
       28.296034 28.51282 28.312897 28.339441
000270 a0 ec e2 41 ca 1d e3 41 c8 52 e3 41 cb 40 e3 41
       28.36554 28.389545 28.41542 28.406637
000280 50 37 e3 41 4b 0f e3 41 a1 fd bd bc 56 41 e3 41
       28.402008 28.382467 -0.023192229 28.406902
000290 c7 d5 e2 41 fa 71 e2 41 d0 72 e2 41 51 8c e2 41
       28.354383 28.305653 28.30606 28.318514
0002a0 ac 46 e3 41 b5 29 e3 41 09 18 e2 41 3b 83 e2 41
       28.409508 28.395365 28.261736 28.314077
0002b0 26 d7 e2 41 97 e0 e2 41 44 3f e4 41 d8 3c e3 41
       28.355053 28.359663 28.530891 28.404709
0002c0 18 16 e3 41 4e 43 e3 41 46 df e2 41 75 b4 e2 41
       28.385788 28.407864 28.35902 28.338114
0002d0 2f a2 e2 41 58 5a e3 41 0d 5d e2 41 32 12 e3 41
       28.329191 28.419113 28.295435 28.383884
0002e0 7b 61 e3 41 98 db e2 41 be 87 e2 41 82 0d e3 41
       28.422598 28.357224 28.31628 28.381596
0002f0 79 e8 e2 41 33 82 e3 41 a1 96 e2 41 8f de e2 41
       28.363512 28.438574 28.32355 28.358671
000300 b6 2b e3 41 a9 dd e2 41 9c c1 e3 41 97 08 e3 41
       28.396343 28.358232 28.469536 28.379194
000310 2f c9 e2 41 cd 58 e2 41 c3 19 e3 41 c6 28 e3 41
       28.348234 28.29336 28.387579 28.394909
000320 c3 4d e3 41 cb b1 e2 41 7c 53 e4 41 cc 1d e3 41
       28.41297 28.336813 28.540764 28.38955
000330 4c d9 e2 41 75 61 e2 41 30 de 8d bd 69 6f e3 41
       28.356102 28.297586 -0.069271445 28.4294
000340 6f e0 e3 41 75 b8 e2 41 a8 04 e3 41 dc 6f e2 41
       28.484587 28.340067 28.377274 28.304619
000350 74 b0 c3 bd d7 cd e3 41 0a e2 e2 41 c0 7d e2 41
       -0.0955514 28.475508 28.36037 28.311401
000360 70 f7 e2 41 60 36 e3 41 af fe e2 41 15 f5 e2 41
       28.37082 28.40155 28.374357 28.369669
000370 ba 11 e3 41 a8 b0 e2 41 29 48 e3 41 7b d2 e2 41
       28.383656 28.336258 28.410234 28.352774
000380 c8 c8 e2 41 2c 40 e2 41 f5 f7 e2 41 a2 1d e3 41
       28.348038 28.281334 28.371073 28.38947
000390 6b 8d da bd f1 c0 e3 41 f8 b4 e2 41 ee ce e2 41
       -0.106715046 28.46921 28.338364 28.35104
0003a0 98 fa e2 41 32 0d e3 41 88 c3 e2 41 b8 27 e2 41
       28.37236 28.381443 28.345474 28.269394
0003b0 f2 1b e3 41 03 1b e3 41 75 a8 e2 41 99 f8 e2 41
       28.388645 28.38819 28.332254 28.371386
0003c0 df 84 e2 41 b9 0c e3 41 05 48 e2 41 b7 bf e3 41
       28.314878 28.381212 28.285166 28.46861
0003d0 ba 22 e2 41 02 46 e3 41 9e 56 e3 41 fe 6c e2 41
       28.266956 28.409184 28.417294 28.303219
0003e0 ee 63 e2 41 0d 73 e2 41 95 aa e2 41 86 aa e2 41
       28.298794 28.306177 28.333292 28.333263
0003f0 9c 08 e3 41 30 d5 e2 41 ba 2d e2 41 24 17 e3 41
       28.379204 28.354095 28.272327 28.3863

layer2.bias f4 [256]
000000 8e a0 a2 3c b7 bf e3 41 4a b1 e3 41 d3 29 e4 41
       0.019851949 28.46861 28.461567 28.520422
000010 3f 42 e4 41 da 2a e4 41 12 50 e3 41 fe 77 47 bd
       28.532347 28.520924 28.414097 -0.048698418
000020 4b 52 e4 41 51 12 e4 41 4d 8b e3 41 18 9a e3 41
       28.540182 28.508944 28.443018 28.450241
000030 78 cd e3 41 a9 fc e3 41 71 40 e3 41 db b3 e3 41
       28.475327 28.49837 28.406466 28.46282
000040 29 0f 09 bd 0a 5e 6b bd 1b 4e e4 41 f9 ff e3 41
       -0.033461723 -0.05746273 28.538137 28.499987
000050 e3 4f e4 41 10 3d e4 41 a3 58 e4 41 f7 3d e4 41
       28.539007 28.529816 28.54328 28.530256
000060 a6 68 e3 41 1b a9 e3 41 54 0e e4 41 52 8b e3 41
       28.426098 28.457571 28.506996 28.443027
000070 5b 3a e4 41 4a 27 e4 41 ee c6 4e bd 51 ce e3 41
       28.528494 28.519184 -0.050482683 28.47574
000080 82 cd e3 41 e3 71 e3 41 1e 82 ea 3c 63 0e e4 41
       28.475346 28.430609 0.028626498 28.507025
000090 d2 38 e4 41 73 44 e4 41 5e 48 e4 41 d2 ae e3 41
       28.527744 28.533422 28.535336 28.460361
0000a0 37 bc e3 41 bd b5 e3 41 31 b7 e3 41 26 89 e3 41
       28.466902 28.46374 28.464449 28.441967
0000b0 92 e4 e3 41 9b 1a cb 3c 26 17 e4 41 60 0f e4 41
       28.486607 0.02479296 28.511303 28.507507
0000c0 23 b8 e3 41 5e a0 e3 41 0c 48 e4 41 c7 ed e3 41
       28.46491 28.453304 28.53518 28.491102
0000d0 7a 3a e4 41 e7 08 e4 41 81 59 e3 41 9d 72 e3 41
       28.528553 28.504347 28.418703 28.430964
0000e0 64 27 e4 41 72 d3 e3 41 63 23 e4 41 7b 3f e4 41
       28.519234 28.478245 28.517279 28.530996
0000f0 45 8b e3 41 bb 05 e4 41 2e 70 e3 41 75 66 e4 41
       28.443003 28.502798 28.429775 28.550028
000100 8d ea 80 b9 bd 2e e4 41 85 be e3 41 ed 7b e3 41
       -0.00024588816 28.522821 28.468027 28.43551
000110 59 c1 e3 41 c3 2b e4 41 26 98 e3 41 42 0b e4 41
       28.469408 28.521368 28.449291 28.505497
000120 6b 23 e4 41 a1 c4 e3 41 88 62 e3 41 f0 b8 e3 41
       28.517294 28.47101 28.423111 28.465302
000130 cc 45 e4 41 e8 20 e4 41 d9 03 e4 41 bf 8c 61 bd
       28.53408 28.516068 28.501879 -0.055065867
000140 51 37 e4 41 82 57 e3 41 35 15 e4 41 3c 1c e4 41
       28.52701 28.417728 28.510355 28.513786
000150 d2 14 46 bc 5a a6 e3 41 2b af e3 41 68 0d e4 41
       -0.012089925 28.456226 28.460531 28.506546
000160 de 25 e4 41 35 15 e4 41 26 c6 e3 41 04 dd e3 41
       28.51849 28.510355 28.471752 28.482918
000170 96 9b e3 41 6f 45 e4 41 1a 61 e3 41 32 5f e4 41
       28.45097 28.533903 28.422413 28.546482
000180 46 49 e3 41 40 6c e3 41 4c 17 e4 41 26 0e e4 41
       28.410778 28.427856 28.511375 28.506908
000190 d4 7c e3 41 81 d8 e3 41 50 5d e3 41 c3 b9 e3 41
       28.435951 28.480715 28.420563 28.465704
0001a0 91 ca 16 bc 14 da e3 41 15 61 e3 41 91 11 e4 41
       -0.009203569 28.481483 28.422403 28.508577
0001b0 67 3b e4 41 4d b2 93 bc e2 a1 e3 41 1e 6d e3 41
       28.529005 -0.018029356 28.454044 28.42828
0001c0 50 5f e4 41 ff 01 e4 41 c8 ce e3 41 8d 40 e4 41
       28.54654 28.500975 28.475967 28.531519
0001d0 72 fe e3 41 78 e7 61 bd c0 3b e4 41 00 03 e4 41
       28.49924 -0.055152386 28.529175 28.501465
0001e0 20 f4 e3 41 80 af e3 41 0b 4a e4 41 d5 1e e4 41
       28.494202 28.460693 28.536154 28.515055
0001f0 14 43 e4 41 46 e0 e3 41 34 69 e4 41 3f 15 e4 41
       28.532753 28.484509 28.551369 28.510374
000200 48 60 e3 41 ba e2 e3 41 7c 93 e3 41 cc b6 e3 41
       28.422012 28.485706 28.447014 28.464256
000210 49 87 e3 41 b8 28 e4 41 96 08 e4 41 de 3d e4 41
       28.441057 28.519882 28.504192 28.530209
000220 37 ab e3 41 29 cf e3 41 c8 b6 e3 41 59 7d e3 41
       28.458601 28.476152 28.464249 28.436205
000230 3e e5 e3 41 d3 5a e4 41 8d 1b e4 41 dd bd e3 41
       28.486935 28.544348 28.513453 28.467707
000240 0c 26 e4 41 76 8b e3 41 9b 70 e3 41 20 39 e4 41
       28.518578 28.443096 28.429983 28.527893
000250 fa 5a e4 41 3a 91 e3 41 04 5e e3 41 65 62 e3 41
       28.544422 28.445911 28.420906 28.423044
000260 41 e5 63 bc 4f 2e e4 41 3b 23 e4 41 df b0 e3 41
       -0.013909639 28.522612 28.517202 28.461363
000270 54 2f e4 41 7d 1e e4 41 1d a6 e3 41 f5 21 e4 41
       28.52311 28.514887 28.45611 28.51658
000280 a9 d2 63 bd 9c 46 e4 41 37 49 e4 41 5f a2 e3 41
       -0.055620823 28.534477 28.53575 28.454283
000290 35 1b e4 41 5b 65 e3 41 14 2d e4 41 8a 91 69 bd
       28.513285 28.42449 28.52201 -0.057023562
0002a0 0c 92 e3 41 69 86 e3 41 59 8e e3 41 7a 08 e4 41
       28.446312 28.44063 28.444506 28.504139
0002b0 c9 46 e4 41 7f 46 e4 41 cb dc e3 41 79 b2 e3 41
       28.534563 28.534422 28.48281 28.462145
0002c0 85 7c e3 41 23 eb e3 41 04 7c e3 41 31 d7 e3 41
       28.4358 28.489813 28.435555 28.480074
0002d0 80 76 e3 41 37 01 e4 41 51 af e3 41 dd 6b e3 41
       28.432861 28.500593 28.460604 28.427668
0002e0 92 e1 e3 41 1d 55 e3 41 09 e2 e3 41 74 0a e4 41
       28.485142 28.41656 28.485369 28.505104
0002f0 59 ae 5a bd d9 ef e2 41 24 22 e4 41 3d 8c e3 41
       -0.053388927 28.367113 28.51667 28.443476
000300 91 fb e3 41 e0 22 24 bd 55 3b e4 41 bc d1 e3 41
       28.497835 -0.040072322 28.52897 28.47741
000310 03 0f e4 41 f7 4f e3 41 4e 48 e4 41 dd 94 e3 41
       28.50733 28.414045 28.535305 28.447687
000320 82 4f e4 41 c3 b1 e3 41 eb 90 e3 41 27 3d e3 41
       28.538822 28.461798 28.44576 28.40486
000330 ae 86 e3 41 e6 8e e3 41 45 ba e3 41 25 23 e4 41
       28.440762 28.444775 28.465952 28.51716
000340 2a 2a 4d bc 6c 25 e4 41 52 55 e4 41 42 a0 e3 41
       -0.01252226 28.518272 28.54166 28.45325
000350 57 ff e3 41 0c 7f e3 41 5c f6 e3 41 3e fc e2 41
       28.499678 28.437035 28.495293 28.373165
000360 3b 70 e3 41 99 44 e4 41 a7 99 e3 41 93 8c e3 41
       28.4298 28.533495 28.450026 28.44364
000370 e2 94 e3 41 4b e2 e3 41 b1 05 e4 41 4c 9f e3 41
       28.447697 28.485495 28.502779 28.452782
000380 b4 80 e3 41 5f 10 e4 41 65 36 e4 41 67 57 e4 41
       28.437843 28.507994 28.52656 28.542677
000390 34 94 e3 41 bc 95 e3 41 d8 51 e4 41 5a 48 e4 41
       28.447365 28.448112 28.539963 28.535328
0003a0 43 3e e4 41 f8 11 e4 41 da 8d e3 41 41 8a 82 bd
       28.530401 28.508774 28.444263 -0.06374026
0003b0 b1 91 e3 41 d4 02 e4 41 5e 5e e4 41 20 a8 e3 41
       28.446138 28.50138 28.546078 28.457092
0003c0 49 c6 e3 41 ed fe e3 41 e2 73 e3 41 67 70 e3 41
       28.471819 28.499475 28.431583 28.429884
0003d0 bf 64 e3 41 83 da e3 41 ef 75 e3 41 8b e9 e3 41
       28.424192 28.481695 28.432585 28.489035
0003e0 b4 fb e3 41 de 42 e4 41 32 ee e3 41 e9 48 0d bd
       28.497902 28.53265 28.491306 -0.03449336
0003f0 29 3c e4 41 5e ff e3 41 52 ee e3 41 3f a1 e3 41
       28.529375 28.499691 28.491367 28.453733

layer3.weight f4 [256, 256]
000000 9d 5d 1d 3c 8f d4 e2 41 fb c3 e2 41 6a 47 e2 41
       0.009604839 28.353788 28.345694 28.28487
000010 f4 9d e2 41 e4 6c e2 41 00 d7 e2 41 16 0c 88 3b
       28.327126 28.30317 28.35498 0.0041518314
000020 ac b6 e2 41 33 5c e2 41 c1 de e2 41 4c 58 e2 41
       28.339195 28.29502 28.358767 28.293114
000030 d9 6c e2 41 c6 c8 e2 41 53 af e2 41 cb d5 e2 41
       28.303148 28.348034 28.335608 28.354391
000040 7b c5 31 bd c6 a1 cb 3b 71 b5 e2 41 46 e7 e2 41
       -0.043401223 0.0062143533 28.338594 28.362926
000050 47 fb e2 41 9f d1 e2 41 bf 8b e2 41 56 09 e3 41
       28.372694 28.352354 28.318235 28.379559
000060 f4 b2 e2 41 ae 8e e2 41 34 62 e2 41 27 2d e2 41
       28.33738 28.319668 28.29795 28.272047
000070 82 64 e2 41 f6 9c e2 41 50 48 e0 3c 01 e2 e2 41
       28.299076 28.326641 0.027378231 28.360353
000080 64 c4 e2 41 d2 6e e2 41 be 3f 71 bc 13 58 e2 41
       28.345894 28.304111 -0.01472467 28.293005
000090 c6 c7 e2 41 14 f9 e2 41 3b 63 e2 41 dc ff e2 41
       28.347546 28.37162 28.298452 28.374931
0000a0 88 bc e2 41 f0 8b e2 41 9e 57 e2 41 c2 48 e2 41
       28.342056 28.318329 28.292782 28.285526
0000b0 fc 9c e2 41 a6 b3 00 3d be bf e2 41 47 d0 e2 41
       28.326653 0.031421326 28.343624 28.351698
0000c0 9f 65 e2 41 89 ff e2 41 0e 05 e3 41 6d 53 e2 41
       28.29962 28.374773 28.377468 28.290735
0000d0 58 07 e3 41 ed f9 e2 41 33 dd e2 41 eb 6e e2 41
       28.378586 28.372034 28.358007 28.30416
0000e0 bb a4 e2 41 c5 da e2 41 27 af e2 41 17 5d e2 41
       28.330435 28.356821 28.335524 28.295454
0000f0 94 56 e2 41 4b 6c e2 41 56 b5 e2 41 f3 8d e2 41
       28.292274 28.302877 28.338543 28.319311
000100 a7 6c 1d bd 6a 49 e2 41 00 84 e2 41 b1 9f e2 41
       -0.038433697 28.285847 28.314453 28.327974
000110 c7 d7 e2 41 b8 7a e2 41 0e 3e e2 41 05 6e e2 41
       28.35536 28.309921 28.2803 28.30372
000120 c5 43 e2 41 a0 ed e2 41 fb fb e2 41 cc 97 e2 41
       28.28309 28.366028 28.373037 28.32412
000130 56 8e e2 41 cf e1 e2 41 07 5b e2 41 27 d0 ae bc
       28.3195 28.360258 28.294447 -0.02133949
000140 86 ef e2 41 54 be e2 41 46 d5 e2 41 a1 45 e2 41
       28.366955 28.342934 28.354137 28.283998
000150 ec 3b 1c bd 1d ef e2 41 da f3 e2 41 45 5d e2 41
       -0.038143083 28.366755 28.369068 28.295542
000160 bd 0e e3 41 78 5a e2 41 ba b8 e2 41 a6 97 e2 41
       28.382196 28.294174 28.340199 28.324047
000170 f0 65 e2 41 cc fc e2 41 1a b9 e2 41 ca 71 e2 41
       28.299774 28.373436 28.340382 28.305561
000180 65 a2 e2 41 3e 95 e2 41 6c c5 e2 41 46 78 e2 41
       28.329294 28.322872 28.346397 28.308727
000190 b4 b7 e2 41 69 cd e2 41 39 db e2 41 20 70 e2 41
       28.339699 28.350298 28.357042 28.304749
0001a0 fa b2 f0 3c b7 be e2 41 58 75 e2 41 68 4a e2 41
       0.029382218 28.343122 28.307297 28.286331
0001b0 12 b0 e2 41 bf 3b 13 bd ea af e2 41 3d b3 e2 41
       28.335972 -0.03594565 28.335896 28.337519
0001c0 de a8 e2 41 85 40 e2 41 84 d1 e2 41 1f d9 e2 41
       28.332455 28.281504 28.352303 28.356016
0001d0 19 95 e2 41 9a 79 07 bd 28 af e2 41 29 82 e2 41
       28.322802 -0.033074953 28.335526 28.313555
0001e0 ea ae e2 41 f0 60 e2 41 18 ec e2 41 6b 8c e2 41
       28.335407 28.297333 28.36528 28.318563
0001f0 7f df e2 41 6b 6b e2 41 57 c6 e2 41 21 6c e2 41
       28.359129 28.30245 28.346846 28.302797
000200 9d cf e2 41 ae f1 e2 41 a2 53 e2 41 b9 48 e2 41
       28.351374 28.368008 28.290836 28.28551
000210 32 bc e2 41 f3 90 e2 41 fc cc e2 41 a6 e3 e2 41
       28.341892 28.320776 28.35009 28.361156
000220 4f 49 e2 41 ee dc e2 41 13 c9 e2 41 c2 e2 e2 41
       28.285795 28.357876 28.34818 28.360722
000230 4b 60 e2 41 43 94 e2 41 95 d0 e2 41 54 39 e2 41
       28.297018 28.322393 28.351847 28.277992
000240 bf db e2 41 7b 47 e2 41 7d 5f e2 41 d1 62 e2 41
       28.357298 28.284903 28.296625 28.29825
000250 34 64 e2 41 fe 87 e2 41 7c cd e2 41 86 5e e2 41
       28.298927 28.316402 28.350334 28.296154
000260 7c 06 62 bb 64 7e e2 41 3b d1 e2 41 e3 90 e2 41
       -0.0034488728 28.311714 28.352163 28.320745
000270 f4 4e e2 41 dc a8 e2 41 03 3f e2 41 f4 de e2 41
       28.288551 28.33245 28.280767 28.358864
000280 bc 6d ce bc f9 7e e2 41 54 a5 e2 41 1b b4 e2 41
       -0.02519881 28.311998 28.330727 28.337942
000290 b4 64 e2 41 f7 c5 e2 41 23 78 e2 41 2e 3c f0 3c
       28.299171 28.346663 28.30866 0.02932557
0002a0 ad 98 e2 41 70 9f e2 41 2f 51 e2 41 9a f5 e2 41
       28.324549 28.32785 28.28964 28.369923
0002b0 bd 80 e2 41 e8 6f e2 41 32 b7 e2 41 f3 bb e2 41
       28.31286 28.304642 28.33945 28.341772
0002c0 60 47 e2 41 cf 63 e2 41 94 f5 e2 41 f5 77 e2 41
       28.284851 28.298735 28.369911 28.308573
0002d0 2d a3 e2 41 7e 0a e3 41 ce fe e2 41 50 82 e2 41
       28.329676 28.380123 28.374416 28.31363
0002e0 38 ac e2 41 a6 8c e2 41 95 c3 e2 41 ef d2 e2 41
       28.334091 28.318676 28.345499 28.352995
0002f0 3e 09 36 bd f7 23 e2 41 a6 83 e2 41 01 f1 e2 41
       -0.044442408 28.267561 28.314281 28.367678
000300 71 ef e2 41 ef fc 34 ba 97 ca e2 41 74 dd e2 41
       28.366915 -0.0006904145 28.34892 28.358131
000310 73 08 e3 41 dc a5 e2 41 60 95 e2 41 ba f4 e2 41
       28.379126 28.330986 28.322937 28.369495
000320 98 71 e2 41 2c cf e2 41 0b f8 e2 41 52 c8 e2 41
       28.305466 28.351158 28.371115 28.347813
000330 48 b5 e2 41 b6 b5 e2 41 55 60 e2 41 e4 c6 e2 41
       28.338516 28.338726 28.297037 28.347115
000340 d6 e6 d3 3c 06 4c e2 41 66 af e2 41 5d 9b e2 41
       0.025866907 28.28712 28.335644 28.325861
000350 33 c4 e2 41 88 b2 e2 41 8d 9b e2 41 5b c0 e2 41
       28.3458 28.337173 28.325953 28.343924
000360 ed 60 e2 41 f9 d8 e2 41 e4 cb e2 41 6c 31 e3 41
       28.297327 28.355944 28.349556 28.399132
000370 64 a6 e2 41 6f 3f e2 41 6f 8d e2 41 1b 95 e2 41
       28.331245 28.280973 28.31906 28.322805
000380 2e ba e2 41 ca 6a e2 41 51 aa e2 41 08 c9 e2 41
       28.340908 28.302143 28.333162 28.34816
000390 df 55 e2 41 47 9a e2 41 13 6c e2 41 5c b0 e2 41
       28.29193 28.32533 28.30277 28.336113
0003a0 8e d8 e2 41 85 80 e2 41 0e f7 e2 41 c7 4a 23 3d
       28.35574 28.312754 28.370632 0.039866235
0003b0 c1 72 e2 41 ef 57 e2 41 80 ed e2 41 66 54 e2 41
       28.306032 28.292936 28.365967 28.29121
0003c0 ff c1 e2 41 19 a0 e2 41 fb d9 e2 41 b3 9d e2 41
       28.344725 28.328173 28.356436 28.327002
0003d0 f7 d4 e2 41 b6 9e e2 41 d4 c9 e2 41 5e b4 e2 41
       28.353987 28.327496 28.348549 28.33807
0003e0 20 6d e2 41 25 7d e2 41 f9 79 e2 41 63 42 1d bd
       28.303284 28.311106 28.309557 -0.03839339
0003f0 5b 61 e2 41 0d f0 e2 41 ae af e2 41 f9 bd e2 41
       28.297537 28.367212 28.335781 28.34276

layer3.bias f4 [256]
000000 7c ae e5 41 a2 b3 e5 41 73 41 e6 41 5a f0 f2 bc
       28.710197 28.712711 28.781958 -0.029655624
000010 40 a0 63 bc 8a 47 e6 41 7d 11 11 bd 65 11 e6 41
       -0.013893187 28.784931 -0.03541707 28.758493
000020 a5 20 cb bc 0a 69 e6 41 e2 40 c7 bc 7b 6a 19 bd
       -0.02479584 28.801289 -0.02432293 -0.037455063
000030 7d dc 1d bb ac 62 e6 41 ef 42 04 bd 5f ad 20 bd
       -0.002408772 28.79818 -0.032290395 -0.03922784
000040 e3 5b e6 41 11 58 1d 3d 75 3b e6 41 11 16 e6 41
       28.794867 0.038414065 28.779032 28.760775
000050 11 cd e5 41 0a 24 e6 41 51 e0 e5 41 e1 0a e6 41
       28.72513 28.767597 28.73453 28.755312
000060 b8 20 e6 41 9c 3c e6 41 0d 45 e6 41 ba 52 e6 41
       28.765976 28.779594 28.783716 28.790394
000070 c7 a0 e5 41 cb 1b e6 41 4f 91 e5 41 4a 18 e6 41
       28.703505 28.76357 28.695951 28.76186
000080 98 08 29 bd 80 c0 e5 41 53 1f e6 41 c6 e8 e5 41
       -0.04126796 28.718994 28.765295 28.738659
000090 f2 ea e5 41 a8 1c dc bc fd ce 0f bd 47 8c e5 41
       28.73972 -0.026869133 -0.03510951 28.693495
0000a0 e7 35 e6 41 91 24 e6 41 04 c6 e5 41 2b 5c e6 41
       28.77632 28.767855 28.721687 28.795004
0000b0 10 d4 e5 41 b1 5b e6 41 0c 30 e6 41 39 4a e6 41
       28.728546 28.794771 28.77346 28.786242
0000c0 6c 7b e6 41 32 a1 e5 41 e3 29 e6 41 b1 fe e5 41
       28.810265 28.703709 28.770452 28.749361
0000d0 fb f3 b5 3c 9a d2 e5 41 3e bc e5 41 1e dc f3 3c
       0.022211066 28.727833 28.716915 0.029768046
0000e0 c1 d5 e5 41 9f d9 e5 41 fc e1 e5 41 bd e9 e5 41
       28.729372 28.73126 28.735344 28.73913
0000f0 7b 61 e6 41 09 46 e6 41 89 26 e6 41 6a cc e5 41
       28.797598 28.784197 28.768816 28.724812
000100 5c b5 e5 41 0a c2 e5 41 e7 41 33 bd cb f7 1d bd
       28.713554 28.719746 -0.04376402 -0.038566392
000110 e5 1e e6 41 14 99 fc 3c 3f d8 e5 41 10 10 e6 41
       28.765085 0.030834712 28.730589 28.757843
000120 41 a2 e5 41 8d ea 98 3c 42 29 ed bc 9d 4a e6 41
       28.704226 0.01866653 -0.028950337 28.786432
000130 99 8d e5 41 29 3a 0f bd e5 10 e6 41 35 06 e6 41
       28.69414 -0.034967575 28.75825 28.75303
000140 4e 97 e5 41 09 1e bd 3c 85 4b e6 41 e9 8d 42 3a
       28.69888 0.023085611 28.786875 0.0007421659
000150 18 d1 e5 41 2a 07 2f bd af 68 2f 3d fe 46 75 bc
       28.727097 -0.04273144 0.042824443 -0.014970539
000160 7a 47 e6 41 87 1d e6 41 61 e6 e5 41 ac 05 e6 41
       28.7849 28.764418 28.73749 28.75277
000170 d7 e0 e5 41 36 51 e6 41 f0 c0 e5 41 69 19 e6 41
       28.734785 28.789654 28.719208 28.762407
000180 15 37 e6 41 21 03 e6 41 d3 4f e6 41 2b 93 a8 bc
       28.776896 28.751528 28.788977 -0.020577988
000190 8f 2b 12 bd 8f d3 b9 bb 08 e1 e5 41 10 07 e6 41
       -0.035686072 -0.0056709717 28.734879 28.753448
0001a0 8b 6b 46 bc ad 11 67 bc ec 69 e6 41 5d 3d e6 41
       -0.012110601 -0.014103335 28.80172 28.779963
0001b0 99 5d e6 41 89 05 e6 41 4d 45 e6 41 fc 35 89 bc
       28.795702 28.752703 28.783838 -0.016749375
0001c0 3b 5a e6 41 d5 ef e5 41 a3 e4 e5 41 a5 37 e6 41
       28.794058 28.742105 28.736639 28.77717
0001d0 e4 5c cd bc 2f 3f e6 41 49 22 e6 41 2c 3a e6 41
       -0.025068708 28.780851 28.76674 28.778404
0001e0 32 9c e5 41 cd ca e5 41 3a 17 e6 41 af 6f a2 3c
       28.701267 28.724024 28.761341 0.019828646
0001f0 4a 6b 1f 3d 26 d8 ab 3b b9 5f e6 41 13 06 e6 41
       0.03892068 0.0052442728 28.79674 28.752966
000200 91 25 e6 41 7a 05 c4 bc 1e ce 24 bd 53 8b c4 bc
       28.768343 -0.023928393 -0.04023563 -0.023992216
000210 7a 59 75 bc a9 06 93 3c ec 1d e6 41 45 b1 26 3d
       -0.014974946 0.017947512 28.76461 0.0406964
000220 f1 3b 29 3c 6d 1d e6 41 4f e3 e5 41 97 58 33 bd
       0.010329233 28.764368 28.73599 -0.043785658
000230 c1 28 e6 41 c3 cf 2f bd 3d 1d 93 3b 45 b4 20 bd
       28.7699 -0.042922746 0.0044895695 -0.03923442
000240 a3 c0 e5 41 68 47 e6 41 e0 0e e6 41 6e fa e5 41
       28.71906 28.784866 28.757263 28.74728
000250 53 42 7a bc af 14 e6 41 cb 24 e6 41 bf 28 e1 bc
       -0.015274602 28.7601 28.767965 -0.02748525
000260 95 ab c5 3c c8 a8 08 bd 06 62 aa bc 6c 1e e6 41
       0.024129668 -0.033364087 -0.020798694 28.764854
000270 73 d9 05 bd a3 2a e6 41 f5 67 e5 41 68 24 e6 41
       -0.03267808 28.770819 28.67576 28.767776
000280 ed 40 e6 41 c0 17 d5 3b 5e ff e5 41 85 2a e6 41
       28.781702 0.0065030754 28.749691 28.770761
000290 7b b1 e5 41 48 d1 e5 41 7c 33 e6 41 c2 06 ec bc
       28.71166 28.727188 28.775139 -0.028811816
0002a0 4d 68 17 bc 86 90 e5 41 aa 71 e6 41 b1 8f e5 41
       -0.009241176 28.695568 28.8055 28.695162
0002b0 69 26 e6 41 28 3b e6 41 8b 98 e5 41 c9 26 e6 41
       28.768755 28.778885 28.699484 28.768938
0002c0 81 94 e5 41 a3 bf af 3c d3 27 e6 41 ae c3 e5 41
       28.697512 0.021453684 28.769445 28.720547
0002d0 6a 28 2a bc 61 50 e5 3c f1 12 e6 41 41 5a 62 bc
       -0.010385612 0.02799243 28.759249 -0.0138154635
0002e0 8c d8 e5 41 38 9a e5 41 d0 0f e6 41 4e 50 e6 41
       28.730736 28.700302 28.75772 28.789211
0002f0 c8 0e e6 41 2b 49 17 bb df 3a 21 3c 0e e9 e5 41
       28.757217 -0.0023084383 0.009840696 28.738796
000300 18 c2 e5 41 fa 6e a5 bc eb f4 e5 41 ab 2a e6 41
       28.719772 -0.02019452 28.744589 28.770834
000310 4c c4 e5 41 ac ff e5 41 e3 3f 1d 3d a1 ac e5 41
       28.720848 28.74984 0.038391005 28.709291
000320 00 26 e6 41 76 f8 e5 41 8a 50 e6 41 9a de e5 41
       28.768555 28.746319 28.789326 28.733692
000330 41 e1 e5 41 17 10 e6 41 5a 9a e5 41 74 47 a3 bc
       28.734987 28.757856 28.700367 -0.019931532
000340 a5 ac e5 41 88 03 e6 41 81 d5 e5 41 42 fb e5 41
       28.7093 28.751724 28.72925 28.747684
000350 23 0f e6 41 f8 1e 8a bb e9 0f e6 41 f8 22 e6 41
       28.757391 -0.0042151175 28.757769 28.767075
000360 f8 a8 1e bd c5 aa e5 41 ac 90 56 3b c5 9d 2a bd
       -0.03873536 28.708384 0.003274004 -0.041654367
000370 23 03 e6 41 09 e0 e5 41 62 df e5 41 8d c9 91 bc
       28.751532 28.734392 28.734074 -0.017796302
000380 7b e1 33 3c d8 65 e6 41 f3 3c e6 41 64 ba 96 3b
       0.010979052 28.799728 28.77976 0.004599856
000390 8e f2 03 3d ec a3 13 bd f5 8f e5 41 03 df e5 41
       0.03221374 -0.036045 28.695292 28.733892
0003a0 99 0a e6 41 6c fd e5 41 15 ce e5 41 68 48 e6 41
       28.755175 28.748741 28.725626 28.785355
0003b0 0d 5a 95 3c 3a 47 26 3c 43 fd 2d bc c4 3e e6 41
       0.018231416 0.010148818 -0.010619464 28.780647
0003c0 81 7d e5 41 03 c1 e5 41 9f 13 e6 41 7c 1a e6 41
       28.686281 28.719244 28.75958 28.762932
0003d0 59 e8 e5 41 cd dc aa 3c 97 1b e6 41 fa 9a e5 41
       28.738451 0.02085724 28.763472 28.700672
0003e0 16 d9 e5 41 02 fd e5 41 0c 5a e6 41 b2 ed e5 41
       28.730999 28.748539 28.793968 28.741062
0003f0 a9 d1 e5 41 5a 10 e6 41 99 18 e6 41 d4 8a e5 41
       28.727373 28.757984 28.76201 28.692787

layer4.weight f4 [168, 256]
000000 07 fc 70 41 72 d5 71 41 eb 50 71 41 66 a1 84 3c
       15.06153 15.114611 15.082255 0.016190242
000010 b2 74 87 3c 01 05 72 41 17 42 49 bc e0 12 71 41
       0.016535137 15.126222 -0.012283823 15.067108
000020 f3 02 ca 3c 58 0e 72 41 9d b5 a4 bc 7a ed b2 bc
       0.02465961 15.128502 -0.020106131 -0.021841753
000030 6a 78 a3 bb 04 4e 72 41 0f fe e3 3c 11 15 0c bb
       -0.0049887197 15.144047 0.027831106 -0.0021374861
000040 1f 42 72 41 c6 3c 09 3c 0f 51 71 41 2c 30 72 41
       15.141143 0.008376306 15.08229 15.136761
000050 0f bc 71 41 0e 4d 72 41 cc 44 72 41 a3 21 71 41
       15.108413 15.143812 15.141796 15.070712
000060 14 cb 71 41 18 c7 71 41 be 7a 71 41 d3 68 71 41
       15.11208 15.111107 15.092466 15.088092
000070 9e e5 71 41 0a ed 71 41 52 c3 71 41 6e 5b 72 41
       15.118559 15.120371 15.110186 15.147322
000080 e9 8d 27 bd 9f 09 71 41 c6 2c 71 41 76 3b 71 41
       -0.04090682 15.064849 15.073431 15.077017
000090 a3 02 71 41 47 47 c3 3c 4a 87 de bc c3 9e 71 41
       15.063144 0.023837699 -0.02716412 15.10126
0000a0 b0 16 72 41 24 2f 71 41 d5 ef 71 41 df 0c 72 41
       15.130539 15.074009 15.121053 15.128142
0000b0 10 72 71 41 ec 13 71 41 b5 f3 70 41 ec 8f 71 41
       15.090347 15.067364 15.059499 15.097637
0000c0 28 1c 71 41 02 36 72 41 6c c0 71 41 ea 20 72 41
       15.069374 15.1381855 15.109478 15.133036
0000d0 b7 5b 99 bc 4b 6e 71 41 d6 4c 71 41 fe ed d1 3c
       -0.01872049 15.089427 15.081259 0.025626179
0000e0 28 8f 71 41 14 17 71 41 08 fa 70 41 58 e2 70 41
       15.09745 15.068134 15.061043 15.05526
0000f0 f6 dd 71 41 6e 57 71 41 eb 5d 71 41 5d f0 70 41
       15.11669 15.083845 15.085429 15.058682
000100 69 35 71 41 f2 2b 71 41 e0 81 27 bd f1 09 13 3c
       15.07554 15.073229 -0.040895343 0.008974538
000110 50 7d 71 41 ae 1c 08 3d 4f ca 71 41 69 3d 72 41
       15.093094 0.033230476 15.111892 15.139993
000120 fb f3 70 41 96 00 74 bb 9a 42 d4 3c 94 12 71 41
       15.059566 -0.0037231795 0.025910664 15.067036
000130 77 fd 70 41 a5 7f 1b bd 43 fc 70 41 50 22 71 41
       15.061881 -0.03796353 15.061587 15.070877
000140 a6 0b 71 41 c9 21 19 bd ec 10 71 41 36 28 43 3d
       15.065344 -0.037385736 15.066631 0.04764577
000150 7a 80 71 41 7e 95 a2 bc 3b a5 ae 3c 59 fa 19 3d
       15.093866 -0.019846674 0.021319022 0.037592266
000160 0d 86 71 41 bc 23 71 41 04 0f 72 41 a0 fd 71 41
       15.095227 15.071224 15.128666 15.12442
000170 c0 c7 71 41 3e aa 71 41 58 5f 71 41 8b 6d 71 41
       15.111267 15.104063 15.085777 15.089244
000180 48 9b 71 41 6a 29 71 41 c6 ad 71 41 6e b4 ca bc
       15.10041 15.072611 15.104925 -0.024744239
000190 be 86 fe 3c 58 b6 07 bd cf 5c 72 41 b0 c3 71 41
       0.03107011 -0.03313288 15.147658 15.110275
0001a0 81 92 ac 3b 56 2f b4 3c b9 9d 71 41 ec e3 71 41
       0.005266488 0.021995228 15.1010065 15.118145
0001b0 e4 e2 70 41 49 9b 71 41 54 1d 71 41 bf 3b e2 3a
       15.055393 15.100411 15.06966 0.0017260237
0001c0 82 7f 71 41 f5 67 71 41 dc 26 71 41 67 73 71 41
       15.09363 15.08788 15.071987 15.090674
0001d0 79 2c 1d bd 19 26 71 41 6d 43 72 41 4c 0b 71 41
       -0.03837249 15.071801 15.141461 15.065258
0001e0 50 26 72 41 08 dd 71 41 74 f7 71 41 c7 d1 1a 3d
       15.134354 15.116463 15.122913 0.037797716
0001f0 c3 0a 0a bd c4 9e 5e bc 59 4e 71 41 67 8e 71 41
       -0.03370167 -0.013587657 15.081628 15.097266
000200 06 b8 71 41 53 05 05 bd ff 1b 45 3c e6 65 82 3c
       15.107428 -0.03247578 0.012030601 0.01591773
000210 b2 08 27 3d ba b1 74 bc 14 ee 71 41 77 f7 2e bd
       0.040779777 -0.014934951 15.120625 -0.04271647
000220 8c 5d 5f bc 85 f9 71 41 c4 fd 71 41 b6 47 ee bc
       -0.013633143 15.123418 15.1244545 -0.029086929
000230 10 da 71 41 74 56 27 3d 9c 1f 01 bc 7d 74 7a bb
       15.115738 0.040853932 -0.007881071 -0.0038216405
000240 e7 45 71 41 74 f8 70 41 ec a7 71 41 06 4c 71 41
       15.079566 15.0606575 15.103497 15.08106
000250 d2 34 2d 3d 46 d7 71 41 24 08 71 41 a7 4d 35 bc
       0.0422867 15.115057 15.064487 -0.011065877
000260 9f b4 ad bc 16 df 75 bc 8a e3 e2 bc bd 2a 72 41
       -0.02120429 -0.015006801 -0.02769639 15.135434
000270 e2 bf 75 bc 62 db 71 41 dc c3 71 41 d8 1e 72 41
       -0.014999362 15.11606 15.110317 15.13253
000280 97 f0 71 41 6a ca 56 3c 1a fc 70 41 10 02 72 41
       15.121238 0.013109783 15.061548 15.125504
000290 41 e5 70 41 b8 cd 71 41 00 99 71 41 17 09 c0 bc
       15.05597 15.112724 15.0998535 -0.023441834
0002a0 bf b3 b2 bb 23 30 71 41 ea c4 71 41 44 45 72 41
       -0.0054535563 15.074252 15.110575 15.141911
0002b0 42 ce 71 41 12 b2 71 41 74 6d 71 41 ce d1 71 41
       15.112856 15.105974 15.089222 15.113722
0002c0 6d 3b 71 41 d6 24 2d bd b7 73 71 41 78 b9 71 41
       15.077008 -0.042271458 15.090751 15.10778
0002d0 10 66 06 3d 52 56 ff 3c 62 61 71 41 35 40 03 3b
       0.032812178 0.03116909 15.086275 0.0020027284
0002e0 ec 20 71 41 e4 40 71 41 b4 26 71 41 a6 b9 71 41
       15.070538 15.078342 15.071949 15.107824
0002f0 b3 01 72 41 64 4e 26 3d 57 d0 13 3c 9c 0c 71 41
       15.125415 0.040602103 0.00902184 15.065578
000300 11 04 72 41 2b e3 af bc 08 48 72 41 62 35 72 41
       15.125993 -0.021470627 15.142586 15.138033
000310 2b 19 71 41 2c ec 71 41 75 b3 0b bc 30 2d 71 41
       15.068645 15.120159 -0.008526673 15.073532
000320 12 e0 71 41 44 68 71 41 b7 04 72 41 46 38 71 41
       15.117205 15.087955 15.126151 15.076239
000330 5c c6 71 41 08 1e 71 41 8f cb 71 41 de 9a fd bc
       15.110928 15.069832 15.112197 -0.030957635
000340 16 0e 72 41 3e 36 72 41 07 39 72 41 e5 b8 71 41
       15.128439 15.138243 15.138923 15.10764
000350 84 6e 71 41 81 b1 be bc 24 74 71 41 65 e2 71 41
       15.089481 -0.023278 15.090855 15.117772
000360 2d 70 9b bc 9a 51 71 41 75 e1 11 bd 5a 0b 89 3c
       -0.018974388 15.082422 -0.035615403 0.016729046
000370 f7 22 71 41 e0 87 71 41 a0 2b 72 41 9d ae 20 3c
       15.071036 15.095673 15.135651 0.009807256
000380 93 e6 3c bc a7 49 71 41 c2 7b 71 41 4e 86 41 3c
       -0.011529583 15.080482 15.092714 0.011811806
000390 3f ba 94 bc 2e b6 b6 bc 5f 85 71 41 46 23 71 41
       -0.018155215 -0.022303667 15.095061 15.071112
0003a0 6c 8c 71 41 35 5e 71 41 27 36 71 41 ca 2d 71 41
       15.096783 15.0855 15.075721 15.073679
0003b0 90 97 87 3c e6 fc 6b bc 6b 5d 9d 3c c7 35 72 41
       0.016551763 -0.014403557 0.019209584 15.138129
0003c0 46 e1 71 41 e0 43 71 41 5f fb 71 41 4a ec 71 41
       15.117498 15.079071 15.12387 15.120188
0003d0 2e 3f 72 41 ba 8d 2d 3d ed 64 71 41 ac f2 70 41
       15.140425 0.04237149 15.08714 15.059246
0003e0 ac a3 71 41 d8 51 72 41 d7 c6 71 41 42 73 71 41
       15.102459 15.144981 15.111045 15.090639
0003f0 d9 29 71 41 d3 13 71 41 78 45 71 41 97 57 71 41
       15.072717 15.06734 15.07946 15.083884

layer4.bias f4 [168]
000000 ef f2 1c 41 23 aa 3b 3e 4e c6 93 40 82 1c d9 41
       9.80931 0.18326621 4.617957 27.13892
000010 a0 aa d8 3f c0 e0 3a 3f 5a f1 12 40 e3 64 8b 40
       1.6927071 0.7299919 2.295981 4.3560653
000020 61 c3 c7 3e 2e 87 83 41 bd 99 65 3f 8b 8b 03 41
       0.3901625 16.441006 0.8968771 8.221568
000030 04 c9 05 41 b3 58 8a 40 77 55 6e 3e 91 58 29 40
       8.361576 4.3233275 0.2327479 2.6460307
000040 e8 fa e1 3e cd 12 42 40 00 ab f0 3e e6 68 84 3f
       0.4413674 3.0323975 0.47005463 1.0344512
000050 7d 62 46 40 e7 ac 9d 41 23 bc cb 40 2d bc 9e 40
       3.0997612 19.709425 6.366716 4.9604707
000060 35 30 d8 41 ba 81 d2 3f ab bc 5d 40 1f 16 40 40
       27.023539 1.644584 3.4646404 3.0013502
000070 a1 91 0b 40 6b ea 88 41 09 4f dd 40 ea 00 8f 3f
       2.1807635 17.114462 6.915898 1.1172154
000080 02 75 bf 40 92 b6 a8 41 ad fe 59 3f 60 3d 18 40
       5.983033 21.089146 0.8515423 2.378746
000090 01 a9 5a 3f ad f9 a8 40 5a 6d b4 41 fe da 4c 40
       0.8541413 5.280478 22.553394 3.2008662
0000a0 1b 0b c4 3e 93 0c 3e 40 f7 b6 33 40 3d 0d 57 41
       0.38289723 2.9695175 2.8080423 13.440732
0000b0 49 96 9a 3e 05 13 9f 3e 9e 49 5c 3f ab 66 b4 3f
       0.30192783 0.31069198 0.8604983 1.4093832
0000c0 ea 0f e6 3f 78 a0 26 41 c3 66 ed 40 f8 14 5e 3f
       1.7973607 10.414177 7.418794 0.86750746
0000d0 d7 87 c3 41 ab d8 5f 40 98 e1 81 3f 48 bd 13 3f
       24.441328 3.4975994 1.0146971 0.57710695
0000e0 2a 78 10 40 55 ba b5 40 c5 2d cb 3f 80 db af 41
       2.2573342 5.6789956 1.5873343 21.982178
0000f0 e5 4f c0 3e de 4d 9a 3e 24 e4 de 3e 2e 0d aa 3e
       0.37560955 0.30137533 0.43533432 0.3321318
000100 40 b2 21 40 a3 5e 83 41 7c 14 80 3e f1 f5 cc 40
       2.5265045 16.42121 0.25015628 6.405022
000110 52 66 88 3f c1 bc 2b 40 14 4e ec 3e f2 82 3e 40
       1.0656226 2.6833956 0.4615332 2.9767423
000120 7f 48 96 3f bc c8 a0 3e 7c ec 63 3f a4 31 24 3f
       1.1740874 0.31403148 0.8903272 0.64138246
000130 48 a3 27 3f 57 20 6e 3f 4d 55 0b 40 91 3c 13 41
       0.6548352 0.93018097 2.1770813 9.202287
000140 bf 80 9c 41 4b 56 de 40 71 21 3d 3f a1 87 4f 41
       19.562864 6.948034 0.7387915 12.970613
000150 9c 01 82 40 d9 0b 80 40 7e b5 fb 3e 57 c1 8e 41
       4.0626965 4.0014462 0.49161905 17.844404
000160 73 84 cb 40 25 0a ce 40 67 15 df 3e f5 b1 5b 3f
       6.359918 6.4387383 0.43571016 0.85818416
000170 ab 06 1e 3f 5b 97 13 3f 86 48 36 3f da 55 9e 41
       0.61728925 0.57652825 0.7120441 19.79192
000180 2f 9e 05 3f a9 08 dd 3e f2 66 ee 3e 3c cf c1 3f
       0.52194494 0.4317067 0.46562916 1.5141368
000190 49 78 9a 3e 5e 49 9a 3f e9 4d 4d 3f 18 91 20 40
       0.30169895 1.205364 0.80197006 2.5088558
0001a0 e8 9e 02 3f 05 14 e3 3f 3b 5d b6 3f f5 e1 38 3f
       0.5102372 1.7740484 1.4247202 0.72219783
0001b0 22 be 48 3f 18 45 c8 3f dd a6 7e 40 89 a3 5f 3f
       0.7841512 1.5646086 3.9789345 0.8735891
0001c0 dd e9 14 3f d5 be 93 3f ab b5 3a 3f 81 cb 3f 3f
       0.5816935 1.1542612 0.72933453 0.749199
0001d0 f6 e4 10 3f 21 e6 0f 40 7a e6 0d 40 54 e0 5b 3f
       0.56599367 2.248421 2.2171922 0.8588917
0001e0 3c 44 ac 3e 9b 03 b5 3e 53 12 6a 3e 56 89 6c 3e
       0.3364581 0.35354313 0.22858553 0.23099265
0001f0 e2 32 d5 3e 37 1e a3 3f 7d d3 87 3e 44 41 c8 3e
       0.41640383 1.2743596 0.2652854 0.39112294
000200 17 62 cf 3e 05 8a c3 3e b8 b1 e2 3e 0d 6e 10 3f
       0.40504524 0.38191238 0.44276214 0.56417924
000210 34 fb 11 3f c8 1d 50 3f 78 64 c4 3e 9d d5 1d 3f
       0.5702393 0.8129544 0.38357902 0.61654073
000220 c7 5e a2 3f 53 ea 79 3f 2a b6 03 3f 8a ac 1e 40
       1.2685174 0.97623175 0.51449835 2.479281
000230 c1 50 89 40 0b 29 27 3f 34 a6 a7 3e 3a c4 95 3e
       4.2911077 0.65297 0.3274399 0.2925127
000240 f7 8f 62 3e d1 09 cd 3e ec de 3d 3e d6 af 1b 3f
       0.2212523 0.40046552 0.18542069 0.6081518
000250 e7 a9 8c 41 74 8c 53 3e f8 bf 90 3f 31 6f 86 3e
       17.58296 0.20659047 1.1308584 0.26256707
000260 c2 04 89 3e 52 b1 8e 3e 30 d1 92 3e 22 67 79 3e
       0.26761442 0.2786966 0.28675222 0.24355748
000270 04 7c 8d 3f 48 2d 97 3e 50 0a e3 3e ec 8a b7 3e
       1.1053472 0.29526734 0.44343805 0.35848176
000280 99 be 95 3e d5 ea a1 3e d6 12 91 3f 64 9a ad 3e
       0.29246977 0.31624475 1.1333873 0.33906853
000290 89 a5 8b 3f b0 82 a0 3f 7e 55 93 3e 78 64 9c 3f
       1.0909892 1.2539883 0.28776163 1.2218161
