models/50-51/guerrilla_model_weights.pth (torch, 613952 bytes, 8 tensors)

layer1.weight f4 [128, 82]
000000 13 50 bc 42 2b 33 82 42 64 fe 97 42 c4 80 85 41
       94.156395 65.09994 75.99686 16.687874
000010 a2 c3 fe 41 5a 88 b7 42 89 cc bb 42 2f dc a5 42
       31.845524 91.76631 93.89948 82.930046
000020 4c 5f 94 42 09 ab bb 42 88 ff bb 42 fd 64 ba 42
       74.18613 93.83405 93.999084 93.19724
000030 50 7e ad 42 42 0c b5 42 59 08 bc 42 94 f2 bb 42
       86.746704 90.52394 94.016304 93.973785
000040 48 5b b5 42 3e 2e b9 42 ac f0 bb 42 15 f5 bb 42
       90.67828 92.59032 93.97006 93.978676
000050 6c 49 08 42 f3 7c 37 42 0d 26 b8 42 51 f1 bb 42
       34.0717 45.87202 92.07432 93.97132
000060 09 f0 aa 42 e3 47 a2 42 79 00 9a 42 e0 df bb 42
       85.46882 81.1404 77.00092 93.937256
000070 0d 3a 9a 42 08 6e 43 41 05 31 c5 41 c1 18 bb 42
       77.11338 12.214363 24.648935 93.54835
000080 5a 8e bb 42 70 20 bb 42 f1 3f bb 42 c8 10 bb 42
       93.77803 93.563354 93.624886 93.532776
000090 c9 27 bb 42 fd 24 bb 42 49 3e bb 42 11 51 bb 42
       93.577705 93.57224 93.62165 93.65833
0000a0 7d 2e bb 42 b8 3f bb 42 30 c8 b6 42 a9 47 bb 42
       93.5908 93.62445 91.39099 93.63996
0000b0 25 48 bb 42 33 5a ba 42 65 4e bb 42 31 32 bb 42
       93.64091 93.17617 93.653114 93.59803
0000c0 88 a2 b9 42 89 8a bb 42 f1 73 bb 42 bd 72 bb 42
       92.817444 93.77058 93.72645 93.7241
0000d0 31 84 bb 42 f6 4e b8 42 b9 32 bb 42 68 5b bb 42
       93.75819 92.15422 93.59907 93.67853
0000e0 ed 74 bb 42 9c 77 bb 42 e8 84 bb 42 a0 8e bb 42
       93.72837 93.73361 93.75958 93.778564
0000f0 84 b2 bb 42 f4 57 bb 42 9d 66 bb 42 09 79 bb 42
       93.84866 93.67178 93.70042 93.7364
000100 ad 74 bb 42 d4 7b bb 42 a5 6a bb 42 2a 9e bb 42
       93.72788 93.74185 93.70829 93.808914
000110 44 6c bb 42 e9 7a bb 42 70 3e bb 42 d5 57 bb 42
       93.71146 93.74006 93.62195 93.67155
000120 64 88 bb 42 8d 6d bb 42 bd a2 bb 42 c6 4f b9 42
       93.76639 93.71397 93.81785 92.65581
000130 55 50 bb 42 58 66 bb 42 4d 6f bb 42 21 7c bb 42
       93.6569 93.69989 93.717384 93.74244
000140 ed 5c bb 42 de 9f b3 42 ec 01 bc 42 98 60 82 42
       93.681496 89.81224 94.00375 65.18866
000150 28 25 98 42 81 0d 85 41 08 1c 00 42 68 7d b7 42
       76.07257 16.631594 32.027374 91.744934
000160 59 a2 bb 42 ab dc a5 42 aa 46 94 42 64 9a bb 42
       93.817085 82.93099 74.138016 93.801544
000170 a1 bf bb 42 03 34 ba 42 db e1 ad 42 a6 25 b5 42
       93.874275 93.101585 86.941124 90.57353
000180 6d 8f bb 42 65 cb bb 42 b4 5d b5 42 2a 2f b9 42
       93.78013 93.897255 90.683014 92.59212
000190 6d bd bb 42 f5 ce bb 42 ee 4b 08 42 81 7a 37 42
       93.86997 93.90421 34.07415 45.869633
0001a0 d7 28 b8 42 4c c5 bb 42 e2 05 ab 42 65 32 a2 42
       92.079765 93.885345 85.51149 81.09843
0001b0 f7 9f 99 42 75 78 bb 42 7b 5a 9a 42 b6 c5 43 41
       76.81243 93.73527 77.17672 12.235769
0001c0 b1 5e c5 41 05 08 bb 42 e1 8f bb 42 98 6c bb 42
       24.671236 93.51566 93.78101 93.7121
0001d0 e5 87 bb 42 a8 83 bb 42 10 9b bb 42 e9 8a bb 42
       93.76542 93.75714 93.80286 93.77131
0001e0 38 9e bb 42 85 b8 bb 42 25 93 bb 42 39 98 bb 42
       93.80902 93.86039 93.78739 93.79731
0001f0 08 29 b7 42 d5 ad bb 42 34 8e bb 42 1b 78 ba 42
       91.58014 93.839516 93.77774 93.23458
000200 58 9a bb 42 a8 93 bb 42 35 d2 b9 42 a9 66 bb 42
       93.80145 93.78839 92.91056 93.70051
000210 1d 5f bb 42 fc 87 bb 42 61 97 bb 42 06 85 b8 42
       93.68577 93.765594 93.79566 92.25981
000220 7d 90 bb 42 e0 ad bb 42 a9 86 bb 42 5d 81 bb 42
       93.7822 93.8396 93.76301 93.75266
000230 a1 a2 bb 42 78 bd bb 42 f0 bd bb 42 51 82 bb 42
       93.817635 93.870056 93.87097 93.754524
000240 69 82 bb 42 b1 96 bb 42 14 8d bb 42 7d 97 bb 42
       93.75471 93.79432 93.77554 93.795876
000250 25 9e bb 42 3d ab bb 42 49 8f bb 42 a1 91 bb 42
       93.808876 93.83445 93.779854 93.78443
000260 9c 71 bb 42 c6 92 bb 42 59 af bb 42 7d 83 bb 42
       93.72189 93.78667 93.842476 93.75681
000270 69 a4 bb 42 9b 76 b9 42 8a 9f bb 42 6d b0 bb 42
       93.82111 92.73165 93.8116 93.84458
000280 6d a1 bb 42 99 9a bb 42 69 8b bb 42 78 8e b3 42
       93.815285 93.80195 93.772285 89.77826
000290 4c d9 bb 42 60 57 82 42 11 fa 97 42 ba 89 85 41
       93.92441 65.170654 75.98841 16.69225
0002a0 5d 36 00 42 43 6f b7 42 50 8c bb 42 89 e5 a5 42
       32.05309 91.71731 93.77405 82.94831
0002b0 9b 52 94 42 a9 92 bb 42 b8 81 bb 42 c0 31 ba 42
       74.16134 93.786446 93.75336 93.09717
0002c0 f0 da ad 42 42 25 b5 42 a4 7e bb 42 7c 7d bb 42
       86.92761 90.57277 93.747345 93.74509
0002d0 20 58 b5 42 d8 4f b9 42 71 97 bb 42 5d 9b bb 42
       90.67212 92.655945 93.795784 93.803444
0002e0 ed 4c 08 42 c7 b0 37 42 17 1f b8 42 98 99 bb 42
       34.075123 45.922634 92.06072 93.79999
0002f0 b9 09 ab 42 02 27 a2 42 6d b7 99 42 85 96 bb 42
       85.51899 81.07619 76.85825 93.79398
000300 af 84 9a 42 db 28 44 41 b6 5e c5 41 09 0f bb 42
       77.25915 12.2599745 24.671246 93.529366
000310 c9 7a bb 42 fd 7b bb 42 a9 76 bb 42 a4 7e bb 42
       93.739815 93.742165 93.73176 93.747345
000320 d5 9b bb 42 41 92 bb 42 c4 a3 bb 42 6d c2 bb 42
       93.80436 93.78565 93.819855 93.87974
000330 8c 94 bb 42 de 9c bb 42 1b 1e b7 42 0d aa bb 42
       93.79013 93.80638 91.5588 93.83213
000340 45 98 bb 42 00 7d ba 42 f8 99 bb 42 50 9a bb 42
       93.7974 93.24414 93.80072 93.80139
000350 35 e4 b9 42 2c 75 bb 42 d5 70 bb 42 5d 8d bb 42
       92.94572 93.72885 93.720375 93.7761
000360 91 ac bb 42 21 89 b8 42 71 8e bb 42 89 a3 bb 42
       93.83704 92.26783 93.778206 93.819405
000370 39 91 bb 42 04 7d bb 42 89 ac bb 42 1d b8 bb 42
       93.78364 93.74417 93.83698 93.8596
000380 35 c1 bb 42 55 7b bb 42 11 85 bb 42 19 9a bb 42
       93.87736 93.74088 93.759895 93.80097
000390 60 81 bb 42 b9 90 bb 42 1d 9c bb 42 10 ad bb 42
       93.752686 93.78266 93.80491 93.83801
0003a0 ad 90 bb 42 84 9d bb 42 bf 70 bb 42 79 8e bb 42
       93.78257 93.80765 93.72021 93.77827
0003b0 d1 ac bb 42 2c 8b bb 42 b8 9c bb 42 99 77 b9 42
       93.83753 93.77182 93.80609 92.73359
0003c0 e1 a3 bb 42 b9 b9 bb 42 5c a8 bb 42 54 9c bb 42
       93.820076 93.86274 93.82883 93.80533
0003d0 c0 78 bb 42 13 8e b3 42 b3 5e bc 42 1b 62 82 42
       93.73584 89.77749 94.18496 65.19161
0003e0 c4 2a 98 42 e6 1a 86 41 99 85 ff 41 b8 ac b7 42
       76.08353 16.763134 31.940233 91.83734
0003f0 a9 da bb 42 21 f4 a5 42 fa 80 94 42 ce a7 bb 42
       93.92707 82.976814 74.25191 93.82774

layer1.bias f4 [128]
000000 cd 46 bc 42 83 50 bc 42 27 4e bc 42 3c 6e bc 42
       94.13828 94.15725 94.15264 94.2153
000010 90 14 bc 42 1a 63 bc 42 a1 4b bc 42 47 3a bc 42
       94.04016 94.19356 94.14771 94.11382
000020 ae 4b bc 42 f1 70 bc 42 52 61 bc 42 84 60 bc 42
       94.14781 94.22059 94.19008 94.18851
000030 7a 61 bc 42 a2 6f bc 42 61 61 bc 42 c9 59 bc 42
       94.190384 94.21803 94.19019 94.17536
000040 1f 51 bc 42 39 5e bc 42 cc 5e bc 42 fe 45 bc 42
       94.15844 94.18403 94.18515 94.1367
000050 40 38 bc 42 f7 69 bc 42 a5 65 bc 42 4e 52 bc 42
       94.10986 94.20696 94.198524 94.16075
000060 54 5c bc 42 2c 5b bc 42 93 6e bc 42 a9 6a bc 42
       94.18033 94.17807 94.215965 94.20832
000070 02 66 bc 42 44 4f bc 42 be 9d de c0 5c 4d bc 42
       94.199234 94.154816 -6.9567556 94.15109
000080 38 3f bc 42 a9 23 bc 42 02 36 bc 42 02 53 bc 42
       94.123474 94.06965 94.105484 94.162125
000090 3d 71 bc 42 1f 44 bc 42 39 25 e0 c0 d7 4c bc 42
       94.22117 94.13305 -7.004544 94.15008
0000a0 20 56 bc 42 be 0f bc 42 cb 67 bc 42 a4 6a bc 42
       94.16821 94.03075 94.20272 94.20828
0000b0 67 6a bc 42 db 67 bc 42 55 56 bc 42 24 11 bc 42
       94.20782 94.20284 94.16862 94.03348
0000c0 26 6d bc 42 04 58 bc 42 d8 61 bc 42 3e 63 bc 42
       94.21318 94.171906 94.1911 94.19383
0000d0 52 5c bc 42 b4 55 bc 42 71 6b bc 42 47 5a e1 c0
       94.18031 94.16739 94.20985 -7.04227
0000e0 7d 61 bc 42 14 61 bc 42 fa 5e bc 42 82 45 bc 42
       94.19041 94.189606 94.1855 94.13576
0000f0 28 65 bc 42 10 57 bc 42 9e 6e bc 42 52 43 bc 42
       94.19757 94.170044 94.21605 94.131485
000100 1a 63 bc 42 a3 46 bc 42 4f 62 bc 42 97 38 bc 42
       94.19356 94.13796 94.19201 94.11053
000110 fc 69 bc 42 a0 67 bc 42 fd 5d bc 42 46 60 bc 42
       94.207 94.20239 94.18357 94.188034
000120 1b 66 bc 42 22 61 bc 42 d7 63 bc 42 b6 43 bc 42
       94.199425 94.18971 94.195 94.13225
000130 96 63 bc 42 7b 36 bc 42 78 57 bc 42 4a 75 bc 42
       94.1945 94.10641 94.17084 94.22908
000140 53 4a bc 42 34 6f bc 42 c0 6e bc 42 55 47 bc 42
       94.145164 94.21719 94.21631 94.13932
000150 c4 65 bc 42 65 4b bc 42 00 60 bc 42 29 6f bc 42
       94.19876 94.147255 94.1875 94.21711
000160 f2 53 bc 42 c6 36 bc 42 e8 3e bc 42 be 50 bc 42
       94.163956 94.10698 94.12286 94.1577
000170 42 60 bc 42 56 62 bc 42 8d 5a bc 42 6b 6c bc 42
       94.188 94.19206 94.17686 94.211754
000180 13 6b bc 42 e1 5f bc 42 bf 6f bc 42 b8 5b bc 42
       94.20913 94.18726 94.218254 94.17914
000190 14 61 bc 42 50 5f bc 42 15 5c bc 42 b9 6a bc 42
       94.189606 94.18616 94.17985 94.20844
0001a0 97 6e bc 42 4c 66 bc 42 4c 61 bc 42 55 51 bc 42
       94.215996 94.1998 94.19003 94.15885
0001b0 6c 4b bc 42 be 48 bc 42 d0 4c bc 42 35 68 bc 42
       94.14731 94.142075 94.150024 94.20353
0001c0 ff 6e bc 42 19 3e bc 42 6d 61 bc 42 33 60 bc 42
       94.21679 94.121284 94.190285 94.18789
0001d0 98 57 bc 42 fe 6f bc 42 25 5e bc 42 8c 64 bc 42
       94.17108 94.218735 94.183876 94.19638
0001e0 76 5b bc 42 0e 4f bc 42 48 67 df c0 2d 5c bc 42
       94.178635 94.1544 -6.9813576 94.18003
0001f0 34 58 bc 42 95 68 bc 42 40 6a bc 42 ab 4e bc 42
       94.17227 94.20426 94.20752 94.15365

layer2.weight f4 [256, 128]
000000 d5 bc bb 42 76 4c bc 42 35 2a bc 42 bb 31 bc 42
       93.86881 94.14934 94.082436 94.09713
000010 39 41 bc 42 11 12 bc 42 00 68 bc 42 26 60 bc 42
       94.12739 94.035286 94.203125 94.18779
000020 ab 67 bc 42 7c 06 bc 42 99 13 bc 42 5d ba bb 42
       94.20248 94.012665 94.03828 93.86399
000030 0d d0 bb 42 f4 0d bc 42 48 17 bc 42 a1 58 bc 42
       93.90635 94.02725 94.04547 94.1731
000040 88 16 bc 42 49 b4 bb 42 78 e6 bb 42 10 b1 bb 42
       94.04401 93.85212 93.950134 93.845825
000050 3f 37 bc 42 a4 c5 bb 42 e9 c7 bb 42 6a fd bb 42
       94.1079 93.88602 93.89045 93.99495
000060 7b 3b bc 42 7d d2 bb 42 f2 13 bc 42 c8 05 bc 42
       94.11617 93.91111 94.038956 94.01129
000070 78 d1 bb 42 b1 37 bc 42 9d cd 44 c2 35 25 bc 42
       93.90912 94.10877 -49.200794 94.07267
000080 55 16 bc 42 27 6c bc 42 4d 35 bc 42 d9 02 bc 42
       94.04362 94.211235 94.1041 94.00556
000090 35 08 bc 42 15 16 bc 42 bc bc 44 c2 34 6f bc 42
       94.01603 94.04313 -49.18431 94.21719
0000a0 34 fb bb 42 02 4f bc 42 3e bb bb 42 79 ff bb 42
       93.99063 94.15431 93.86571 93.99897
0000b0 84 2e bc 42 99 f0 bb 42 ec b6 bb 42 51 79 bc 42
       94.09085 93.96992 93.85727 94.236946
0000c0 81 eb bb 42 7e 58 bc 42 65 fd bb 42 f1 ee bb 42
       93.95997 94.17284 93.99491 93.96668
0000d0 41 a6 bb 42 4d 0a bc 42 26 12 bc 42 ff ea 44 c2
       93.824715 94.02012 94.035446 -49.22949
0000e0 20 b2 bb 42 01 db bb 42 86 5e bc 42 9b 6b bc 42
       93.8479 93.92774 94.184616 94.21017
0000f0 5c c3 bb 42 25 2b bc 42 71 0e bc 42 f0 35 bc 42
       93.88156 94.08427 94.028206 94.10535
000100 cc e5 bb 42 e9 c9 bb 42 49 04 bc 42 8d 24 bc 42
       93.94882 93.894356 94.00837 94.07139
000110 21 e1 bb 42 ed f8 bb 42 41 15 bc 42 88 df bb 42
       93.939705 93.98618 94.04151 93.936584
000120 4c 0e bc 42 c1 cf bb 42 a1 28 bc 42 08 25 bc 42
       94.02792 93.90577 94.07935 94.07233
000130 5d a4 bb 42 41 27 bc 42 3e dc bb 42 99 f1 bb 42
       93.82102 94.07667 93.93016 93.97187
000140 cf 4e bc 42 16 0b bc 42 91 01 bc 42 88 a0 bb 42
       94.15392 94.02165 94.00306 93.81354
000150 85 f5 bb 42 d1 f6 bb 42 29 d5 bb 42 39 20 bc 42
       93.97953 93.98206 93.91633 94.062935
000160 91 2a bc 42 fc 59 bc 42 c0 a1 bb 42 11 e2 bb 42
       94.08314 94.17575 93.81592 93.941536
000170 d9 f2 bb 42 f1 02 bc 42 71 0b bc 42 7a 07 bc 42
       93.97431 94.005745 94.02235 94.0146
000180 5c 03 bc 42 29 f0 bb 42 da 10 bc 42 19 dc bb 42
       94.00656 93.96906 94.03291 93.92988
000190 ee 4a bc 42 59 dd bb 42 4a 31 bc 42 81 10 bc 42
       94.14635 93.93232 94.09627 94.032234
0001a0 b9 0c bc 42 71 1f bc 42 e8 df bb 42 48 12 bc 42
       94.02485 94.06141 93.93732 94.035706
0001b0 ee 43 bc 42 5d d9 bb 42 1d 8d bb 42 e4 18 bc 42
       94.132675 93.92454 93.77561 94.048615
0001c0 e5 02 bc 42 60 34 bc 42 0d ff bb 42 c5 1a bc 42
       94.00565 94.102295 93.998146 94.052284
0001d0 58 bc bb 42 55 fd bb 42 e1 d7 bb 42 54 05 bc 42
       93.86786 93.99479 93.92164 94.01041
0001e0 54 88 bb 42 08 25 bc 42 c0 2e 44 c2 2d d0 bb 42
       93.766266 94.07233 -49.045654 93.90659
0001f0 7c 48 bc 42 59 01 bc 42 51 ff bb 42 d1 6b bc 42
       94.14157 94.00263 93.998665 94.21058
000200 58 99 bc 42 39 2a bc 42 15 ed bb 42 4a 33 bc 42
       94.2995 94.082466 93.96305 94.100174
000210 eb 4e bc 42 14 2c bc 42 f2 46 bc 42 0d 2d bc 42
       94.15414 94.08609 94.138565 94.08799
000220 22 56 bc 42 59 06 bc 42 b9 01 bc 42 24 3f bc 42
       94.16823 94.0124 94.003365 94.12332
000230 56 44 bc 42 98 0b bc 42 05 06 bc 42 6a 79 bc 42
       94.13347 94.022644 94.01176 94.23714
000240 6b 96 bc 42 1b 4b bc 42 2a 43 bc 42 80 5a bc 42
       94.293785 94.14669 94.13118 94.17676
000250 7d fe bb 42 5c 66 bc 42 ad 3f bc 42 7e 3f bc 42
       93.99705 94.19992 94.12437 94.12401
000260 f1 1c bc 42 2b 67 bc 42 29 0c bc 42 8c 0d bc 42
       94.056526 94.2015 94.02375 94.02646
000270 5f 3e bc 42 39 be bc 42 5f 3c 45 c2 25 55 bc 42
       94.12182 94.37153 -49.308956 94.1663
000280 fb b7 bc 42 25 40 bc 42 e2 3f bc 42 e0 80 bc 42
       94.35934 94.12528 94.12477 94.25171
000290 68 fc bb 42 d5 bc bc 42 d7 b2 44 c2 0a 75 bc 42
       93.99298 94.36881 -49.17465 94.22859
0002a0 03 38 bc 42 dd f5 bb 42 a8 4d bc 42 30 18 bc 42
       94.1094 93.9802 94.15167 94.04724
0002b0 25 1b bc 42 ed 20 bc 42 27 67 bc 42 be 65 bc 42
       94.05302 94.06431 94.20147 94.198715
0002c0 ad 28 bc 42 a9 25 bc 42 35 03 bc 42 65 72 bc 42
       94.079445 94.073555 94.00626 94.22343
0002d0 3e 7a bc 42 a1 91 bc 42 74 33 bc 42 c2 a3 44 c2
       94.238754 94.28443 94.100494 -49.15992
0002e0 3b 44 bc 42 f2 51 bc 42 7f 8a bc 42 85 17 bc 42
       94.13326 94.16005 94.2705 94.04594
0002f0 be 37 bc 42 a5 0b bc 42 a5 20 bc 42 85 e2 bc 42
       94.10887 94.02274 94.06376 94.44242
000300 a0 2d bc 42 38 99 bc 42 7d 0d bc 42 5c 44 bc 42
       94.08911 94.299255 94.026344 94.133514
000310 94 3b bc 42 fb 43 bc 42 88 4c bc 42 d3 48 bc 42
       94.11636 94.132774 94.149475 94.142235
000320 52 2e bc 42 1f 2f bc 42 4f 52 bc 42 17 b6 bc 42
       94.09047 94.09203 94.16076 94.355644
000330 f2 44 bc 42 c1 dd bb 42 eb 45 bc 42 eb 37 bc 42
       94.13466 93.93311 94.13656 94.109215
000340 6c 6f bc 42 d4 01 bc 42 40 19 bc 42 fb 5a bc 42
       94.21762 94.00357 94.04932 94.1777
000350 e7 3c bc 42 dc b4 bc 42 ea 69 bc 42 68 13 bc 42
       94.11895 94.35324 94.20686 94.0379
000360 ec a6 bc 42 41 1e bc 42 c1 58 bc 42 db 9b bc 42
       94.32602 94.05909 94.17335 94.304405
000370 41 74 bc 42 b1 37 bc 42 79 e5 bb 42 85 09 bc 42
       94.22706 94.10877 93.94819 94.01859
000380 25 0b bc 42 1b 5a bc 42 54 09 bc 42 46 5f bc 42
       94.02177 94.17599 94.01822 94.18608
000390 e7 74 bc 42 c4 56 bc 42 b4 35 bc 42 78 2c bc 42
       94.228325 94.169464 94.10489 94.08685
0003a0 59 0a bc 42 36 5f bc 42 4a 3b bc 42 c2 8d bc 42
       94.02021 94.18596 94.1158 94.27687
0003b0 6e ed bb 42 ac a4 bc 42 74 5f bc 42 c9 0f bc 42
       93.96373 94.321625 94.18643 94.03083
0003c0 e1 07 bc 42 8d ec bb 42 c5 3d bc 42 00 66 bc 42
       94.01539 93.96201 94.12064 94.19922
0003d0 5e 54 bc 42 28 0d bc 42 c9 59 bc 42 0a 34 bc 42
       94.16478 94.025696 94.17536 94.10164
0003e0 cc 64 bc 42 53 63 bc 42 55 b4 43 c2 f4 5c bc 42
       94.19687 94.19399 -48.926105 94.18155
0003f0 fd 70 bc 42 18 42 bc 42 ad 37 bc 42 85 5c bc 42
       94.22068 94.12909 94.10874 94.1807

layer2.bias f4 [256]
000000 2a 8f bc 42 27 b9 bc 42 84 80 bc 42 c8 db ae bd
       94.27962 94.361626 94.25101 -0.08538014
000010 f0 a6 bc 42 ac a9 bc 42 2d 8f bc 42 76 9b bc 42
       94.32605 94.33139 94.27964 94.303635
000020 41 aa bc 42 2d 83 8f be 08 70 ac bb 46 a9 bc 42
       94.33253 -0.28029767 -0.0052623786 94.33061
000030 0e 9c bc 42 58 aa bc 42 38 ab 99 bd 2d ad bc 42
       94.304794 94.3327 -0.075033605 94.338234
000040 e0 80 bc 42 47 b0 bc 42 9a a6 bc 42 1a 7f bc 42
       94.25171 94.34429 94.32539 94.248245
000050 91 ab bc 42 c2 7e bc 42 34 a4 bc 42 a6 b3 bc 42
       94.33509 94.247574 94.32071 94.350876
000060 52 76 bc 42 e2 75 bc 42 5d ab bc 42 72 7d bc 42
       94.231094 94.23024 94.334694 94.24501
000070 24 aa bc 42 54 a8 bc 42 62 ab bc 42 65 ad bc 42
       94.332306 94.328766 94.33473 94.33866
000080 88 a9 bc 42 7a a6 bc 42 d5 a8 bc 42 ed aa bc 42
       94.331116 94.32515 94.32975 94.33384
000090 cc ac bc 42 a1 d7 a8 be 2a ac bc 42 5c a2 bc 42
       94.337494 -0.32977012 94.33626 94.31711
0000a0 85 68 bc 42 53 7a bc 42 bd 7e bc 42 84 ac bc 42
       94.20414 94.238914 94.247536 94.336945
0000b0 c6 aa bc 42 b6 ae bc 42 8a a8 bc 42 ed a0 bc 42
       94.33354 94.34123 94.32918 94.31431
0000c0 77 b1 90 bd 2b ad bc 42 d6 ab bc 42 09 a5 bc 42
       -0.07065099 94.33822 94.33562 94.322334
0000d0 94 a9 bc 42 ea 9f bc 42 a3 b2 bc 42 8e a8 bc 42
       94.33121 94.31233 94.3489 94.32921
0000e0 43 b2 bc 42 26 a6 bc 42 f0 a6 bc 42 b6 77 bc 42
       94.34817 94.32451 94.32605 94.23381
0000f0 3c 60 a7 bb fc a4 bc 42 0e be 98 bd 44 c7 8e be
       -0.0051079076 94.322235 -0.07458125 -0.27886403
000100 53 ae bc 42 bb 8b bc 42 a0 ab bc 42 7b 88 bc 42
       94.34048 94.27291 94.335205 94.26656
000110 8b ae bc 42 cb 7b bc 42 b9 a6 bc 42 18 a7 bc 42
       94.340904 94.24178 94.32563 94.326355
000120 cf aa bc 42 6d aa bc 42 57 aa bc 42 bf 9a bc 42
       94.33361 94.33286 94.332695 94.30224
000130 b4 a2 bc 42 53 7d bc 42 8e 81 bc 42 d3 7d bc 42
       94.31778 94.244774 94.25304 94.24575
000140 1a a8 bc 42 a6 9b bc 42 ec ab bc 42 31 8c bc 42
       94.32832 94.304 94.335785 94.27381
000150 16 b1 bc 42 14 af bc 42 b8 9a bc 42 30 a7 bc 42
       94.34587 94.34195 94.302185 94.32654
000160 a8 a6 bc 42 90 9d bc 42 58 b9 bc 42 60 a6 bc 42
       94.3255 94.30774 94.362 94.32495
000170 e2 a1 bc 42 7b b1 bc 42 9d 8a bc 42 5b 9e bc 42
       94.31618 94.34664 94.27073 94.30929
000180 30 ae bc 42 e3 78 bc 42 3a 84 bc 42 90 b4 bc 42
       94.34021 94.23611 94.258255 94.35266
000190 12 ab bc 42 31 a6 bc 42 e8 86 bc 42 a5 a7 bc 42
       94.33412 94.32459 94.26349 94.32743
0001a0 21 25 bc 42 53 9a bc 42 0e ac bc 42 66 6a bc 42
       94.07252 94.301414 94.336044 94.20781
0001b0 ec b0 bc 42 27 a7 bc 42 99 b5 bc 42 09 a6 bc 42
       94.34555 94.32647 94.35468 94.32429
0001c0 cb ad bc 42 08 aa bc 42 56 74 bc 42 ae ad bc 42
       94.33944 94.33209 94.22722 94.33922
0001d0 a1 a7 bc 42 e2 a8 bc 42 76 a8 bc 42 30 b0 bc 42
       94.3274 94.32985 94.329025 94.34412
0001e0 d6 81 bc 42 14 af bc 42 79 af bc 42 09 92 bc 42
       94.253586 94.34195 94.34272 94.285225
0001f0 4e 6b bc 42 84 ac bc 42 34 a6 bc 42 f5 a8 bc 42
       94.20958 94.336945 94.324615 94.329994
000200 41 a8 bc 42 a5 a9 bc 42 91 86 bc 42 ef 6b bc 42
       94.32862 94.33134 94.262825 94.21081
000210 9f 8f 8f bd c3 80 bc 42 74 a6 bc 42 82 ad bc 42
       -0.070098154 94.25149 94.3251 94.33888
000220 b6 b4 bc 42 eb 89 bc 42 88 92 bc 42 bf 9c bc 42
       94.35295 94.26937 94.286194 94.306145
000230 cf ac bc 42 c3 ab bc 42 83 b2 bc 42 b9 ad bc 42
       94.33752 94.33547 94.348656 94.3393
000240 2d a6 bc 42 17 ae bc 42 22 82 bc 42 81 b3 bc 42
       94.32456 94.34002 94.254166 94.35059
000250 d2 13 6c bd ea a2 bc 42 31 b3 bc 42 60 ac bc 42
       -0.05763609 94.31819 94.34998 94.33667
000260 cf 6a bc 42 b2 43 a4 be 6c a5 bc 42 77 9a bc 42
       94.20861 -0.32082897 94.32309 94.30169
000270 55 9c bc 42 92 ac bc 42 84 3e bc 42 38 a5 bc 42
       94.305336 94.33705 94.1221 94.32269
000280 7e 88 bc 42 ab ad bc 42 ca aa bc 42 54 89 bc 42
       94.26659 94.339195 94.33357 94.26822
000290 27 7b bc 42 dd a9 bc 42 22 e5 92 bd ed aa bc 42
       94.24053 94.331764 -0.0717261 94.33384
0002a0 18 ab bc 42 c7 6e bc 42 73 a6 bc 42 57 7f bc 42
       94.33417 94.21636 94.325096 94.24871
0002b0 0b ac bc 42 a3 ae bc 42 fa 40 bc 42 75 a9 bc 42
       94.33602 94.34109 94.12691 94.33097
0002c0 2f a8 bc 42 bd 89 bc 42 22 a2 bc 42 b7 a9 bc 42
       94.32848 94.26902 94.316666 94.331474
0002d0 53 a7 bc 42 54 9b bc 42 17 aa bc 42 4e 38 ad bb
       94.326805 94.303375 94.33221 -0.005286253
0002e0 e3 af bc 42 d6 a3 bc 42 ca 7a bc 42 30 af bc 42
       94.34353 94.31999 94.23982 94.34216
0002f0 e8 aa bc 42 7b a6 bc 42 a4 73 bc 42 c4 ad bc 42
       94.3338 94.32516 94.22586 94.339386
000300 a8 9a bc 42 70 a7 bc 42 19 ad bc 42 40 38 50 bb
       94.30206 94.32703 94.33808 -0.003177181
000310 99 1a bc 42 1d 9f bc 42 17 93 bc 42 2c a8 bc 42
       94.05195 94.31077 94.287285 94.32846
000320 e6 a6 bc 42 ec aa bc 42 62 ab bc 42 6d 78 bc 42
       94.32597 94.33383 94.33473 94.23521
000330 80 a6 bc 42 46 cd 80 bb 74 ab bc 42 92 b7 81 bd
       94.325195 -0.0039307205 94.33487 -0.063338414
000340 6b af bc 42 40 aa bc 42 f7 b3 bc 42 ab ad bc 42
       94.34261 94.33252 94.351494 94.339195
000350 a3 a8 bc 42 8a a8 bc 42 85 a3 bc 42 56 b0 bc 42
       94.32937 94.32918 94.319374 94.344406
000360 ff 70 bc 42 fc a8 bc 42 3f 85 bc 42 f4 aa bc 42
       94.220695 94.33005 94.26025 94.33389
000370 fe 69 bc 42 ef 77 bc 42 98 a5 bc 42 8b 68 bc 42
       94.207016 94.234245 94.323425 94.204185
000380 d5 a8 bc 42 85 78 bc 42 7b ac bc 42 71 79 bc 42
       94.32975 94.23539 94.336876 94.23719
000390 49 a3 bc 42 3e a8 bc 42 7f 98 bc 42 4f 99 bc 42
       94.31892 94.3286 94.297844 94.29943
0003a0 07 af bc 42 47 ad bc 42 9a a5 bc 42 97 a4 bc 42
       94.34185 94.33843 94.32344 94.321465
0003b0 63 a8 bc 42 cb a1 bc 42 12 a6 bc 42 99 a9 bc 42
       94.32888 94.316 94.324356 94.331245
0003c0 48 75 bc 42 da ad bc 42 bf a7 bc 42 5d a8 bc 42
       94.229065 94.339554 94.32763 94.328835
0003d0 9c a8 bc 42 91 b2 bc 42 99 0c a2 bd 18 a1 dd b9
       94.329315 94.34876 -0.07912559 -0.0004227243
0003e0 43 a8 bc 42 ac a5 bc 42 91 b2 bc 42 70 a8 bc 42
       94.328636 94.32358 94.34876 94.32898
0003f0 a4 a3 bc 42 98 b0 bc 42 ea ac bc 42 3e a7 bc 42
       94.31961 94.34491 94.33772 94.326645

layer3.weight f4 [256, 256]
000000 a1 ea bb 42 2c f2 bb 42 21 13 bc 42 89 5b 03 3e
       93.95826 93.97299 94.03736 0.12827887
000010 79 e7 bb 42 b1 e3 bb 42 11 e9 bb 42 de dc bb 42
       93.952095 93.94471 93.95521 93.93138
000020 20 e6 bb 42 78 f0 1f be 12 f3 e6 ba fd e6 bb 42
       93.94946 -0.15619075 -0.0017620048 93.95115
000030 55 e6 bb 42 cd eb bb 42 7e d7 0c 3e 4d f3 bb 42
       93.94987 93.96055 0.13754079 93.9752
000040 c5 c4 bb 42 29 ea bb 42 90 d9 bb 42 f9 da bb 42
       93.884315 93.957344 93.92493 93.92768
000050 ac e7 bb 42 44 e2 bb 42 1d ea bb 42 08 ea bb 42
       93.952484 93.941925 93.95725 93.95709
000060 f9 08 bc 42 fc 0f bc 42 0d f0 bb 42 1d e5 bb 42
       94.017525 94.03122 93.96885 93.94749
000070 a8 e2 bb 42 75 f2 bb 42 e1 e9 bb 42 61 db bb 42
       93.94269 93.97355 93.956795 93.928474
000080 e9 e7 bb 42 3c e0 bb 42 a1 df bb 42 9d e6 bb 42
       93.95295 93.93796 93.936775 93.95042
000090 a1 ea bb 42 28 73 10 be 65 e7 bb 42 fc db bb 42
       93.95826 -0.14106429 93.95194 93.92966
0000a0 09 28 bc 42 94 ed bb 42 79 d2 bb 42 00 ee bb 42
       94.07819 93.96402 93.91108 93.96484
0000b0 90 eb bb 42 6d eb bb 42 b5 e4 bb 42 68 01 bc 42
       93.96008 93.959816 93.94669 94.00275
0000c0 be 31 f4 3d 35 e6 bb 42 08 e3 bb 42 49 db bb 42
       0.1192355 93.94962 93.94342 93.92829
0000d0 f0 e2 bb 42 35 e8 bb 42 10 ea bb 42 14 e8 bb 42
       93.94324 93.95353 93.95715 93.95328
0000e0 ec ed bb 42 e5 c2 bb 42 21 e0 bb 42 a1 07 bc 42
       93.96469 93.88065 93.93775 94.0149
0000f0 62 43 07 ba c1 db bb 42 41 c7 e5 3d 03 39 69 bd
       -0.0005159882 93.92921 0.11219645 -0.056939136
000100 48 e9 bb 42 e5 f0 bb 42 7d e9 bb 42 6c 0a bc 42
       93.95563 93.9705 93.95603 94.020355
000110 51 ed bb 42 e1 e0 bb 42 71 e2 bb 42 19 e4 bb 42
       93.96351 93.93922 93.94227 93.9455
000120 e1 e7 bb 42 5d e9 bb 42 4e e3 bb 42 50 e5 bb 42
       93.95289 93.95579 93.943954 93.947876
000130 a0 e7 bb 42 e5 09 bc 42 25 ec bb 42 85 c0 bb 42
       93.95239 94.019325 93.96122 93.876015
000140 f9 e1 bb 42 31 df bb 42 04 ea bb 42 69 fb bb 42
       93.94135 93.93592 93.95706 93.991035
000150 c5 ed bb 42 4d e9 bb 42 89 e0 bb 42 86 e5 bb 42
       93.96439 93.955666 93.938545 93.94829
000160 49 e4 bb 42 20 23 bc 42 04 fe bb 42 e8 e8 bb 42
       93.94587 94.0686 93.996124 93.954895
000170 c5 dd bb 42 e6 ea bb 42 09 08 bc 42 a8 e9 bb 42
       93.93314 93.958786 94.01569 93.95636
000180 c6 e4 bb 42 f1 13 bc 42 10 df bb 42 a0 f0 bb 42
       93.94682 94.03895 93.93567 93.96997
000190 09 e7 bb 42 a8 e9 bb 42 60 fc bb 42 b1 e4 bb 42
       93.95124 93.95636 93.99292 93.94666
0001a0 93 32 bc 42 60 f7 bb 42 31 e8 bb 42 76 30 bc 42
       94.09878 93.983154 93.9535 94.09465
0001b0 6d e9 bb 42 48 e2 bb 42 8d f0 bb 42 69 e6 bb 42
       93.95591 93.941956 93.969826 93.95002
0001c0 55 ed bb 42 d0 f5 bb 42 64 0c bc 42 30 e9 bb 42
       93.96354 93.9801 94.0242 93.955444
0001d0 a9 e5 bb 42 d1 e7 bb 42 fd e8 bb 42 81 eb bb 42
       93.948555 93.95277 93.955055 93.95997
0001e0 a9 ef bb 42 84 ed bb 42 64 ea bb 42 50 e5 bb 42
       93.96809 93.9639 93.957794 93.947876
0001f0 fd 22 bc 42 84 e6 bb 42 2d e1 bb 42 9d ea bb 42
       94.06834 93.950226 93.9398 93.95823
000200 e1 d9 bb 42 3d e6 bb 42 60 dc bb 42 69 2b bc 42
       93.925545 93.949684 93.93042 94.084785
000210 69 86 0b 3e 40 f0 bb 42 69 e0 bb 42 55 e8 bb 42
       0.13625492 93.96924 93.9383 93.95377
000220 45 ed bb 42 71 db bb 42 89 07 bc 42 ac e5 bb 42
       93.96342 93.9286 94.01472 93.94858
000230 c1 e9 bb 42 ed e5 bb 42 b5 e6 bb 42 dc e6 bb 42
       93.95655 93.94907 93.9506 93.9509
000240 40 e7 bb 42 2d f0 bb 42 e9 00 bc 42 b1 ec bb 42
       93.95166 93.96909 94.00178 93.96229
000250 cd 19 24 3e ac e7 bb 42 59 ea bb 42 ad e6 bb 42
       0.16025467 93.952484 93.95771 93.95054
000260 45 2a bc 42 ca f8 e6 bd f9 ee bb 42 05 f0 bb 42
       94.08256 -0.112779215 93.96674 93.96879
000270 58 e5 bb 42 99 ec bb 42 c1 1b bc 42 39 e7 bb 42
       93.94794 93.962105 94.05421 93.95161
000280 01 f8 bb 42 11 e9 bb 42 3d e8 bb 42 94 e2 bb 42
       93.98438 93.95521 93.95359 93.942535
000290 09 0b bc 42 0d e7 bb 42 23 b0 e7 3d 35 e8 bb 42
       94.02155 93.95127 0.11312892 93.95353
0002a0 65 e6 bb 42 70 23 bc 42 7e e5 bb 42 00 ea bb 42
       93.94999 94.069214 93.94823 93.95703
0002b0 61 eb bb 42 c4 e3 bb 42 b1 0c bc 42 b9 e8 bb 42
       93.959724 93.944855 94.02479 93.95454
0002c0 24 e8 bb 42 f8 04 bc 42 08 e3 bb 42 d9 e7 bb 42
       93.9534 94.009705 93.94342 93.95283
0002d0 48 e7 bb 42 c8 e5 bb 42 80 ed bb 42 6c 52 20 bb
       93.95172 93.94879 93.96387 -0.002446319
0002e0 48 e9 bb 42 5d e2 bb 42 4d 0f bc 42 10 e8 bb 42
       93.95563 93.942116 94.029884 93.95325
0002f0 bd ef bb 42 c4 e3 bb 42 c4 0e bc 42 a1 ef bb 42
       93.96824 93.944855 94.02884 93.968025
000300 99 ec bb 42 89 dc bb 42 fe ea bb 42 83 52 dc 3a
       93.962105 93.93073 93.95897 0.0016809258
000310 44 1d bc 42 d8 c8 bb 42 39 ea bb 42 fc e0 bb 42
       94.05716 93.89227 93.957466 93.93942
000320 d5 e9 bb 42 20 e8 bb 42 94 e9 bb 42 b8 fc bb 42
       93.9567 93.95337 93.95621 93.99359
000330 bd e4 bb 42 e1 b2 c9 b9 ae ef bb 42 d7 50 20 3e
       93.946754 -0.00038470983 93.968124 0.15655838
000340 85 e9 bb 42 88 e8 bb 42 a9 ed bb 42 d4 e8 bb 42
       93.95609 93.95416 93.96418 93.95474
000350 45 e6 bb 42 d9 e7 bb 42 d9 e4 bb 42 fe e3 bb 42
       93.949745 93.95283 93.94697 93.9453
000360 f8 14 bc 42 0c e1 bb 42 08 e3 bb 42 ac e7 bb 42
       94.040955 93.939545 93.94342 93.952484
000370 f4 2d bc 42 8c fb bb 42 74 df bb 42 da 31 bc 42
       94.08975 93.9913 93.93643 94.09737
000380 1d e9 bb 42 fd e6 bb 42 e4 e6 bb 42 b1 04 bc 42
       93.9553 93.95115 93.95096 94.00916
000390 b9 d2 bb 42 0c ea bb 42 d9 e9 bb 42 e4 dd bb 42
       93.91157 93.95712 93.95673 93.93338
0003a0 a8 f2 bb 42 c0 e5 bb 42 95 e0 bb 42 04 d3 bb 42
       93.97394 93.94873 93.93864 93.91214
0003b0 61 df bb 42 01 04 bc 42 ad e1 bb 42 8d e7 bb 42
       93.93629 94.00782 93.94077 93.95225
0003c0 b4 e9 bb 42 3c e4 bb 42 cd ed bb 42 8d e7 bb 42
       93.95645 93.94577 93.964455 93.95225
0003d0 f1 e1 bb 42 59 fa bb 42 d3 77 fa 3d 11 a8 c4 3b
       93.94129 93.98896 0.12229886 0.0060014804
0003e0 fd e9 bb 42 51 e1 bb 42 ed ea bb 42 61 e9 bb 42
       93.95701 93.94007 93.95884 93.95582
0003f0 f9 cf bb 42 70 fc bb 42 01 e9 bb 42 a0 fb bb 42
       93.9062 93.99304 93.955086 93.991455

layer3.bias f4 [256]
000000 24 46 bd 42 e5 17 bd 42 d5 47 bd 42 54 51 bd 42
       94.63699 94.54667 94.6403 94.658844
000010 f7 3d bd 42 4f 5f bd 42 37 62 bd 42 8a fd 64 bb
       94.621025 94.68615 94.691826 -0.003494116
000020 19 4f bd 42 98 0b e6 ba b1 12 dc 3b bf 61 bd 42
       94.65449 -0.0017551063 0.0067160954 94.69091
000030 f0 4a bd 42 f9 5f bd 42 ae 58 bd 42 16 33 bd 42
       94.64636 94.68745 94.6732 94.59978
000040 31 63 bd 42 03 e7 33 3b 35 49 bd 42 90 04 bd 42
       94.69373 0.0027450926 94.64298 94.50891
000050 45 d1 39 bb 81 5f bd 42 16 67 bd 42 20 97 1d bb
       -0.0028353494 94.68653 94.70134 -0.0024046376
000060 0b 68 bd 42 98 3a bd 42 bf 88 ed 3a 0d 44 bd 42
       94.70321 94.61444 0.0018122419 94.63291
000070 d0 3f bd 42 4f 5a bd 42 bf 43 bd 42 e2 49 01 3b
       94.62463 94.676384 94.63232 0.0019727875
000080 f1 81 22 bb f1 67 bd 42 1c 33 bd 42 c3 f1 33 3b
       -0.002479669 94.70301 94.59982 0.0027457334
000090 c3 49 bd 42 b3 c5 48 bb cb 5f bd 42 3d 68 bd 42
       94.644066 -0.0030635416 94.687096 94.70359
0000a0 7e 47 bd 42 09 3a 9f 3b 39 39 bd 42 9f 3b bd 42
       94.63963 0.0048592133 94.61176 94.61645
0000b0 33 84 58 bb 7d 59 bd 42 7d 63 bd 42 19 37 bd 42
       -0.0033037781 94.67478 94.69431 94.60761
0000c0 7d 34 bd 42 8c 03 bd 42 93 b5 0d bb 85 1a bd 42
       94.602516 94.50693 -0.002162312 94.551796
0000d0 86 2d bd 42 0d 62 bd 42 f7 60 bd 42 11 6b bd 42
       94.58891 94.691505 94.689384 94.709114
0000e0 ab 39 bd 42 0b 0e dd 3a 95 45 07 bb ad 15 bd 42
       94.61263 0.0016865147 -0.002064084 94.542336
0000f0 89 45 bd 42 dc 38 bd 42 c9 bf e0 3b 47 65 bd 42
       94.63581 94.61105 0.0068588 94.69781
000100 11 67 bd 42 0b 46 99 39 cd 63 bd 42 76 42 bd 42
       94.7013 0.0002923462 94.69492 94.62981
000110 65 af 58 bb ec 68 dc b9 2c 59 bd 42 dd 3a bd 42
       -0.0033063528 -0.00042039843 94.674164 94.61497
000120 64 51 bd 42 15 4c bd 42 40 04 c1 b9 65 64 bd 42
       94.658966 94.6486 -0.00036814995 94.69608
000130 b4 66 bd 42 b0 66 bd 42 74 1c bd 42 20 31 bd 42
       94.70059 94.70056 94.55557 94.59595
000140 0e 4c bd 42 60 55 bd 42 19 67 bd 42 15 35 bd 42
       94.648544 94.66675 94.70136 94.603676
000150 a1 3d bd 42 09 67 bd 42 2c 24 0f bb 66 5c bd 42
       94.62037 94.70124 -0.0021841628 94.680466
000160 f3 f4 bc 42 1b 62 bd 42 47 b2 0a 3b fc 1f ad 3a
       94.47842 94.69161 0.002116339 0.0013208385
000170 02 64 bd 42 86 0c bd 42 74 4e bd 42 88 37 37 bb
       94.69533 94.52446 94.65323 -0.0027956683
000180 da c3 d6 ba 5f 58 bd 42 82 64 bd 42 69 37 bd 42
       -0.0016385273 94.6726 94.696304 94.60822
000190 2e c1 98 b9 b3 53 bd 42 30 5f bd 42 17 01 4e bb
       -0.0002913563 94.663475 94.68591 -0.0031433755
0001a0 8f 20 bd 42 7f 13 87 bb 70 65 bd 42 9b 2a bd 42
       94.56359 -0.004122197 94.69812 94.58321
0001b0 8c 26 bd 42 a0 5b bd 42 77 31 bd 42 53 43 bb ba
       94.57529 94.678955 94.59661 -0.0014287032
0001c0 e6 23 bd 42 a2 e6 6f bb be 63 bd 42 68 5a d9 b9
       94.570114 -0.0036605974 94.69481 -0.00041456823
0001d0 4e f6 bc 42 f7 02 bd 42 b2 ca 73 bb 0b 66 bd 42
       94.481064 94.50579 -0.0037199673 94.6993
0001e0 73 61 bd 42 be f8 bc 42 68 ad 4c bb 01 ca 74 ba
       94.69033 94.485825 -0.0031231288 -0.0009337962
0001f0 81 05 bd 42 12 71 6f bb d9 2b 56 b9 6c 60 bd 42
       94.51075 -0.00365359 -0.00020424965 94.688324
000200 55 3d bd 42 24 71 aa bb 02 b1 69 3a 78 5b 96 ba
       94.61979 -0.0052014757 0.0008914621 -0.0011471352
000210 50 38 37 bb 5e 5a bd 42 3a 5b bd 42 72 fc bc 42
       -0.002795715 94.6765 94.67818 94.49306
000220 73 f6 d7 3a e9 67 bd 42 d8 20 bd 42 3f 69 bd 42
       0.0016476646 94.70295 94.56415 94.70556
000230 1c b3 91 3a 6b a4 66 bb ce 5e bd 42 e0 65 bd 42
       0.0011116001 -0.0035193216 94.685165 94.698975
000240 c8 68 bd 42 a8 64 bd 42 22 dd 15 b9 70 f2 eb ba
       94.70465 94.696594 -0.00014292126 -0.0018001329
000250 19 45 bd 42 8d 63 bd 42 47 b4 1e 3b e4 ff bc 42
       94.63496 94.694435 0.002421634 94.49979
000260 b4 03 bd 42 b8 33 bd 42 e9 2e 08 bb 53 69 bd 42
       94.50723 94.60101 -0.0020779914 94.70571
000270 92 01 bd 42 14 5b bd 42 84 de 9f 39 da 2f a1 b9
       94.50307 94.67789 0.0003049263 -0.00030743965
000280 82 41 bd 42 34 37 bd 42 2b 93 d4 b9 70 68 bd 42
       94.627945 94.60782 -0.0004054544 94.70398
000290 16 37 bd 42 a1 5b 64 bb b9 1e fa ba 28 67 bd 42
       94.60759 -0.0034844654 -0.0019082642 94.70148
0002a0 96 48 bd 42 33 4d bd 42 27 40 bd 42 f2 55 bd 42
       94.64177 94.65078 94.6253 94.66786
0002b0 f5 65 bd 42 19 3d bd 42 14 51 bd 42 d1 37 bd 42
       94.699135 94.61933 94.658356 94.60902
0002c0 a8 65 bd 42 7a 04 1a 3b c2 49 bd 42 5d 65 bd 42
       94.69855 0.0023501203 94.64406 94.697975
0002d0 f3 46 bd 42 42 60 bd 42 bb 60 bd 42 35 40 bd 42
       94.63857 94.688 94.68893 94.625404
0002e0 a2 0c bd 42 de c1 b2 39 61 46 bd 42 01 3a bd 42
       94.52467 0.00034095248 94.63746 94.61329
0002f0 91 48 bd 42 0e 1a bd 42 3e 37 bd 42 54 cc e2 ba
       94.64173 94.55089 94.607895 -0.0017303326
000300 f8 f1 3d bb 12 27 bd 42 83 e6 09 bb 5c 68 bd 42
       -0.0028983336 94.57631 -0.0021041937 94.70383
000310 5a 6c bd 42 e1 1c bd 42 37 55 bd 42 c9 25 bd 42
       94.711624 94.556404 94.666435 94.5738
000320 f6 30 bd 42 b8 4b bd 42 3c 62 bd 42 f4 66 bd 42
       94.59563 94.64789 94.691864 94.70108
000330 b4 41 bd 42 9e 35 bd 42 7b 7e 66 bb 7d 95 b1 3a
       94.62833 94.60472 -0.0035170603 0.0013548579
000340 5f a6 6a b9 83 48 bd 42 20 3d bd 42 4e 68 bd 42
       -0.00022377957 94.641624 94.619385 94.70372
000350 a0 21 3e 3a d2 26 01 bb b3 01 bd 42 0a 9f d9 3b
       0.00072529353 -0.0019706977 94.50332 0.0066412734
000360 e8 a4 91 ba 87 29 bd 42 d0 4c bd 42 bf 38 bd 42
       -0.0011111768 94.58111 94.650024 94.61083
000370 37 f2 24 3c ff ff be bb 6a 9e 98 bb fb ff bc 42
       0.010067514 -0.005828857 -0.0046575563 94.49996
000380 ab 66 bd 42 be 02 bd 42 86 d5 b8 ba d4 67 bd 42
       94.70052 94.505356 -0.0014101721 94.70279
000390 85 62 bd 42 57 60 bd 42 88 64 bd 42 e8 2d bd 42
       94.69242 94.68816 94.69635 94.58966
0003a0 4d 4b bd 42 50 69 bd 42 6a 65 bd 42 ad 04 bd 42
       94.64707 94.70569 94.698074 94.50913
0003b0 7e 40 62 bb 5b 59 bd 42 88 fd bc 42 b2 65 bd 42
       -0.0034523304 94.67452 94.49518 94.69862
0003c0 fc 42 bd 42 d4 36 bd 42 98 75 2a bb 38 a9 57 bb
       94.63083 94.607086 -0.0026010033 -0.0032907259
0003d0 c4 62 bd 42 d0 31 77 3b 4e e1 15 bb a0 a3 b8 ba
       94.6929 0.00377189 -0.0022869888 -0.001408685
0003e0 94 4f 0d ba 7b 3e bd 42 e1 48 64 bb 5e 49 bd 42
       -0.0005390581 94.62203 -0.0034833478 94.643295
0003f0 a8 37 bd 42 69 37 bd 42 91 04 bd 42 df 36 bd 42
       94.6087 94.60822 94.50892 94.60717

layer4.weight f4 [168, 256]
000000 15 c1 20 3f 7d b5 2b 3f 8e d9 29 3f f2 83 2a 3f
       0.6279462 0.67073804 0.6634759 0.6660758
000010 3d 83 2c 3f 56 3d 24 3f bf 37 25 3f 47 bf cd 39
       0.67387754 0.6415609 0.64538187 0.0003924316
000020 4d cf 21 3f e2 24 e6 ba 42 ff cf 3c e0 ae 24 3f
       0.6320694 -0.0017558599 0.025390271 0.6432934
000030 03 6e 27 3f 43 9a 25 3f 15 bf 22 3f 7a 3a 24 3f
       0.6540224 0.6468851 0.6357282 0.6415173
000040 b5 27 23 3f 5b 17 9b bb 34 43 29 3f d2 02 35 3f
       0.63732463 -0.004733009 0.6611817 0.7070743
000050 18 4a ed 39 6a da 26 3f 90 4f 23 3f c9 ec 16 3b
       0.00045259367 0.65177023 0.6379328 0.0023029319
000060 2b b2 23 3f c4 ef 2c 3f 1b e7 0d bb 94 13 28 3f
       0.6394374 0.67553353 -0.0021652642 0.65654874
000070 ae 8b 20 3f 86 b2 25 3f f5 16 2c 3f a3 06 11 3b
       0.62713134 0.6472553 0.6722253 0.00221292
000080 40 7f 3c ba 5f a5 22 3f c3 08 2a 3f ad b9 35 ba
       -0.00071905926 0.63533586 0.6641962 -0.000693227
000090 62 7c 29 3f 09 ab 2f bb 02 2d 24 3f c6 cb 24 3f
       0.6620542 -0.0026804826 0.64131176 0.64373434
0000a0 48 ec 2a 3f 18 68 95 3b 0d 0e 29 3f c9 4b 2c 3f
       0.66766787 0.004559528 0.66037065 0.6730314
0000b0 51 dc c8 ba 67 13 24 3f 8c 88 22 3f b0 24 27 3f
       -0.0015324448 0.64092106 0.63489604 0.65290356
0000c0 b6 4a 25 3f fb 86 31 3f b6 e8 20 bb f5 6d 2b 3f
       0.64567125 0.6934659 -0.002455277 0.66964656
0000d0 f8 57 22 3f 1d 02 23 3f bb c5 26 3f b9 eb 22 3f
       0.6341548 0.636751 0.6514546 0.63640934
0000e0 78 b7 29 3f 91 92 1e ba 77 49 b5 3a f5 39 2d 3f
       0.66295576 -0.0006049062 0.0013831098 0.6766656
0000f0 5c cd 28 3f 83 29 2b 3f 0a 51 b2 3b 28 f8 25 3f
       0.65938354 0.66860217 0.0054417895 0.6483178
000100 cc 11 24 3f 13 e6 cb 3a c5 6f 24 3f e6 29 29 3f
       0.64089656 0.0015556238 0.64233047 0.66079557
000110 09 5a 09 3b 8d a6 0d 3b 5e 9c 22 3f d8 7e 23 3f
       0.0020958206 0.0021614165 0.6351985 0.63865423
000120 11 68 28 3f 69 51 20 3f 46 ff 4f 3b e2 41 23 3f
       0.6578379 0.6262422 0.0031737848 0.63772404
000130 bb 3a 24 3f 88 b2 20 3f 89 00 28 3f d1 88 2a 3f
       0.64152116 0.6277242 0.65625817 0.66615015
000140 68 7f 28 3f 5c 83 24 3f bf 43 1d 3f 03 a0 2b 3f
       0.65819407 0.6426294 0.614315 0.67041034
000150 18 a5 2c 3f 8d 20 1e 3f 13 73 b0 3a 01 9a 25 3f
       0.67439413 0.6176842 0.0013462029 0.64688116
000160 14 99 3a 3f 75 4b 22 3f 01 3a 48 bb 66 d9 1e 3a
       0.7288983 0.6339639 -0.003055215 0.00060596166
000170 bf 2a 23 3f e2 d9 2f 3f f6 86 23 3f 5e 98 94 39
       0.637371 0.6869184 0.6387781 0.00028342282
000180 9c 28 21 3a 32 b6 27 3f 1f 1d 25 3f ab 01 2c 3f
       0.0006147714 0.65512383 0.6449756 0.67190045
000190 c2 82 f4 3a 73 f3 26 3f f6 04 25 3f b6 df 2f 3b
       0.0018654692 0.65215224 0.64460695 0.0026836223
0001a0 e2 78 29 3f e2 05 26 ba 8a 68 25 3f 83 d3 23 3f
       0.6620008 -0.0006333274 0.6461264 0.63994616
0001b0 4a a1 22 3f ca 61 25 3f 1e 72 27 3f e5 ec 21 bb
       0.6352736 0.6460234 0.65408504 -0.002470785
0001c0 58 a3 27 3f f5 d9 ee ba e8 e5 24 3f 5e 74 c3 39
       0.6548362 -0.0018222915 0.6441331 0.0003728
0001d0 cf c1 3b 3f cd 98 3b 3f f2 fd 7a ba e1 77 25 3f
       0.73342603 0.7328003 -0.0009574584 0.64636046
0001e0 20 e6 23 3f d1 79 3b 3f 30 f8 ac 39 71 d8 d7 3a
       0.6402302 0.7323275 0.0003299131 0.0016467703
0001f0 d8 7b 30 3f 12 f3 1e 3b d3 c7 a7 3a 18 e1 24 3f
       0.6893897 0.0024253768 0.0012800641 0.64405966
000200 a0 c2 26 3f ca d3 9b 3a 90 37 bd ba 4d 0f 48 bb
       0.65140724 0.001188868 -0.0014436115 -0.0030526698
000210 c3 d1 9e b9 3f d3 22 3f 93 ba 25 3f b9 e1 37 3f
       -0.00030292393 0.63603586 0.64737815 0.718288
000220 34 e6 5b bb 06 83 24 3f 16 40 29 3f 3a 81 22 3f
       -0.003355396 0.64262426 0.6611341 0.63478434
000230 df f4 31 3b 48 c9 e2 ba 23 48 26 3f fc af 23 3f
       0.0027154011 -0.0017302418 0.6495382 0.63940406
000240 f1 bf 23 3f 2c 1c 22 3f 2c 84 3b bb 28 50 47 bb
       0.63964754 0.63324237 -0.0028612716 -0.0030412767
000250 f1 59 27 3f a6 e4 26 3f b9 f5 91 b9 cd 3a 36 3f
       0.65371615 0.6519264 -0.00027839633 0.7118347
000260 11 17 32 3f 4a 13 27 3f 71 d1 dc 3a 6e 1f 24 3f
       0.69566447 0.6526381 0.0016847086 0.6411046
000270 34 44 35 3f 64 17 2c 3f 5c 4e 96 ba b8 98 ae 3a
       0.70807195 0.6722319 -0.0011467445 0.001332066
000280 ff ac 2d 3f 3b 4b 2e 3f f6 5e c7 ba 5b be 24 3f
       0.67842096 0.6808354 -0.0015210796 0.6435296
000290 67 e2 2b 3f 08 b5 60 ba c2 df 32 ba fb 4e 27 3f
       0.6714234 -0.00085718976 -0.00068235036 0.6535489
0002a0 08 cc 28 3f c9 93 29 3f f7 a0 29 3f eb 87 1f 3f
       0.65936327 0.6624113 0.6626124 0.6231677
0002b0 13 1d 23 3f e0 f6 2c 3f 7b 1a 22 3f 5c dd 29 3f
       0.6371624 0.675642 0.63321656 0.6635339
0002c0 f0 ca 21 3f 12 3d 24 bb 23 88 25 3f 0d b7 25 3f
       0.63200283 -0.0025060815 0.64660853 0.6473244
0002d0 1a 3c 28 3f e4 97 23 3f e4 e2 25 3f ba 87 29 3f
       0.6571671 0.6390364 0.6479933 0.6622273
0002e0 e9 b8 2e 3f 07 4b ba 3a 5e ba 25 3f 68 8b 2d 3f
       0.682509 0.0014213034 0.647375 0.6779084
0002f0 c8 8c 2a 3f 15 55 2c 3f 35 d4 26 3f 86 69 93 3a
       0.66621065 0.67317325 0.6516755 0.0011246658
000300 eb d7 8a b9 6d 68 27 3f 69 6d 09 3b c0 f2 1f 3f
       -0.00026482283 0.65393716 0.0020969755 0.6247978
000310 60 2a 22 3f 7b 45 20 3f 3c 0c 20 3f 38 6d 21 3f
       0.6334591 0.6260602 0.6251867 0.6305728
000320 db f5 25 3f 4c f2 2b 3f 87 f9 26 3f 8e 12 24 3f
       0.6482827 0.6716659 0.652245 0.6409081
000330 b5 0e 2f 3f ea 8d 2d 3f de 22 41 ba 44 84 26 bb
       0.68381816 0.6779467 -0.00073675613 -0.0025408426
000340 38 18 04 3c 2b 28 2b 3f ac 76 2b 3f 95 94 24 3f
       0.008062415 0.66858166 0.66977954 0.6428922
000350 ca 8d 07 3a 3a c2 45 3b 52 7f 33 3f 7e 27 db bc
       0.00051709695 0.0030175583 0.7011615 -0.02675223
000360 fb 56 99 b9 3b b9 25 3f 9d 6f 28 3f cc d1 28 3f
       -0.0002924724 0.64735764 0.6579531 0.65945125
000370 71 4e 76 3c 35 7c 6c 3a 1b e9 61 ba e8 c0 35 3f
       0.01503335 0.0009021194 -0.0008617804 0.70997477
000380 eb 13 2a 3f b2 8c 31 3f 66 c8 a3 ba eb bc 1d 3f
       0.6643664 0.6935531 -0.0012495636 0.6161639
000390 44 9e 23 3f 22 74 25 3f b9 f6 21 3f ba 7d 2a 3f
       0.6391337 0.6463033 0.63267094 0.66598094
0003a0 76 bc 1d 3f fc 23 24 3f cc d3 22 3f 71 98 30 3f
       0.61615694 0.6411741 0.63604426 0.6898261
0003b0 cc b5 25 bb 24 01 21 3f f7 02 39 3f cf d1 20 3f
       -0.0025285361 0.62892365 0.7227015 0.6282014
0003c0 aa de 1b 3f 58 5e 1b 3f 32 17 c9 ba a4 eb 6f ba
       0.60886633 0.6069083 -0.0015341996 -0.00091522397
0003d0 50 a2 25 3f 1c 37 be bb 3a 6b b1 3a c1 2c 24 ba
       0.64700794 -0.0058049094 0.0013535984 -0.00062627724
0003e0 d5 f5 be 3a d1 1e 2c 3f f9 b9 cc 3a ac 50 28 3f
       0.0014569113 0.6723452 0.0015619389 0.65748096
0003f0 2f 7e 2c 3f 3a 49 27 3f 9f ff 32 3f 14 0b 2b 3f
       0.6738004 0.6534611 0.69921297 0.6681378

layer4.bias f4 [168]
000000 70 70 fb 3e 36 19 03 3f e1 3f 37 40 3b b1 ab 42
       0.4910922 0.51210344 2.8632739 85.84615
000010 02 e2 78 3f 76 80 4f 3f 09 3f f4 3e 24 8e 97 3f
       0.9721986 0.8105539 0.47704342 1.1840253
000020 a9 f7 0d 3f 4e 79 9a 42 4b f5 73 40 05 1b 5b 3e
       0.55456024 77.23692 3.8118465 0.21397026
000030 4e 95 4f 40 46 19 9e 42 b5 34 7a 3f 18 26 59 3f
       3.2434878 79.04936 0.97736675 0.8482375
000040 61 fe 6c 3f 3f 01 a3 42 8c 7f 60 3f 6c d2 4e 40
       0.9257565 81.50243 0.8769462 3.2315931
000050 dc 14 60 40 24 c9 af 40 c1 1f 3c 3f a8 e1 92 40
       3.5012732 5.4933033 0.7348595 4.590046
000060 98 81 9c 42 0a cb a5 40 32 22 7d 40 ef ee 85 41
       78.25311 5.181035 3.955212 16.741667
000070 dc b5 ac 41 db de 53 40 24 80 c3 3f 79 6c 31 40
       21.588799 3.310477 1.527348 2.7722456
000080 80 44 53 40 a9 d5 7c 3f a9 30 af 3f f3 75 9b 3f
       3.301056 0.9876352 1.3686725 1.214537
000090 ff 32 a2 42 9c f7 48 40 22 69 0e 41 5f b1 15 41
       81.0996 3.1401129 8.900667 9.3558035
0000a0 a2 0e f9 40 3a 93 64 41 d0 16 20 3f 80 a1 87 3f
       7.783036 14.285944 0.6253481 1.0596161
0000b0 2a 3a de 3f 15 e1 c7 40 f2 ef 47 3f d4 72 b8 41
       1.73615 6.246226 0.781005 23.056068
0000c0 b8 3d 1d 41 c6 d1 60 40 9b 9a 98 42 c8 5f 62 41
       9.827568 3.5128036 76.30196 14.148384
0000d0 4b 05 19 41 af c0 49 3f 10 06 09 41 91 54 15 41
       9.563792 0.78809637 8.56398 9.333146
0000e0 97 a0 07 41 99 45 84 40 7b bb a9 42 04 aa 70 41
       8.4767065 4.133496 84.86617 15.041508
0000f0 a7 3c 77 40 54 c9 0d 40 91 6c ce 40 5c 02 32 40
       3.863077 2.215413 6.4507527 2.781394
000100 3a d0 53 40 ff e1 bf 3f 67 98 a1 42 38 42 6e 40
       3.3095841 1.4990844 80.79766 3.7227917
000110 e1 fc 9c 41 e7 96 90 3f 63 63 d9 40 b9 0c 41 40
       19.623476 1.1296052 6.793382 3.0164015
000120 86 b2 05 40 fb c9 0f 3f f8 5c d1 40 93 fd f5 40
       2.0890212 0.5616757 6.5425987 7.687204
000130 cd 1f 95 42 a4 62 df 3f 1a 83 9e 40 ca 56 ef 3f
       74.56211 1.7451978 4.9535036 1.8698361
000140 46 22 92 40 2b 7c 3c 40 f4 9e 61 40 01 df 54 40
       4.566684 2.9450786 3.5253267 3.326111
000150 33 ba 9e 42 79 52 d5 3f 82 a2 4c 40 67 50 96 42
       79.36367 1.6665794 3.1974187 75.157036
000160 fc 84 2c 40 5e bc 85 40 fa cc 6e 40 22 f7 9a 3f
       2.6956167 4.179244 3.7312608 1.2106669
000170 c7 a7 b1 3f 9b db 7b 42 8c 7e 1a 40 e3 c7 49 3f
       1.3879327 62.96446 2.4139738 0.7882063
000180 7c 5d f6 3e 38 4c 13 3f 92 ea ac 42 5b c1 87 40
       0.48118198 0.57538176 86.458145 4.242353
000190 0b a3 37 41 31 3c 4a 40 80 6e 2b 42 77 a1 c6 40
       11.477305 3.1599238 42.85791 6.20721
0001a0 b8 a8 3d 3f 3c fd 74 40 fb 73 42 40 a1 99 34 40
       0.7408557 3.8279562 3.038329 2.8218768
0001b0 09 64 5f 41 53 44 21 40 68 b3 a2 42 56 8c a4 40
       13.961923 2.5197952 81.3504 5.142131
0001c0 0f 75 1d 41 2d 38 3f 40 91 03 c5 40 4e 22 d2 40
       9.841079 2.9878037 6.1566854 6.5666876
0001d0 b6 a4 25 40 19 7d 86 42 9d d0 08 40 74 c8 a2 40
       2.5881782 67.24433 2.1377327 5.0869694
0001e0 99 93 30 3f e7 f1 82 42 d1 64 11 40 a3 6e 34 41
       0.68975216 65.472466 2.2717783 11.277011
0001f0 53 ce 72 41 c5 c1 16 3f bb 9a cc 40 30 ea b9 3f
       15.175372 0.5888942 6.393888 1.4524593
000200 03 c2 fb 3f 72 44 b7 40 40 83 36 41 b1 b9 fd 3f
       1.9668583 5.727105 11.407043 1.9822294
000210 ca 0f 18 41 ce 12 a1 40 d3 45 8e 3f 90 2a 70 3f
       9.503855 5.0335455 1.1115059 0.93814945
000220 8c 11 76 3f 33 bc 3c 3f 91 07 d4 3f e5 3d a4 40
       0.96120524 0.7372467 1.6564809 5.1325555
000230 19 b4 a1 41 69 5c 8d 40 68 c6 97 41 08 08 b6 41
       20.212938 4.4175305 18.971878 22.753922
000240 cc 0c f7 3f 6c 6b c5 40 0a 44 4a 3f 69 f7 0c 40
       1.930078 6.169363 0.7901007 2.2026007
000250 38 50 fa 3f 01 66 1f 41 0c 47 17 40 d2 f2 89 42
       1.9555731 9.962403 2.3637114 68.97426
000260 69 a2 3b 40 64 12 3e 3f df 4d 03 40 b3 c1 0f 3f
       2.9317877 0.7424681 2.0516279 0.56154937
000270 d2 ec 0b 3f e2 c4 fa 3f fa 17 34 42 4f a3 8e 40
       0.54658234 1.9591334 45.023415 4.457435
000280 c8 95 29 40 83 8c 98 40 f3 40 a1 42 1b 1a db 3f
       2.649767 4.7671523 80.626854 1.7117342
000290 2e 9b 18 41 da 6d 74 42 d2 e4 dd 3f 16 2c 0a 41
       9.537886 61.107277 1.7335455 8.635763
