models/44-45/coin_model_weights.pth (torch, 541892 bytes, 8 tensors)

layer1.weight f4 [128, 82]
000000 43 ce a5 41 3b c1 9e 40 f5 83 dd 40 ce e3 e9 40
       20.725714 4.9610877 6.922358 7.309058
000010 fc cd a6 bf 5b 84 b9 40 85 d5 23 41 8d c8 2e 41
       -1.3031611 5.7974067 10.239629 10.923963
000020 99 bc a9 40 2f ae 56 41 65 bb a2 41 c2 94 4e 41
       5.304272 13.417525 20.341501 12.911318
000030 c1 2e b9 40 eb 52 a7 40 d9 0a 54 41 e2 0a 9f 41
       5.7869573 5.228872 13.252648 19.880314
000040 d0 34 f2 40 20 9a ea 40 b5 80 a6 41 fc 5a 97 41
       7.568947 7.331314 20.812845 18.919426
000050 97 15 c7 40 0d c1 41 41 95 0d 35 41 db 7f 94 41
       6.2213855 12.109632 11.315816 18.56243
000060 32 fd 21 41 34 6c 64 41 df 96 0e 41 63 e9 3e 41
       10.124315 14.276417 8.911834 11.931979
000070 b8 cf 77 3e 36 68 b7 40 72 b9 aa 40 c8 c8 00 41
       0.24200332 5.731471 5.3351374 8.049019
000080 1b 9c a0 40 3e 96 5d 41 a3 fd 81 41 da c8 8b 41
       5.019056 13.84918 16.248846 17.473072
000090 b6 b7 8c 41 c6 d1 88 41 b3 c4 89 41 d5 dc 92 41
       17.589703 17.102428 17.221045 18.357828
0000a0 b3 74 54 41 0c c3 84 41 b3 3c 8b 41 7e 99 86 41
       13.278491 16.595238 17.404638 16.824947
0000b0 66 0d 8c 41 75 17 48 41 bb d4 94 41 09 74 51 41
       17.506542 12.505727 18.603872 13.090829
0000c0 6f e3 6f 41 11 73 82 41 43 48 60 40 4a 3a 4f 41
       14.993026 16.306185 3.5044105 12.951731
0000d0 2a 7d 8d 41 4d 24 9f 41 42 ec 43 41 e4 6e 9f 41
       17.686115 19.892725 12.24518 19.929146
0000e0 ec b6 93 41 8d ea 96 41 c3 98 9e 41 dd 1d 95 41
       18.464317 18.864527 19.82459 18.639582
0000f0 47 6d a1 41 c4 6d 8d 41 24 63 88 41 1f cf 4d 41
       20.178358 17.678596 17.048409 12.863067
000100 42 ee 8d 41 e6 18 98 41 d8 5e 9e 41 59 7b a6 41
       17.741337 19.012157 19.79631 20.810228
000110 bb 52 d2 c0 6c 1d 87 41 39 a0 8d 41 9c e1 95 41
       -6.572599 16.889366 17.703234 18.73516
000120 eb 04 8a 41 43 d6 83 41 94 a1 a0 41 68 77 e2 c0
       17.252401 16.47962 20.078896 -7.077076
000130 fb 4a 8a 41 dc 01 92 41 cb e4 90 41 08 63 81 41
       17.286612 18.250908 18.111715 16.173355
000140 6b 28 88 41 41 39 11 40 89 d6 a5 41 11 b8 9d 40
       17.019735 2.2691195 20.729753 4.928719
000150 56 be dd 40 35 8c ed 40 f4 01 ad bf eb 58 b9 40
       6.9294844 7.423365 -1.3516221 5.7921042
000160 de 56 26 41 3a ba 2f 41 05 36 a8 40 72 a3 53 41
       10.396208 10.982965 5.256594 13.227404
000170 81 58 a3 41 90 0e 50 41 b5 e2 b4 40 5e bc 93 40
       20.418215 13.003555 5.652674 4.616744
000180 52 81 54 41 49 7a 9f 41 8a c2 f0 40 e6 fe e8 40
       13.281572 19.93471 7.5237474 7.2811155
000190 0e 35 a7 41 c3 1c 97 41 80 90 c8 40 16 60 41 41
       20.900906 18.889044 6.267639 12.0859585
0001a0 32 f1 32 41 c7 a8 94 41 23 ea 21 41 d4 9c 63 41
       11.183886 18.58241 10.119662 14.225788
0001b0 59 13 0f 41 80 71 3f 41 15 93 5a 3e 45 8d b3 40
       8.942224 11.96521 0.2134517 5.610995
0001c0 d3 a8 ad 40 42 d4 f9 40 1f 10 9c 40 22 3e 5b 41
       5.4268584 7.8071604 4.876968 13.702669
0001d0 b1 1c 82 41 74 52 8b 41 83 c6 8b 41 c9 d1 87 41
       16.26401 17.41526 17.47193 16.977434
0001e0 99 55 89 41 72 b6 92 41 72 f4 52 41 78 9b 84 41
       17.166796 18.339085 13.184679 16.575912
0001f0 32 00 8b 41 27 4d 85 41 2a 7c 8b 41 22 66 46 41
       17.375095 16.662672 17.435627 12.399935
000200 24 be 94 41 00 2b 50 41 e5 5d 6e 41 f6 7e 83 41
       18.592842 13.010498 14.897923 16.436993
000210 81 91 62 40 46 d9 4e 41 64 ec 8c 41 99 8c 9e 41
       3.5401309 12.928045 17.615425 19.818651
000220 2b 2b 44 41 54 df 9e 41 3f 34 93 41 22 96 96 41
       12.260539 19.859047 18.40051 18.823307
000230 30 35 9d 41 07 d2 94 41 8c b6 a1 41 7a 37 8d 41
       19.65097 18.602552 20.214134 17.652088
000240 a3 cc 88 41 43 94 4c 41 b7 5a 8e 41 28 69 97 41
       17.09992 12.786197 17.794294 18.926346
000250 03 c8 9d 41 5c bb a6 41 26 c2 d0 c0 c5 32 87 41
       19.722662 20.841484 -6.5236998 16.89979
000260 b3 0f 8d 41 65 96 95 41 c1 c4 89 41 fc f6 84 41
       17.632666 18.698435 17.221071 16.620598
000270 ec 53 a0 41 76 31 e5 c0 75 ae 89 41 9d 6f 91 41
       20.040977 -7.1622877 17.210184 18.179499
000280 9a 3a 90 41 87 26 82 41 0b 1e 88 41 6b 6b 11 40
       18.028614 16.268812 17.01467 2.2721813
000290 8d 12 a6 41 91 af a0 40 35 64 dd 40 ac 6f ec 40
       20.759058 5.0214314 6.9184823 7.388632
0002a0 ad 4b 9c bf 54 51 b8 40 35 70 26 41 f0 88 30 41
       -1.2210594 5.7599277 10.402394 11.033432
0002b0 3c 13 ad 40 49 aa 56 41 10 24 a3 41 82 73 4f 41
       5.408598 13.416574 20.392609 12.9657
0002c0 5d aa b6 40 18 1c a8 40 98 31 56 41 72 82 9e 41
       5.7082963 5.2534294 13.387108 19.813694
0002d0 84 f2 f4 40 fe 66 ed 40 9d ba a6 41 20 14 97 41
       7.654604 7.4188223 20.84112 18.884827
0002e0 c1 9b c5 40 26 29 42 41 13 15 36 41 86 4c 94 41
       6.175263 12.135046 11.380145 18.537365
0002f0 ee af 22 41 ef c6 65 41 34 de 0d 41 49 23 41 41
       10.167952 14.361068 8.866749 12.071115
000300 f7 85 a2 3e c4 8e b6 40 bf 6c ab 40 4a b2 fb 40
       0.31742832 5.7049274 5.3570247 7.865514
000310 cd 73 9f 40 13 e4 5d 41 ca de 82 41 2f 4b 8b 41
       4.982886 13.868182 16.358784 17.41171
000320 c7 ec 8b 41 56 13 89 41 6d 79 89 41 7b d1 92 41
       17.490614 17.134441 17.18429 18.352285
000330 47 ad 54 41 10 bd 84 41 ed 57 8a 41 cd 31 86 41
       13.292304 16.592316 17.292933 16.774317
000340 aa 35 8c 41 95 06 47 41 b5 98 94 41 06 3e 50 41
       17.526203 12.439107 18.574564 13.015142
000350 56 a2 6f 41 91 e4 82 41 fc 31 67 40 73 12 51 41
       14.977133 16.361605 3.6124258 13.067004
000360 07 8c 8d 41 01 30 9f 41 b1 5c 43 41 84 53 9f 41
       17.693373 19.89844 12.21013 19.91578
000370 0a 7b 93 41 24 87 97 41 2b ec 9d 41 33 6c 95 41
       18.435078 18.940987 19.740316 18.677832
000380 33 f3 a1 41 c8 92 8c 41 95 40 88 41 fd a6 4d 41
       20.24375 17.57167 17.031534 12.853269
000390 ae d5 8d 41 dc 2f 98 41 11 ae 9e 41 79 fa a6 41
       17.729336 19.023369 19.834993 20.872301
0003a0 27 49 d0 c0 24 e0 87 41 ba 27 8d 41 8a 2b 96 41
       -6.5089297 16.984444 17.644398 18.77126
0003b0 44 36 8b 41 a8 34 84 41 29 63 a0 41 91 73 e5 c0
       17.401497 16.525711 20.048418 -7.170357
0003c0 78 e1 8a 41 64 ab 91 41 71 be 90 41 5c c1 81 41
       17.360092 18.208687 18.092989 16.219414
0003d0 86 20 89 41 51 90 17 40 a8 58 a5 41 4c f9 9d 40
       17.14088 2.3681834 20.66829 4.9366817
0003e0 67 fa d9 40 f9 68 ec 40 ce ad af bf 64 16 b8 40
       6.8118167 7.387814 -1.3724916 5.752733
0003f0 7e 71 25 41 74 23 30 41 93 d0 ab 40 c3 8d 55 41
       10.340208 11.008656 5.3692107 13.34711

layer1.bias f4 [128]
000000 7a 5f 9f 41 19 4a 9f 41 6b 6f 9f 41 8b bd 9f 41
       19.92162 19.91118 19.929403 19.96755
000010 79 d3 9e 41 d6 a2 9f 41 da 2e a0 41 76 a4 9f 41
       19.853258 19.95451 20.022877 19.955303
000020 a4 d0 9f 41 fe 21 a0 41 1c c4 9f 41 9a db 9f 41
       19.976875 20.016598 19.970757 19.982227
000030 4a 96 9f 41 2e fb 9f 41 89 8e 9e 41 09 20 9f 41
       19.948383 19.997646 19.819597 19.890642
000040 f0 d3 9f 41 51 1b 17 3f 4b 95 9f 41 cd 43 9f 41
       19.978485 0.59026057 19.947897 19.908106
000050 c8 34 a0 41 41 10 9f 41 07 63 a0 41 cc 2d 9f 41
       20.025772 19.882936 20.048353 19.897362
000060 39 9f 9f 41 2e 69 9f 41 21 a4 9f 41 1b a5 d3 3e
       19.952745 19.926357 19.955141 0.41336903
000070 0d 2a a0 41 ca 8d 9f 41 73 a8 9f 41 a5 4e a0 41
       20.020533 19.944233 19.95725 20.0384
000080 f7 bf 9f 41 ee 87 9f 41 69 31 a0 41 3d 56 9f 41
       19.968733 19.941372 20.024126 19.917109
000090 cb 15 a0 41 cd 89 9f 41 b6 f1 9f 41 d0 11 a0 41
       20.010641 19.942286 19.993023 20.008698
0000a0 78 16 a0 41 6a 66 9f 41 02 c3 9f 41 b3 be 9f 41
       20.010971 19.925007 19.970219 19.968115
0000b0 f6 82 9f 41 54 5f 9f 41 87 ea 9f 41 6b c8 9f 41
       19.938946 19.921547 19.989515 19.97286
0000c0 08 33 9f 41 ef d1 9f 41 d1 a3 9f 41 f0 13 a0 41
       19.899918 19.977507 19.954988 20.009735
0000d0 6d 4d 9f 41 eb 39 a0 41 1e 19 9f 41 ec c7 9f 41
       19.912806 20.02828 19.887264 19.972618
0000e0 84 03 9f 41 ae 35 9f 41 5b 2a 9f 41 16 dd 9f 41
       19.876717 19.90121 19.895681 19.982952
0000f0 42 fc 9f 41 46 71 9f 41 0a c1 9f 41 b0 19 a0 41
       19.998173 19.93031 19.969257 20.012543
000100 a8 35 05 3f ee 3c 9f 41 e7 11 a0 41 e8 91 9f 41
       0.52035 19.90475 20.008741 19.946243
000110 96 6c 9f 41 e6 a0 17 3f cf 48 9f 41 79 10 a0 41
       19.92802 0.59229887 19.910551 20.008043
000120 1d 17 a0 41 36 19 a0 41 4d 0b a0 41 7f da 9f 41
       20.011286 20.01231 20.005518 19.981688
000130 1e 4c 9f 41 3b c4 9f 41 c0 95 9f 41 79 1b a0 41
       19.912167 19.970816 19.94812 20.013414
000140 69 16 a0 41 27 2f a0 41 30 f3 9f 41 73 4f 9f 41
       20.010942 20.023024 19.993744 19.913794
000150 03 f5 9f 41 3e 02 10 3f fc 88 9f 41 d5 2b 9f 41
       19.994635 0.5625342 19.941887 19.896402
000160 37 fe 9f 41 e1 60 a0 41 24 ac 9f 41 14 49 9f 41
       19.999128 20.047304 19.959053 19.910683
000170 80 f7 9f 41 49 6f 9f 41 42 92 9f 41 5a f2 9f 41
       19.99585 19.929338 19.946415 19.993336
000180 f7 dc b0 3e 3c 9a 9f 41 3f 12 a0 41 25 f6 9f 41
       0.34543583 19.95031 20.00891 19.995188
000190 79 01 a0 41 e2 cd ba 3e f5 bb 9f 41 04 2a a0 41
       20.00072 0.364852 19.966776 20.020515
0001a0 6f 3a 9f 41 6e a8 9f 41 81 38 9f 41 ad 35 a0 41
       19.903532 19.957241 19.90259 20.026209
0001b0 3d 8d 9f 41 bd 9e 9f 41 89 6a 9f 41 7b 40 9f 41
       19.943964 19.952509 19.92702 19.906485
0001c0 ef 8a f0 3e b2 0e a0 41 f1 20 a0 41 b0 da 9f 41
       0.46980998 20.007175 20.016085 19.981781
0001d0 4e 07 9f 41 ba 2f 9f 41 ab 6b 9f 41 95 1f a0 41
       19.878567 19.898304 19.927572 20.01542
0001e0 82 03 9f 41 01 b5 9f 41 ca 3e a0 41 b5 01 a0 41
       19.876713 19.96338 20.030659 20.000834
0001f0 6e fc 9e 41 ac d6 9f 41 79 1f 9f 41 c8 22 9f 41
       19.873257 19.97982 19.890368 19.891983

layer2.weight f4 [256, 128]
000000 7c 09 9e 41 e7 5b a0 41 c1 6e 9e 41 0b ec 9e 41
       19.754631 20.044874 19.80408 19.865255
000010 f2 c0 9e 41 ba 84 9d 41 f7 89 9d 41 25 66 a0 41
       19.844212 19.689808 19.692366 20.049875
000020 98 4c 9f 41 14 b9 9e 41 ed 0a a0 41 07 17 9f 41
       19.9124 19.84037 20.005335 19.886244
000030 52 11 9e 41 3a 61 9e 41 63 c8 a0 41 ac f9 9e 41
       19.758457 19.797474 20.097845 19.87191
000040 8d 20 9e 41 bb 94 88 c1 75 f3 9e 41 8b d2 9e 41
       19.765894 -17.072622 19.868876 19.852804
000050 de 46 9d 41 18 a5 9e 41 20 00 9e 41 0a d4 9f 41
       19.659603 19.830612 19.750061 19.978535
000060 90 b8 9f 41 07 f9 9e 41 33 1b 9f 41 2a 3b 85 c1
       19.965118 19.871595 19.88828 -16.653889
000070 85 fd 9e 41 c3 e4 9e 41 54 30 a0 41 46 e7 9d 41
       19.873789 19.8617 20.023598 19.737926
000080 46 da 9d 41 e7 9f 9f 41 ea ae 9e 41 b3 dc 9e 41
       19.731579 19.953077 19.835407 19.857763
000090 17 83 9f 41 3a 10 9f 41 fe 16 9f 41 09 22 a0 41
       19.939009 19.882923 19.886227 20.016619
0000a0 02 de 9d 41 d2 e6 9e 41 4a 30 9e 41 d3 3d 9f 41
       19.733402 19.862705 19.773579 19.905188
0000b0 31 63 9f 41 1e e1 9e 41 0e 71 9d 41 6d b1 9e 41
       19.923433 19.85992 19.680202 19.836634
0000c0 8f 23 9f 41 17 d2 9d 41 83 a8 9f 41 c6 8b 9f 41
       19.892363 19.727583 19.957281 19.943249
0000d0 bf 32 9e 41 18 04 9f 41 38 b3 9f 41 3a d4 9f 41
       19.774778 19.876999 19.96251 19.978626
0000e0 15 e6 9e 41 98 10 9f 41 3e a7 9f 41 9e eb 9e 41
       19.862345 19.883102 19.956661 19.865047
0000f0 e8 3b 9e 41 2f c7 9e 41 09 f9 9e 41 d7 fb 9d 41
       19.779251 19.847258 19.8716 19.747969
000100 61 ea 86 c1 8b 4a 9f 41 4b fd 9d 41 e8 a4 a0 41
       -16.864443 19.911398 19.748678 20.08052
000110 b2 cb 9f 41 03 d2 88 c1 19 b9 9f 41 a4 fc 9e 41
       19.97446 -17.102545 19.96538 19.87336
000120 6c bf 9e 41 5b 1d 9f 41 9e 20 9f 41 6e 14 9f 41
       19.843468 19.889334 19.890926 19.884975
000130 46 66 9f 41 44 1f 9e 41 8c 68 9f 41 a7 7f 9f 41
       19.924938 19.765266 19.926048 19.93733
000140 d7 91 9e 41 32 ef 9d 41 43 3c a0 41 08 d2 9e 41
       19.82121 19.741795 20.029425 19.852554
000150 ab e8 9e 41 5a e9 8c c1 36 59 9f 41 78 a3 9f 41
       19.863607 -17.613941 19.91856 19.954819
000160 8a e8 9e 41 a1 54 9e 41 80 fc 9d 41 63 85 9e 41
       19.863544 19.791323 19.748291 19.81513
000170 3f 8f 9e 41 d7 32 9f 41 ba 29 9f 41 8f 78 9e 41
       19.819944 19.899824 19.895374 19.808867
000180 a7 98 86 c1 92 46 9f 41 a6 00 9f 41 c4 af 9f 41
       -16.824537 19.909458 19.875317 19.960823
000190 67 83 9e 41 72 62 86 c1 18 7e 9f 41 11 2d 9e 41
       19.814161 -16.798069 19.93657 19.772005
0001a0 a4 47 9f 41 5f c8 9e 41 9a 8b 9f 41 be 47 9e 41
       19.90998 19.847837 19.943165 19.78503
0001b0 27 2a 9f 41 f0 6e 9e 41 f5 98 9e 41 36 a0 9d 41
       19.895582 19.804169 19.824686 19.703228
0001c0 34 fe 82 c1 b0 fd 9e 41 a0 50 9d 41 70 1e a0 41
       -16.374123 19.87387 19.664368 20.014862
0001d0 67 7f 9f 41 fc 97 9e 41 1c b2 9f 41 a9 02 9f 41
       19.937208 19.824211 19.961967 19.876299
0001e0 28 b8 9f 41 45 ad 9e 41 b7 c5 9d 41 95 5d 9e 41
       19.96492 19.834604 19.72154 19.795694
0001f0 e7 33 9f 41 88 89 9f 41 61 a4 9f 41 6e 23 9f 41
       19.900343 19.942154 19.955263 19.8923
000200 88 d0 9e 41 fa 93 9f 41 bc bc 9e 41 4c 78 9f 41
       19.851822 19.947254 19.842155 19.933739
000210 99 1e 9f 41 2c 66 9e 41 62 91 9e 41 ba 77 a0 41
       19.88994 19.799889 19.820988 20.05846
000220 d2 d6 9f 41 fb e4 9e 41 7f ba 9f 41 75 5e 9f 41
       19.979893 19.861807 19.966063 19.921122
000230 38 60 9e 41 d1 e8 9e 41 e2 3e a1 41 e5 22 9f 41
       19.796982 19.86368 20.155704 19.892038
000240 ee 0a 9e 41 a8 8b 87 c1 f6 1c 9f 41 3a 1a 9f 41
       19.755337 -16.943192 19.889141 19.887806
000250 62 3b 9e 41 dd 81 9e 41 e4 0f 9e 41 8c a8 9f 41
       19.778996 19.81341 19.75776 19.957298
000260 fb b1 9e 41 6c f3 9e 41 00 ac 9e 41 00 54 84 c1
       19.836905 19.868858 19.833984 -16.541016
000270 19 94 9e 41 37 ba 9e 41 2b 64 9f 41 06 8b 9e 41
       19.822313 19.840925 19.92391 19.817883
000280 de 76 9e 41 a8 50 9f 41 4d ab 9e 41 9f ba 9e 41
       19.80804 19.914383 19.833643 19.841124
000290 8c f0 9f 41 90 bb 9e 41 08 c1 9e 41 9c 5d 9f 41
       19.992455 19.841583 19.844254 19.920708
0002a0 30 38 9e 41 54 ba 9e 41 14 f8 9e 41 07 52 9f 41
       19.777435 19.84098 19.871132 19.915052
0002b0 b1 2e 9f 41 b4 d9 9e 41 e1 fb 9d 41 d7 14 9f 41
       19.897799 19.8563 19.747988 19.885176
0002c0 cb 7c 9e 41 a7 14 9e 41 24 34 9f 41 7c 92 9e 41
       19.810934 19.760084 19.90046 19.821526
0002d0 b7 6a 9d 41 1b ca 9e 41 5c d1 9f 41 f3 27 9f 41
       19.677107 19.848684 19.977226 19.894506
0002e0 69 57 9f 41 8f 8d 9e 41 d5 4d a0 41 28 f9 9e 41
       19.91768 19.81912 20.038004 19.871658
0002f0 48 87 9e 41 8f f1 9e 41 cf 3b 9f 41 e8 6a 9e 41
       19.816055 19.867949 19.904203 19.8022
000300 11 c7 85 c1 48 10 9f 41 02 00 9e 41 b6 45 a0 41
       -16.7222 19.88295 19.750004 20.034039
000310 8a 4c 9f 41 fc 3c 88 c1 73 2c 9f 41 85 49 9f 41
       19.912373 -17.029778 19.896704 19.910898
000320 64 97 9e 41 5b da 9e 41 6b 12 9f 41 85 05 9f 41
       19.823921 19.856619 19.883993 19.877695
000330 1a 30 9f 41 b0 27 9e 41 a9 e0 9e 41 bd ab 9e 41
       19.898487 19.769379 19.859697 19.833857
000340 e9 99 9d 41 ca 53 9e 41 ca 97 9f 41 ec 80 9e 41
       19.700151 19.790913 19.949116 19.81295
000350 ec 1b 9f 41 4e 7c 8c c1 f4 73 9e 41 5d 23 9f 41
       19.888634 -17.560696 19.806618 19.892267
000360 61 35 9f 41 7f 8b 9e 41 c7 f9 9d 41 d3 99 9e 41
       19.901064 19.818113 19.746962 19.82511
000370 88 12 9f 41 34 63 9f 41 3f 97 9e 41 d8 2d 9e 41
       19.884048 19.923439 19.82385 19.772385
000380 51 97 85 c1 4d df 9e 41 64 dd 9e 41 34 34 9f 41
       -16.698885 19.859034 19.8581 19.90049
000390 73 f1 9e 41 62 be 84 c1 3e 81 9e 41 15 62 9e 41
       19.867895 -16.59296 19.813107 19.797892
0003a0 80 3d 9f 41 5b 30 9e 41 2f 58 9f 41 ba ae 9e 41
       19.90503 19.773611 19.918058 19.835316
0003b0 80 97 9e 41 90 ad 9e 41 fc 85 9e 41 4e 20 9e 41
       19.823975 19.834747 19.815422 19.765774
0003c0 20 65 82 c1 29 fe 9e 41 f0 f7 9d 41 d1 91 9f 41
       -16.299377 19.874102 19.746063 19.9462
0003d0 e8 bd 9e 41 95 2d 9e 41 45 fb 9e 41 76 e4 9e 41
       19.842728 19.772257 19.87269 19.861553
0003e0 57 1f a0 41 8f 0c 9f 41 be 71 9e 41 f6 0e 9e 41
       20.015303 19.881132 19.805538 19.757305
0003f0 9b 25 9f 41 b7 56 9f 41 8e a3 9f 41 d9 01 9f 41
       19.893362 19.917341 19.95486 19.875902

layer2.bias f4 [256]
000000 f6 a8 a2 41 0b 43 a2 41 27 4e a2 41 71 a2 a2 41
       20.3325 20.282736 20.28816 20.329317
000010 ff 00 a3 41 0a 9d a2 41 d0 9b a2 41 43 37 a2 41
       20.375486 20.32668 20.32608 20.276983
000020 b9 8d a2 41 fb 99 a2 41 a7 9e a2 41 28 c5 a2 41
       20.3192 20.325186 20.327467 20.346268
000030 94 ad a3 41 5f 6a a2 41 f4 30 0c 3d ec 62 a2 41
       20.459755 20.301939 0.034226373 20.298302
000040 72 cf a2 41 21 a7 a2 41 ca 1c a2 41 0b 1b a2 41
       20.351292 20.331606 20.264057 20.263205
000050 78 34 a2 41 a4 04 a2 41 c4 bd a2 41 c8 be a2 41
       20.27562 20.252266 20.342659 20.343155
000060 1a c7 a2 41 8f 47 a2 41 9e 6a a2 41 db c9 a2 41
       20.347218 20.28494 20.30206 20.348562
000070 20 81 a2 41 42 57 a2 41 9a 4b a2 41 a2 59 a2 41
       20.31305 20.292606 20.286915 20.293766
000080 86 c0 a2 41 85 63 a2 41 ca 7a a2 41 d1 98 a2 41
       20.344006 20.298594 20.309956 20.324617
000090 be c9 7d 3f e0 86 a2 41 6e e8 a2 41 30 a9 a2 41
       0.9913596 20.315857 20.363491 20.332611
0000a0 7d 6a a2 41 81 95 a2 41 a1 b8 a2 41 bf ee a2 41
       20.301996 20.323 20.34015 20.366575
0000b0 25 00 a2 41 90 8d a2 41 8e 66 a2 41 7e 3f a2 41
       20.25007 20.319122 20.300076 20.281002
0000c0 7f 12 a2 41 cc ad a2 41 e5 5c a2 41 87 5a a2 41
       20.259031 20.334862 20.295359 20.294203
0000d0 c1 50 a2 41 c1 cd a2 41 5e da a2 41 bf da a2 41
       20.28943 20.350466 20.356625 20.35681
0000e0 d2 ef a2 41 3c 91 a2 41 90 4d a2 41 8f 14 a2 41
       20.3671 20.320915 20.287872 20.260038
0000f0 52 cc a2 41 78 8f 97 3e 1a 6e a2 41 db 75 a2 41
       20.349766 0.29601645 20.30376 20.307547
000100 57 b4 a2 41 48 a4 a2 41 a3 e6 a1 41 08 b8 a2 41
       20.338057 20.330215 20.237616 20.339859
000110 b2 7e a2 41 d9 7e a2 41 2a cd a2 41 89 2b a2 41
       20.311863 20.311937 20.350178 20.271257
000120 54 5b a2 41 6f a7 a2 41 4a 5b 1c bd fb 8a a2 41
       20.294594 20.331755 -0.038172998 20.317862
000130 b7 48 a2 41 a7 01 a2 41 c3 67 a3 41 e4 79 80 bc
       20.285505 20.250807 20.425665 -0.015683122
000140 13 6f a2 41 94 5e a2 41 84 a0 a2 41 06 5b a2 41
       20.304235 20.29618 20.328377 20.294445
000150 43 b0 a2 41 f2 ca a2 41 a5 61 a2 41 40 e8 a2 41
       20.336065 20.349094 20.297678 20.363403
000160 8a 7a a3 41 70 4e a2 41 76 24 a2 41 5d 4a a2 41
       20.434834 20.2883 20.267803 20.28631
000170 0e 04 a2 41 78 27 a2 41 73 ac a2 41 05 ec a2 41
       20.25198 20.269272 20.334204 20.365244
000180 65 de a1 41 40 af a2 41 38 93 a2 41 90 f8 a1 41
       20.233591 20.335571 20.321884 20.246368
000190 fa 33 a2 41 b8 0c a2 41 b4 5f a2 41 28 0e a2 41
       20.27538 20.25621 20.29673 20.256912
0001a0 33 10 a2 41 61 b3 a2 41 ca 96 a2 41 33 65 a2 41
       20.25791 20.337587 20.323627 20.299414
0001b0 ff 6b a2 41 a5 4c a2 41 46 dd a2 41 de 04 a2 41
       20.302732 20.287424 20.358044 20.252377
0001c0 98 b3 a2 41 5e 3e a2 41 38 fa a2 41 e3 43 a2 41
       20.337692 20.280453 20.372177 20.283148
0001d0 a5 e2 a2 41 e7 7d a2 41 60 74 a2 41 fe ba a2 41
       20.360666 20.311476 20.306824 20.341305
0001e0 7a 85 a2 41 26 29 a2 41 93 06 a2 41 0f 22 a2 41
       20.315174 20.270092 20.25321 20.26663
0001f0 e3 17 a2 41 38 e5 a2 41 e2 63 a2 41 a3 71 a2 41
       20.261663 20.361923 20.29877 20.305487
000200 c7 5f a2 41 08 95 a3 41 55 ca a2 41 cf 37 a2 41
       20.296766 20.44777 20.348795 20.27725
000210 b9 2f a2 41 ec c8 a2 41 f5 c8 a2 41 84 bb a2 41
       20.273302 20.348106 20.348124 20.34156
000220 19 9e a2 41 9e f9 a2 41 e1 b7 a2 41 94 71 a2 41
       20.327196 20.371883 20.339785 20.305458
000230 fc e0 a2 41 f8 b7 a2 41 fa c3 a2 41 07 79 a2 41
       20.359856 20.339828 20.345692 20.309095
000240 8f ae a2 41 43 97 a2 41 23 3a a2 41 c8 7b a2 41
       20.335234 20.323858 20.278387 20.31044
000250 40 a9 a2 41 06 37 a2 41 1d 24 a2 41 43 5d a2 41
       20.332642 20.276867 20.267633 20.295538
000260 7a 4d a2 41 eb e0 a2 41 61 04 a2 41 29 10 a2 41
       20.28783 20.359823 20.252138 20.25789
000270 82 a9 a2 41 e2 63 a2 41 77 77 a2 41 e9 89 a2 41
       20.332767 20.29877 20.308332 20.317339
000280 95 b1 a2 41 18 08 a2 41 fb 25 a2 41 42 a3 a2 41
       20.33671 20.253952 20.268545 20.329716
000290 db 23 a2 41 d0 9e a2 41 c7 82 a2 41 77 4f a2 41
       20.267508 20.327545 20.313856 20.288801
0002a0 d9 84 a2 41 08 61 a2 41 88 fc a1 41 33 b6 a2 41
       20.314867 20.297379 20.248306 20.338964
0002b0 53 6a a2 41 ce d5 a2 41 56 4f a2 41 b4 fd a1 41
       20.301916 20.354397 20.288738 20.248878
0002c0 5c d6 a2 41 4e a3 a2 41 52 df a2 41 d5 cb a2 41
       20.354668 20.329739 20.359043 20.349527
0002d0 e4 bd a2 41 1a 2c a2 41 ea 35 a2 41 35 13 a2 41
       20.34272 20.271534 20.276325 20.259378
0002e0 9f 4f a2 41 1f a8 a2 41 78 b1 a2 41 00 2a a2 41
       20.288877 20.33209 20.336655 20.270508
0002f0 ef 74 a2 41 d1 58 a2 41 3f 4e a2 41 0b b5 a2 41
       20.307096 20.293367 20.288206 20.3384
000300 44 30 a2 41 4b 76 a2 41 10 e2 a2 41 11 cf a2 41
       20.273567 20.30776 20.360382 20.351107
000310 ac 78 a2 41 0c 8c a2 41 ae 2d a2 41 fe 5e e7 3a
       20.308922 20.318382 20.272305 0.0017652211
000320 7b 23 a2 41 c4 88 a2 41 3a 1b a2 41 48 8c a2 41
       20.267324 20.31678 20.263294 20.318497
000330 33 33 a2 41 01 ed a2 41 e6 9a a2 41 ac 27 a2 41
       20.275 20.365725 20.325634 20.269371
000340 38 85 a2 41 d3 70 a2 41 0d 36 a3 41 88 c4 a2 41
       20.315048 20.30509 20.401392 20.345963
000350 94 ac a2 41 76 2d a2 41 47 ab a2 41 f6 76 a2 41
       20.334267 20.272198 20.333632 20.308086
000360 e6 6b a2 41 c9 55 a2 41 19 27 a2 41 51 27 a2 41
       20.302685 20.291887 20.26909 20.269197
000370 a8 c9 a2 41 7a 24 a2 41 7f d5 a1 41 74 a4 a2 41
       20.348465 20.26781 20.229246 20.3303
000380 18 a2 a2 41 7d 9e a2 41 07 89 a2 41 b4 a8 a2 41
       20.329147 20.327387 20.316908 20.332375
000390 24 62 a2 41 43 24 a2 41 9e ce a2 41 20 21 a2 41
       20.29792 20.267706 20.350887 20.266174
0003a0 2c 4e a2 41 d4 6c a2 41 88 95 a2 41 38 d6 a2 41
       20.28817 20.303139 20.323013 20.354599
0003b0 8c d0 a2 41 8a 24 a2 41 45 b7 a2 41 80 4e a2 41
       20.35183 20.267841 20.339487 20.28833
0003c0 be e6 a2 41 42 46 a2 41 24 b5 a2 41 e3 73 a2 41
       20.362667 20.284306 20.338448 20.306585
0003d0 34 06 a2 41 9c 54 a2 41 45 ee a1 41 f7 5f a2 41
       20.253029 20.291313 20.241343 20.296858
0003e0 35 b3 a2 41 ba 72 a2 41 b4 5f 75 3f 7e 86 a2 41
       20.337503 20.306019 0.95849156 20.31567
0003f0 fc ae a2 41 ba 03 a2 41 60 01 a2 41 c8 d5 a2 41
       20.335442 20.25182 20.250671 20.354385

layer3.weight f4 [256, 256]
000000 90 9c 9f 41 78 e2 9e 41 7b 11 9f 41 f0 00 9f 41
       19.951447 19.86058 19.883535 19.875458
000010 43 10 9f 41 c6 2a 9f 41 30 20 9f 41 e1 3b 9f 41
       19.88294 19.895885 19.890717 19.904238
000020 e5 06 9f 41 a0 46 9f 41 94 6c 9f 41 98 5b 9f 41
       19.878366 19.909485 19.928017 19.919724
000030 e6 dd 9e 41 6e a2 9f 41 71 49 49 bb 14 a0 9f 41
       19.858349 19.954311 -0.003071394 19.953163
000040 6b 3f 9f 41 02 10 9f 41 7b d6 9f 41 80 7c 9f 41
       19.905966 19.882816 19.979727 19.935791
000050 26 2e 9f 41 7e 2f 9f 41 eb a9 9f 41 64 3a 9f 41
       19.897533 19.89819 19.957968 19.903511
000060 3b af 9f 41 3b 8e 9f 41 f7 45 9f 41 77 28 9f 41
       19.960562 19.944448 19.909163 19.894758
000070 84 3d 9f 41 cc 23 9f 41 7f 76 9f 41 a0 06 9f 41
       19.905037 19.892479 19.93286 19.878235
000080 cd 80 9f 41 d6 00 9f 41 e8 6f 9f 41 be e0 9e 41
       19.937891 19.875408 19.929642 19.859737
000090 71 17 77 c1 93 21 9f 41 66 19 9f 41 e4 17 9f 41
       -15.443223 19.891394 19.887402 19.886665
0000a0 50 0b 9f 41 df 69 9f 41 28 7a 9f 41 98 45 9f 41
       19.880524 19.926695 19.934647 19.908981
0000b0 55 31 9f 41 30 0e 9f 41 19 28 9f 41 a9 44 9f 41
       19.899088 19.881927 19.894579 19.908525
0000c0 af ad 9f 41 98 ea 9e 41 c8 45 9f 41 20 a8 9f 41
       19.959806 19.864548 19.909073 19.957092
0000d0 cd 1d 9f 41 75 66 9f 41 db 0e 9f 41 ae 0f 9f 41
       19.889551 19.925028 19.882254 19.882656
0000e0 c9 3e 9f 41 00 21 9f 41 20 8b 9f 41 a4 80 9f 41
       19.905657 19.891113 19.942932 19.937813
0000f0 a1 68 9f 41 cf f9 76 c1 9c 6e 9f 41 7a 74 9f 41
       19.926088 -15.435988 19.929008 19.931873
000100 53 60 9f 41 c8 89 9f 41 ba 61 9f 41 dd 34 9f 41
       19.922033 19.942276 19.922718 19.900812
000110 8f a1 9f 41 3b 18 9f 41 2a 6e 9f 41 30 36 9f 41
       19.953886 19.886831 19.928791 19.901459
000120 4b 19 9f 41 1c 2a 9f 41 ea cd 65 bc 86 5c 9f 41
       19.88735 19.895561 -0.0140261445 19.920177
000130 16 4f 9f 41 47 77 9f 41 c1 06 9f 41 ba 3f 0b bb
       19.913616 19.93324 19.878298 -0.00212477
000140 b0 91 9f 41 38 79 9f 41 7c 81 9f 41 f8 96 9f 41
       19.946136 19.934189 19.938225 19.948715
000150 b0 89 9f 41 dd 5c 9f 41 f1 69 9f 41 1c 5c 9f 41
       19.94223 19.920343 19.92673 19.919975
000160 6e 26 9f 41 a0 3b 9f 41 17 47 9f 41 25 5c 9f 41
       19.893764 19.904114 19.909712 19.919992
000170 ad 39 9f 41 07 7a 9f 41 a4 31 9f 41 81 7c 9f 41
       19.903162 19.934584 19.899239 19.935793
000180 53 6e 9f 41 97 00 9f 41 14 7f 9f 41 16 f3 9e 41
       19.92887 19.875288 19.93705 19.868694
000190 0d 79 9f 41 c4 75 9f 41 f5 0c 9f 41 af 15 9f 41
       19.934107 19.932503 19.881327 19.885588
0001a0 34 a3 9f 41 87 a0 9e 41 4e 47 9f 41 7c 7e 9f 41
       19.954689 19.828382 19.909817 19.93676
0001b0 82 41 9f 41 4f 9c 9f 41 7f 44 9f 41 c1 af 9f 41
       19.906986 19.951323 19.908445 19.960817
0001c0 13 63 9f 41 cd 57 9f 41 22 6a 9f 41 2d 31 9f 41
       19.923376 19.917871 19.926823 19.899012
0001d0 32 1c 9f 41 54 30 9f 41 9e 6a 9f 41 a8 5a 9f 41
       19.888767 19.898598 19.92706 19.919266
0001e0 89 cf 9f 41 b4 35 9f 41 e4 46 9f 41 1a 84 9f 41
       19.976336 19.901222 19.909615 19.939503
0001f0 4c 03 9f 41 0e 67 9f 41 ed 41 9f 41 37 43 9f 41
       19.87661 19.92532 19.90719 19.90782
000200 5b 3c 9f 41 26 4a 9f 41 ae 33 9f 41 bf 40 9f 41
       19.90447 19.911205 19.900234 19.906614
000210 1e 1c 9f 41 a4 09 9f 41 44 fa 9e 41 5c 25 9f 41
       19.88873 19.879707 19.8722 19.893242
000220 a0 62 9f 41 b8 59 9f 41 04 07 9f 41 3f 7f 9f 41
       19.923157 19.918808 19.878426 19.937132
000230 30 00 9f 41 6f 39 9f 41 15 18 9f 41 36 18 9f 41
       19.875092 19.903044 19.886759 19.886822
000240 9b 09 9f 41 2b 73 9f 41 b4 58 9f 41 40 5a 9f 41
       19.87969 19.931234 19.918312 19.919067
000250 c7 34 9f 41 48 e3 9e 41 5f 78 9f 41 f6 34 9f 41
       19.90077 19.860977 19.933775 19.90086
000260 3a a4 9f 41 b5 32 9f 41 73 1f 9f 41 24 83 9f 41
       19.955189 19.89976 19.890356 19.939034
000270 25 26 9f 41 31 95 9f 41 0f 4f 9f 41 14 8e 9f 41
       19.893625 19.947847 19.913603 19.944374
000280 dc 63 9f 41 af 2b 9f 41 f7 b7 9f 41 9c 2c 9f 41
       19.92376 19.89633 19.964827 19.896782
000290 cf 78 9f 41 e6 04 9f 41 30 79 9f 41 9e 01 9f 41
       19.933989 19.877392 19.934174 19.87579
0002a0 1a 7b 9f 41 1e 8b 9f 41 22 2c 9f 41 5b a2 9f 41
       19.935108 19.942928 19.89655 19.954275
0002b0 03 5c 9f 41 d9 29 9f 41 b7 42 9f 41 6a 90 9f 41
       19.919928 19.895433 19.907576 19.945515
0002c0 94 4b 9f 41 3c 1b 9f 41 cb 70 9f 41 87 5a 9f 41
       19.911903 19.888298 19.930075 19.919203
0002d0 1f 67 9f 41 b4 cf 9f 41 9b 87 9f 41 13 24 9f 41
       19.925352 19.976418 19.941214 19.892614
0002e0 37 7a 9f 41 a5 26 9f 41 7a e0 9e 41 06 29 9f 41
       19.934675 19.89387 19.859608 19.895031
0002f0 96 84 9f 41 3b 32 9f 41 53 82 9f 41 de 6f 9f 41
       19.93974 19.899527 19.938635 19.929623
000300 cf 18 9f 41 56 26 9f 41 e5 31 9f 41 f6 66 9f 41
       19.887114 19.893719 19.899363 19.925274
000310 07 23 9f 41 f2 7d 9f 41 90 62 9f 41 5d 08 d5 bc
       19.892103 19.936497 19.923126 -0.026004964
000320 4f 91 9f 41 48 21 9f 41 ec 93 9f 41 5e 18 9f 41
       19.945951 19.89125 19.947227 19.886898
000330 50 35 9f 41 93 50 9f 41 e8 9e 9f 41 74 48 9f 41
       19.901031 19.914343 19.95259 19.910378
000340 5e 1d 9f 41 96 9e 9f 41 59 41 9f 41 ab ff 9e 41
       19.88934 19.952435 19.906908 19.874838
000350 21 2f 9f 41 68 6d 9f 41 a8 a9 9f 41 79 03 9f 41
       19.898012 19.928421 19.95784 19.876696
000360 e2 7b 9f 41 55 99 9f 41 e1 55 9f 41 a9 5f 9f 41
       19.93549 19.94987 19.916933 19.92171
000370 b4 32 9f 41 49 aa 9f 41 df 02 9f 41 58 60 9f 41
       19.899757 19.958147 19.876402 19.922043
000380 1b 49 9f 41 bf 76 9f 41 15 03 9f 41 d4 1c 9f 41
       19.910696 19.932981 19.876505 19.889076
000390 fb 6a 9f 41 e2 55 9f 41 dc 92 9f 41 f7 5b 9f 41
       19.927237 19.916935 19.946709 19.919905
0003a0 c1 0e 9f 41 f4 2e 9f 41 26 ff 9e 41 8e 28 9f 41
       19.882204 19.897926 19.874584 19.894802
0003b0 7a 38 9f 41 3b ab 9f 41 bc 2d 9f 41 03 97 9f 41
       19.902576 19.958609 19.897331 19.948736
0003c0 12 73 9f 41 a6 6c 9f 41 98 5b 9f 41 e5 38 9f 41
       19.931187 19.928051 19.919724 19.90278
0003d0 f4 06 9f 41 8d 9a 9f 41 d7 a0 9f 41 73 b6 9f 41
       19.878395 19.950464 19.953535 19.964087
0003e0 46 10 9f 41 db 5a 9f 41 f0 15 75 c1 0c 0e 9f 41
       19.882946 19.919363 -15.317856 19.881859
0003f0 3e 80 9f 41 2f 76 9f 41 e7 69 9f 41 47 8a 9f 41
       19.937618 19.932707 19.92671 19.942518

layer3.bias f4 [256]
000000 9e 08 a2 41 55 bc 03 3d 97 a4 a0 41 b0 43 5f 3b
       20.254208 0.03216203 20.080366 0.0034067445
000010 46 1c a0 41 b3 29 a0 41 f8 11 a0 41 47 01 a1 41
       20.013805 20.02036 20.008774 20.125624
000020 b7 84 a0 41 74 3b 2a 3c b2 6a a0 41 6c ff 9f 41
       20.064802 0.010390151 20.052097 19.999718
000030 dd 7c a0 41 6b d9 a0 41 a7 b4 a1 41 e8 e0 a0 41
       20.060968 20.106161 20.21321 20.109818
000040 00 ae e0 39 24 db 9f 41 bb 00 a1 41 fe e5 19 bd
       0.0004285425 19.982002 20.125357 -0.037572853
000050 50 ff 9f 41 8b 82 a0 41 03 fc 11 bc 0f 16 a1 41
       19.999664 20.063742 -0.008910182 20.13577
000060 4b fc a0 41 f5 7d a0 41 2d e3 9f 41 54 3d 23 3d
       20.12319 20.061502 19.985926 0.03985341
000070 60 87 11 bd c7 5c 9f 41 26 b3 a0 41 47 21 a0 41
       -0.035529494 19.920301 20.087475 20.016249
000080 e4 06 a1 41 6d 2a a0 41 a5 c6 a0 41 90 0e a0 41
       20.128365 20.020716 20.096994 20.00711
000090 24 85 a0 41 63 2d a0 41 4c ec a0 41 c4 68 a1 41
       20.06501 20.022161 20.11538 20.176155
0000a0 4c 8b a0 41 3f 98 a0 41 18 d7 9f 41 cd e3 a0 41
       20.068016 20.074339 19.980026 20.11123
0000b0 c4 70 25 bd e5 d3 9f 41 6b e3 0c bd 33 70 a0 41
       -0.040390745 19.978464 -0.03439657 20.054785
0000c0 4f 72 a0 41 82 f9 9f 41 c9 bb bb 3c 00 37 a0 41
       20.055815 19.99683 0.022916691 20.026855
0000d0 60 18 a0 41 f9 99 a0 41 d2 dc a0 41 d2 8d a0 41
       20.011902 20.075182 20.107822 20.069248
0000e0 1d de 9f 41 7f f5 9f 41 f0 66 a0 41 23 e6 9f 41
       19.983454 19.994871 20.050262 19.987371
0000f0 31 b5 9f 41 c1 5a a0 41 09 da a0 41 34 d1 a1 41
       19.963472 20.044313 20.106462 20.22715
000100 8e ea a0 41 1c 7b a0 41 3b 13 a0 41 3e e4 9f 41
       20.114529 20.060112 20.00939 19.986446
000110 8f dc d8 3c fb ce 9f 41 78 e4 a0 41 2a b6 9f 41
       0.026472358 19.976065 20.111557 19.963947
000120 db e1 6f 3c 5a a9 a0 41 7a 03 a1 41 f9 03 a0 41
       0.0146412505 20.082691 20.126698 20.00194
000130 7c bf a0 41 0b ff 86 bc 97 c4 8b 3c 16 61 a1 41
       20.093498 -0.016479036 0.017061515 20.172405
000140 8d 66 a0 41 14 10 a1 41 5c b9 a0 41 60 00 a0 41
       20.050074 20.13285 20.090508 20.000183
000150 9c 5b a0 41 01 95 a0 41 1e a9 a0 41 0a 13 a1 41
       20.044731 20.072756 20.082577 20.134296
000160 61 84 2c bd 17 3c a0 41 46 ed a1 41 b1 a5 a1 41
       -0.042118434 20.02934 20.240856 20.205904
000170 3c 32 a0 41 5c a7 a0 41 1a 08 a1 41 05 5f a1 41
       20.024529 20.081718 20.128956 20.171396
000180 7d b1 a0 41 3d db a0 41 9a 06 00 bd e8 d0 a0 41
       20.086664 20.10705 -0.031256296 20.102005
000190 84 35 a0 41 2d 82 a0 41 98 b2 9f 41 74 bd a0 41
       20.02613 20.063562 19.962204 20.092506
0001a0 ec 37 a0 41 47 c3 a0 41 36 b7 a0 41 27 4c a1 41
       20.027306 20.09535 20.089458 20.162184
0001b0 ff 77 97 bc 5e 7d a0 41 7a a2 9e bc c2 ec 9f 41
       -0.018489836 20.061214 -0.019364584 19.990604
0001c0 ae c3 9f 41 e8 f5 9f 41 75 da 9f 41 8f 59 a0 41
       19.970547 19.995071 19.981668 20.04373
0001d0 ec 53 9f 41 a1 46 9f 41 93 17 a1 41 64 72 a0 41
       19.915977 19.909487 20.13651 20.055855
0001e0 02 cc a0 41 9d cb 9f 41 c9 86 a1 41 e2 48 a0 41
       20.099613 19.97442 20.190813 20.035587
0001f0 92 8e a0 41 b9 6a a1 41 ef ee a0 41 eb a2 a0 41
       20.069614 20.17711 20.116667 20.07955
000200 8e 4a a0 41 9f 69 a1 41 8c 98 9f 41 5b ac a1 41
       20.036404 20.176573 19.949486 20.209158
000210 2f cb 8b 3c 75 33 a0 41 a5 6f a0 41 6c 2d a0 41
       0.017064659 20.025126 20.054514 20.022179
000220 a8 70 a0 41 92 5a a0 41 04 95 a0 41 a5 70 a0 41
       20.055008 20.044224 20.072762 20.055002
000230 26 80 a0 41 80 a9 a0 41 9f 17 a1 41 42 63 a1 41
       20.062572 20.082764 20.136534 20.173466
000240 cc 07 a1 41 2c de a0 41 ae 6e a0 41 64 d5 9f 41
       20.128807 20.108482 20.054043 19.979195
000250 6d 40 c5 bc 52 9b a0 41 f9 6e a0 41 f4 99 a1 41
       -0.024078572 20.07584 20.054186 20.200172
000260 fe 07 a1 41 e1 04 a1 41 fb 97 f2 bc 04 9d a0 41
       20.128902 20.127382 -0.029613486 20.076668
000270 a7 8f ef 3c 4b b2 00 bd e6 e9 3d 3c e7 ec 9f 41
       0.029243303 -0.031420033 0.01159141 19.990675
000280 9f c0 a0 41 91 a4 a0 41 ba 60 a1 41 bf a2 c3 bc
       20.094053 20.080355 20.17223 -0.023881314
000290 63 c6 9f 41 5d ae 9f 41 24 b9 a0 41 0d 42 a0 41
       19.971869 19.960138 20.0904 20.032251
0002a0 a6 40 0a bd 04 80 a2 41 9d 35 05 bd 22 80 a0 41
       -0.03375306 20.312508 -0.032521833 20.062565
0002b0 5a 67 a1 41 c9 3f a0 41 33 cc a0 41 a8 84 9f 41
       20.175465 20.031145 20.099707 19.939774
0002c0 57 91 a0 41 62 7f a0 41 eb 55 9f 41 cb 64 9f 41
       20.070967 20.062199 19.916952 19.924215
0002d0 08 c4 a0 41 e5 a5 a0 41 54 c9 a0 41 34 08 a0 41
       20.095718 20.081003 20.098305 20.004005
0002e0 a4 5a 13 bc 03 64 a0 41 4b cb a0 41 25 82 a0 41
       -0.008993778 20.048834 20.099264 20.063547
0002f0 6d 09 a1 41 70 46 da bb 57 e3 21 bd 54 73 a0 41
       20.129602 -0.006661229 -0.03952345 20.056313
000300 5c 8e a1 41 de 8b a0 41 31 07 a1 41 01 da a0 41
       20.194511 20.068295 20.128511 20.106447
000310 ce 6b a0 41 04 1f 9e bc cc 62 a0 41 3c 86 a0 41
       20.052639 -0.019301899 20.04824 20.065544
000320 ac b3 a0 41 fa 89 a0 41 19 04 a0 41 d3 5d a1 41
       20.08773 20.067371 20.002 20.170813
000330 89 2b a0 41 eb 1a a0 41 bb 9e 9f 41 4c c2 df bc
       20.021257 20.013144 19.952505 -0.027314328
000340 29 39 a0 41 26 75 a0 41 a9 7f a1 41 38 30 71 bc
       20.02791 20.057201 20.187334 -0.014720969
000350 99 b6 a0 41 08 39 a0 41 28 e6 9f 41 44 24 a0 41
       20.089159 20.027847 19.987381 20.017708
000360 9c 9c a0 41 2b 7a a0 41 52 08 a0 41 6d e0 a0 41
       20.07647 20.059652 20.004063 20.109583
000370 38 5d 59 bc 66 f1 9f 41 80 07 df 3c 04 ed a0 41
       -0.013266854 19.99287 0.027225256 20.11573
000380 9d ea a0 41 d8 a8 a0 41 f4 f5 9f 41 b6 2b a0 41
       20.114557 20.082443 19.995094 20.021343
000390 4e 08 96 bc 7a 30 a1 41 c7 78 c4 3b 45 bd a0 41
       -0.018314507 20.14867 0.005995843 20.092417
0003a0 13 58 a1 41 34 c5 a2 bc f3 8b a0 41 33 5a a1 41
       20.168005 -0.019869424 20.068335 20.169043
0003b0 58 eb 9f 41 e8 7f 9f 41 0e 11 a0 41 97 ce 9f 41
       19.989914 19.937454 20.008327 19.975874
0003c0 da 4b a0 41 ed 29 a0 41 5f 7e a0 41 ab 40 a1 41
       20.037037 20.020472 20.061705 20.156576
0003d0 93 a6 9f 41 9b e3 9f 41 32 cc a0 41 5e ee a0 41
       19.956335 19.986135 20.099705 20.11639
0003e0 85 24 a0 41 32 0f ef 3c 86 24 a0 41 45 b3 2b bd
       20.017832 0.02918205 20.017834 -0.04191901
0003f0 74 f7 2b bc ac fa 29 bc 61 f4 a0 41 5c 7b a0 41
       -0.010496009 -0.010374706 20.119326 20.060234

layer4.weight f4 [98, 256]
000000 3d 70 11 40 1e a9 06 bc 03 a5 11 40 08 5e 43 3c
       2.2724755 -0.008219032 2.2756965 0.011924274
000010 f6 df 10 40 60 17 13 40 d4 60 0f 40 30 46 11 40
       2.2636695 2.2983017 2.240285 2.269909
000020 72 96 13 40 d4 4d aa bc 62 f7 10 40 a6 df 10 40
       2.3060575 -0.020789064 2.265099 2.2636504
000030 fb 8c 13 40 4b 0f 10 40 0c 71 12 40 28 4e 11 40
       2.3054798 2.2509334 2.2881498 2.2703953
000040 ea fd d2 bb 28 0f 13 40 7b 4b 13 40 04 59 83 bc
       -0.0064389603 2.2978 2.301482 -0.016033657
000050 78 72 12 40 3a 8d 10 40 82 1e 1c bc 24 c6 0e 40
       2.2882366 2.2586198 -0.009528758 2.2308435
000060 1d a2 13 40 87 8b 12 40 f3 5c 11 40 87 6f c3 3c
       2.3067696 2.289766 2.2712982 0.023856891
000070 b3 00 92 ba 22 25 0e 40 3f 10 0f 40 2f 42 10 40
       -0.0011139124 2.2210164 2.2353666 2.2540395
000080 55 dc 0e 40 c7 e2 11 40 f3 e3 0f 40 df 2e 0f 40
       2.232198 2.2794664 2.248288 2.2372358
000090 c6 8a 0f 40 94 67 11 40 f1 64 10 40 bf 43 0e 40
       2.242845 2.271947 2.256161 2.222885
0000a0 a9 f6 0e 40 ee 60 13 40 cc 85 12 40 d9 fa 11 40
       2.233805 2.302791 2.2894163 2.2809355
0000b0 80 9e a6 ba bb 12 10 40 6d f2 31 bc 04 6e 0f 40
       -0.0012712032 2.2511432 -0.0108610215 2.2410898
0000c0 92 df 0f 40 39 c5 0f 40 75 a5 00 3d 55 57 12 40
       2.2480206 2.2464125 0.031407792 2.2865803
0000d0 d4 fc 10 40 ed c0 12 40 ae 6e 11 40 18 8b 11 40
       2.2654314 2.2930253 2.2723804 2.2741146
0000e0 02 dc 13 40 75 20 0f 40 38 2c 10 40 68 a2 10 40
       2.3103032 2.236356 2.252699 2.2599125
0000f0 fb 26 0f 40 03 3e 0f 40 f5 54 12 40 b9 b6 0e 40
       2.2367542 2.23816 2.2864354 2.2299025
000100 3a 35 0e 40 66 94 0e 40 6a 78 0f 40 85 1b 0e 40
       2.2219987 2.2278075 2.2417245 2.2204297
000110 3c 1f 0f 3d 14 22 0e 40 91 c2 10 40 92 99 0f 40
       0.034941897 2.22083 2.2618754 2.2437482
000120 e2 ad 24 3d 44 d1 10 40 25 09 10 40 0b 87 13 40
       0.04020489 2.2627726 2.2505581 2.3051174
000130 60 a1 0f 40 06 15 e7 bc 43 18 de 3c 1e 7a 13 40
       2.2442245 -0.028208267 0.027111178 2.3043284
000140 b0 42 12 40 00 95 10 40 92 53 11 40 9d 37 12 40
       2.2853203 2.2590942 2.2707257 2.2846444
000150 1d fa 12 40 e2 94 10 40 40 3d 12 40 30 95 10 40
       2.2965157 2.259087 2.2849884 2.2591057
000160 21 b8 8f bc 6b 4e 0e 40 9c 94 10 40 fb 41 12 40
       -0.017543854 2.2235363 2.2590704 2.2852771
000170 fe 10 11 40 58 f3 0e 40 fd 8c 11 40 00 3d 13 40
       2.2666621 2.2336025 2.2742302 2.3005981
000180 2e 37 11 40 a6 2e 0f 40 d9 73 37 3c fc 7f 13 40
       2.268993 2.2372222 0.011197054 2.3046865
000190 40 4c 12 40 67 81 0f 40 10 58 10 40 6e 4d 13 40
       2.285904 2.242273 2.255375 2.301601
0001a0 11 f4 12 40 89 48 0e 40 2f 53 0f 40 3d f8 0e 40
       2.2961466 2.2231772 2.2394521 2.2339013
0001b0 cd 6a c3 3c 31 01 11 40 8c be 05 3d 48 69 12 40
       0.023854638 2.2656977 0.032652423 2.2876759
0001c0 0d 6b 0f 40 ed 08 10 40 e1 70 0f 40 2c 55 0f 40
       2.2409089 2.2505448 2.2412646 2.2395735
0001d0 a6 aa 10 40 09 34 12 40 d6 84 12 40 a4 5a 12 40
       2.2604156 2.284426 2.2893577 2.2867823
0001e0 56 b2 10 40 85 de 0e 40 6c 33 13 40 97 ae 0e 40
       2.2608848 2.2323315 2.3000135 2.229406
0001f0 3e 43 0f 40 38 d1 0f 40 3a 37 12 40 e6 cd 10 40
       2.2384791 2.2471447 2.2846208 2.262567
000200 ef 50 10 40 bf 58 12 40 27 07 12 40 91 d2 0e 40
       2.2549398 2.2866666 2.2816865 2.231602
000210 e4 50 fb bc 2d ae 0f 40 1d 26 12 40 62 0d 11 40
       -0.03067822 2.2450058 2.2835763 2.2664418
000220 3c ae 0f 40 37 f3 10 40 5e 40 0f 40 cc 27 0f 40
       2.2450094 2.2648447 2.2383037 2.236804
000230 36 9c 12 40 0d ed 11 40 25 da 0e 40 02 a6 0f 40
       2.2907844 2.2800934 2.2320645 2.2445073
000240 2a 24 12 40 ad c5 12 40 59 c0 11 40 3f d5 10 40
       2.2834573 2.2933152 2.277365 2.2630155
000250 09 0e 05 bd 4b 16 12 40 c1 74 0f 40 05 45 12 40
       -0.032484088 2.2826107 2.241501 2.2854626
000260 49 dc 11 40 20 3e 12 40 b5 52 f2 3b 88 2a 0f 40
       2.2790701 2.2850418 0.0073951134 2.236971
000270 85 0d d4 bc 53 df 74 3c 85 d2 03 3d 2f 7c 0f 40
       -0.025885353 0.014945823 0.03218319 2.2419546
000280 0c 01 10 40 94 ac 12 40 15 09 16 40 18 7f 7c bc
       2.250064 2.2917833 2.3443043 -0.015411161
000290 2e 38 12 40 69 72 10 40 75 60 0f 40 44 73 13 40
       2.284679 2.256983 2.2402623 2.3039103
0002a0 6a 35 00 bc 40 76 10 40 0e ca 24 3b 06 c1 0f 40
       -0.007825235 2.2572174 0.0025144848 2.2461562
0002b0 16 6d 11 40 56 fc 12 40 0c 0e 0f 40 a1 4e 11 40
       2.272283 2.2966514 2.2352324 2.2704241
0002c0 6b 9e 0f 40 ee aa 0f 40 fb f6 0f 40 9d 76 11 40
       2.244044 2.2448077 2.2494495 2.2728646
0002d0 af ad 11 40 87 65 10 40 49 aa 0e 40 39 75 10 40
       2.2762258 2.2561967 2.2291434 2.2571547
0002e0 59 cc ce bc ff 91 0f 40 56 53 0f 40 0d 0a 11 40
       -0.025243925 2.243286 2.2394614 2.2662385
0002f0 fc 19 12 40 9f 65 c3 bc d4 7c 91 bc 5b 96 10 40
       2.282836 -0.023852168 -0.017759718 2.259177
000300 f6 59 10 40 ba e2 12 40 cc b6 0f 40 7d ee 10 40
       2.2554908 2.2950883 2.245532 2.2645562
000310 bc 44 0e 40 28 a2 26 bc ef b2 11 40 cc ac 13 40
       2.2229452 -0.010170497 2.2765462 2.3074217
000320 fe 4a 12 40 5c f3 12 40 53 1f 12 40 0e 97 10 40
       2.2858272 2.2961035 2.2831619 2.2592196
000330 06 e2 10 40 41 ad 11 40 37 66 11 40 ea d3 4c bc
       2.2637954 2.2761996 2.2718637 -0.012501696
000340 c9 63 0e 40 0e 9e 10 40 a7 02 10 40 7a 63 ac bc
       2.2248404 2.259647 2.250162 -0.021043528
000350 38 30 0e 40 fe a0 0f 40 f2 1c 0f 40 9a 15 12 40
       2.221693 2.2442012 2.2361417 2.2825685
000360 09 46 0f 40 22 6b 0f 40 3e e4 12 40 c8 ad 11 40
       2.2386496 2.2409139 2.2951808 2.2762318
000370 80 db ce 3c 9b 3e 0e 40 dc 11 ab bc 3e 7d 13 40
       0.02525115 2.2225711 -0.02088254 2.3045192
000380 15 c1 0e 40 46 0e 13 40 11 ac 12 40 26 21 11 40
       2.2305348 2.2977462 2.291752 2.2676482
000390 21 96 0d bc 5f 74 13 40 f9 e6 76 bc 56 6f 10 40
       -0.008641751 2.3039777 -0.015069717 2.2567954
0003a0 6e 31 0f 40 4a 42 d8 bc 62 6a 11 40 23 28 0e 40
       2.237392 -0.026398797 2.272118 2.2211998
0003b0 b0 39 12 40 65 86 12 40 8f e6 12 40 b2 7a 0f 40
       2.284771 2.2894528 2.2953222 2.2418637
0003c0 9a 66 11 40 03 35 13 40 37 93 0e 40 5c b4 12 40
       2.2718873 2.3001106 2.2277353 2.2922583
0003d0 8b ce 0f 40 a7 f0 12 40 cd 2c 12 40 88 c6 10 40
       2.2469814 2.2959383 2.2839844 2.2621174
0003e0 17 de 0f 40 80 9a 78 3c af 6e 0e 40 bd f4 dc 3c
       2.2479303 0.015173554 2.2255056 0.026972169
0003f0 a9 a1 b0 3c 5d 2d 3a bc f7 8d 11 40 0c 7a 10 40
       0.02156146 -0.0113633545 2.2742898 2.2574492

layer4.bias f4 [98]
000000 0e 5e 85 3f ff 37 3f 40 da 25 e2 3f 92 0e 9d 40
       1.0419328 2.9877927 1.7667801 4.9080286
000010 d4 ad 05 40 3b f3 72 40 4d 4f 98 40 f4 90 48 40
       2.0887346 3.7960956 4.7596803 3.1338472
000020 eb fc 80 3f cc d3 94 3f 58 64 98 40 48 42 85 3f
       1.0077184 1.1627135 4.762249 1.0410852
000030 0d af f7 3f 3d ab c5 3f a7 0b 50 40 7f ea 89 3f
       1.9350296 1.5442883 3.2507112 1.0774688
000040 58 78 2f 40 38 c7 96 40 89 3b 83 40 58 82 17 3f
       2.7417202 4.7118187 4.1010175 0.59183264
000050 a9 06 c0 3f e5 20 8a 40 5e 10 a8 40 5f b7 3e 40
       1.5002033 4.3165154 5.251998 2.979942
000060 4d 6b 24 41 37 e0 90 40 55 50 0a 40 99 d1 d1 3f
       10.2761965 4.52737 2.161153 1.6392089
000070 16 42 55 40 96 12 bb 3f 0a cf 65 40 ac e0 03 40
       3.3321586 1.4615047 3.5907617 2.060588
000080 ee 56 43 40 15 4c a0 40 dd e7 86 3f ee 82 14 40
       3.0521808 5.0092874 1.0539509 2.3204913
000090 98 33 60 40 6d 00 c7 40 2f 1b cc 3f 4c 5a 63 40
       3.503149 6.218802 1.5945796 3.5523863
0000a0 27 19 90 40 1e 2c b8 40 1f e7 a9 40 62 4d 38 40
       4.5030704 5.7553854 5.309463 2.879723
0000b0 bc 5c 41 40 52 99 29 3f 95 4e a1 40 28 be e3 3f
       3.021285 0.66249573 5.0408425 1.7792406
0000c0 a2 27 6a 40 c8 75 07 40 29 d6 6e 40 c1 49 d6 3f
       3.658669 2.1165638 3.7318213 1.6741258
0000d0 79 ee 43 40 46 46 92 40 86 af 36 40 34 98 80 40
       3.0614302 4.5710783 2.854463 4.0185795
0000e0 e0 d4 34 40 0b e6 e6 3f 27 1c fd 3f b6 b1 01 40
       2.8254929 1.8038954 1.9774216 2.0264716
0000f0 5c 57 14 40 dd 72 9d 40 a3 f7 35 40 55 52 be 3f
       2.317832 4.9202714 2.8432395 1.4868876
000100 27 b5 03 41 0b 58 0b 40 27 62 ea 40 03 52 89 40
       8.231727 2.1772487 7.3244815 4.291261
000110 10 68 9e 40 4e 78 8e 40 14 3c 0a 40 84 f1 52 40
       4.950203 4.4521856 2.1599169 3.295991
000120 a5 b9 18 40 51 53 fb 3e 72 fc 9b 40 d4 5c 5a 3f
       2.3863308 0.49087003 4.874566 0.85297894
000130 e1 7f 9c 40 2c 61 4c 3f e3 0c 6c 40 6f ec 68 40
       4.89061 0.7983577 3.6882865 3.6394308
000140 2f c0 8c 40 b6 fc 49 40 29 d3 4a 40 62 01 52 40
       4.39846 3.1560493 3.1691382 3.2813344
000150 06 ab b3 40 64 35 e7 3e d3 d7 15 40 6f 0d ba 3f
       5.614627 0.4515792 2.3412979 1.453535
000160 c8 5e a6 40 32 8f e1 3e 59 99 f7 3f 6b 6a d4 3f
       5.19907 0.44054562 1.9343673 1.6594976
000170 7d a2 34 40 b8 fd 85 40 7c 4c 6a 40 e7 25 e3 3f
       2.8224175 4.1872215 3.6609182 1.7745942
000180 9b 6b 6d 40 98 0a 1d 3f
       3.7096927 0.6134429
