models/60-61/guerrilla_model_weights.pth (torch, 198120 bytes, 6 tensors)

layer1.weight f4 [128, 82]
00000000: 9ff6 c941 e326 1441 3b98 3041 713d 0241
00000010: d638 5b40 1a15 8541 0b3c b641 fc6a c341
00000020: f1b3 9641 a00d c541 3ede ca41 109e c541
00000030: 71a1 4341 2022 c341 d638 ca41 e0ee c941
00000040: 7590 c241 c7d5 c841 8d47 ca41 0824 ca41
00000050: d8d9 1641 96d2 8e41 c321 9141 a014 c941
00000060: 6c86 b041 7cc7 2741 3db1 be41 4bfc 9c41
00000070: a40d 9141 2d57 a840 df8b 9241 cd1c 6541
00000080: 89e6 9d40 b55d 7341 d126 c741 fdb7 c841
00000090: 3e23 c841 644a c841 42f2 c741 191e 2d41
000000a0: 606c c741 6b29 c841 f9fb c741 5285 c841
000000b0: 17a9 a441 391d c841 7c35 c741 1cec c741
000000c0: 044d c741 45df c741 2f83 c741 c437 c841
000000d0: 2f32 c841 a6b0 c741 66a7 c741 ca28 c741
000000e0: c96e bf41 28f0 c541 a5e9 c641 5620 c641
000000f0: a827 c741 8de2 9541 2268 c841 13a4 c741
00000100: 8df3 c741 49c7 c641 3077 c641 ec16 c641
00000110: c738 c841 c891 c741 e2d7 c741 72b3 c741
00000120: 25b3 c741 8df3 c641 110a c741 cea9 bb41
00000130: 9a88 bb41 27d5 c841 869a b241 db9c c841
00000140: 65e3 c641 0384 c741 0d77 cb41 dc17 1841
00000150: 299b 3341 d48d 0441 4e4c 6040 d710 8441
00000160: f61a b741 b4cf c441 3b3a 9841 322b c641
00000170: e638 cb41 cb3c c641 dd52 4441 b55d c241
00000180: e56d c941 76ea c941 a904 c341 4536 c841
00000190: cbdf c841 0d22 ca41 9f69 1641 4fe5 8f41
000001a0: 92ec 9341 6bd3 c841 07e0 b141 18dc 2b41
000001b0: c119 c041 f226 9e41 5555 9141 e965 aa40
000001c0: a8e1 9241 5a37 6741 6720 9840 6fe6 7441
000001d0: 607b c741 c757 c841 a7fd c841 e320 c841
000001e0: 17c4 c641 32aa 2e41 c831 c741 0ea0 c741
000001f0: 3d6f c841 0955 c841 c1d3 a441 b28b c841
00000200: 4e7c c841 05ff c641 725b c741 a9b3 c841
00000210: 419c c941 520f c941 770e c841 798a c841
00000220: 1f6e c741 22ab c741 2acb c041 c78a c741
00000230: d187 c841 a30e c941 3c1f c841 fdd6 9541
00000240: 3052 c841 d228 c941 8d7d c941 45ac c841
00000250: c465 c941 3eb6 c641 e9f3 c741 0212 c841
00000260: 07bc c841 b2d3 c841 57b3 c841 1030 c941
00000270: 99d7 c841 0dc9 be41 f585 bf41 1cca c841
00000280: a7c3 b341 1a74 c741 1088 c741 8b24 c741
00000290: 53ce c441 f71d 1541 2442 2d41 8e21 0341
000002a0: 1c5e 5440 306d 8241 e0b1 b541 d803 c341
000002b0: 6c16 9641 8e00 c341 8f2d c641 36fe c241
000002c0: c56a 4041 8c56 c141 48c0 c641 3a32 c641
000002d0: 81bc bf41 53ff c641 128a c641 f9d5 c641
000002e0: edcb 1241 901a 8e41 639e 9041 ec40 c641
000002f0: 44b2 af41 113a 2641 3c79 bc41 5dc5 9c41
00000300: a375 9041 17ff a740 ebe0 9141 37b1 6241
00000310: 1137 9a40 69a8 7441 e489 c641 e078 c741
00000320: a13f c641 7656 c641 2885 c741 9239 2c41
00000330: 22ff c641 4998 c641 9716 c741 f838 c741
00000340: d1eb a341 437b c741 8383 c641 bb8b c641
00000350: 6fba c641 30f7 c641 a151 c741 80a8 c641
00000360: 2f82 c641 a572 c741 27eb c641 e9ed c641
00000370: 423c be41 ca23 c541 10c0 c541 32a8 c641
00000380: b46c c641 0374 9541 f4c1 c541 c47e c641
00000390: 0cfd c641 1acf c541 c37d c641 4780 c541
000003a0: 7542 c641 9a7d c641 f3a9 c641 2e96 c641
000003b0: 567c c641 cbea c641 b38c c641 0b91 bf41
000003c0: 2caf c041 252a c641 984c b241 84b2 c641
000003d0: 0060 c741 2819 c741 e0c5 ca41 84bf 1541
000003e0: ab19 3241 b3c2 0441 fffb 5840 14f1 8341
000003f0: c860 b741 20d8 c441 a84e 9841 9f55 c541
25.24542 9.259494 11.037166 8.14 3.425344 16.635303 22.779318 24.427238
18.837862 24.631653 25.358517 24.702179 12.226914 24.391663 25.277752 25.241638
24.320536 25.104383 25.284937 25.267593 9.4281845 17.852825 18.141485 25.13507
22.065636 10.486202 23.836542 19.62319 18.13166 5.2606416 18.318296 14.319531
4.9343915 15.210378 24.893953 25.089838 25.017208 25.036324 24.99329 10.819848
24.927917 25.020224 24.998034 25.065098 20.582563 25.014269 24.901115 24.990288
24.912605 24.984018 24.939054 25.02723 25.024504 24.961254 24.956738 24.894917
23.929094 24.742264 24.864084 24.765789 24.894363 18.73562 25.050846 24.955114
24.993921 24.847307 24.808197 24.761192 25.027723 24.946182 24.980412 24.96262
24.962473 24.868921 24.879915 23.457912 23.4417 25.104078 22.32545 25.07659
24.861032 24.939459 25.43313 9.505825 11.225381 8.284626 3.5046573 16.508223
22.888165 24.601418 19.028433 24.771091 25.402782 24.779684 12.27023 24.295755
25.17866 25.239483 24.377275 25.026499 25.109274 25.266626 9.400786 17.986967
18.490513 25.103231 22.234388 10.741234 24.012575 19.769016 18.166666 5.32494
18.360184 14.451014 4.7539554 15.306258 24.935242 25.04286 25.123854 25.016058
24.845747 10.916552 24.899307 24.953152 25.054316 25.041521 20.603395 25.06821
25.060696 24.874521 24.919651 25.087725 25.201296 25.13248 25.007063 25.067614
24.92877 24.95856 24.099201 24.942762 25.066317 25.132147 25.015251 18.729975
25.04013 25.144932 25.186304 25.084116 25.17469 24.838985 24.994097 25.008793
25.09181 25.103367 25.087568 25.148468 25.105272 23.84817 23.940409 25.098686
22.470533 24.93169 24.941437 24.892843 24.600744 9.319816 10.828648 8.195692
3.318244 16.303314 22.711853 24.376877 18.760948 24.37527 24.772245 24.374126
12.026067 24.16726 24.843887 24.774525 23.967043 24.87467 24.817417 24.854479
9.174787 17.76297 18.077337 24.7817 21.962044 10.389176 23.559196 19.596369
18.05744 5.249889 18.234823 14.168265 4.819222 15.291116 24.81733 24.934021
24.781069 24.792217 24.940018 10.764055 24.874577 24.824358 24.88603 24.902817
20.490145 24.935186 24.814215 24.818228 24.841032 24.870697 24.914858 24.832275
24.813566 24.930979 24.86482 24.866167 23.779423 24.642475 24.71878 24.832127
24.803078 18.681646 24.719704 24.811897 24.873558 24.726124 24.811407 24.687635
24.78245 24.811329 24.832983 24.82333 24.81071 24.864645 24.8187 23.945822
24.085533 24.770578 22.2874 24.837166 24.921875 24.887283 25.346619 9.359257
11.131267 8.297534 3.3903806 16.492714 22.922256 24.60553 19.038406 24.666807

layer1.bias f4 [128]
00000000: 03bf c941 e659 ca41 59e0 c541 08aa c941
00000010: 3783 c941 4e49 cb41 4175 cb41 754a cb41
00000020: 0624 cb41 025b cb41 29c8 ca41 b30f cb41
00000030: a16d cb41 f9dd c541 fc7b cb41 7db9 ca41
00000040: 5dd5 ca41 b0f0 cb41 e92b c941 451f cb41
00000050: 0cd0 c941 937d c941 6f20 cb41 5c1e cb41
00000060: 1955 ca41 0bda cb41 a28a ca41 90c2 ca41
00000070: f984 ca41 955f c941 ee69 c941 4f93 cb41
00000080: 3d60 cb41 d112 cb41 f509 cb41 dbcf cb41
00000090: 5cfd c941 7d8d c941 2929 cb41 20b9 ca41
000000a0: ef6f cb41 7d2b cb41 fee9 cb41 5c24 ca41
000000b0: 6955 ca41 912f c941 c0a6 cb41 859c cb41
000000c0: 9798 ca41 e2c4 ca41 45bc ca41 7b29 cb41
000000d0: acdf ca41 2396 cb41 02b1 ca41 2a90 c941
000000e0: d13c c941 0775 cb41 8e4a ca41 be03 cb41
000000f0: d814 ca41 7021 ca41 0f80 c841 7421 cb41
00000100: 7a8b c941 8318 cb41 1848 ca41 3cb8 cb41
00000110: b056 ca41 ef04 ca41 7efa ca41 71f3 ca41
00000120: 0d1e cb41 3dee ca41 5e06 c941 2d62 ca41
00000130: 2b2d ca41 0ac3 c941 ee53 c941 fbf1 c941
00000140: 56da ca41 91ad cb41 4a8a c841 5f01 cb41
00000150: bcd2 c941 4fe3 c941 2ea5 ca41 080a cb41
00000160: 97e0 ca41 f95f ca41 2255 ca41 0190 c941
00000170: 8252 ca41 a563 c941 8396 ca41 04e3 cb41
00000180: b05f cb41 9032 ca41 cc23 cb41 aa49 ca41
00000190: 5b33 c941 4783 cb41 ac4f cb41 f335 ca41
000001a0: 1e7d ca41 5913 cb41 6f64 c941 493f cb41
000001b0: d62e cb41 e4f1 ca41 c398 ca41 eb75 c541
000001c0: f934 c741 a427 ca41 a836 c641 6653 ca41
000001d0: 067b c941 6e85 ca41 ce76 ca41 55b7 c941
000001e0: 6995 cb41 2f77 c841 cea7 ca41 d39b c941
000001f0: b073 c841 e066 ca41 253c cb41 d2f1 c941
25.218267 25.293896 24.734545 25.208023 25.18907 25.410793 25.432253 25.411356
25.39259 25.419437 25.347734 25.382666 25.42853 24.733385 25.43554 25.34057
25.354181 25.492523 25.14644 25.390268 25.226585 25.186316 25.390837 25.389824
25.291552 25.481466 25.317692 25.345001 25.314928 25.17167 25.176723 25.446928
25.421991 25.384188 25.379862 25.476492 25.24871 25.194086 25.395098 25.340393
25.429655 25.396235 25.489254 25.267754 25.291704 25.148226 25.45642 25.451426
25.324507 25.346134 25.341928 25.395254 25.359215 25.448309 25.33643 25.195393
25.154696 25.432142 25.286404 25.376827 25.260178 25.266327 25.062529 25.391335
25.193104 25.386969 25.285202 25.464958 25.292328 25.252409 25.37231 25.368868
25.389673 25.366327 25.128109 25.297937 25.272055 25.220234 25.165981 25.243155
25.35661 25.45975 25.067524 25.37567 25.227898 25.23599 25.330654 25.379898
25.359663 25.296862 25.291569 25.195314 25.290287 25.173655 25.323492 25.485847
25.421722 25.274689 25.392479 25.285969 25.150076 25.4391 25.413902 25.276342
25.311092 25.384447 25.17404 25.405901 25.39787 25.36811 25.32459 24.682577
24.900866 25.269356 24.776688 25.290722 25.18507 25.315151 25.30801 25.214518
25.447954 25.058195 25.331936 25.201086 25.056488 25.300232 25.404367 25.243076

layer2.weight f4 [128, 128]
00000000: ec4f c641 2e33 c741 fcc9 c941 431b c741
00000010: 1a21 c641 bed9 c541 3b7a c641 f039 c741
00000020: b526 c641 9827 c641 6d03 c741 9ecb c541
00000030: af7b c641 aefb c841 94ec c541 8032 c641
00000040: e3d6 c541 e299 c541 4dc1 c641 a7a4 c641
00000050: be12 c741 c0be c741 5ec7 c541 0546 c641
00000060: 662a c641 6ff6 c541 8ff3 c541 64b9 c541
00000070: 9ecb c541 b339 c641 8c81 c641 ca2f c641
00000080: d3de c641 e286 c641 6156 c641 d291 c541
00000090: cc77 c641 0ffc c641 88b1 c541 a39e c541
000000a0: ddf3 c541 0dda c541 4983 c641 5f57 c641
000000b0: 956e c541 a44f c741 3bc1 c641 d76b c641
000000c0: 96cd c641 61e7 c541 e5b5 c541 b952 c641
000000d0: e3b9 c541 3e98 c641 b74b c741 8bb6 c641
000000e0: 5076 c641 b973 c641 53cb c541 6adf c541
000000f0: 7d52 c741 2061 c641 4bcc c541 8327 c641
00000100: 7c31 c641 cccc c641 c36e c541 8d48 c641
00000110: 8d9b c641 e742 c641 e996 c641 e638 c641
00000120: f8da c641 3253 c741 c4dc c441 4956 c641
00000130: be10 c741 1699 c641 46ed c541 adc7 c641
00000140: cb9a c641 df50 c541 707e c541 1f7a c641
00000150: d78e c641 d09c c641 66e6 c541 a645 c641
00000160: 726f c641 7119 c541 c954 c641 6776 c641
00000170: 007a c641 92e5 c541 9a22 c641 12b9 c541
00000180: dc03 c741 eb04 c641 b3cf c641 02dd c541
00000190: dd84 c841 0728 c641 9f54 c641 5e43 c641
000001a0: 2e33 c741 c24f c541 3e47 c541 7cf2 c641
000001b0: 76bc c641 24c8 c541 33a0 c641 59b2 c841
000001c0: c7b6 c841 5873 c641 161e c941 6845 c641
000001d0: 6faf c641 e3c7 c641 c41c c641 31f7 c441
000001e0: ae6e c541 2c34 c641 4ace c541 cd22 c641
000001f0: 781c c741 439a c541 8f0e c741 de8f c641
00000200: 39e5 c641 4bc5 c741 19c2 c941 58e6 c641
00000210: 14b5 c541 03e5 c541 31b6 c541 eaa6 c641
00000220: 7a57 c641 1ab7 c541 5957 c641 4005 c641
00000230: fd25 c641 91dd c941 3272 c641 da3e c641
00000240: f3d0 c641 0467 c641 e0d6 c741 5b3c c641
00000250: d250 c641 ae82 c741 bba0 c541 1b06 c641
00000260: 41ef c641 a5fa c541 0504 c641 a46f c641
00000270: b016 c741 494e c641 0a1d c641 308c c541
00000280: 7ae8 c641 ee7c c541 50f8 c641 8ce4 c541
00000290: 682a c641 0099 c641 dea2 c541 4b1c c541
000002a0: 0248 c641 c6d1 c641 7a2d c641 b32a c741
000002b0: 53bb c541 2a52 c641 8d17 c641 39ca c541
000002c0: 7045 c641 b6f8 c541 8ca3 c541 a969 c541
000002d0: eb8d c541 6bf5 c541 9df8 c541 8814 c741
000002e0: 471f c641 24dd c541 672b c641 d5b9 c541
000002f0: 83f4 c541 096d c641 73ac c541 a1ae c641
00000300: 25ce c541 e609 c641 0c0f c641 5e92 c641
00000310: cd40 c641 4fa2 c541 6483 c641 1fdf c641
00000320: 519b c641 23fb c641 7a22 c541 47d1 c541
00000330: eb3b c641 e796 c541 1285 c541 b127 c641
00000340: f96a c641 c602 c541 004b c641 01e9 c541
00000350: 9e7c c641 768c c641 cffa c541 57b0 c641
00000360: ec06 c641 14de c541 c83f c641 2cd4 c741
00000370: eebc c641 1902 c641 1f2e c641 8fe2 c541
00000380: fcd1 c641 1227 c641 dff1 c641 b7a4 c541
00000390: f5e3 c741 227b c641 5c72 c641 0e2f c641
000003a0: 2109 c741 3ac6 c541 a1d7 c441 6cbb c641
000003b0: 8d57 c641 887b c641 33ea c541 4adf c841
000003c0: 1626 c941 b0e5 c641 9dc0 c941 d136 c641
000003d0: 4266 c741 d0ff c741 2885 c541 b0df c441
000003e0: fde2 c541 056f c541 b1b2 c541 070f c741
000003f0: a674 c841 f392 c541 0cae c641 cc94 c641
24.789024 24.89999 25.223625 24.888311 24.766163 24.73132 24.809683 24.90329
24.7689 24.769333 24.876673 24.724422 24.810392 25.12289 24.740517 24.774658
24.729925 24.700138 24.844385 24.830397 24.884151 24.96814 24.722347 24.78419
24.770702 24.745329 24.743925 24.715523 24.724422 24.778173 24.813255 24.773335
24.8588 24.81586 24.792177 24.696201 24.808495 24.873075 24.711685 24.70246
24.744074 24.73147 24.814104 24.792662 24.678995 24.913887 24.84435 24.802656
24.850384 24.737978 24.713816 24.790392 24.715765 24.824337 24.91197 24.839132
24.80777 24.806505 24.72428 24.734089 24.915277 24.797424 24.724752 24.769293
24.774162 24.849998 24.679083 24.785425 24.825953 24.782667 24.823687 24.777782
24.856918 24.915623 24.607796 24.792131 24.883175 24.824749 24.740856 24.847498
24.825583 24.664488 24.686737 24.80963 24.819746 24.826569 24.7375 24.784008
24.804417 24.637423 24.791399 24.807814 24.80957 24.737095 24.766895 24.715366
24.876884 24.752401 24.851416 24.732914 25.064875 24.769545 24.791319 24.782894
24.89999 24.663944 24.659786 24.8684 24.842022 24.722725 24.828222 25.087084
25.089247 24.80632 25.13969 24.78389 24.83566 24.8476 24.764046 24.620699
24.679043 24.775475 24.725727 24.766993 24.8889 24.700323 24.882109 24.820248
24.861925 24.971334 25.219774 24.862473 24.713417 24.736822 24.71396 24.831501
24.792713 24.714405 24.79265 24.752563 24.768549 25.233187 24.80576 24.78069
24.852026 24.8003 24.97992 24.77947 24.789463 24.938808 24.703482 24.752981
24.866823 24.747385 24.751963 24.804512 24.886078 24.788225 24.76418 24.69345
24.863514 24.686 24.871246 24.736595 24.770706 24.824707 24.704525 24.638815
24.78516 24.852428 24.772205 24.89585 24.716467 24.79012 24.7615 24.723742
24.783905 24.74644 24.704857 24.676592 24.694296 24.744833 24.746393 24.885025
24.765272 24.732979 24.771193 24.715738 24.74439 24.80324 24.709204 24.835268
24.725657 24.754833 24.757347 24.821468 24.781641 24.704252 24.814156 24.858946
24.825838 24.872625 24.641834 24.727186 24.779257 24.698683 24.689976 24.76938
24.802233 24.626354 24.786621 24.738771 24.810848 24.818584 24.747465 24.836103
24.75338 24.733437 24.781143 24.9786 24.84225 24.751024 24.77252 24.735624
24.852531 24.769077 24.868101 24.705427 24.986307 24.810123 24.80584 24.772976
24.879457 24.72179 24.605288 24.841515 24.79275 24.810318 24.739355 25.109028
25.143597 24.862152 25.21905 24.776766 24.92493 24.999908 24.690018 24.609222
24.735834 24.679209 24.712252 24.882338 25.056957 24.696753 24.834984 24.822655

layer2.bias f4 [128]
00000000: 9049 c741 8a32 c741 b7a8 c941 bda5 c941
00000010: 2a73 c741 5415 cc41 32a7 c641 be45 c941
00000020: d698 cc41 3a3a ca41 5557 c941 43d5 1a3d
00000030: de81 c741 645d c741 5cee c941 b332 c641
00000040: bfc5 c941 29e5 b4bc 3997 c641 588c c941
00000050: aa4a c941 d132 a8b9 8059 ca41 2d3e c941
00000060: f5f1 cc41 d70b ca41 7f6a ca41 193d c641
00000070: e940 c741 2bd5 cb41 e476 c941 7f9e c841
00000080: 330e c741 b20d cb41 19b9 c941 2af8 c641
00000090: c983 ca41 3522 c841 fef4 c741 34bd c941
000000a0: 5933 ca41 d254 c941 6710 cb41 4c4c c941
000000b0: 3e18 cb41 9b5d 62bc 93fd c641 30a0 c741
000000c0: 2dfd cb41 6fc3 ca41 9ab5 ca41 03a5 02bd
000000d0: 420f cb41 561e c941 a34a c841 e520 ca41
000000e0: c089 c941 436d cb41 78ba cb41 ccc6 ab3c
000000f0: ae2b c941 d592 c941 3a24 cb41 ee20 c941
00000100: 7c35 d23c 7954 cc41 9d07 ca41 7bba c741
00000110: 9415 c941 d2e8 c941 df72 cc41 c2d3 c941
00000120: 3b81 c641 aead c641 24b6 ca41 3b53 c841
00000130: a831 22bc 274a 123c 3078 c741 a85d ca41
00000140: 8d1a c941 e334 c841 d8f8 c741 d72c c5bc
00000150: 5247 cc41 b4a4 c741 30e3 cb41 1df9 c641
00000160: 0465 ca41 7d72 ca41 aded 363d 3a02 5ebd
00000170: 14f9 c841 a457 c741 f008 ca41 e282 c941
00000180: d55b c741 2e30 c941 429a c841 9064 c841
00000190: 3565 f7bb 0e48 c941 41a3 c741 dd86 393d
000001a0: d6df c941 5495 cb41 3a97 c941 9a61 013d
000001b0: 9854 c741 a1a1 c741 672c cb41 b3d1 c641
000001c0: 7e0e ca41 c077 4dbb 0f91 c841 fa6d c941
000001d0: d210 c941 2d52 cc41 9b25 ca41 7e83 c641
000001e0: f2dc c941 b8e6 c941 3e0a cb41 4639 dabb
000001f0: 388a 50bb 9720 c941 7a3e ca41 5d83 cb41
24.91092 24.899677 25.20738 25.205927 24.931232 25.510414 24.831638 25.159054
25.574627 25.27843 25.167643 0.03780104 24.938412 24.9206 25.241386 24.774755
25.221556 -0.022081928 24.82384 25.193527 25.161457 -0.00032081318 25.293701 25.15536
25.618143 25.255781 25.302 24.779833 24.906694 25.479086 25.183052 25.07739
24.881933 25.381687 25.21538 24.871174 25.314348 25.016703 24.994625 25.217384
25.275072 25.166416 25.383009 25.162254 25.386837 -0.013816263 24.873816 24.953217
25.498621 25.345427 25.338673 -0.03189565 25.38245 25.139812 25.036444 25.266062
25.19226 25.42835 25.46605 0.020968817 25.146328 25.196695 25.392689 25.141079
0.025660269 25.541246 25.253717 24.966055 25.135536 25.238682 25.55609 25.228397
24.8131 24.834805 25.338936 25.04064 -0.009899534 0.008928812 24.933685 25.29573
25.137964 25.025824 24.996506 -0.024069233 25.534824 24.955421 25.485931 24.871637
25.299324 25.305902 0.04466026 -0.054201342 25.12162 24.917793 25.254364 25.188908
24.91984 25.148525 25.075321 25.049103 -0.0075499066 25.160183 24.954714 0.04529463
25.234295 25.447914 25.198841 0.03158722 24.916306 24.95392 25.39668 24.852392
25.257076 -0.0031351894 25.07083 25.1787 25.133213 25.540125 25.268362 24.814205
25.232883 25.237656 25.380001 -0.0066596596 -0.0031820666 25.140913 25.280506 25.439142

layer3.weight f4 [168, 128]
00000000: 1591 8c3f 53e0 933f f8d1 9e3f 1df3 993f
00000010: 9997 923f c18f 9a3f aad3 8f3f 5915 943f
00000020: 4809 8c3f 8eeb 8b3f ce59 923f 0d11 a7bc
00000030: d782 993f e28f 963f c5fd 9b3f 4a4c 923f
00000040: 77b6 923f d0bf d73c 1ece 963f 1444 943f
00000050: ebea 8d3f 693b 88bd d096 9b3f 8770 9c3f
00000060: 7a0e 983f 22b1 923f 0a94 9b3f bf2a 973f
00000070: c806 913f f28d 903f abc6 9e3f 8515 903f
00000080: 70f5 963f 8bd6 9f3f 56e2 8d3f 19a4 953f
00000090: afbe a03f d799 943f e9a5 913f cc05 933f
000000a0: 9d7a 923f b2ff 913f 0474 923f 4789 973f
000000b0: ce1e 963f e15b 19bd f47b 8d3f c14c 8c3f
000000c0: f501 953f c383 a03f 533e 8b3f 30c0 8fbc
000000d0: 6cd1 953f 617d 9b3f a99e 983f 9631 933f
000000e0: 1696 9a3f 956d 933f dc68 8f3f 56a1 4b3b
000000f0: b138 9b3f ffa1 a23f 719a 993f e011 9b3f
00000100: 36a3 c63c 4544 9a3f 53cc 9f3f d28a 943f
00000110: 5e4a 9e3f 54fa 963f 4a27 9a3f 76ef 963f
00000120: 6955 963f 219f 903f a1c5 913f d02e 983f
00000130: 2b5f 9cbc 9fd8 a1bd 1d4e 9b3f 4689 973f
00000140: de00 9b3f 211b 963f fa4f 953f 5bfe 0d3d
00000150: 5a0e a13f 2f9d 8b3f 5d99 9d3f 879f 953f
00000160: 4813 963f 9591 8f3f 2c99 31bd a3dd c6bd
00000170: 38b3 a33f 9796 9c3f 3a07 983f 49f1 9a3f
00000180: 3da0 863f c8aa 933f c26d 8c3f 0bf6 963f
00000190: a9f9 b23c bca1 943f aa74 913f 4ea4 3dbd
000001a0: 9fd9 923f 5247 993f 01ca 993f 9997 283d
000001b0: abb0 953f 7727 903f 3d90 a23f 2eae 9a3f
000001c0: 2b49 a03f 25cb 0bbd 4587 8f3f 8871 933f
000001d0: 9376 8f3f 667f 973f 6710 9e3f 8f11 983f
000001e0: 9464 943f fe2e 923f 8a13 963f 64b1 2abd
000001f0: 3531 983c 142b 993f 1f25 a13f 0e55 933f
00000200: 9959 233e 90c4 f53d 49f9 763e ca90 733e
00000210: a409 303e 8fc4 963e 90f9 6b3e f413 2f3e
00000220: ed74 8c3e 120f 4c3e b9a9 403e de52 2b3d
00000230: e1be 1a3e 9818 d53d 3bd5 223e 7a2d 503e
00000240: 8570 5f3e 3dfe af3b 2d23 153e 89a5 e33d
00000250: 782d 603e 13a4 83bc 7985 5b3e c932 0b3e
00000260: 99ef 983e 2dcf 343e ef3b 3e3e f918 123e
00000270: a42e e03d 6154 813e c55e 773e 72d2 4f3e
00000280: 38bf 1e3e ee6f 783e f5c3 333e 03f0 3e3e
00000290: f6ea 5f3e 9015 653e 6725 153e a710 5c3e
000002a0: 6fa9 153e 4399 2b3e 6e30 4f3e de4f 643e
000002b0: 8c1b 6d3e 6bf7 bebc 5292 503e 66c9 483e
000002c0: 4c7c 8d3e efc3 2c3e 59d5 783e cb6a 913c
000002d0: 7568 443e 9233 043e d763 213e c430 7b3e
000002e0: df98 7a3e c0f6 523e d4b8 3b3e 4c9f afbc
000002f0: 8c42 2c3e b9a3 0d3e 9d8e 393e 584d 453e
00000300: 0643 91bc 6694 a63e c10b 2c3e 1564 223e
00000310: 249a 393e ee77 033e e4b4 2d3e 6792 113e
00000320: 587b 6b3e 0164 3d3e de7a 0a3e a335 043e
00000330: 9d43 78bd 289e 263d 4e38 253e 680b 193e
00000340: 9f24 103e 1ad5 103e c899 3a3e d9de b73c
00000350: 2412 773e ab9b 053e 6246 4d3e eb2f 633e
00000360: e2a7 543e ed2a 293e 6865 d93c d7b8 16bd
00000370: 8b9c 443e 2b6e 3f3e 702c 263e 6ca6 613e
00000380: 12a9 213e bfa0 0b3e 9c19 703e 6f38 7a3e
00000390: b4eb 86bd a07e 2e3e 5807 2f3e 371a 80bc
000003a0: bd8d 1a3e 8438 623e 09d1 213e 3d4e f7bc
000003b0: a91f 103e eb6e 1a3e 6a55 833e 68e3 403e
000003c0: 480b 2f3e fff6 0a3d f092 4c3e 6075 733e
000003d0: 5677 443e dfa3 943e fa55 853e 138f 0c3e
000003e0: 4066 6d3e c9ad 0d3e d595 863e 7c6e 7e3c
000003f0: 41ce 01bd b885 4d3e 7eef 7d3e 6132 263e
1.0981776 1.1552833 1.2407827 1.2027317 1.1452514 1.207512 1.123647 1.1569015
1.0940332 1.093126 1.1433656 -0.020393873 1.1993054 1.176266 1.2186819 1.1429532
1.1461934 0.02633658 1.1781652 1.1583276 1.1087316 -0.066519566 1.2155399 1.2221841
1.1879418 1.1460307 1.2154553 1.180992 1.1330194 1.1293318 1.2404379 1.1256567
1.1793652 1.2487348 1.1084697 1.1690704 1.2558192 1.1609448 1.1378757 1.1486144
1.1443669 1.1406157 1.1441655 1.1838769 1.1728151 -0.03744114 1.1053452 1.0960923
1.1641222 1.254021 1.0878395 -0.017547697 1.1704535 1.2147638 1.1923419 1.1499507
1.2077053 1.1517817 1.1203876 0.0031071506 1.2126676 1.2705687 1.2000257 1.211483
0.024247747 1.2052084 1.248423 1.1604865 1.2366445 1.1795144 1.204324 1.1791828
1.1744815 1.1298562 1.1388437 1.1889286 -0.019088348 -0.07902645 1.2133213 1.1838768
1.210964 1.1727029 1.1665032 0.0346664 1.2582505 1.0907344 1.2312428 1.1689309
1.1724634 1.1216303 -0.043358967 -0.097102426 1.2789068 1.2233456 1.1877205 1.2104884
1.0517651 1.1536493 1.0970995 1.1793836 0.021847563 1.1611857 1.1363728 -0.04629927
1.1472663 1.197489 1.2014772 0.0411602 1.169454 1.1262044 1.2700268 1.2084405
1.2522329 -0.03412928 1.1213156 1.1519022 1.1208061 1.1835754 1.2348756 1.1880358
1.1593194 1.1420591 1.1724713 -0.04167308 0.018578151 1.1966271 1.2589453 1.1510332
0.15952148 0.12000382 0.24118532 0.23785701 0.17191178 0.29446837 0.2304442 0.17097455
0.27432957 0.19927624 0.18814744 0.041827075 0.15111877 0.104050815 0.15901653 0.20329848
0.21820267 0.0053708837 0.145642 0.11115558 0.21892345 -0.016069448 0.21437635 0.13593592
0.29870299 0.17657156 0.1857755 0.14267339 0.10946396 0.25259688 0.24157245 0.20295122
0.15502632 0.24261448 0.1755522 0.18646245 0.21866974 0.22371507 0.14565049 0.21490727
0.14615415 0.16757683 0.20233318 0.22296092 0.2315504 -0.023311337 0.20368317 0.19608077
0.27633893 0.16871618 0.24300136 0.017751118 0.19180472 0.12910298 0.15760742 0.24530321
0.24472378 0.2060194 0.18332225 -0.021438263 0.1682226 0.13831986 0.18120809 0.19267786
-0.017732155 0.32535094 0.16801359 0.15858491 0.18125206 0.12838718 0.16963536 0.14216004
0.2299627 0.1849518 0.13523433 0.12911086 -0.060611356 0.040678173 0.1613476 0.14945757
0.1407647 0.14143792 0.18222725 0.02244513 0.24128014 0.13047664 0.2004638 0.22186248
0.20767167 0.16520281 0.026537612 -0.03679737 0.19200341 0.1869437 0.16227889 0.22036141
0.15787151 0.13635539 0.23447269 0.2443559 -0.065879256 0.17040491 0.17092645 -0.0156375
0.15093131 0.22091872 0.15802397 -0.030188674 0.14074577 0.15081374 0.25651103 0.18836749
0.17094147 0.03392696 0.19977927 0.23775244 0.19186148 0.29031274 0.26042157 0.13726453
0.23183537 0.13835825 0.26286188 0.015529271 -0.03169084 0.20070541 0.2479839 0.16230156

layer3.bias f4 [168]
00000000: 50a0 183f adc6 383e 1c06 9b41 e429 4b40
00000010: 29ae a13e 64a1 363f 046a 523f 536e 883e
00000020: 4a26 2c3f cd31 ec3e 4765 233f 42ee fa3e
00000030: 135b 843e a56f 9b41 6c17 de3e c7fd e53e
00000040: 94dd 143f 63e3 b73f f3a7 bb3e d08b 9b3f
00000050: 783b 6a3e dc91 e53e 36e3 9a40 7b75 e23f
00000060: a2e9 b63f b0dc 7440 c3a6 8e41 0890 6e3f
00000070: 021d f83f 773e 383f aeda 7d41 5915 153f
00000080: 0645 e03f 8ed7 5340 64b1 ca3f 0445 e33f
00000090: 3bc5 4e40 d916 a740 d14f f93e 27e8 ca3f
000000a0: d77a d43f 8e2d ae41 5f09 043f 49f1 2c3f
000000b0: 7869 723e 2cd0 9f41 5937 363f 7c54 1740
000000c0: 1e96 a33f 9a22 2240 3948 e33f 7748 2d40
000000d0: e9f9 943f d988 b43f 4a19 af41 6a8d 8b3f
000000e0: 5f72 283f 1ffc 9e3f 0da4 8c3f e555 333f
000000f0: b729 6b3f f5dd 023f cccf 9d41 f9f2 253f
00000100: f6d7 3740 d798 3040 49fb 0e40 59c7 4840
00000110: 9f8a 3a3f 7bbf 733f 9de2 ac41 3a3b 893e
00000120: 3919 9d3e 3b57 a93e 2ea3 af40 399f bf3f
00000130: d8ab 9e41 f1c5 2a41 3ea9 1f40 a676 4b3f
00000140: 502a 9040 ec1f 0e41 394e 6240 f4b6 cc3f
00000150: b221 8241 68a4 0240 855a b93f 1fb8 8440
00000160: a39b c43f d5c1 973f e2c8 0d3f ce8c b43e
00000170: 6c24 313f b049 713f c1c8 1e40 c588 d240
00000180: a771 7b3f 5b49 ab3f df42 4c40 7293 2040
00000190: a93a 1340 96e0 563f 8c6f eb3f c1be dc3e
000001a0: e78c 5e3f 5f54 0d3f b7b1 ac41 33e5 143f
000001b0: 24d0 c43f 54a6 9841 be5b 1d3f 8f60 1640
000001c0: 5bc8 9c41 bf9b 823f b963 1240 7ca9 ff3f
000001d0: 28e9 a941 c045 083f e30d 893f ccf7 953f
000001e0: 14eb a641 9a79 1e3f e5d0 ae3f 26ff f63e
000001f0: 136a aa3e e91f 883d 735f 153f a96b 2040
00000200: d918 9341 9fdd e93f 3c88 953f ce88 7641
00000210: 1074 683f 8ba6 a33f 61c1 463f 6874 cc3f
00000220: f3af 173f 9da5 243f 2b1b 2840 e0ea a541
00000230: ab96 193f 4a60 4f40 c920 273f a015 913f
00000240: 5c3c b13f f0cc a641 afda fc3e e5cc 013f
00000250: 48cf 793e 4c97 c83e dfd5 5240 4d1f 3b3f
00000260: de81 2441 3410 ce3f 6527 303e 3f09 223f
00000270: 61f2 073f 663d 0040 8330 8940 e68f 5740
00000280: d39a e53e 38af f13e a31d 133f 478a 243f
00000290: cf64 3c3f c36b 9341 96d1 a53e 1283 3240
0.5961962 0.18044539 19.377983 3.1744318 0.31578186 0.7134001 0.82193017 0.2664667
0.67245924 0.46131745 0.6382641 0.490099 0.25850734 19.429514 0.43377244 0.4492018
0.581506 1.4366268 0.36651573 1.2152042 0.22874248 0.44837844 4.8402357 1.7692102
1.4290049 3.8259697 17.831427 0.93188524 1.9383852 0.71970314 15.865889 0.582357
1.7521064 3.3100314 1.5835385 1.7755437 3.230788 5.221539 0.48693708 1.5852097
1.6599988 21.772243 0.515768 0.6755567 0.23673046 19.976646 0.71178204 2.3645315
1.2780187 2.533362 1.7756416 2.707548 1.1638767 1.4104263 21.887348 1.0902531
0.65799516 1.2420691 1.0987564 0.7005294 0.91860527 0.5111993 19.726463 0.6482387
2.8725562 2.7593286 2.2340872 3.1371672 0.7286777 0.9521405 21.610651 0.26803
0.30683306 0.33074364 5.4886694 1.4970466 19.833908 10.673326 2.4947047 0.7947792
4.505165 8.882793 3.5360243 1.5993333 16.266453 2.0412846 1.4480749 4.1474757
1.5359997 1.1856028 0.5538465 0.35263675 0.691962 0.94253063 2.481003 6.5791955
0.98220295 1.3381761 3.1915815 2.5089993 2.3004553 0.8393644 1.8393416 0.43114284
0.8693375 0.55206865 21.586775 0.5816223 1.537602 19.081215 0.6146811 2.3496435
19.59783 1.020378 2.2873366 1.9973598 21.238846 0.5323143 1.0707363 1.1716247
20.864784 0.619043 1.36575 0.48241538 0.33284053 0.066467114 0.5834877 2.506571
18.387133 1.8270758 1.16822 15.4084 0.908021 1.27852 0.7763882 1.5973024
0.5925285 0.64315206 2.6266582 20.739685 0.59995526 3.240252 0.652844 1.1334724
1.3846545 20.850067 0.49385592 0.5070327 0.24395478 0.3917793 3.2943037 0.73094636
10.281706 1.6098695 0.17202528 0.6329536 0.53104216 2.0037475 4.287172 3.3681579
0.44844684 0.47203994 0.574671 0.64273494 0.7359132 18.427618 0.32386464 2.78925
