models/36-37/coin_model_weights.pth (torch, 541892 bytes, 8 tensors)

layer1.weight f4 [128, 82]
5.945367 2.2220063 4.771928 2.2854047 2.9058402 0.5738776 3.0165472 5.8590207
3.0210502 4.675783 5.8950524 2.3105667 6.3350825 0.8987844 4.59319 8.196709
6.302961 1.4520272 7.1693625 8.2076 1.4165324 4.101772 3.5780466 7.252321
4.4712467 2.5844622 3.4945633 2.7152781 1.7402526 1.2299019 3.0866396 2.8648071
3.344372 14.273601 12.358665 11.439522 7.5262938 10.805105 9.843375 3.8850703
14.044971 11.5836735 9.709473 5.7296495 5.9909816 6.590685 6.3239493 10.823664
14.621231 6.965148 7.1626554 7.766057 7.457442 5.0127125 11.007337 9.089969
6.3206205 6.314936 3.796921 6.9394846 6.4967356 9.4656725 9.5255375 6.63784
7.3638525 7.674306 7.6062927 6.8442874 6.4910345 6.7276397 7.37175 7.798891
7.8041224 7.5902176 7.1288733 6.62761 6.959376 6.843139 7.1572495 7.243867
7.0629334 7.0697675 5.971065 2.2519736 4.7146635 2.2612135 2.965928 0.5070095
2.9331737 5.938225 3.1001267 4.644575 5.8643656 2.3935306 6.3291016 1.070216
4.598157 8.187344 6.4038625 1.5352522 7.1958475 8.156569 1.5791155 4.118196
3.6146076 7.2068214 4.5490065 2.6992164 3.660006 2.8542585 1.8036658 1.3249198
3.146851 3.0594862 3.3314197 14.353918 12.501363 11.587172 7.5011554 10.858561
9.891651 3.9701564 14.124258 11.760586 9.76336 5.836524 5.9719486 6.592105
6.376247 10.919828 14.768455 6.9084687 7.304341 7.836104 7.496042 5.0250783
10.981824 9.10751 6.458381 6.34106 3.8559053 6.9961815 6.4364424 9.507534
9.598942 6.6849437 7.4980702 7.626063 7.6951795 6.8289723 6.6349354 6.754109
7.401729 7.738077 7.6928415 7.7395487 7.060457 6.658804 6.9403033 6.8301497
7.2524076 7.094547 7.12417 7.002084 5.9570646 2.3168926 4.6303205 2.2110603
2.9296386 0.5766269 2.994349 5.788398 3.0144396 4.5478206 5.800033 2.2343369
6.357607 1.0638454 4.5486197 8.1377125 6.2943163 1.4853605 7.0789638 8.256055
1.3760731 4.0924435 3.7040434 7.228814 4.5014486 2.6164408 3.5681033 2.6974177
1.8041128 1.2054536 2.9577196 3.0498645 3.3361948 14.238452 12.483606 11.444561
7.4900813 10.887538 9.813833 4.006551 14.045944 11.74311 9.77438 5.6634097
5.9778438 6.549206 6.353266 10.857348 14.726062 7.022146 7.166192 7.87167
7.378296 5.0565295 10.988408 9.12144 6.309911 6.325351 3.7920654 6.779639
6.3687677 9.348824 9.547086 6.697984 7.32227 7.5873175 7.595964 6.8084717
6.5314064 6.6945662 7.4266815 7.7274623 7.662226 7.6999264 6.9802465 6.437822
6.8767786 6.9065948 7.1628485 7.0727654 7.0270085 7.0084167 6.0116053 2.2579777
4.716113 2.3721042 2.9992344 0.52051663 2.982266 5.8363457 3.0403185 4.589458
00000000: 7240 be40 5a35 0e40 a2b3 9840 1244 1240
00000010: 49f9 3940 a4e9 123f 1c0f 4140 197d bb40
00000020: e358 4140 04a0 9540 45a4 bc40 53e0 1340
00000030: ffb8 ca40 bc16 663f 6afb 9240 b825 0341
00000040: dbb1 c940 07dc b93f 6b6b e540 5452 0341
00000050: ef50 b53f b741 8340 b7fe 6440 0313 e840
00000060: 7414 8f40 d467 2540 eda6 5f40 1ec7 2d40
00000070: 99c0 de3f 6d6d 9d3f 818b 4540 0059 3740
00000080: 310a 5640 ab60 6441 18bd 4541 4808 3741
00000090: 66d7 f040 b6e1 2c41 777e 1d41 fea4 7840
000000a0: 34b8 6041 ba56 3941 005a 1b41 4a59 b740
000000b0: 1fb6 bf40 e4e6 d240 cb5d ca40 ba2d 2d41
000000c0: 90f0 6941 7ee2 de40 7934 e540 8a83 f840
000000d0: 5da3 ee40 2468 a040 0d1e 3041 8370 1141
000000e0: 8642 ca40 f513 ca40 c100 7340 4210 de40
000000f0: 42e5 cf40 6573 1741 9a68 1841 2f69 d440
00000100: aea4 eb40 ea93 f540 c066 f340 6704 db40
00000110: 8eb6 cf40 d348 d740 60e5 eb40 8490 f940
00000120: 5fbb f940 10e3 f240 bb1f e440 6215 d440
00000130: 35b3 de40 fffa da40 3008 e540 c2cd e740
00000140: 8d03 e240 893b e240 f712 bf40 5620 1040
00000150: 86de 9640 b9b7 1040 c4d1 3d40 60cb 013f
00000160: 1eb9 3b40 f005 be40 7a68 4640 5ca0 9440
00000170: e2a8 bb40 9b2f 1940 0088 ca40 d6fc 883f
00000180: 1a24 9340 5cff 0241 71ec cc40 2583 c43f
00000190: 6244 e640 4e81 0241 7520 ca3f 43c8 8340
000001a0: bb55 6740 489e e640 7691 9140 f6bf 2c40
000001b0: 8a3d 6a40 2cac 3640 85de e63f f996 a93f
000001c0: 0266 4940 9fce 4340 fb35 5540 a6a9 6541
000001d0: 9505 4841 0e65 3941 7709 f040 aabc 2d41
000001e0: 3444 1e41 0b17 7e40 f6fc 6141 5c2b 3c41
000001f0: b936 1c41 cec4 ba40 341a bf40 86f2 d240
00000200: 370a cc40 9eb7 2e41 974b 6c41 2d12 dd40
00000210: 29bd e940 5dc1 fa40 93df ef40 71cd a040
00000220: 8db5 2f41 5cb8 1141 0fab ce40 f7e9 ca40
00000230: 27c7 7640 b8e0 df40 56f7 cd40 dc1e 1841
00000240: 4495 1941 0feb d540 31f0 ef40 b508 f440
00000250: e93e f640 f186 da40 6451 d440 a921 d840
00000260: f7da ec40 549e f740 c22b f640 62aa f740
00000270: 44ef e140 ec14 d540 f716 de40 9690 da40
00000280: b913 e840 8706 e340 33f9 e340 1211 e040
00000290: 46a0 be40 f847 1440 962b 9440 0382 0d40
000002a0: 337f 3b40 d29d 133f 6aa3 3f40 8e3a b940
000002b0: 94ec 4040 bf87 9140 df99 b940 60ff 0e40
000002c0: 8471 cb40 162c 883f 4b8e 9140 1234 0241
000002d0: 0a6b c940 4b20 be3f df86 e240 cd18 0441
000002e0: 2a23 b03f 4cf5 8240 0c0f 6d40 7252 e740
000002f0: de0b 9040 c473 2740 ce5b 6440 7ea2 2c40
00000300: 2bed e63f 4e4c 9a3f 474b 3d40 fb30 4340
00000310: 3784 5540 b3d0 6341 dabc 4741 ec1c 3741
00000320: bfae ef40 5b33 2e41 7605 1d41 aa35 8040
00000330: 30bc 6041 c7e3 3b41 dc63 1c41 a73a b540
00000340: 7f4a bf40 1893 d140 f44d cb40 b3b7 2d41
00000350: f39d 6b41 6cb5 e040 7251 e540 b8e4 fb40
00000360: 001b ec40 17cf a140 85d0 2f41 6bf1 1141
00000370: caea c940 4769 ca40 33b1 7240 cdf2 d840
00000380: f2cc cb40 c894 1541 ddc0 1841 e355 d640
00000390: 0950 ea40 4ecb f240 2312 f340 00df d940
000003a0: 4801 d140 e339 d640 60a7 ed40 5f47 f740
000003b0: f530 f540 cc65 f640 2e5e df40 a302 ce40
000003c0: 920e dc40 d302 dd40 0e36 e540 1854 e240
000003d0: 41dd e040 f344 e040 125f c040 b582 1040
000003e0: 66ea 9640 8ed0 1740 75f3 3f40 9440 053f
000003f0: 72dd 3e40 58c3 ba40 9494 4240 d7dc 9240

layer1.bias f4 [128]
6.8049836 6.9367294 6.874199 6.8624287 6.8952065 6.9342823 6.846154 6.787468
6.778922 6.9218187 6.8409405 6.8382196 6.819014 6.910572 6.8907194 6.8843813
6.8018894 6.936663 6.843701 6.9114656 6.850832 6.7788744 6.83058 6.8212833
6.88239 6.874144 6.9360466 6.8040447 6.8526673 6.9026303 6.9087486 6.7840815
6.8401103 6.893016 6.8982015 6.9091625 6.7986403 3.0633488 6.784312 6.7729044
6.90979 6.818243 6.933835 6.833146 6.885993 6.901124 6.9279795 6.8358545
3.0919042 1.4593769 6.8258314 6.795498 6.7955446 6.806713 6.914797 6.784482
6.905704 6.857788 6.8020115 6.818939 6.8536787 6.882084 6.910451 6.7895174
6.8189754 6.851472 6.936534 6.8948107 6.8189487 6.9363675 6.888666 2.7528467
6.886532 6.870287 6.8471456 6.8368893 6.810337 6.878417 6.8310385 6.7971954
6.8709044 6.8883214 6.828814 6.80266 6.8100486 6.8740754 6.897649 6.7661057
6.778452 6.8289595 6.905968 6.8052063 6.783966 6.80634 6.7744303 6.903201
6.822012 6.932843 6.8060827 6.919081 6.838359 6.933358 6.8838387 6.882637
6.8999534 6.815632 6.8185196 6.8334703 6.804878 6.9121246 1.8803431 6.7985077
6.802679 6.842428 6.846567 6.8880963 6.794401 6.922847 6.833691 6.8318586
6.820211 6.839448 6.8743234 6.8662863 6.845072 6.7862573 6.8290396 3.047867
00000000: 6dc2 d940 b0f9 dd40 70f9 db40 0499 db40
00000010: 88a5 dc40 a4e5 dd40 b213 db40 f032 d940
00000020: eeec d840 8a7f dd40 fce8 da40 b2d2 da40
00000030: 5d35 da40 6823 dd40 c680 dc40 da4c dc40
00000040: 14a9 d940 25f9 dd40 99ff da40 ba2a dd40
00000050: 043a db40 8aec d840 1d94 da40 f447 da40
00000060: 8a3c dc40 fdf8 db40 18f4 dd40 bcba d940
00000070: 0d49 db40 59e2 dc40 7814 dd40 3217 d940
00000080: 2fe2 da40 9693 dc40 11be dc40 dc17 dd40
00000090: 768e d940 e80d 4440 1519 d940 a2bb d840
000000a0: 001d dd40 0c2f da40 fae1 dd40 22a9 da40
000000b0: 0e5a dc40 02d6 dc40 02b2 dd40 52bf da40
000000c0: c2e1 4540 ddcc ba3f 366d da40 b874 d940
000000d0: 1a75 d940 98d0 d940 0446 dd40 7a1a d940
000000e0: 87fb dc40 0073 db40 14aa d940 c034 da40
000000f0: 5651 db40 083a dc40 6a22 dd40 ba43 d940
00000100: 0c35 da40 423f db40 16f8 dd40 4aa2 dc40
00000110: d434 da40 b9f6 dd40 f46f dc40 a42e 3040
00000120: 785e dc40 64d9 db40 d11b db40 ccc7 da40
00000130: 48ee d940 fe1b dc40 de97 da40 a082 d940
00000140: 73de db40 216d dc40 a585 da40 64af d940
00000150: ebeb d940 6df8 db40 8ab9 dc40 f083 d840
00000160: 14e9 d840 d686 da40 b1fd dc40 40c4 d940
00000170: 4016 d940 8acd d940 22c8 d840 06e7 dc40
00000180: ec4d da40 dad9 dd40 6ecb d940 1d69 dd40
00000190: d6d3 da40 12de dd40 6848 dc40 903e dc40
000001a0: 6bcc dc40 a819 da40 5031 da40 caab da40
000001b0: 90c1 d940 2030 dd40 15af f03f 608d d940
000001c0: 8caf d940 2cf5 da40 1417 db40 496b dc40
000001d0: bc6b d940 f687 dd40 99ad da40 969e da40
000001e0: 2b3f da40 c2dc da40 75fa db40 9eb8 db40
000001f0: d40a db40 0529 d940 7e87 da40 4110 4340

layer2.weight f4 [256, 128]
-0.030171026 0.04360498 -0.04642714 0.049393296 -0.02825076 0.013531121 0.018440591 0.03375021
0.048330534 0.011434118 -0.05927504 -0.030745927 0.017919645 -0.014920337 0.019187493 -0.04319213
0.018689347 -0.014166665 0.0032096272 0.026412658 0.00074436044 -0.058029093 -0.041464187 0.057746924
0.03294608 -0.016338218 -0.04784954 0.028281214 0.018669957 0.011374104 -0.025149059 -0.023507856
0.025320023 -0.048471615 -0.054509923 -0.043863457 0.032279763 0.038905576 -0.016705353 0.0030996874
-0.013878067 0.023910625 0.018761432 0.017861495 -0.008083255 0.04970575 -0.03967258 0.013913862
-0.017823737 -0.04987266 -0.041112863 -0.051467724 -0.021292156 -0.012549957 0.040602587 -0.051511608
-0.04931801 -0.0058649885 0.034575146 -0.029448625 -0.031823225 -0.012613485 0.046174377 0.04648865
0.02279958 -0.032779455 -0.0075503634 -0.0037305192 -0.034909017 -0.05810938 -0.051619165 0.029952716
-0.026439741 0.016846307 -0.059368126 0.026772648 0.038458098 -0.043476384 0.025776893 0.015166538
0.035303745 0.039337 0.016315423 -0.03395149 0.0600762 -0.025842551 0.0155761065 -0.0017621102
0.025921308 -0.043673422 0.051964335 -0.042206015 -0.05408576 0.027712595 -0.0067573744 -0.012082079
0.007889663 0.027068855 0.010083025 0.018814163 -0.05640699 -0.020169882 -0.046867345 0.051863983
-0.05085946 -0.022223642 -0.04127203 0.041057594 -0.013368345 -0.023781888 -0.033210147 0.017654704
0.046672013 0.008685669 -0.052781872 -0.049991474 -0.022334976 0.008507091 -0.035923522 -0.018052137
0.03427448 0.008215142 -0.038874265 0.012564408 -0.054950252 0.009901367 -0.035768326 0.05447038
8.444246 8.423313 8.464664 8.357263 8.415853 8.4508095 8.399682 8.416753
8.47258 8.424124 8.42019 8.393588 8.320183 8.382525 8.452915 8.3988905
8.404369 8.395281 8.443341 8.415977 8.339436 8.373176 8.384295 8.347926
8.434214 8.350506 8.384495 8.363152 8.3784685 8.463807 8.391571 8.410463
8.372059 8.395805 8.400693 8.402377 8.413663 -20.975077 8.422366 8.538699
8.431486 8.499009 8.387427 8.375169 8.369894 8.445801 8.426662 8.495221
-21.591492 -10.384829 8.459842 8.408422 8.489505 8.374005 8.392896 8.506826
8.342853 8.427374 8.369665 8.48112 8.439197 8.390074 8.35609 8.46038
8.431159 8.421631 8.443018 8.361992 8.394761 8.33709 8.389955 -19.600079
8.346819 8.488756 8.435971 8.3767805 8.404408 8.352723 8.386909 8.414392
8.472972 8.393297 8.474315 8.422782 8.540712 8.336582 8.453494 8.451885
8.432002 8.48108 8.405867 8.450293 8.435957 8.433737 8.491863 8.4162
8.394541 8.395286 8.3881235 8.329829 8.413917 8.432601 8.384184 8.375715
8.396236 8.45117 8.496632 8.436851 8.418228 8.453068 -13.791054 8.475881
8.41261 8.432101 8.432083 8.387489 8.4545355 8.42064 8.381624 8.376646
8.44004 8.333359 8.512359 8.411279 8.366771 8.380345 8.408441 -22.024885
00000000: 3a29 f7bc 239b 323d 622a 3ebd a050 4a3d
00000010: 236e e7bc a3b1 5d3c b910 973c a93d 0a3d
00000020: 3df6 453d 2b56 3b3c 62ca 72bd e2de fbbc
00000030: 38cc 923c 6e74 74bc 172f 9d3c 3bea 30bd
00000040: 671a 993c 4d1b 68bc 9c58 523b 5c5f d83c
00000050: 2f21 433a eaaf 6dbd 5ad6 29bd 0a88 6c3d
00000060: 78f2 063d bad7 85bc e1fd 43bd 01ae e73c
00000070: bdf1 983c 735a 3a3c 6605 cebc 8c93 c0bc
00000080: f06b cf3c 2c8a 46bd cc45 5fbd 2baa 33bd
00000090: c937 043d 745b 1f3d aad9 88bc 2024 4b3b
000000a0: d560 63bc 37e0 c33c 93b1 993c 4552 923c
000000b0: a16f 04bc 4298 4b3d b77f 22bd f8f6 633c
000000c0: 1603 92bc 4647 4cbd f665 28bd d2cf 52bd
000000d0: e36c aebc 569e 4dbc e64e 263d d6fd 52bd
000000e0: af01 4abd 172f c0bb ab9e 0d3d 3e3e f1bc
000000f0: 1259 02bd caa8 4ebc 5821 3d3d e26a 3e3d
00000100: 2fc6 ba3c c043 06bd 0a69 f7bb ba7b 74bb
00000110: c2fc 0ebd 1a04 6ebd 9e6e 53bd 665f f53c
00000120: 2898 d8bc 4401 8a3c fe2b 73bd 5052 db3c
00000130: 3d86 1d3d 4b14 32bd 102a d33c 127d 783c
00000140: a99a 103d d61f 213d eca7 853c b810 0bbd
00000150: 7612 763d c2b3 d3bc ed32 7f3c 9bf6 e6ba
00000160: ec58 d43c e7e2 32bd 8ed8 543d 37e0 2cbd
00000170: 0889 5dbd 8605 e33c f76c ddbb eaf3 45bc
00000180: a543 013c 81bf dd3c 4633 253c 2920 9a3c
00000190: 040b 67bd 4f3b a5bc f9f7 3fbd 546f 543d
000001a0: 0252 50bd 5b0e b6bc dc0c 29bd 022c 283d
000001b0: e706 5bbc 3cd2 c2bc 5d07 08bd 99a0 903c
000001c0: 272b 3f3d 564e 0e3c ce31 58bd dcc3 4cbd
000001d0: d7f7 b6bc 5361 0b3c 8b24 13bd 13e2 93bc
000001e0: 6663 0c3d ce98 063c 9f3a 1fbd f2da 4d3c
000001f0: 8413 61bd 5839 223c cf81 12bd 551c 5f3d
00000200: a21b 0741 e4c5 0641 446f 0741 59b7 0541
00000210: 55a7 0641 8436 0741 1965 0641 05ab 0641
00000220: b08f 0741 36c9 0641 19b9 0641 234c 0641
00000230: 781f 0541 d31e 0641 243f 0741 db61 0641
00000240: 4c78 0641 1253 0641 ed17 0741 d7a7 0641
00000250: 546e 0541 87f8 0541 1326 0641 1b91 0541
00000260: 8af2 0641 ac9b 0541 e426 0641 78cf 0541
00000270: 350e 0641 c16b 0741 e043 0641 4291 0641
00000280: f4f3 0541 3855 0641 3d69 0641 2370 0641
00000290: 5d9e 0641 f5cc a7c1 03c2 0641 839e 0841
000002a0: 5ee7 0641 f1fb 0741 e732 0641 b100 0641
000002b0: 16eb 0541 0022 0741 9cd3 0641 6dec 0741
000002c0: 60bb acc1 4228 26c1 835b 0741 e688 0641
000002d0: 03d5 0741 edfb 0541 4d49 0641 f61b 0841
000002e0: 537c 0541 86d6 0641 26ea 0541 abb2 0741
000002f0: f306 0741 be3d 0641 8bb2 0541 b75d 0741
00000300: 07e6 0641 00bf 0641 9a16 0741 b8ca 0541
00000310: f150 0641 b864 0541 413d 0641 f6cc 9cc1
00000320: 928c 0541 f2d1 0741 bdf9 0641 4b07 0641
00000330: 7578 0641 c1a4 0541 c730 0641 5aa1 0641
00000340: 4b91 0741 f24a 0641 cb96 0741 b7c3 0641
00000350: c2a6 0841 a462 0541 8341 0741 ec3a 0741
00000360: 7be9 0641 81b2 0741 6e7e 0641 6634 0741
00000370: aef9 0641 96f0 0641 acde 0741 c1a8 0641
00000380: 0a50 0641 1753 0641 c135 0641 fb46 0541
00000390: 679f 0641 efeb 0641 9e25 0641 ee02 0641
000003a0: fc56 0641 fe37 0741 34f2 0741 57fd 0641
000003b0: 10b1 0641 c43f 0741 28a8 5cc1 359d 0741
000003c0: 0d9a 0641 e3e9 0641 d0e9 0641 2833 0641
000003d0: c745 0741 f1ba 0641 221b 0641 be06 0641
000003e0: 670a 0741 7055 0541 9f32 0841 9994 0641
000003f0: 4bde 0541 e515 0641 f988 0641 f732 b0c1

layer2.bias f4 [256]
-0.057444476 7.28705 7.2626038 7.2375336 7.2382216 7.1836524 7.2384315 7.193331
7.2960157 7.267754 7.178749 7.2523413 7.179556 7.253093 7.196316 7.2236357
7.280939 7.208685 7.1861987 7.279028 1.4354438 7.196306 7.272128 7.202726
7.228047 7.198984 7.1866093 7.279454 7.2643504 7.2002845 7.256411 7.272695
7.2113953 7.19605 7.1787324 7.2415648 7.2061286 7.1771274 7.191702 7.183517
7.2451167 7.2496758 7.2932878 7.278238 7.2729 7.249389 7.196151 7.2381816
7.230411 7.216717 7.25493 7.2913895 7.198125 7.22303 7.259716 7.26698
7.1967707 7.2442107 -0.0325055 7.2709804 7.20429 7.193321 7.282668 7.2022
7.2938504 7.2407475 7.2323246 7.2726192 7.244764 7.2378263 7.2654586 7.227727
7.232595 7.2572837 7.1894493 7.2481403 7.2361407 7.2047763 7.276798 7.2721395
7.273616 7.2578726 -0.024432769 7.189168 7.2183495 7.225633 7.2106795 0.05275327
1.3848023 7.2657146 7.2308116 7.2663455 7.2564206 7.2344 7.209017 7.2298107
7.187313 7.2382746 7.184017 7.1949205 7.2617297 7.2529583 7.2713194 7.252543
7.175189 7.2465887 7.2841344 7.2728624 7.185865 7.196696 7.239813 7.203046
-0.052782334 -0.052408054 7.2806697 7.2092457 7.2653537 7.2773137 7.172876 7.251539
7.191888 7.2849994 7.218081 7.2469954 7.2966986 7.1847377 7.216068 0.028428093
7.2562366 7.287014 7.2668986 7.1851115 7.2214847 7.2445254 7.270265 -0.0025451244
7.2559843 7.2229066 7.221717 7.235567 7.2601113 7.25205 7.2255 -0.056569412
7.267154 7.1841326 -0.046571173 7.2453127 7.2242284 7.250243 7.21114 7.248093
7.190159 7.2766895 7.210065 7.183042 7.280773 1.2854998 7.2909627 7.231088
7.2218385 7.2357907 7.2818317 -0.02936345 7.1752367 7.1759067 7.2072463 7.2180037
7.2551355 7.200809 7.2659354 -0.051422 7.2203693 7.212482 7.205265 -0.020866234
7.250057 7.174211 7.2121344 7.2304025 7.2516875 7.2793922 0.04460032 7.2816024
7.2680116 7.232504 7.272335 -0.051607125 7.2298293 7.2781787 7.2059546 1.666635
7.2335443 7.2675757 7.2476344 7.2326527 7.1918826 7.288763 7.225822 7.22605
7.2900634 7.200287 7.275806 7.2812767 7.2535048 7.2690444 7.2636943 7.2236657
7.202013 -0.052923836 7.2378216 7.291889 7.2048697 7.2672973 7.233232 7.1961126
7.2890525 7.235898 7.241498 7.254814 7.2405114 7.2866015 7.2902617 7.27857
7.258112 7.2391186 7.272643 7.224491 7.227088 7.2889433 7.2543297 7.2085056
7.178539 7.283968 -0.05391017 -0.045503955 7.255705 7.272295 7.211672 7.257667
7.2155404 7.1729765 7.2978516 7.2552814 7.2256556 7.2456303 7.287289 7.221332
0.039972704 7.2681236 7.2297244 7.257843 7.2649055 7.2281985 7.2101984 7.259445
00000000: e64a 6bbd 832f e940 4067 e840 e099 e740
00000010: 839f e740 7be0 e540 3ba1 e740 c42f e640
00000020: f678 e940 7191 e840 50b8 e540 2e13 e840
00000030: ecbe e540 5619 e840 3848 e640 0628 e740
00000040: 74fd e840 8cad e640 57f5 e540 cced e840
00000050: 9fbc b73f 2448 e640 46b5 e840 bb7c e640
00000060: 294c e740 145e e640 b4f8 e540 4af1 e840
00000070: 8f75 e840 bb68 e640 8534 e840 ebb9 e840
00000080: c0c3 e640 0b46 e640 2db8 e540 e6ba e740
00000090: 9b98 e640 07ab e540 6c22 e640 5fdf e540
000000a0: ffd7 e740 58fd e740 9d62 e940 53e7 e840
000000b0: 99bb e840 fffa e740 de46 e640 2f9f e740
000000c0: 875f e740 58ef e640 6328 e840 1053 e940
000000d0: 0a57 e640 1023 e740 984f e840 1a8b e840
000000e0: f24b e640 93d0 e740 7d24 05bd dfab e840
000000f0: 8b89 e640 b02f e640 9e0b e940 6c78 e640
00000100: 3967 e940 34b4 e740 346f e740 4cb9 e840
00000110: 1bd5 e740 469c e740 a37e e840 8a49 e740
00000120: 6b71 e740 ab3b e840 f80f e640 c4f0 e740
00000130: 778e e740 878d e640 87db e840 5eb5 e840
00000140: 76c1 e840 7e40 e840 3b27 c8bc aa0d e640
00000150: b8fc e640 6338 e740 e3bd e640 d013 583d
00000160: 3441 b13f bc80 e840 cf62 e740 e785 e840
00000170: 9934 e840 3480 e740 44b0 e640 9c5a e740
00000180: 78fe e540 f29f e740 78e3 e540 ca3c e640
00000190: 1760 e840 3c18 e840 a6ae e840 d514 e840
000001a0: 269b e540 0ee4 e740 a117 e940 4abb e840
000001b0: 9bf2 e540 554b e640 8cac e740 5a7f e640
000001c0: 4a32 58bd d4a9 56bd 3ffb e840 24b2 e640
000001d0: c77d e840 c1df e840 3388 e540 9c0c e840
000001e0: f223 e640 b71e e940 85fa e640 63e7 e740
000001f0: 8e7e e940 5fe9 e540 07ea e640 08e2 e83c
00000200: 1733 e840 382f e940 6f8a e840 6fec e540
00000210: 6716 e740 27d3 e740 03a6 e840 1acc 26bb
00000220: 0631 e840 0d22 e740 4e18 e740 c489 e740
00000230: d552 e840 cb10 e840 4c37 e740 54b5 67bd
00000240: 878c e840 6ae4 e540 6ac1 3ebd 9ad9 e740
00000250: e12c e740 fe01 e840 a9c1 e640 61f0 e740
00000260: c815 e640 a4da e840 dab8 e640 7bdb e540
00000270: 18fc e840 428b a43f 914f e940 1365 e740
00000280: 4d19 e740 998b e740 c404 e940 9e8b f0bc
00000290: 8a9b e540 07a1 e540 c3a1 e640 e3f9 e640
000002a0: 122a e840 076d e640 8b82 e840 e09f 52bd
000002b0: 440d e740 a7cc e640 8891 e640 aaef aabc
000002c0: 7800 e840 2393 e540 cec9 e640 755f e740
000002d0: d30d e840 c8f0 e840 d3ae 363d e302 e940
000002e0: 8d93 e840 ac70 e740 f8b6 e840 fe61 53bd
000002f0: c35a e740 d7e6 e840 2e97 e640 4c54 d53f
00000300: 3279 e740 fb8f e840 9fec e740 e471 e740
00000310: e723 e640 8c3d e940 ef39 e740 cd3b e740
00000320: 3348 e940 c068 e640 67d3 e840 3800 e940
00000330: b61c e840 039c e840 2f70 e840 4528 e740
00000340: e476 e640 aac6 58bd 3c9c e740 2857 e940
00000350: 4b8e e640 b38d e840 a376 e740 8e46 e640
00000360: eb3f e940 7a8c e740 5aba e740 7027 e840
00000370: 45b2 e740 d72b e940 d349 e940 0cea e840
00000380: 7442 e840 dca6 e740 7eb9 e840 082f e740
00000390: 4e44 e740 063f e940 7823 e840 14ac e640
000003a0: 97b6 e540 4416 e940 e9d0 5cbd 5b62 3abd
000003b0: bc2e e840 a4b6 e840 04c6 e640 cf3e e840
000003c0: b5e5 e640 0689 e540 0088 e940 442b e840
000003d0: 9238 e740 34dc e740 7931 e940 2715 e740
000003e0: 6bba 233d 7894 e840 e759 e740 4040 e840
000003f0: 1b7a e840 674d e740 f2b9 e640 604d e840

layer3.weight f4 [256, 256]
-0.030995134 8.384967 8.377414 8.425975 8.366184 8.360027 8.391222 8.410964
8.414011 8.409542 8.370866 8.380318 8.366757 8.37523 8.384485 8.383361
8.378797 8.413858 8.335667 8.388415 -18.553858 8.332349 8.349677 8.430023
8.386061 8.394837 8.329411 8.4006405 8.409044 8.4000435 8.354131 8.409224
8.383659 8.33581 8.438735 8.4023485 8.336368 8.433784 8.375253 8.399125
8.347893 8.402925 8.427712 8.388636 8.3449955 8.398964 8.371749 8.380594
8.435731 8.374361 8.432977 8.359075 8.354645 8.406916 8.347894 8.424969
8.413649 8.37227 0.04195094 8.362293 8.416015 8.414215 8.4248705 8.360681
8.406472 8.392135 8.432794 8.360786 8.396846 8.432921 8.38645 8.394339
8.373322 8.359215 8.380651 8.393497 8.381319 8.40784 8.384627 8.363982
8.419781 8.362925 -0.029756177 8.362285 8.385592 8.403672 8.420745 0.042156156
-18.522692 8.374099 8.412313 8.412155 8.375569 8.424762 8.360912 8.366509
8.389649 8.374245 8.360319 8.413863 8.39519 8.405907 8.420002 8.417797
8.369331 8.408179 8.391709 8.363328 8.4032545 8.417401 8.356937 8.397629
-0.011385187 -0.028262764 8.370409 8.345958 8.372073 8.392049 8.395262 8.418694
8.356783 8.369284 8.386487 8.387379 8.358088 8.368435 8.422663 0.024089932
8.432857 8.384924 8.404613 8.362178 8.383111 8.396014 8.411285 -0.035976384
8.368301 8.369637 8.383723 8.403301 8.344927 8.356246 8.373652 0.010309444
8.366423 8.387537 0.028819691 8.34598 8.353682 8.405432 8.375983 8.397752
8.366737 8.428248 8.369495 8.424416 8.419452 -18.428467 8.414556 8.399363
8.413787 8.395416 8.380927 0.028580826 8.35825 8.386594 8.345853 8.419304
8.409309 8.425654 8.388443 0.0063429894 8.35719 8.37965 8.42599 0.017362349
8.363925 8.393947 8.422231 8.357811 8.351226 8.3617325 -0.003797012 8.340678
8.3873 8.363858 8.359894 -0.04082167 8.372445 8.409357 8.451404 -18.507797
8.393512 8.354093 8.375649 8.386745 8.386121 8.392726 8.361835 8.364382
8.380593 8.369141 8.437962 8.424187 8.411144 8.342783 8.4031105 8.341036
8.364106 -0.015018309 8.356446 8.400597 8.358404 8.436085 8.406115 8.37657
8.383836 8.377513 8.349875 8.415999 8.348908 8.408452 8.4257145 8.355399
8.409247 8.390079 8.404408 8.377335 8.413496 8.333369 8.393651 8.378267
8.403569 8.395729 -0.04187828 -0.0029465666 8.376283 8.386526 8.342716 8.397044
8.391409 8.348346 8.342248 8.362369 8.36565 8.353388 8.420453 8.407339
-0.018139102 8.384151 8.360658 8.41901 8.405714 8.398888 8.406519 8.394804
00000000: 82e9 fdbc d328 0641 e309 0641 cbd0 0641
00000010: e4db 0541 acc2 0541 7242 0641 4f93 0641
00000020: ca9f 0641 7c8d 0641 11ef 0541 c815 0641
00000030: 3dde 0541 f100 0641 da26 0641 3f22 0641
00000040: 8d0f 0641 2a9f 0641 e45e 0541 f336 0641
00000050: 4d6e 94c1 4d51 0541 4798 0541 60e1 0641
00000060: 4e2d 0641 4151 0641 4445 0541 0669 0641
00000070: 728b 0641 9466 0641 85aa 0541 2e8c 0641
00000080: 7823 0641 7a5f 0541 0f05 0741 0570 0641
00000090: c361 0541 c7f0 0641 0901 0641 d162 0641
000000a0: f890 0541 6172 0641 e9d7 0641 da37 0641
000000b0: 1a85 0541 2862 0641 aff2 0541 ea16 0641
000000c0: c1f8 0641 62fd 0541 79ed 0641 c5be 0541
000000d0: a0ac 0541 ba82 0641 f990 0541 accc 0641
000000e0: 4e9e 0641 d1f4 0541 c0d4 2b3d f4cb 0541
000000f0: ffa7 0641 a0a0 0641 45cc 0641 59c5 0541
00000100: e980 0641 2f46 0641 b9ec 0641 c8c5 0541
00000110: 7b59 0641 3fed 0641 e62e 0641 364f 0641
00000120: 20f9 0541 58bf 0541 2617 0641 c44b 0641
00000130: e219 0641 8386 0641 6f27 0641 dfd2 0541
00000140: 6cb7 0641 8ace 0541 3ac3 f3bc ebcb 0541
00000150: 632b 0641 7175 0641 5fbb 0641 efab 2c3d
00000160: 792e 94c1 4ffc 0541 d698 0641 3098 0641
00000170: 5502 0641 d3cb 0641 4cc6 0541 39dd 0541
00000180: 013c 0641 e8fc 0541 dec3 0541 2f9f 0641
00000190: b352 0641 987e 0641 54b8 0641 4caf 0641
000001a0: c8e8 0541 e787 0641 7144 0641 31d0 0541
000001b0: bb73 0641 adad 0641 04b6 0541 b05c 0641
000001c0: ef88 3abc 5087 e7bc 32ed 0541 0b89 0541
000001d0: 03f4 0541 d545 0641 fe52 0641 f8b2 0641
000001e0: 62b5 0541 96e8 0541 0d2f 0641 b432 0641
000001f0: baba 0541 1ce5 0541 3ac3 0641 4058 c53c
00000200: fbec 0641 a628 0641 4b79 0641 7bcb 0541
00000210: 3921 0641 1356 0641 a094 0641 f95b 13bd
00000220: 90e4 0541 08ea 0541 bb23 0641 ec73 0641
00000230: d284 0541 2fb3 0541 7bfa 0541 f1e8 283c
00000240: dedc 0541 5a33 0641 4617 ec3c 2289 0541
00000250: aea8 0541 a67c 0641 0704 0641 315d 0641
00000260: 28de 0541 1bda 0641 74e9 0541 68ca 0641
00000270: 13b6 0641 806d 93c1 05a2 0641 ca63 0641
00000280: df9e 0641 a053 0641 4718 0641 5622 ea3c
00000290: 64bb 0541 7d2f 0641 9d88 0541 78b5 0641
000002a0: 888c 0641 7bcf 0641 1037 0641 dad8 cf3b
000002b0: 0db7 0541 0c13 0641 dbd0 0641 7c3b 8e3c
000002c0: a3d2 0541 9b4d 0641 75c1 0641 98b9 0541
000002d0: 9f9e 0541 a8c9 0541 4ad7 78bb 6b73 0541
000002e0: 6132 0641 5dd2 0541 20c2 0541 a034 27bd
000002f0: 89f5 0541 ba8c 0641 f338 0741 f80f 94c1
00000300: d34b 0641 5daa 0541 a902 0641 1c30 0641
00000310: 8d2d 0641 9b48 0641 13ca 0541 82d4 0541
00000320: e916 0641 00e8 0541 e401 0741 78c9 0641
00000330: 0c94 0641 0a7c 0541 2473 0641 e274 0541
00000340: 61d3 0541 5a0f 76bc 01b4 0541 d868 0641
00000350: 06bc 0541 34fa 0641 727f 0641 6e06 0641
00000360: 3124 0641 4b0a 0641 1799 0541 efa7 0641
00000370: 2195 0541 0589 0641 bacf 0641 b7af 0541
00000380: 478c 0641 c33d 0641 7578 0641 9009 0641
00000390: ae9d 0641 7b55 0541 654c 0641 620d 0641
000003a0: 0575 0641 e854 0641 8f88 2bbd 2f1b 41bb
000003b0: 4105 0641 362f 0641 c47b 0541 4b5a 0641
000003c0: 3643 0641 d392 0541 d979 0541 43cc 0541
000003d0: b4d9 0541 7aa7 0541 2dba 0641 7684 0641
000003e0: 7498 94bc 7c25 0641 41c5 0541 44b4 0641
000003f0: ce7d 0641 d861 0641 1a81 0641 1e51 0641

layer3.bias f4 [256]
7.785965 0.017243162 7.7488933 -0.02824939 7.77091 7.8097043 7.732118 7.791345
0.0074734697 7.7889514 7.739108 0.013393528 7.8131657 -0.03632384 7.81911 7.848777
7.837487 7.814434 7.7733116 7.891893 -0.015218834 7.862369 7.8277216 -0.021857789
-0.03377962 0.0395487 7.741784 7.725686 -0.031982537 7.8192306 7.7227883 7.86417
7.7881618 -0.021086182 7.7745357 7.8022704 7.7667117 7.772714 7.7478757 7.7590675
0.0019561434 7.8072577 7.812904 -0.015252569 7.825092 7.781989 7.859708 7.87569
7.771002 7.863453 7.806721 7.7766004 7.734519 7.7578 7.7876544 7.8494883
-0.038444575 7.7609353 7.7824683 7.868622 -0.006943164 7.8633547 7.8599725 7.75849
0.011015701 7.738806 7.820248 7.8529363 -0.037245926 7.7721305 7.763932 7.9281135
-0.030644171 7.783377 7.835189 7.792119 0.033096187 7.7971015 -0.014385356 7.793302
7.801473 7.80294 7.775923 7.843707 -0.04242311 7.783103 0.039117835 0.010610248
0.024402099 7.8092117 -0.0424139 7.7820888 7.772952 7.800358 7.7958803 7.8248067
-3.614542e-05 -0.037497643 7.81174 7.7935286 -0.02602354 7.772173 -0.023755241 7.721456
7.840148 -0.004586115 7.7364144 7.794886 7.7888846 7.8087687 7.6769414 0.015245634
-0.023904148 7.812453 7.750504 7.7836065 7.83351 7.7927313 7.798606 7.7636824
7.771036 -0.042501908 -0.03790232 7.7752 7.848593 0.0048912126 7.743514 7.7608852
7.734612 7.7656603 7.733557 0.015835958 7.8344717 7.8165407 7.79849 7.815696
-0.027274659 -0.03315292 7.8591065 7.816639 7.7893972 7.817933 4.336058 7.775839
7.827206 7.767142 7.8340793 7.83488 7.845533 0.039860684 7.803707 7.8087316
7.8050017 0.0011883661 7.847257 7.8109946 7.811811 -0.029574785 0.03419607 7.7512054
-0.022247171 7.8716636 7.7604723 7.7954307 7.769905 7.840128 7.765367 7.7685137
7.8136744 -0.017966641 7.833918 7.7483664 7.773011 7.7515206 7.895798 0.037002064
0.0035938756 7.744134 7.763318 7.793351 -0.014445582 7.7315626 7.7281213 7.832864
7.742141 -0.00025995352 0.0016231581 7.820349 7.88107 7.8113585 7.8583884 0.018219195
-0.02106079 7.785834 7.830239 7.587279 7.878034 0.02569158 7.7731376 7.698659
7.897814 -0.015071219 -0.041519567 7.773105 7.83656 -0.04475383 7.752656 -0.009677611
-0.019408515 7.7880745 -0.042079534 -0.028236631 7.702162 -0.033960037 7.8185844 7.767965
-0.005480915 -0.036274668 7.764901 7.8030086 7.728416 7.8389525 7.799472 7.7215695
7.724349 7.768067 7.729361 7.8181906 0.026068013 -0.026938275 -0.031876065 7.871303
7.828736 7.768717 7.7485647 7.7666645 7.792824 7.831574 7.7883706 7.816554
7.8172216 7.727121 7.771015 7.754441 7.7746754 7.742435 0.011477093 7.8389144
7.831927 7.887856 -0.019426433 -0.021429105 7.759715 -0.0018818087 7.846849 7.762219
00000000: a026 f940 8841 8d3c eff6 f740 446b e7bc
00000010: 4bab f840 19e9 f940 836d f740 b352 f940
00000020: 02e4 f43b 173f f940 c6a6 f740 8770 5b3c
00000030: 7405 fa40 4fc8 14bd 2636 fa40 2e29 fb40
00000040: b2cc fa40 d80f fa40 f8be f840 638a fc40
00000050: 6b58 79bc 8798 fb40 b27c fa40 1b0f b3bc
00000060: 805c 0abd d1fd 213d b2bc f740 d238 f740
00000070: 1f00 03bd 2337 fa40 1521 f740 48a7 fb40
00000080: 9f38 f940 eebc acbc ffc8 f840 33ac f940
00000090: e788 f840 13ba f840 99ee f740 484a f840
000000a0: a432 003b 0ed5 f940 4f03 fa40 e9e5 79bc
000000b0: 2767 fa40 0e06 f940 ba82 fb40 a705 fc40
000000c0: 0cac f840 68a1 fb40 a9d0 f940 e9d9 f840
000000d0: 2e81 f740 e63f f840 7734 f940 022f fb40
000000e0: 0f78 1dbd 9559 f840 fb09 f940 c0cb fb40
000000f0: 7b83 e3bb 9aa0 fb40 e584 fb40 8d45 f840
00000100: 337b 343c 4ca4 f740 793f fa40 414b fb40
00000110: 2f8f 18bd 4bb5 f840 2272 f840 1bb3 fd40
00000120: 7c09 fbbc 6d11 f940 deb9 fa40 0a59 f940
00000130: de8f 073d db81 f940 8eb0 6bbc bb62 f940
00000140: aba5 f940 afb1 f940 5cd4 f840 a6ff fa40
00000150: dbc3 2dbd 2e0f f940 063a 203d 9bd6 2d3c
00000160: e9e6 c73c 10e5 f940 33ba 2dbd df06 f940
00000170: 06bc f840 889c f940 da77 f940 d164 fa40
00000180: d99a 17b8 2197 19bd c6f9 f940 9664 f940
00000190: 522f d5bc a4b5 f840 5a9a c2bc 2b16 f740
000001a0: 7ee2 fa40 1f47 96bb b590 f740 b56f f940
000001b0: 8b3e f940 6fe1 f940 81a9 f540 d3c8 793c
000001c0: a2d2 c3bc 9dff f940 2104 f840 4e13 f940
000001d0: 1dac fa40 0e5e f940 2e8e f940 1670 f840
000001e0: 54ac f840 7b16 2ebd 773f 1bbd 70ce f840
000001f0: ad27 fb40 7746 a03b deca f740 2c59 f840
00000200: f181 f740 4a80 f840 4d79 f740 69ba 813c
00000210: feb3 fa40 1a21 fa40 3b8d f940 2e1a fa40
00000220: 1b6f dfbc 5bcb 07bd cd7d fb40 e821 fa40
00000230: be42 f940 822c fa40 fdc0 8a40 acd3 f840
00000240: 7978 fa40 6d8c f840 c7b0 fa40 56b7 fa40
00000250: 9b0e fb40 f544 233d f8b7 f940 21e1 f940
00000260: 93c2 f940 f3c2 9b3a bb1c fb40 abf3 f940
00000270: 5bfa f940 d246 f2bc 2e11 0c3d e009 f840
00000280: b33f b6bc abe4 fb40 ca55 f840 2b74 f940
00000290: 10a3 f840 54e2 fa40 e37d f840 aa97 f840
000002a0: 9f09 fa40 c72e 93bc 75af fa40 9ef2 f740
000002b0: 82bc f840 750c f840 61aa fc40 7a8f 173d
000002c0: 3a87 6b3b f2cf f740 1a6d f840 2263 f940
000002d0: 2aad 6cbc f668 f740 c54c f740 d2a6 fa40
000002e0: 9ebf f740 5f4a 88b9 26c0 d43a 4d40 fa40
000002f0: ba31 fc40 a6f6 f940 eb77 fb40 6c40 953c
00000300: ae87 acbc 8d25 f940 5191 fa40 fdca f240
00000310: db18 fc40 2677 d23c 8bbd f840 6a5b f640
00000320: e4ba fc40 46ed 76bc 6c10 2abd 47bd f840
00000330: 19c5 fa40 cb4f 37bd c215 f840 d88e 1ebc
00000340: 9bfe 9ebc e837 f940 975b 2cbd 8250 e7bc
00000350: 1c78 f640 ae19 0bbd d831 fa40 2b93 f840
00000360: 3f99 b3bb bf94 14bd 127a f840 3fb2 f940
00000370: 2f4f f740 b3d8 fa40 4695 f940 1917 f740
00000380: de2d f740 0194 f840 ed56 f740 9e2e fa40
00000390: 968c d53c a8ad dcbc 7a90 02bd b7e1 fb40
000003a0: 0185 fa40 5499 f840 3ef4 f740 8488 f840
000003b0: d05e f940 419c fa40 553a f940 3621 fa40
000003c0: ae26 fa40 9344 f740 28ac f840 6124 f840
000003d0: 24ca f840 07c2 f740 6b0a 3c3c 63d8 fa40
000003e0: 259f fa40 5169 fc40 2f24 9fbc 178c afbc
000003f0: 964f f840 06a7 f6ba 6319 fb40 1964 f840

layer4.weight f4 [98, 256]
2.7044015 -0.020073028 2.7589445 -0.03893231 2.7576046 2.73825 2.7477906 2.7519553
0.0053096013 2.742578 2.7422147 0.026693504 2.747845 -0.012229915 2.702289 2.7247117
2.695009 2.7433476 2.6880922 2.7610047 -0.03813381 2.7740817 2.69131 0.038066942
0.008393138 -0.030716997 2.7615044 2.7094226 0.014552167 2.7408104 2.702227 2.7060688
2.716817 0.028393103 2.7407677 2.7726214 2.7427082 2.7508757 2.756017 2.74409
-0.025711335 2.7242358 2.7049174 -0.03782506 2.739876 2.724617 2.7426414 2.740796
2.7633498 2.7774625 2.7366436 2.7254138 2.7314725 2.772311 2.762831 2.697659
0.0038151282 2.7327218 2.690568 2.7585154 0.02638159 2.6988838 2.7304726 2.758829
-0.033162832 2.7184324 2.7337046 2.7693014 -0.0370933 2.7436714 2.728106 2.7328644
0.037012387 2.76866 2.7019475 2.7347202 0.03676525 2.697713 -0.037338387 2.7699778
2.755914 2.758508 2.7785177 2.7051296 -0.020529805 2.7026408 0.041113798 -0.02547089
-0.018003186 2.6889791 0.029092204 2.7404263 2.7105715 2.7145512 2.770298 2.754225
0.0024035403 0.011996803 2.715995 2.7160413 -0.025913607 2.7460325 0.03861119 2.7651682
2.7193067 0.015688887 2.7383604 2.7409668 2.7375305 2.7020159 2.6916163 -0.014703156
0.04198051 2.7571557 2.7325003 2.7535856 2.7146358 2.7579598 2.697069 2.686796
2.739569 0.019184066 -0.0033009052 2.7175312 2.7188337 0.037788887 2.7662504 2.772114
2.7552102 2.7099924 2.7308786 -0.005606878 2.7696984 2.709731 2.7712288 2.7300282
0.006246062 -0.00071973546 2.7496986 2.7508006 2.7508385 2.773272 3.414661 2.6955643
2.7346394 2.712062 2.7541084 2.7192223 2.701587 0.0012376232 2.7235713 2.7284083
2.7155309 -0.017911749 2.6983743 2.698012 2.7286026 0.03623827 -0.029697713 2.7610242
-0.023360105 2.7144225 2.7591488 2.711672 2.6973658 2.77355 2.7204354 2.7283363
2.7501233 -0.030899538 2.731646 2.7688324 2.728817 2.7076373 2.7728877 -0.0056525054
0.03562468 2.7328465 2.7236817 2.7446826 -0.036028687 2.7434235 2.694552 2.6983874
2.701043 -0.04144464 0.0348894 2.725486 2.7633064 2.7359378 2.745226 0.012275468
0.03867337 2.722953 2.7430563 2.867276 2.7574496 0.02010961 2.7503035 2.7224388
2.7523963 -0.028123857 0.019663423 2.712153 2.7637892 0.017914636 2.7042174 0.0015455872
0.0016122037 2.7042122 0.037285637 -0.013510786 2.73701 0.0077816835 2.7184753 2.6911943
-0.039012566 -0.02194578 2.7223494 2.7538667 2.7337055 2.7651267 2.7192273 2.6944866
2.7230349 2.7063742 2.7673852 2.7344136 -0.009402759 0.02261371 -0.039932724 2.7366388
2.7241852 2.7699778 2.7498753 2.7057009 2.756675 2.7144055 2.7253695 2.7197554
2.721156 2.7707496 2.6942575 2.7187192 2.7044845 2.7333052 0.0319685 2.7660313
2.7092447 2.7104335 0.0186379 0.02416623 2.7422266 -0.027976261 2.7363718 2.7418313
00000000: ea14 2d40 3170 a4bc 8c92 3040 7c77 1fbd
00000010: 987c 3040 7d3f 2f40 cddb 2f40 0920 3040
00000020: 2afc ad3b 6686 2f40 7280 2f40 56ac da3c
00000030: b1dc 2f40 fb5f 48bc 4ef2 2c40 ad61 2e40
00000040: 077b 2c40 0293 2f40 b409 2c40 4db4 3040
00000050: 3332 1cbd 8e8a 3140 6c3e 2c40 15ec 1b3d
00000060: 5f83 093c 36a2 fbbc 7dbc 3040 2e67 2d40
00000070: 366c 6e3c 7069 2f40 4af1 2c40 3b30 2d40
00000080: 54e0 2d40 a798 e83c bd68 2f40 a172 3140
00000090: 8888 2f40 590e 3040 9562 3040 2c9f 2f40
000000a0: 94a0 d2bc e159 2e40 5e1d 2d40 73ee 1abd
000000b0: 215a 2f40 2060 2e40 7087 2f40 3469 2f40
000000c0: b9da 3040 f2c1 3140 2b25 2f40 2e6d 2e40
000000d0: 72d0 2e40 8b6d 3140 39d2 3040 72a6 2c40
000000e0: 3b07 7a3b eae4 2e40 4432 2c40 848b 3040
000000f0: 341e d83c 83ba 2c40 10c0 2e40 a890 3040
00000100: c0d5 07bd ccfa 2d40 04f5 2e40 3c3c 3140
00000110: 25ef 17bd 5098 2f40 4a99 2e40 40e7 2e40
00000120: 4d9a 173d ba31 3140 b5ec 2c40 a805 2f40
00000130: 2997 163d 54a7 2c40 23f0 18bd 5147 3140
00000140: e560 3040 658b 3040 3cd3 3140 d820 2d40
00000150: 1f2e a8bc 11f8 2c40 f166 283d 54a8 d0bc
00000160: 6b7b 93bc 3c18 2c40 c652 ee3c 2563 2f40
00000170: 017a 2d40 35bb 2d40 904c 3140 3945 3040
00000180: b784 1d3b 3d8e 443c ddd2 2d40 9fd3 2d40
00000190: c648 d4bc ffbe 2f40 c426 1e3d 84f8 3040
000001a0: 1f09 2e40 fb85 803c 4c41 2f40 006c 2f40
000001b0: b333 2f40 d4ed 2c40 7143 2c40 82e5 70bc
000001c0: c1f3 2b3d 3d75 3040 49e1 2e40 bf3a 3040
000001d0: 98bc 2d40 6a82 3040 c79c 2c40 77f4 2b40
000001e0: 1955 2f40 e727 9d3c 0054 58bb 08ec 2d40
000001f0: 5f01 2e40 85c8 1a3d 3f0a 3140 516a 3140
00000200: 5d55 3040 8470 2d40 b7c6 2e40 e7b9 b7bb
00000210: bd42 3140 3c6c 2d40 d05b 3140 c8b8 2e40
00000220: c4ab cc3b a1ac 3cba 10fb 2f40 1e0d 3040
00000230: bd0d 3040 4a7d 3140 ce89 5a40 2084 2c40
00000240: 5504 2f40 6c92 2d40 5043 3040 bd07 2e40
00000250: cde6 2c40 be37 a23a fe4e 2e40 3e9e 2e40
00000260: 42cb 2d40 a9bb 92bc 2ab2 2c40 3bac 2c40
00000270: 6da1 2e40 956e 143d 9e48 f3bc 9fb4 3040
00000280: b15d bfbc 19b9 2d40 e595 3040 098c 2d40
00000290: a4a1 2c40 d881 3140 9d1b 2e40 109d 2e40
000002a0: 0502 3040 0721 fdbc 4ad3 2e40 8d34 3140
000002b0: f0a4 2e40 ee49 2d40 fe76 3140 a738 b9bb
000002c0: 2feb 113d f5e6 2e40 cd50 2e40 e1a8 2f40
000002d0: d192 13bd 4094 2f40 8a73 2c40 61b2 2c40
000002e0: e3dd 2c40 dbc1 29bd 30e8 0e3d 5d6e 2e40
000002f0: 03da 3040 9b19 2f40 c8b1 2f40 0b1f 493c
00000300: f867 1e3d dd44 2e40 3c8e 2f40 7381 3740
00000310: 0e7a 3040 e9bc a43c f904 3040 703c 2e40
00000320: 4327 3040 0164 e6bc 3015 a13c ea93 2d40
00000330: ece1 3040 b7c1 923c e611 2d40 4d95 ca3a
00000340: 9450 d33a d011 2d40 d3b8 183d 585c 5dbc
00000350: 2c2b 2f40 7efd fe3b 80fb 2d40 873c 2c40
00000360: a4cb 1fbd a3c7 b3bc f93a 2e40 5a3f 3040
00000370: 08f5 2e40 d6f7 3040 d207 2e40 7872 2c40
00000380: 3446 2e40 3c35 2d40 d71c 3140 a200 2f40
00000390: 080e 1abc 6340 b93c 7f90 23bd 1725 2f40
000003a0: 0d59 2e40 5147 3140 f5fd 2f40 342a 2d40
000003b0: 5d6d 3040 d2b8 2d40 746c 2e40 7910 2e40
000003c0: 6b27 2e40 f653 3140 b76e 2c40 7fff 2d40
000003d0: 4616 2d40 79ee 2e40 67f1 023d a806 3140
000003e0: 4464 2d40 be77 2d40 82ae 983c 42f8 c53c
000003f0: a480 2f40 792e e5bc b720 2f40 2a7a 2f40

layer4.bias f4 [98]
2.0084903 2.0648148 2.0209444 2.6515164 1.8937069 2.2375002 2.2080023 2.1396577
2.1595826 1.9399667 2.0050802 1.6407232 1.6719687 2.1342118 2.263961 2.392932
-0.506286 2.1949522 2.4924235 2.1718953 -0.19539696 2.555971 2.0804765 2.1522791
3.881626 1.7593541 4.0843616 1.5471355 0.5885829 1.7009264 -0.43637565 -1.8898675
0.9022325 1.9029565 5.9194665 2.1906595 1.9269675 3.2192872 1.2414664 2.1527617
0.775707 1.0661384 0.9609721 -0.12488182 1.2878072 -3.4642642 0.80441576 1.5888954
1.1863003 1.83323 1.9296572 1.7427386 1.8641691 1.3378712 0.45020917 1.7940228
-1.083008 3.4095492 -1.6709412 0.5564295 0.13292813 1.8157601 1.5772829 2.1973383
2.0426567 2.126986 0.36041832 0.87990606 1.8681805 0.83074415 -0.982315 0.57640624
1.8009685 1.4228115 1.8484766 -0.17960663 1.9552257 1.9372064 0.9136033 1.919735
1.528624 -0.36330518 1.6716985 1.9439582 1.7612951 0.18073739 1.769783 2.1774287
1.7004776 1.8821626 2.2227726 2.25253 2.3936768 1.4952852 2.0613418 1.8284322
2.1010816 1.8542186
00000000: 1b8b 0040 ed25 0440 2757 0140 72b2 2940
00000010: fd64 f23f 3433 0f40 e94f 0d40 27f0 0840
00000020: 9a36 0a40 d450 f83f 3c53 0040 3803 d23f
00000030: 1203 d63f ed96 0840 bde4 1040 cc25 1940
00000040: f69b 01bf 197a 0c40 de83 1f40 5500 0b40
00000050: 2416 48be 0795 2340 8726 0540 f1be 0940
00000060: 8f6c 7840 8432 e13f 17b3 8240 8908 c63f
00000070: 5ead 163f f5b7 d93f a16c dfbe 2ee7 f1bf
00000080: b6f8 663f 1494 f33f 456c bd40 c433 0c40
00000090: dfa6 f63f cd08 4e40 5fe8 9e3f d9c6 0940
000000a0: bc94 463f 3977 883f 4402 763f 0ac2 ffbd
000000b0: ded6 a43f 81b6 5dc0 31ee 4d3f ed60 cb3f
000000c0: b0d8 973f 48a7 ea3f 02ff f63f 0f12 df3f
000000d0: 189d ee3f 5d3f ab3f d181 e63e 8aa2 e53f
000000e0: 02a0 8abf 0e36 5a40 67e1 d5bf 2a72 0e3f
000000f0: 501e 083e d46a e83f 68e4 c93f 31a1 0c40
00000100: e3ba 0240 8a20 0840 c088 b83e 8641 613f
00000110: 8a20 ef3f a6ab 543f ff78 7bbf 5c8f 133f
00000120: 2386 e63f b01e b63f e29a ec3f cdea 37be
00000130: d644 fa3f 61f6 f73f e8e1 693f e0b9 f53f
00000140: f4a9 c33f 2303 babe 37fa d53f 9fd3 f83f
00000150: 1e72 e13f 3913 393e 4088 e23f fe5a 0b40
00000160: 40a9 d93f b4ea f03f e841 0e40 7429 1040
00000170: 0032 1940 8165 bf3f 06ed 0340 110a ea3f
00000180: 1f78 0640 0957 ed3f
