models/2/guerrilla_model_weights.pth (torch, 198120 bytes, 6 tensors)

layer1.weight f4 [128, 82]
0	0x418606e0	16.753357
1	0x41420a4c	12.127514
2	0x411b5be8	9.709938
3	0x4134626f	11.274032
4	0x411e9cd8	9.913292
5	0x411ab9f5	9.6704
6	0x413f1612	11.942888
7	0x415514fe	13.317625
8	0x41675b17	14.459739
9	0x4141d38e	12.114149
10	0x416a5e32	14.647997
11	0x416d9a90	14.850235
12	0x4148843e	12.532286
13	0x40db0282	6.844056
14	0x416e6041	14.8984995
15	0x417f9ab7	15.975272
16	0x41719939	15.099908
17	0x411dbebf	9.859069
18	0x417d82a2	15.844393
19	0x417e0086	15.875128
20	0x415a0665	13.626561
21	0x40f2c421	7.5864415
22	0x415d2d7e	13.8236065
23	0x41783e31	15.515183
24	0x41614778	14.079948
25	0x4151487f	13.080199
26	0x4167b8a8	14.482582
27	0x4164c998	14.299217
28	0x413efed8	11.937218
29	0x40c4cc40	6.149933
30	0x413d2320	11.821075
31	0x41441341	12.254701
32	0x41451886	12.318487
33	0x416ce6bd	14.806333
34	0x41859a5b	16.700369
35	0x4181d037	16.226667
36	0x40cbb417	6.3657336
37	0x415082d0	13.031937
38	0x412b697c	10.713253
39	0x404a57e2	3.161614
40	0x41748f69	15.285012
41	0x41858e3a	16.694447
42	0x41823c90	16.279572
43	0x4183a2b2	16.454441
44	0x4182f0c3	16.36756
45	0x417d44b0	15.829269
46	0x417fcb3b	15.987117
47	0x41857461	16.681826
48	0x4184bb6c	16.591515
49	0x4183ac21	16.459047
50	0x41846949	16.551409
51	0x4119839d	9.594632
52	0x411eb4d4	9.9191475
53	0x3f89fe34	1.0780702
54	0x41855d11	16.670443
55	0x418688e8	16.816849
56	0x4184bf8a	16.593525
57	0x4111a1bc	9.101986
58	0x4114813f	9.281554
59	0x4110f56c	9.059917
60	0xbebd06b2	-0.3691917
61	0x41829ed4	16.327553
62	0x41850c32	16.630955
63	0x4184d4f2	16.603977
64	0x416b5d5c	14.710293
65	0x41611e33	14.069873
66	0x3fdeef81	1.7416841
67	0x3fd57a7f	1.6678008
68	0x41838e3d	16.444452
69	0x41868da1	16.819155
70	0x41507b6b	13.030131
71	0x40bf72f3	5.982782
72	0x41385ee0	11.523163
73	0x40d7e2b4	6.7464237
74	0x40c86dba	6.2633944
75	0x418085ad	16.065271
76	0x4180141f	16.009825
77	0x4149de73	12.616809
78	0x40a2449d	5.0708756
79	0x40fefc70	7.968315
80	0x3fba20bb	1.4541239
81	0xbf3a026c	-0.72659945
82	0xc0a7ffb0	-5.249962
83	0x3efc61f4	0.49293482
84	0x3f98b5bb	1.193046
85	0xbf7734aa	-0.96564734
86	0xbfeb3fc6	-1.8378837
87	0x3f7b1eca	0.98093855
88	0x3ea58116	0.32325047
89	0x3e00c73c	0.12576002
90	0xc00fe195	-2.2481434
91	0x3eec1b14	0.4611441
92	0xbe87ab85	-0.26498047
93	0xbee736e6	-0.45159072
94	0xbf18a820	-0.5963154
95	0x3bd70862	0.0065622786
96	0xbf3ef825	-0.7459739
97	0xbe08e551	-0.13368727
98	0xbff7389f	-1.9314154
99	0xbe8c2bb0	-0.2737708
100	0xbebf8c66	-0.37411803
101	0xbf770912	-0.96498215
102	0xc0196038	-2.3964977
103	0x3f940a17	1.1565579
104	0xbeb19a28	-0.34687924
105	0x3e741a9c	0.23838276
106	0xbf8f9ba7	-1.1219376
107	0x3e8984ec	0.26859224
108	0x3c340418	0.010987304
109	0xc035b810	-2.8393593
110	0xc048c121	-3.1367877
111	0x3fbf8a0b	1.4964002
112	0xbebc392e	-0.36762375
113	0xbfbb3a44	-1.4627156
114	0xc078b131	-3.885815
115	0xbecd7130	-0.40125418
116	0x3f0892d4	0.5334904
117	0xbf3d7e94	-0.7402127
118	0x3fb2d79e	1.3972051
119	0x3ee6f390	0.45107698
120	0x3f9d7c7b	1.2303613
121	0xbe1c3197	-0.15253292
122	0xbf1d8f40	-0.6154671
123	0x3f1416c4	0.5784724
124	0x3db76011	0.0895387
125	0xbda4b030	-0.080414176
126	0xbf5de9d5	-0.86684924
127	0x3e03f117	0.12884937
128	0xbd393ebe	-0.04522585
129	0x3f556de8	0.8337083
130	0x3f3953f0	0.72393703
131	0xbe7263d4	-0.23670894
132	0x3ddd0032	0.10791053
133	0x3e885545	0.26627555
134	0x3e340870	0.17581344
135	0x3fb9163f	1.4459914
136	0x3f2b4d59	0.669149
137	0x3f10412a	0.5634943
138	0x3ea3275c	0.31865966
139	0x3f5e9356	0.86943567
140	0x3ec551de	0.38539022
141	0x3e7d5bd2	0.24742058
142	0x400e9218	2.2276669
143	0xbf7761e2	-0.9663373
144	0x3d3c52d4	0.04597743
145	0x3e05e3c6	0.1307517
146	0xbee45ded	-0.4460291
147	0xbde139b1	-0.10997332
148	0x3f85ed53	1.0463051
149	0x3f685cc5	0.90766555
150	0xbf178702	-0.5919038
151	0x3fa628d2	1.2981207
152	0x3eec9727	0.4620907
153	0x3f713ef2	0.9423667
154	0xbeb38ea3	-0.3506976
155	0x3e803981	0.25043872
156	0x3f1fbd25	0.62397987
157	0xbdba3f33	-0.090940855
158	0x3db22395	0.08698193
159	0x3f318035	0.69336253
160	0x3eae176a	0.3400224
161	0x3f73166c	0.9495609
162	0x3f29d64c	0.66342616
163	0x3faf997e	1.3718717
164	0x4187bb75	16.966532
165	0x41410d15	12.065694
166	0x411ecfab	9.9257
167	0x412b4fd3	10.706988
168	0x411c3660	9.763275
169	0x411cfcaa	9.811686
170	0x413bc2a6	11.735022
171	0x4152d8d9	13.177941
172	0x41676379	14.461785
173	0x4146a2f1	12.414781
174	0x417187bb	15.095637
175	0x41728334	15.157032
176	0x414cb2e4	12.793674
177	0x40cbb578	6.365902
178	0x41719b92	15.100481
179	0x41807bdf	16.060484
180	0x4173ec4b	15.245189
181	0x4118a450	9.540115
182	0x417dd64f	15.864821
183	0x417d83ab	15.8446455
184	0x415303ae	13.188398
185	0x40e1e57c	7.059263
186	0x41605494	14.020649
187	0x41798aea	15.596415
188	0x41635f4b	14.210765
189	0x415787b8	13.470634
190	0x4163f88b	14.248179
191	0x416127bd	14.072202
192	0x4143f229	12.246621
193	0x40ba0570	5.8131638
194	0x413d4798	11.829979
195	0x4146305f	12.386809
196	0x414588cc	12.345898
197	0x416c1ed3	14.757525
198	0x418539dc	16.653252
199	0x418362b4	16.423195
200	0x40d62181	6.69159
201	0x4152c812	13.173845
202	0x412a75af	10.653731
203	0x4059d9a2	3.4039083
204	0x41738225	15.219274
205	0x41848569	16.565142
206	0x4182c290	16.345001
207	0x4183bbac	16.466637
208	0x41836509	16.424334
209	0x417c192f	15.756148
210	0x417d0468	15.813576
211	0x41841440	16.509888
212	0x41837e2d	16.43661
213	0x41836b91	16.427523
214	0x41846cfa	16.553211
215	0x411aa368	9.664894
216	0x41205d30	10.022751
217	0x3f8b716a	1.0893986
218	0x41845818	16.543015
219	0x4185dfd2	16.734287
220	0x41850f43	16.632452
221	0x4112afd2	9.167925
222	0x4114c3f1	9.297837
223	0x41114bd6	9.081015
224	0xbe957a19	-0.29194716
225	0x418460e6	16.547314
226	0x4184d91b	16.606009
227	0x4183aeb1	16.460299
228	0x416e8031	14.906297
229	0x4163309e	14.199369
230	0x3ff13d1c	1.8846774
231	0x3fd73325	1.6812483
232	0x41830d39	16.381456
233	0x41860e06	16.756847
234	0x4150ed25	13.057897
235	0x40c2f206	6.092044
236	0x4138653a	11.5247135
237	0x40dad9a8	6.8390694
238	0x40c4f09f	6.1543727
239	0x4180f25b	16.118338
240	0x417ed6ea	15.927469
241	0x4146b907	12.420173
242	0x40a326a1	5.0984654
243	0x40facf6d	7.8378205
244	0x3fc51862	1.5398066
245	0xbf11051d	-0.5664843
246	0x41883632	17.026463
247	0x41428af7	12.158927
248	0x411d40a6	9.828283
249	0x41322131	11.133103
250	0x411dd37d	9.864133
251	0x411a0416	9.625998
252	0x413df2cd	11.871778
253	0x415446a4	13.267246
254	0x4168ae25	14.542516
255	0x4144a86c	12.291119

layer1.bias f4 [128]
0	0x4189cc5c	17.224785
1	0xc00e8c80	-2.2273254
2	0x4189bb34	17.216408
3	0x418ad7d3	17.355383
4	0x418a892f	17.316984
5	0x418935c0	17.151245
6	0x4187f700	16.995605
7	0x418a3886	17.2776
8	0x418ab643	17.338995
9	0x418a98f4	17.324684
10	0x418a3e97	17.280561
11	0x418a989e	17.32452
12	0x418d4dfc	17.663078
13	0x418647da	16.785084
14	0x418a2557	17.268232
15	0x418a482e	17.285244
16	0x418b1ebe	17.39001
17	0x4189e660	17.237488
18	0x41897b72	17.185276
19	0x418aa791	17.33182
20	0x418a7238	17.30577
21	0x418b4369	17.407915
22	0x418abc96	17.342083
23	0x418a9fbb	17.327993
24	0x418a6280	17.298096
25	0xc00cb556	-2.1985679
26	0x418adb23	17.357
27	0x418a6791	17.30057
28	0x418a40c1	17.281618
29	0x418aaec1	17.33533
30	0x418afb82	17.372807
31	0x418ae18d	17.360132
32	0x418a8619	17.315477
33	0x418909e7	17.129835
34	0x41895a38	17.169052
35	0x418ab61a	17.338917
36	0x418af9ec	17.372032
37	0x418ad086	17.351818
38	0xc01057dd	-2.2553627
39	0x4189ca2f	17.223722
40	0x418a09de	17.254818
41	0x418a3f58	17.28093
42	0x4185a003	16.70313
43	0xc01f5acc	-2.4899168
44	0x418b217e	17.391354
45	0x418a7339	17.306261
46	0x418acdb3	17.35044
47	0x4189fd96	17.248821
48	0x418a38cd	17.277735
49	0xc00b4d14	-2.1765795
50	0x418b4e4c	17.41323
51	0x418886f1	17.06589
52	0x418b0cbc	17.381218
53	0x4189ccda	17.225025
54	0x418a9f31	17.32773
55	0x4188b55c	17.088554
56	0x418adfc7	17.359266
57	0xc0086344	-2.1310587
58	0x41891392	17.134556
59	0x418b0d2e	17.381435
60	0x4189c76c	17.222374
61	0x418b2916	17.395061
62	0x41894b53	17.16178
63	0x418a55d9	17.291918
64	0x418988ca	17.191792
65	0x4189795f	17.184263
66	0xc00fc9a0	-2.2466812
67	0xc00ec45c	-2.2307348
68	0x418a8bd4	17.318275
69	0x418aaa57	17.333174
70	0xc009e08e	-2.1543307
71	0x418b61b6	17.42271
72	0xc00f201c	-2.2363348
73	0x418997b1	17.199068
74	0x418a59c9	17.29384
75	0xc01a3f1b	-2.4101017
76	0x418a7f93	17.312292
77	0x418a8ec6	17.319714
78	0x418a4758	17.284836
79	0x418a55f9	17.291979
80	0x418acbc4	17.349495
81	0x418c0778	17.503647
82	0x418a48e3	17.28559
83	0x418acd43	17.350225
84	0x41884dc2	17.037968
85	0xc011d163	-2.278405
86	0x418ab7a5	17.33967
87	0x418aae28	17.335037
88	0x4187bced	16.967249
89	0x418b0fce	17.382717
90	0xc007ace5	-2.1199276
91	0x418a950d	17.322779
92	0xc00a9536	-2.165357
93	0x418a6685	17.300058
94	0x418afc83	17.373297
95	0x418b15d6	17.385662
96	0xc0083bbb	-2.1286457
97	0x418b9077	17.44554
98	0x418b05c1	17.37781
99	0x418a179b	17.261526
100	0x418bb2da	17.46233
101	0x41872175	16.891336
102	0x418b37f3	17.402319
103	0x418ad771	17.355196
104	0x4189d8c4	17.230843
105	0x418b3b5b	17.403982
106	0x4183f623	16.495184
107	0x418aae4a	17.335102
108	0x418af7ee	17.37106
109	0x418aecfe	17.365719
110	0x418bed50	17.490875
111	0x418b3320	17.399963
112	0x4189b909	17.21535
113	0x418b57e8	17.417923
114	0x418986e4	17.190865
115	0xc0020cb6	-2.0320258
116	0x418b3c9f	17.4046
117	0x418ab446	17.338024
118	0x418a48b0	17.285492
119	0x4189c58c	17.221458
120	0x418b265f	17.393736
121	0x418ac31e	17.345272
122	0x418b37a8	17.402176
123	0xc00a08b1	-2.1567805
124	0x418b36f2	17.401829
125	0x418b63b3	17.423681
126	0x418a9bdb	17.326101
127	0x418af92e	17.37167

layer2.weight f4 [128, 128]
0	0x418a5ea9	17.29622
1	0xc0f58022	-7.671891
2	0x4189a72b	17.206625
3	0x41888520	17.065002
4	0x4188a1b9	17.078966
5	0x418889b8	17.067245
6	0x4188002a	17.00008
7	0x418b2c66	17.396679
8	0x4187c80f	16.972685
9	0x4188c0a8	17.09407
10	0x4188ea46	17.114391
11	0x4189f905	17.246592
12	0x41900ca2	18.006168
13	0x41880c1b	17.00591
14	0x4187cdd7	16.975508
15	0x41883b10	17.02884
16	0x418849ac	17.035973
17	0x41884969	17.035845
18	0x4188c7e4	17.097603
19	0x41884501	17.033693
20	0x4188e0b0	17.10971
21	0x4187b45c	16.963066
22	0x41885c38	17.045029
23	0x41890fae	17.132656
24	0x4189798d	17.184351
25	0xc0f3e391	-7.621529
26	0x41881196	17.008587
27	0x418b4f99	17.413866
28	0x4189a166	17.203808
29	0x41888089	17.062761
30	0x41885fd8	17.046799
31	0x4187edff	16.991209
32	0x41880c7a	17.006092
33	0x4188c920	17.098206
34	0x4187e30c	16.985863
35	0x41888b6a	17.068073
36	0x4188a676	17.08128
37	0x4187db7d	16.982172
38	0xc0f62822	-7.692399
39	0x418bd1e8	17.477493
40	0x4188e7e6	17.113232
41	0x41877d27	16.93611
42	0x4185defe	16.733883
43	0xc0f826d0	-7.754738
44	0x41880cc9	17.006243
45	0x418812d9	17.009203
46	0x41897248	17.180801
47	0x41888598	17.065231
48	0x4189de8c	17.233665
49	0xc1016f44	-8.089664
50	0x418924fb	17.143057
51	0x41877757	16.933271
52	0x4187bd3b	16.967398
53	0x4187c662	16.971867
54	0x4188ab31	17.08359
55	0x41892d02	17.146976
56	0x4189497a	17.160877
57	0xc0f541bd	-7.6642747
58	0x41895982	17.168705
59	0x418801da	17.000904
60	0x4189be6d	17.217981
61	0x4188c7c3	17.09754
62	0x41885d88	17.04567
63	0x41878e71	16.944551
64	0x418be9d1	17.489168
65	0x41887843	17.058722
66	0xc0f5fbae	-7.6869726
67	0xc0f7a347	-7.7386813
68	0x4189f2d0	17.24356
69	0x418923ff	17.142576
70	0xc0f7fe0a	-7.7497606
71	0x41889bd2	17.076084
72	0xc0f0b68a	-7.5222826
73	0x41883cb3	17.029638
74	0x4188ca77	17.09886
75	0xc0f3b30b	-7.615606
76	0x418a7b06	17.31007
77	0x4189292d	17.145105
78	0x4188cbd9	17.099535
79	0x4187d9fc	16.981438
80	0x41878fdd	16.945246
81	0x418f6bfe	17.92773
82	0x41879752	16.948887
83	0x41881faf	17.01547
84	0x41886a0c	17.05178
85	0xc0f7dc32	-7.7456293
86	0x418ad60c	17.354515
87	0x4188b80c	17.089867
88	0x4187e00b	16.984396
89	0x4188b640	17.08899
90	0xc0f67782	-7.7020884
91	0x41897d79	17.186266
92	0xc0f55a71	-7.66729
93	0x41892651	17.14371
94	0x4188c896	17.097942
95	0x418937a9	17.152178
96	0xc0f4e146	-7.652499
97	0x418913a5	17.134592
98	0x4187ffe3	16.999945
99	0x4188e9a8	17.11409
100	0x4189d600	17.229492
101	0x41883027	17.023512
102	0x4189119a	17.133595
103	0x4188726c	17.05587
104	0x418895ca	17.07314
105	0x4188bf03	17.093267
106	0x41865c3a	16.795033
107	0x4187b5f2	16.96384
108	0x4188ba24	17.090889
109	0x41880cf8	17.006332
110	0x418cdb5d	17.607111
111	0x41894051	17.156404
112	0x41894cd9	17.162523
113	0x4187b682	16.964115
114	0x41873a7d	16.903559
115	0xc0f31a52	-7.596963
116	0x4189b2fe	17.212399
117	0x418a2009	17.265642
118	0x418999e5	17.200144
119	0x41870920	16.879456
120	0x418870f6	17.055157
121	0x4188e433	17.111425
122	0x418a0c76	17.256084
123	0xc0fb7972	-7.858575
124	0x4189365d	17.151545
125	0x41887a8c	17.059837
126	0x4187e4b0	16.986664
127	0x418d3e6a	17.655476
128	0x41887a63	17.05976
129	0xc0f34203	-7.601808
130	0x418924ce	17.142971
131	0x4188648a	17.049091
132	0x4189bc81	17.217043
133	0x41881e17	17.014692
134	0x41875991	16.918734
135	0x418a216c	17.26632
136	0x41875e56	16.921062
137	0x4188ef44	17.116829
138	0x4188daf5	17.106913
139	0x4188154a	17.010395
140	0x418d623c	17.672966
141	0x41876bff	16.927732
142	0x418882c2	17.063847
143	0x418951c0	17.164917
144	0x41888a8c	17.06765
145	0x4187d319	16.978075
146	0x4188a71a	17.081593
147	0x4188b699	17.089159
148	0x4188244a	17.01772
149	0x4187a517	16.95561
150	0x41888284	17.063728
151	0x4188a9c8	17.082901
152	0x41890f2c	17.132408
153	0xc0f52eb6	-7.661952
154	0x4188548d	17.041285
155	0x41892a0d	17.145533
156	0x41896bee	17.1777
157	0x4187a1bc	16.953972
158	0x418857a9	17.042803
159	0x4187c22b	16.969809
160	0x4187fe3c	16.999138
161	0x41891938	17.137314
162	0x41899ae7	17.200636
163	0x41885488	17.041275
164	0x418a3e98	17.280563
165	0x41887f7c	17.062248
166	0xc0f5a66b	-7.6765647
167	0x418a8946	17.317028
168	0x4187ec08	16.99025
169	0x41879deb	16.952108
170	0x418722e5	16.892038
171	0xc0f3f178	-7.623226
172	0x4188b6a5	17.089182
173	0x4187fd65	16.998728
174	0x4188fd58	17.123703
175	0x41885f6e	17.046597
176	0x4187a4ab	16.955404
177	0xc100d222	-8.051302
178	0x4187ec30	16.990326
179	0x41886f9c	17.054497
180	0x4188f765	17.120798
181	0x418883c3	17.064337
182	0x4188b813	17.08988
183	0x4188e412	17.111362
184	0x418aa3f5	17.330057
185	0xc0f018b2	-7.5030146
186	0x41874e2b	16.913168
187	0x4188b196	17.086712
188	0x4188ef29	17.116777
189	0x4188a122	17.078678
190	0x41881f68	17.015335
191	0x4187e5ea	16.987263
192	0x418b86a9	17.440752
193	0x418793d1	16.947176
194	0xc0f8b72d	-7.7723603
195	0xc0ff4804	-7.977541
196	0x41891fd0	17.140533
197	0x4187fd93	16.998816
198	0xc0f72b5f	-7.7240443
199	0x418869fb	17.051748
200	0xc0f9a3f2	-7.801263
201	0x4186d613	16.854528
202	0x4188a72d	17.081629
203	0xc0f422c5	-7.6292443
204	0x4189af9a	17.210743
205	0x418a5090	17.289337
206	0x4187fcdd	16.998468
207	0x418851cb	17.039938
208	0x41887453	17.056799
209	0x418dcef0	17.726044
210	0x4188ca55	17.098795
211	0x41887a9a	17.059864
212	0x4188168c	17.01101
213	0xc0f8d74a	-7.7762804
214	0x418af440	17.369263
215	0x4187faba	16.997425
216	0x41893ffe	17.156246
217	0x418897a3	17.074041
218	0xc0fd69bf	-7.9191585
219	0x418883d4	17.06437
220	0xc0fc9cc3	-7.894136
221	0x418a0abe	17.255245
222	0x41882d91	17.02225
223	0x4188453b	17.033804
224	0xc0f61a13	-7.690683
225	0x41893317	17.149946
226	0x4188fb93	17.122839
227	0x41895888	17.168228
228	0x418a04c8	17.252335
229	0x4187c68b	16.971945
230	0x41895b40	17.169556
231	0x4189c786	17.222424
232	0x418975be	17.182491
233	0x4188a56c	17.080772
234	0x4186c0a7	16.844069
235	0x4187c3e2	16.970646
236	0x41886f0c	17.054222
237	0x4188c53c	17.096306
238	0x418bfb35	17.49766
239	0x41891735	17.136332
240	0x41888ae3	17.067816
241	0x418901ae	17.12582
242	0x41871bd2	16.888584
243	0xc0f2ad9d	-7.583693
244	0x4188874a	17.06606
245	0x418991df	17.196226
246	0x418aaa28	17.333084
247	0x4186e115	16.859903
248	0x41892c0e	17.146511
249	0x418902e8	17.12642
250	0x41890e4d	17.131983
251	0xc0fdb299	-7.9280515
252	0x418988cd	17.191797
253	0x41885df0	17.045868
254	0x4188e03e	17.109493
255	0x418cb48e	17.588161

layer2.bias f4 [128]
0	0x418760fd	16.922358
1	0x4186dc18	16.857468
2	0x41872216	16.891644
3	0x4186cbcd	16.849512
4	0x41881254	17.00895
5	0x41882e8a	17.022724
6	0x41863b01	16.77881
7	0x41877fe0	16.937439
8	0x4188314f	17.024076
9	0x418720c3	16.890997
10	0x4187a68d	16.956324
11	0x4187e132	16.984959
12	0x4187013f	16.875608
13	0x4188a7d4	17.081947
14	0x4187afb9	16.960802
15	0x41884079	17.03148
16	0x4186d53c	16.854118
17	0x4187b236	16.962017
18	0x418831ef	17.024382
19	0x4187fc21	16.99811
20	0x4187efd0	16.992096
21	0x417a3977	15.6390295
22	0x4187b756	16.96452
23	0x41887553	17.057287
24	0x41873c37	16.904402
25	0x4186e30b	16.86086
26	0x41872587	16.893324
27	0x4186dea4	16.858711
28	0x4185cd14	16.725136
29	0x418879ca	17.059467
30	0x41854b24	16.66169
31	0x41864323	16.782782
32	0x41889c39	17.07628
33	0x41885eee	17.046352
34	0x4188ec0a	17.115253
35	0x418909a5	17.12971
36	0x4186046f	16.752165
37	0x4185dfab	16.734213
38	0x41880d34	17.006447
39	0x4187be93	16.968054
40	0x41868905	16.816904
41	0x4187aed1	16.96036
42	0x4187d0e9	16.977007
43	0x41873fd4	16.906166
44	0x41880154	17.000648
45	0x4187a911	16.957552
46	0x41855daf	16.670744
47	0x4188f908	17.121597
48	0x4188354e	17.026028
49	0x41867aa1	16.809877
50	0x4188880c	17.06643
51	0x418851bc	17.03991
52	0x4187b402	16.962894
53	0x41873d07	16.904799
54	0x41870943	16.879522
55	0x4187c5f6	16.97166
56	0x4188606a	17.047077
57	0x41880751	17.003572
58	0x41873206	16.899426
59	0x41877c65	16.93574
60	0x4188372f	17.026945
61	0x41883b42	17.028934
62	0x41887c8f	17.06082
63	0x4188929e	17.07159
64	0x4187181b	16.88677
65	0x4186fdf3	16.873999
66	0x41880ef0	17.007294
67	0x41880647	17.003065
68	0x4185bc19	16.716845
69	0x418792ad	16.946619
70	0x41880dd8	17.00676
71	0x41871f5e	16.890316
72	0x4187ce65	16.975779
73	0x41882b6a	17.021198
74	0x4185907f	16.695555
75	0x418824ae	17.01791
76	0x4187c925	16.973215
77	0x41858b34	16.69297
78	0x418829a2	17.020329
79	0x418834c9	17.025774
80	0x4182505f	16.289244
81	0x4186a145	16.828745
82	0x41880bd2	17.005772
83	0x4187dcd6	16.98283
84	0x41879d2a	16.95174
85	0x41882c32	17.02158
86	0x418889a3	17.067205
87	0x4187e02b	16.984457
88	0x418825a1	17.018373
89	0x41876e76	16.928936
90	0x418617ab	16.761557
91	0x41872ba3	16.896307
92	0x418824c8	17.01796
93	0x41876ee4	16.929146
94	0x4187b0b8	16.961288
95	0x4187795f	16.934263
96	0x41886a80	17.052002
97	0x41879845	16.94935
98	0x4185bef0	16.718231
99	0x41852cc6	16.646862
100	0x41875d46	16.920544
101	0x4186e43c	16.861443
102	0x41876006	16.921886
103	0x4185731d	16.681208
104	0x3bcf97d4	0.006335238
105	0x4186cfde	16.851498
106	0x41870649	16.878069
107	0x418804b9	17.002306
108	0x4188c30a	17.095234
109	0x4187d5ea	16.97945
110	0x4186e915	16.86381
111	0x4188263b	17.018667
112	0x4187abc3	16.958868
113	0x41876fbd	16.92956
114	0x4187ab72	16.958714
115	0x41853f58	16.65593
116	0x4182c2b0	16.345062
117	0xbc8d35b9	-0.017237531
118	0x4187174f	16.886381
119	0x418698f2	16.82468
120	0x4187688d	16.92605
121	0x41885a30	17.044037
122	0x41870d4e	16.881496
123	0x418660c2	16.797245
124	0x41865231	16.790133
125	0x41872f17	16.897993
126	0x418788ed	16.941858
127	0x41878151	16.938143

layer3.weight f4 [168, 128]
0	0x4084f430	4.154808
1	0x408616f8	4.190304
2	0x4086eff5	4.2167916
3	0x40884a7f	4.2590938
4	0x40869975	4.2062325
5	0x4084f284	4.154604
6	0x4082f68e	4.092597
7	0x4084b740	4.1473694
8	0x40855a88	4.167301
9	0x4082eef5	4.0916696
10	0x408758e4	4.229601
11	0x40812699	4.0359616
12	0x4082628f	4.074531
13	0x4087edcc	4.247778
14	0x4083c170	4.117363
15	0x40822b37	4.0677752
16	0x4082696f	4.0753703
17	0x4085788c	4.170965
18	0x4086b5a2	4.209672
19	0x4086649a	4.1997805
20	0x4086de67	4.2146487
21	0x40816bd4	4.0444126
22	0x408445bd	4.133513
23	0x4086b622	4.209733
24	0x4080cd92	4.025094
25	0x408454f7	4.1353717
26	0x40824a7e	4.0715933
27	0x40867edf	4.202987
28	0x408440b1	4.132897
29	0x40834fa3	4.1034713
30	0x408878ee	4.264762
31	0x40877075	4.2324777
32	0x4086128c	4.189764
33	0x4085d773	4.18255
34	0x408271f9	4.0764127
35	0x408802f2	4.2503595
36	0x408413c6	4.1274137
37	0x408644cd	4.1958985
38	0x4086e46f	4.215385
39	0x40846180	4.136902
40	0x4086870e	4.203986
41	0x40845140	4.134918
42	0x408755b4	4.229212
43	0x4085c458	4.1802177
44	0x4084a21d	4.144789
45	0x40827e82	4.077943
46	0x40804680	4.008606
47	0x408400a8	4.12508
48	0x4082ce26	4.0876646
49	0x4085230e	4.160529
50	0x40864a04	4.196535
51	0x40857647	4.170688
52	0x408526fb	4.1610084
53	0x4087a1a3	4.238481
54	0x40848d68	4.1422615
55	0x40862b33	4.1927733
56	0x40831a04	4.0969257
57	0x4085c273	4.1799865
58	0x40847b3c	4.1400433
59	0x408458ad	4.1358247
60	0x4083cae0	4.118515
61	0x40882b30	4.255272
62	0x408267a3	4.075151
63	0x40877dc0	4.2341003
64	0x40867489	4.2017255
65	0x4083d6d4	4.119974
66	0x4086c01f	4.2109523
67	0x4086ecad	4.216391
68	0x4089350e	4.2877264
69	0x4084550d	4.135382
70	0x4083564f	4.1042857
71	0x4084b25e	4.1467733
72	0x40838751	4.110268
73	0x4083d43b	4.119657
74	0x40831a50	4.096962
75	0x4082e07b	4.0899024
76	0x4085f26e	4.1858435
77	0x40856f65	4.169848
78	0x40860b84	4.1889057
79	0x4085a266	4.176074
80	0x408b7496	4.3579817
81	0x4083816a	4.1095476
82	0x4082e345	4.090243
83	0x408540d2	4.1641626
84	0x40865e30	4.1989975
85	0x4080dfee	4.027335
86	0x40855db3	4.167688
87	0x4082259a	4.06709
88	0x40862752	4.1923
89	0x4086dec9	4.2146955
90	0x408591ab	4.1740317
91	0x4089c842	4.3056955
92	0x40829848	4.081089
93	0x40846b0f	4.1380687
94	0x408428bf	4.129974
95	0x40865473	4.1978087
96	0x4082049d	4.063063
97	0x4088de13	4.2771087
98	0x4085f786	4.1864653
99	0x40862ea3	4.193193
100	0x408418cf	4.1280284
101	0x4084e131	4.152489
102	0x40839cd2	4.112893
103	0x4085dd05	4.18323
104	0xbd8436f3	-0.06455793
105	0x4084e715	4.1532083
106	0x4086632d	4.1996064
107	0x4084786a	4.139699
108	0x40865113	4.1973968
109	0x4083bd93	4.1168914
110	0x40835dd5	4.105204
111	0x40833d72	4.1012506
112	0x408591c5	4.174044
113	0x4084f833	4.1552978
114	0x4082368b	4.069158
115	0x4086767c	4.2019634
116	0x408672e3	4.2015243
117	0x3cde2adf	0.027120052
118	0x40850259	4.1565366
119	0x408348ad	4.1026216
120	0x4084ae1f	4.146255
121	0x40855760	4.166916
122	0x40859203	4.1740737
123	0x40829c89	4.0816083
124	0x4085de33	4.183374
125	0x4084d802	4.151368
126	0x40832b7b	4.0990577
127	0x40829af8	4.081417
128	0x3deaa93a	0.11458059
129	0x3e080bf3	0.13285808
130	0x3dd2d102	0.10293771
131	0x3e29472b	0.16531055
132	0x3e027ce7	0.12742959
133	0x3e12e95f	0.14346837
134	0x3e39af81	0.18133356
135	0x3d509a07	0.050928142
136	0x3df4afb6	0.11947577
137	0x3dae1f2d	0.0850204
138	0x3dba4f61	0.090971716
139	0x3dea8155	0.114504494
140	0x3dcf01b9	0.101077504
141	0x3d60d644	0.05489184
142	0x3d416169	0.04721204
143	0x3d784afb	0.060618382
144	0x3e1687c7	0.14700232
145	0x3dbf5204	0.09341815
146	0x3df58dad	0.11989913
147	0x3e159db7	0.14610945
148	0x3d8f1089	0.06985576
149	0x3dd2e898	0.1029827
150	0x3e04065e	0.12893054
151	0x3de340e7	0.110963635
152	0x3e3bb1bb	0.18329518
153	0x3da9f4fb	0.082986794
154	0x3df2bc52	0.118523255
155	0x3dcdb9f8	0.10045236
156	0x3d9f250a	0.077707365
157	0x3da4f36a	0.0805424
158	0x3e0c8917	0.1372417
159	0x3dcc4e3c	0.099758595
160	0x3dc34ba4	0.09535912
161	0x3dd10b2d	0.1020721
162	0x3e0b8784	0.13625914
163	0x3e0ef0e7	0.13959084
164	0x3deb71fc	0.1149635
165	0x3d937f5f	0.072020285
166	0x3d4e4dcd	0.050367165
167	0x3de75862	0.112961546
168	0x3e2a4272	0.1662691
169	0x3e191a5f	0.14951466
170	0x3de1c837	0.11024516
171	0x3e1d296f	0.15347837
172	0x3dcecefe	0.100980744
173	0x3dfce9ac	0.12349257
174	0x3dbd1e7e	0.092343315
175	0x3e307c68	0.17234957
176	0x3de12d3a	0.109949544
177	0x3e3525ff	0.17690276
178	0x3e220c4a	0.15825
179	0x3de623a8	0.1123727
180	0x3e2fa3b9	0.17152299
181	0x3d873975	0.06602756
182	0x3de6991d	0.11259673
183	0x3e0b95bd	0.1363134
184	0x3e26c018	0.16284215
185	0x3dd710d4	0.105012566
186	0x3e370649	0.17873491
187	0x3e2091ca	0.15680614
188	0x3d9c6ba1	0.07637716
189	0x3db624fc	0.08893773
190	0x3dc77fdb	0.09741183
191	0x3d6ad392	0.057330675
192	0x3dbe341d	0.092872836
193	0x3db273e1	0.087135084
194	0x3dc2a8e8	0.095048726
195	0x3db0a8cc	0.086259454
196	0x3e1737a3	0.14767317
197	0x3e36d77a	0.17855635
198	0x3e18ca2d	0.14920874
199	0x3d66c8c5	0.056343812
200	0x3dd0c1ee	0.10193239
201	0x3d80e619	0.06293888
202	0x3dfbe9da	0.12300463
203	0x3e2830f6	0.16424927
204	0x3da37480	0.07981205
205	0x3e3366fa	0.17519751
206	0x3d7eedab	0.062238377
207	0x3e2aba6c	0.16672677
208	0x3dd24b5a	0.102682784
209	0x3dc606c5	0.0966926
210	0x3d694eaf	0.056959804
211	0x3e108fed	0.14117403
212	0x3d9449fd	0.07240675
213	0x3e0880e5	0.1333042
214	0x3dbe4170	0.09289825
215	0x3d71a4fe	0.05899524
216	0x3e3a0ab2	0.18168142
217	0x3e0ad14d	0.13556404
218	0x3d7d01a6	0.06176915
219	0x3dcb63aa	0.09931119
220	0x3dc91676	0.09818737
221	0x3e13310d	0.1437418
222	0x3dc04458	0.093880355
223	0x3e16961d	0.14705701
224	0x3de06f35	0.10958711
225	0x3d8368f5	0.06416503
226	0x3e3bcc86	0.18339738
227	0x3db746b2	0.08949031
228	0x3da02073	0.07818689
229	0x3d721c52	0.05910904
230	0x3e2c2220	0.16809893
231	0x3e14281f	0.1446843
232	0x3d522fac	0.051314995
233	0x3e2e898c	0.17044657
234	0x3dcdb6c3	0.10044625
235	0x3dd8408a	0.10559185
236	0x3e2eb9f7	0.17063127
237	0x3e14e683	0.14541058
238	0x3d982ebf	0.07430791
239	0x3df2906d	0.11843953
240	0x3e370aea	0.17875257
241	0x3e09922f	0.13434671
242	0x3d962d4f	0.07332861
243	0x3db2c6cd	0.087293245
244	0x3d4576b7	0.04820892
245	0xbd033ffb	-0.03204344
246	0x3da34c92	0.07973589
247	0x3e01cf0b	0.12676637
248	0x3de22a4f	0.11043226
249	0x3e2618dd	0.16220422
250	0x3ddcf57e	0.107890114
251	0x3e36bfae	0.17846557
252	0x3d8767c8	0.066115916
253	0x3dc2ecb6	0.09517805
254	0x3e341dd9	0.17589511
255	0x3dbe9dbc	0.09307429

layer3.bias f4 [168]
0	0x3fedb141	1.8569719
1	0x3e14dfad	0.1453845
2	0x3ec08052	0.375979
3	0x3ee12c69	0.43979195
4	0x3f81e212	1.0147116
5	0x3f5667eb	0.83752316
6	0x3ee7e885	0.45294586
7	0x3f9d1e74	1.2274919
8	0x3fa489a7	1.2854508
9	0x3f58a15d	0.8462122
10	0x406c4584	3.691743
11	0x3e989642	0.29802138
12	0x402d9841	2.7124178
13	0x3fdfa04f	1.7470797
14	0x3f058b6c	0.52165866
15	0x41288154	10.531574
16	0x3fed6c44	1.8548665
17	0x3e97f308	0.29677606
18	0x3f75935e	0.9592799
19	0x41342225	11.258336
20	0x3f8efca3	1.1170849
21	0x3f2e9407	0.6819462
22	0x41567abb	13.4049635
23	0x3f8cf6f8	1.1012869
24	0x3f352b55	0.70769244
25	0x401329e9	2.299433
26	0x41456d5e	12.339201
27	0x3f86fb39	1.0545417
28	0x3f7261dc	0.9468057
29	0x3f8b08fd	1.0862118
30	0x402eb11a	2.7295594
31	0x3f04604b	0.5170943
32	0x3f81a161	1.0127374
33	0x414aaedb	12.667689
34	0x410ea8c8	8.916206
35	0x3f31e4b7	0.69489616
36	0x3ed76802	0.4207154
37	0x3eba6777	0.36407062
38	0x402bcbd4	2.6843157
39	0x3ff94bef	1.9476298
40	0x3f00160f	0.5003366
41	0x413d925d	11.848233
42	0x3eb1ee12	0.34751946
43	0x3ee1feb6	0.44139642
44	0x3e8efa85	0.27925506
45	0x3f4b70da	0.7946907
46	0x3f2fd086	0.68677557
47	0x41529085	13.160283
48	0x4025fd18	2.5935726
49	0x3f893fd5	1.0722605
50	0x403aaca5	2.9167874
51	0x3f7e0c23	0.9923727
52	0x3fe40eaa	1.7816975
53	0x3f6cbb0a	0.924729
54	0x3f988376	1.1915119
55	0x415475d8	13.27877
56	0x3faf59bb	1.3699259
57	0x3f897f19	1.0741912
58	0x3e09fe27	0.13475858
59	0x3f8bd515	1.0924402
60	0x3f8947f2	1.0725081
61	0x41309968	11.037453
62	0x3f12122d	0.57058984
63	0x40afb1cc	5.4904537
64	0x3ed7a6be	0.42119402
65	0x4131036d	11.063336
66	0x401c8dbe	2.4461513
67	0x402cf105	2.7022107
68	0x3e605866	0.21908721
69	0x40f13693	7.537912
70	0x4010823a	2.2579484
71	0x3f9ceb3f	1.2259291
72	0x3f2a7f1b	0.666002
73	0x3f93b8b8	1.1540747
74	0x3f10c492	0.5654994
75	0x3f752b92	0.9576961
76	0x4158d14b	13.551097
77	0x4038fa78	2.8902874
78	0x3f9d93ab	1.231069
79	0x3fa759a6	1.3074234
80	0x3f35cd76	0.71016634
81	0x405b223b	3.4239643
82	0x3fc8c8ba	1.5686257
83	0x401e855b	2.4768894
84	0x400b0d57	2.1726892
85	0x40d1c813	6.555673
86	0x401a158d	2.4075654
87	0x3f0148fd	0.50501996
88	0x400282ee	2.0392413
89	0x3f1f033f	0.6211433
90	0x3f10eb5a	0.5660912
91	0x3f130135	0.57423717
92	0x3ed04e0b	0.40684542
93	0x3fe267e7	1.7687958
94	0x3f294a51	0.6612902
95	0x3f12d883	0.5736162
96	0x3e6ec9ba	0.2331914
97	0x3f11feff	0.5702972
98	0x3fa82b62	1.3138239
99	0x3fda21e8	1.7041597
100	0x3f9b7431	1.2144834
101	0x41491952	12.568682
102	0x3f90880d	1.1291519
103	0x3fd5d413	1.6705345
104	0x4135a52b	11.352824
105	0x3f97aea1	1.1850168
106	0x3f112b7c	0.56706977
107	0x408bd19f	4.3693385
108	0x3fa5cb98	1.2952757
109	0x3f97b3d8	1.1851759
110	0x3f031b54	0.51213574
111	0x4130a85f	11.041106
112	0x3f4314cf	0.76203626
113	0x411e6f00	9.9021
114	0x3eaf97a9	0.34295395
115	0x3f24b6f9	0.64341694
116	0x3fcd2db9	1.6029578
117	0x400c15be	2.188827
118	0x3ea04ea1	0.3130999
119	0x41116ff6	9.089834
120	0x3ed394e1	0.41324523
121	0x3ea53007	0.32263204
122	0x3f25bf0d	0.64744645
123	0x4130bc73	11.046008
124	0x3ff5473a	1.9162362
125	0x3e9cd703	0.3063279
126	0x3f064ad9	0.5245796
127	0x404b7691	3.1791117
128	0x3f7ca900	0.98695374
129	0x3f5bcf46	0.8586315
130	0x3f91b2dd	1.138271
131	0x4132e89b	11.181788
132	0x3f39c5de	0.72567546
133	0x4075b742	3.8393102
134	0x3f478dfb	0.7795102
135	0x41277257	10.465415
136	0x3f5741ee	0.84084976
137	0x3f8ef072	1.1167128
138	0x3ebe42d3	0.37160358
139	0x412c4283	10.766238
140	0x3f7d149e	0.98859584
141	0x3f3c3986	0.73525274
142	0x3ffb15c0	1.9616013
143	0x3f5958d9	0.84901196
144	0x3dbf5fd6	0.09344451
145	0x412b5be6	10.709936
146	0x3f97fe75	1.1874529
147	0xbce15eed	-0.027511084
148	0x3e9657b1	0.29363778
149	0x3ebc9597	0.36832878
150	0x3eac3e4d	0.33641282
151	0x3ee88f1a	0.45421678
152	0x4123d0e9	10.238503
153	0x3f9520e9	1.1650668
154	0x3f8a6820	1.0813026
155	0x3e93af4d	0.2884468
156	0x3fb2f429	1.3980762
157	0x40043703	2.0658576
158	0x3eaf17b8	0.34197783
159	0x3fb98fc4	1.4496999
160	0x3e8bb05f	0.27282998
161	0x3eaae50c	0.33377874
162	0x3f873952	1.0564368
163	0x3f91da0c	1.1394668
164	0x3f60f4c0	0.8787346
165	0xbcd08629	-0.025454598
166	0x3de3cf7d	0.111235596
167	0x3d949998	0.07255858
