models/2/guerrilla_model_weights.pth (torch, 198120 bytes, 6 tensors)

layer1.weight f4 [128, 82]
000000 c4 bb af 41 ca da 95 41 1b 6c ab 41 96 ad a9 41
       21.966682 18.73183 21.427786 21.209759
000010 5a 78 94 41 f5 27 9c 41 c0 0c a9 41 7f 79 ae 41
       18.558765 19.51951 21.131226 21.809324
000020 f7 52 ad 41 63 a1 97 41 ba 1a ad 41 13 4d aa 41
       21.66551 18.953802 21.63805 21.287634
000030 f4 5a ab 41 a2 bf a4 41 ef 6c ab 41 37 a5 ac 41
       21.41941 20.59357 21.42819 21.580671
000040 07 82 af 41 41 0c a3 41 53 05 ae 41 63 f0 ad 41
       21.93849 20.380983 21.7526 21.742376
000050 dd 57 aa 41 34 c0 a9 41 4a 47 aa 41 af 53 ae 41
       21.292902 21.21885 21.28481 21.790861
000060 13 2c ae 41 b3 63 ae 41 0a 52 ac 41 e7 fd ad 41
       21.77152 21.798681 21.540058 21.748976
000070 82 4c aa 41 bc b4 8f 41 e7 ba a6 41 9e 72 a2 41
       21.287357 17.96325 20.84126 20.305965
000080 cc 35 a5 41 40 9a af 41 48 82 b0 41 28 8a af 41
       20.651268 21.950317 22.063614 21.94246
000090 a8 7d 8a 41 40 a9 af 41 d3 57 ae 41 98 47 af 41
       17.311356 21.957642 21.792883 21.909958
0000a0 84 fb af 41 f8 8c af 41 28 fe ae 41 34 6b ae 41
       21.99781 21.943832 21.8741 21.802345
0000b0 98 a2 ae 41 18 eb ae 41 68 d7 ae 41 f4 6d af 41
       21.829391 21.864792 21.855179 21.928688
0000c0 18 9a af 41 24 e0 ad 41 e4 27 b0 41 24 b2 ae 41
       21.950241 21.734444 22.019478 21.836983
0000d0 08 d7 af 41 ee 04 98 41 e0 18 af 41 f8 e6 af 41
       21.979996 19.002407 21.887146 21.987778
0000e0 94 f1 ae 41 f4 d1 af 41 d0 9b af 41 c0 e8 ae 41
       21.867958 21.977516 21.95108 21.863647
0000f0 18 dc ae 41 44 e7 ae 41 a0 0c b0 41 0c 50 b0 41
       21.857468 21.862923 22.006165 22.039085
000100 50 01 ac 41 c0 c9 af 41 28 fd af 41 c8 c7 ae 41
       21.50064 21.97351 21.998611 21.84755
000110 dc c8 ad 41 50 1c af 41 a8 fb ae 41 94 18 b0 41
       21.723076 21.888824 21.872879 22.012001
000120 28 4e af 41 68 bd af 41 f4 78 ae 41 62 28 ac 41
       21.913162 21.967484 21.80906 21.519718
000130 b4 e0 ae 41 84 2c a7 41 ec 0d ae 41 14 7d ad 41
       21.859718 20.896736 21.756798 21.686073
000140 84 c0 ae 41 4c 3e af 41 e0 21 b0 41 21 3a 95 41
       21.844002 21.905418 22.01654 18.653383
000150 76 96 ac 41 8d 20 a9 41 98 4a 94 41 ad 99 9d 41
       21.573467 21.140894 18.536423 19.700037
000160 5f b2 a9 41 03 b4 ae 41 eb b3 ad 41 19 5e 98 41
       21.212095 21.837896 21.71285 19.045946
000170 4e 02 ad 41 a3 82 aa 41 cd 82 ab 41 23 34 a5 41
       21.626125 21.313787 21.438868 20.650457
000180 0b 6b ac 41 0b e6 ab 41 a3 4a af 41 4a ed a3 41
       21.552267 21.487326 21.911444 20.490864
000190 23 d0 ae 41 1f 2e af 41 fe a8 aa 41 83 c9 a9 41
       21.85163 21.89752 21.332516 21.223394
0001a0 62 ca aa 41 0f 11 af 41 3f 4b ae 41 53 6a ad 41
       21.34882 21.88333 21.786741 21.676916
0001b0 17 1b ad 41 cb ba ad 41 60 ce a9 41 b8 3e 91 41
       21.638227 21.716208 21.225769 18.155624
0001c0 9a 29 a7 41 3f 69 a3 41 df bb a4 41 70 1f af 41
       20.895313 20.42639 20.591734 21.89035
0001d0 a8 ff af 41 2c 35 b0 41 28 a8 8c 41 b0 4c b0 41
       21.999832 22.025963 17.582108 22.037445
0001e0 3b 12 af 41 c8 58 af 41 a8 2c b0 41 a8 3c af 41
       21.883902 21.91835 22.021805 21.904617
0001f0 ac 3c b0 41 98 38 af 41 3c a3 af 41 00 ee af 41
       22.029625 21.902634 21.954704 21.99121
000200 d8 1b af 41 10 01 b0 41 00 57 b0 41 dc 31 ae 41
       21.888596 22.000519 22.04248 21.774345
000210 20 38 af 41 60 5b b0 41 e0 53 b0 41 97 e6 98 41
       21.902405 22.044617 22.040955 19.112593
000220 48 42 af 41 1c 5a af 41 84 51 af 41 c0 ec af 41
       21.907364 21.918999 21.914803 21.9906
000230 08 7d af 41 bc d7 af 41 30 87 af 41 f8 91 af 41
       21.93605 21.98034 21.94101 21.946274
000240 d0 5e b0 41 54 f4 af 41 20 3b ac 41 68 2c af 41
       22.046295 21.9943 21.52887 21.896683
000250 b4 35 af 41 e8 d4 ae 41 58 a6 ae 41 a0 9e af 41
       21.901222 21.853958 21.831223 21.952454
000260 b0 fc af 41 90 17 b0 41 d0 f5 af 41 3c 62 af 41
       21.998383 22.011505 21.995026 21.922966
000270 e8 f1 af 41 73 80 ab 41 f0 85 af 41 4b 45 a8 41
       21.993118 21.43772 21.9404 21.033834
000280 0c 20 ae 41 88 90 ad 41 24 42 b0 41 2c e5 af 41
       21.765648 21.695572 22.032295 21.9869
000290 20 8c b0 41 4e 04 96 41 8f d0 ab 41 19 c4 a8 41
       22.06842 18.752102 21.476835 21.09575
0002a0 28 ac 94 41 ff 26 9d 41 0c 14 a9 41 d3 07 ae 41
       18.58406 19.644041 21.134789 21.75382
0002b0 83 7a ae 41 ce 58 98 41 b7 ec ad 41 a2 59 aa 41
       21.80982 19.043362 21.740583 21.293766
0002c0 35 ef ab 41 a2 ea a5 41 ec 3a ac 41 bb fd ac 41
       21.4918 20.739567 21.52877 21.623892
0002d0 1f 7e af 41 41 e3 a3 41 df 73 ae 41 8b ea ae 41
       21.936583 20.485964 21.806578 21.864523
0002e0 d3 dd a9 41 37 ba a9 41 90 1d aa 41 e3 c4 ae 41
       21.233313 21.215925 21.264435 21.846136
0002f0 8b e5 ae 41 af 62 ae 41 2f 01 ae 41 6f fc ae 41
       21.862082 21.798185 21.750578 21.873259
000300 b3 cc a9 41 8b af 90 41 44 4c a6 41 b1 f0 a2 41
       21.22495 18.085714 20.78724 20.367525
000310 a4 dd a4 41 d8 34 af 41 0c 50 b0 41 54 40 af 41
       20.608223 21.900803 22.039085 21.90641
000320 2a 52 8c 41 d4 47 af 41 eb d6 ad 41 74 b7 ae 41
       17.54012 21.910072 21.72994 21.839577
000330 34 19 b0 41 dc 53 af 41 54 9a af 41 78 d0 af 41
       22.012306 21.915947 21.950356 21.976791
000340 88 a7 af 41 e0 2b b0 41 88 70 af 41 a0 ee af 41
       21.956802 22.021423 21.929947 21.991516
000350 c0 f6 af 41 a0 e0 ae 41 94 09 b0 41 fc 69 b0 41
       21.995483 21.85968 22.004677 22.05175
000360 64 76 af 41 46 da 97 41 30 fa af 41 10 bb af 41
       21.932808 18.981579 21.997162 21.96634
000370 24 15 b0 41 90 18 af 41 44 82 af 41 8c a3 af 41
       22.010323 21.886993 21.938606 21.954857
000380 3c e4 af 41 44 dc af 41 d4 4b b0 41 64 c1 af 41
       21.986443 21.982552 22.037025 21.969429
000390 5a 45 ac 41 30 87 af 41 8c 30 af 41 c0 38 af 41
       21.533863 21.94101 21.898705 21.90271
0003a0 34 11 ae 41 f4 03 b0 41 08 d2 af 41 98 42 af 41
       21.7584 22.00193 21.977554 21.907516
0003b0 70 6f af 41 9c e9 ae 41 c8 2b af 41 79 be ab 41
       21.929413 21.864067 21.896378 21.468004
0003c0 14 0d af 41 2e 01 a7 41 c3 58 ae 41 0d d3 ac 41
       21.881386 20.875576 21.79334 21.603052
0003d0 e0 67 b0 41 cc f4 af 41 18 11 b1 41 1f f5 95 41
       22.05072 21.99453 22.133347 18.744688
0003e0 9c 19 ac 41 ce a9 a8 41 98 3a 95 41 a9 46 9d 41
       21.512505 21.082912 18.65361 19.659502
0003f0 f3 91 a9 41 73 44 ae 41 f7 bb ad 41 ed 13 98 41
       21.196264 21.783422 21.71678 19.00973

layer1.bias f4 [128]
000000 b0 d9 af 41 f0 b1 b0 41 c0 d8 af 41 d0 9b af 41
       21.981293 22.086884 21.980835 21.95108
000010 e0 07 b1 41 b8 76 b0 41 6c d6 b0 41 b8 80 b0 41
       22.128845 22.057968 22.104698 22.06285
000020 4c 88 b0 41 f8 63 b0 41 c4 cf af 41 cc da b0 41
       22.066551 22.048813 21.976448 22.106834
000030 88 10 b0 41 a0 d0 af 41 f4 53 b0 41 1c c8 af 41
       22.008072 21.976868 22.040993 21.97271
000040 28 e9 af 41 c4 e7 b0 41 5c 3c b0 41 70 69 b0 41
       21.988846 22.113167 22.029472 22.051483
000050 60 1a b0 41 84 0f b0 41 3c 25 b0 41 e0 8a b0 41
       22.012878 22.007576 22.01818 22.06781
000060 9c 97 b0 41 d4 fc ae 41 e4 86 b0 41 a0 d5 af 41
       22.074028 21.873451 22.065865 21.97931
000070 68 9e b0 41 70 e6 b0 41 ec cf af 41 8c 39 b0 41
       22.077347 22.112518 21.976524 22.0281
000080 58 c7 b0 41 20 c9 af 41 7c 4e b0 41 2c 53 b0 41
       22.097336 21.973206 22.038322 22.040611
000090 84 f6 af 41 34 28 b0 41 60 e2 b0 41 a0 b1 b0 41
       21.995369 22.01963 22.110535 22.086731
0000a0 20 97 af 41 94 c8 af 41 74 b5 b0 41 34 b0 af 41
       21.948792 21.972939 22.0886 21.961037
0000b0 3c 39 b0 41 34 ab af 41 b8 ad b0 41 0c 1e b0 41
       22.027946 21.958595 22.084824 22.014671
0000c0 b4 24 b1 41 74 d9 af 41 dc cf b0 41 f0 6b b0 41
       22.142921 21.981178 22.101494 22.052704
0000d0 58 4f b0 41 b4 b6 b0 41 24 74 b0 41 60 00 b1 41
       22.038742 22.08921 22.05671 22.125183
0000e0 b0 15 b0 41 b8 b2 b0 41 64 df af 41 cc 49 b0 41
       22.01059 22.087265 21.984077 22.036034
0000f0 b4 48 b0 41 1c 18 b0 41 8e 39 2c be bc 68 b0 41
       22.0355 22.011772 -0.1681883 22.05114
000100 88 38 b0 41 10 ac af 41 8c c0 b0 41 68 d5 b0 41
       22.027603 21.959015 22.094017 22.104202
000110 94 1d b0 41 2c 58 b0 41 30 2d af 41 98 ab af 41
       22.014442 22.043053 21.897064 21.958786
000120 d0 8c af 41 64 b7 af 41 90 3f b0 41 f8 b3 b0 41
       21.943756 21.964546 22.031036 22.087875
000130 10 ba b0 41 f8 18 b0 41 34 7d b0 41 fc d8 af 41
       22.09085 22.012192 22.061134 21.98095
000140 50 a7 b0 41 f8 40 b0 41 ac ba af 41 08 45 b0 41
       22.081696 22.031723 21.966148 22.033707
000150 10 ed af 41 6c 59 b0 41 90 6c b0 41 e0 62 b0 41
       21.990753 22.043663 22.053009 22.048279
000160 80 27 b0 41 6c 18 b0 41 b4 71 af 41 3c 58 af 41
       22.019287 22.011925 21.93052 21.918083
000170 58 27 b0 41 e0 67 b0 41 38 5b b0 41 ec 24 b0 41
       22.01921 22.05072 22.04454 22.018028
000180 5c e2 af 41 74 f1 b0 41 00 70 b0 41 54 da b0 41
       21.985527 22.117897 22.054688 22.106606
000190 a0 c1 af 41 48 79 af 41 e4 aa af 41 0c be b0 41
       21.969543 21.93422 21.958443 22.092796
0001a0 04 67 b0 41 c4 83 b0 41 9c 6a b0 41 30 e5 b0 41
       22.0503 22.064339 22.052055 22.111908
0001b0 30 e1 af 41 f4 17 b0 41 1c 54 b0 41 9c e3 af 41
       21.984955 22.011696 22.041069 21.986137
0001c0 88 ca af 41 58 31 b0 41 00 11 b0 41 8c fd af 41
       21.973892 22.024094 22.0083 21.998802
0001d0 20 69 b0 41 b8 62 b0 41 e8 64 b0 41 78 ca b0 41
       22.05133 22.048203 22.04927 22.098862
0001e0 ac f0 b0 41 a4 b8 af 41 38 fb b0 41 78 a2 b0 41
       22.117516 21.965157 22.122665 22.07933
0001f0 30 36 b0 41 9c c5 af 41 00 06 b1 41 00 cb af 41
       22.026459 21.971489 22.12793 21.974121

layer2.weight f4 [128, 128]
000000 ec 3d b0 41 80 4a b0 41 e4 18 b0 41 30 08 b1 41
       22.030235 22.036377 22.012154 22.128998
000010 0c 7c b1 41 70 9b b0 41 9c 00 b1 41 ec 83 b0 41
       22.18557 22.075897 22.125298 22.064415
000020 24 ce b0 41 7c 58 b0 41 4c 97 b0 41 f8 4a b0 41
       22.100655 22.043205 22.073875 22.036606
000030 70 50 b0 41 1c bd b0 41 98 27 b1 41 98 b9 b0 41
       22.039276 22.092339 22.144333 22.090622
000040 18 25 b1 41 34 63 b1 41 f4 98 b1 41 78 cf b0 41
       22.143112 22.173439 22.199684 22.101303
000050 3c 24 b1 41 50 d4 b0 41 24 bf b0 41 90 43 b1 41
       22.142693 22.103668 22.09333 22.15799
000060 1c 12 b1 41 d4 be b0 41 c4 ce b0 41 f0 bb b0 41
       22.133842 22.093178 22.10096 22.091766
000070 b0 d3 b0 41 ac eb b0 41 c8 3d b1 41 58 12 b1 41
       22.103363 22.115074 22.155167 22.133957
000080 bc b8 b0 41 b4 01 b1 41 d0 6c b1 41 8c b0 b1 41
       22.090202 22.125832 22.178131 22.211205
000090 a0 9c b1 41 60 24 b0 41 b8 2a b1 41 38 64 b1 41
       22.201477 22.017761 22.145859 22.173935
0000a0 48 d2 b0 41 58 54 b0 41 b8 20 b1 41 00 d4 b0 41
       22.102676 22.041183 22.140976 22.103516
0000b0 34 18 b1 41 fc 64 b0 41 08 5d b1 41 9c d3 b0 41
       22.136818 22.049309 22.170425 22.103325
0000c0 34 04 b1 41 0c aa b0 41 88 7d b1 41 50 25 b0 41
       22.127052 22.08303 22.186295 22.018219
0000d0 c8 9d b0 41 10 e2 b0 41 ac 64 b0 41 78 c0 b0 41
       22.077042 22.110382 22.049156 22.093979
0000e0 78 a6 b1 41 94 e0 b0 41 8c a7 b0 41 04 39 b1 41
       22.206284 22.109657 22.08181 22.15284
0000f0 40 11 b1 41 b4 06 b1 41 7e 0c 3b 3c 1c 6d b0 41
       22.133423 22.128273 0.011416553 22.053276
000100 d4 73 b0 41 68 58 b0 41 b8 cb b0 41 a4 8a b0 41
       22.056557 22.043167 22.099472 22.067696
000110 e4 ff af 41 fc 72 b1 41 90 85 b0 41 10 19 b1 41
       21.999947 22.181145 22.065216 22.137238
000120 40 f8 b0 41 4c e7 b0 41 94 4f b0 41 fc 96 b0 41
       22.121216 22.112938 22.038857 22.073723
000130 2c c6 b0 41 d8 47 b0 41 d0 81 b0 41 b4 42 b1 41
       22.096764 22.03508 22.063385 22.15757
000140 30 b3 b0 41 38 6f b0 41 44 68 b0 41 ec 4c b0 41
       22.087494 22.054306 22.05091 22.03756
000150 34 a0 b0 41 40 6c b0 41 98 87 b0 41 a8 bc b1 41
       22.078224 22.052856 22.066208 22.217117
000160 8c ac b0 41 94 7c b0 41 a4 f3 b0 41 1c d1 b0 41
       22.084251 22.06083 22.118965 22.102104
000170 b8 57 b1 41 60 47 b0 41 44 ef b0 41 e8 e6 b0 41
       22.167831 22.034851 22.116829 22.112747
000180 d8 ce b0 41 98 8c b0 41 fc e1 b0 41 f4 a7 b1 41
       22.100998 22.06865 22.110344 22.207008
000190 c4 ba b0 41 84 3b b1 41 f0 cf b0 41 50 51 b1 41
       22.091194 22.15406 22.101532 22.164703
0001a0 d4 22 b1 41 28 88 b1 41 5c c3 b0 41 40 7b b0 41
       22.142006 22.191483 22.09539 22.06018
0001b0 9c 10 b0 41 10 88 b0 41 68 8f b0 41 bc 7c b0 41
       22.00811 22.066437 22.070023 22.060905
0001c0 38 8c b1 41 54 25 b1 41 00 df af 41 44 7c b0 41
       22.193466 22.143227 21.983887 22.060677
0001d0 0c 55 b0 41 a8 21 b1 41 78 9c b1 41 f4 ee b0 41
       22.041527 22.141434 22.2014 22.116676
0001e0 30 e5 b0 41 58 d1 b0 41 78 1f b1 41 c8 56 b1 41
       22.111908 22.102219 22.140366 22.167374
0001f0 b4 a2 b0 41 e0 02 b1 41 9c e7 b0 41 58 18 b0 41
       22.079445 22.126404 22.11309 22.011887
000200 84 8c b0 41 e8 fa b0 41 08 fe b0 41 4c 47 b0 41
       22.068611 22.122513 22.124039 22.034813
000210 64 4d b0 41 e8 dc b0 41 a4 02 b1 41 40 6c b0 41
       22.037788 22.107864 22.12629 22.052856
000220 14 15 b1 41 28 57 b0 41 e0 85 b0 41 4c 3c b1 41
       22.135292 22.042557 22.065369 22.154442
000230 10 b5 b0 41 f4 ad b0 41 24 1e b1 41 14 66 b0 41
       22.08841 22.084938 22.139717 22.049843
000240 10 c4 b0 41 5c 4b b0 41 70 b9 b0 41 98 dc b0 41
       22.095734 22.036797 22.090546 22.107712
000250 24 b5 b0 41 10 51 b0 41 8c 48 b0 41 e8 22 b1 41
       22.088448 22.039581 22.035423 22.142044
000260 c8 ed b0 41 4c fb b0 41 20 22 b1 41 b8 fe af 41
       22.116104 22.122704 22.141663 21.999374
000270 f8 b3 b0 41 a8 bd b0 41 04 a8 b0 41 28 01 b1 41
       22.087875 22.092606 22.082039 22.125565
000280 18 57 b1 41 e4 e5 b0 41 88 41 b1 41 a4 8e b1 41
       22.167526 22.112251 22.156998 22.194649
000290 c4 c9 b0 41 88 c4 b0 41 e4 90 b0 41 2c d5 b0 41
       22.098518 22.095963 22.070747 22.104088
0002a0 70 e1 b0 41 d0 04 b0 41 50 b1 b0 41 74 dd b0 41
       22.110077 22.00235 22.086578 22.108131
0002b0 c0 d7 b0 41 64 6f b1 41 4c dd b0 41 88 6e b1 41
       22.105347 22.17939 22.108055 22.17897
0002c0 78 89 b0 41 18 fd b0 41 8c 70 b0 41 c0 50 b0 41
       22.067123 22.12358 22.054955 22.039429
0002d0 b8 bc b0 41 0c 78 b0 41 24 88 b0 41 78 de b0 41
       22.092148 22.058617 22.066475 22.108627
0002e0 3c bb b0 41 64 06 b1 41 0c 6e b0 41 70 a5 b0 41
       22.091423 22.12812 22.053734 22.08078
0002f0 e8 0e b1 41 cc 9d b1 41 fb a1 2e bd 98 9b b0 41
       22.132278 22.20205 -0.042634945 22.075974
000300 00 98 b0 41 20 a5 b0 41 d4 64 b0 41 94 e6 af 41
       22.074219 22.080627 22.049232 21.987587
000310 5c 64 b0 41 88 32 b1 41 dc df af 41 60 4b b1 41
       22.049004 22.149673 21.984306 22.161804
000320 ec 0a b1 41 fc 7d b0 41 fc 8c b0 41 50 4c b1 41
       22.130333 22.061516 22.06884 22.162262
000330 10 73 b1 41 a8 36 b0 41 34 d2 b0 41 18 57 b1 41
       22.181183 22.026688 22.102638 22.167526
000340 14 2a b0 41 f0 06 b1 41 4c b5 b0 41 60 dd b0 41
       22.020546 22.128387 22.088524 22.108093
000350 a4 df b0 41 54 d5 b0 41 70 23 b0 41 dc 3d b1 41
       22.1092 22.104164 22.017303 22.155205
000360 70 be b0 41 f8 ae b0 41 44 12 b1 41 bc a4 b0 41
       22.092987 22.085434 22.133919 22.080437
000370 5c 3b b1 41 e8 69 b0 41 d8 e2 b0 41 a0 3d b1 41
       22.153984 22.051712 22.110764 22.15509
000380 74 b5 b0 41 e8 13 b1 41 3c 01 b1 41 10 19 b1 41
       22.0886 22.13472 22.125603 22.137238
000390 14 7a b0 41 0c 09 b1 41 74 0f b1 41 14 10 b1 41
       22.059608 22.129417 22.132545 22.13285
0003a0 38 51 b0 41 98 6d b1 41 14 38 b1 41 10 f2 af 41
       22.039658 22.178513 22.152382 21.993195
0003b0 d0 27 b0 41 cc 25 b1 41 6c 9a b0 41 24 e2 b0 41
       22.01944 22.143456 22.075401 22.11042
0003c0 b0 69 b1 41 98 3b b1 41 e8 19 b0 41 d8 9c b0 41
       22.176605 22.154099 22.01265 22.076584
0003d0 c8 1f b1 41 84 63 b1 41 70 13 b1 41 b8 cb b0 41
       22.140518 22.173592 22.134491 22.099472
0003e0 f0 f7 b0 41 f8 8b b0 41 1c 13 b0 41 30 94 b1 41
       22.121063 22.068344 22.00933 22.197357
0003f0 58 f4 b0 41 4c a6 b0 41 54 80 b0 41 c4 bf b0 41
       22.119308 22.0812 22.06266 22.093636

layer2.bias f4 [128]
000000 53 c0 b1 41 be 74 b1 41 75 90 b1 41 f7 2e b1 41
       22.218908 22.182003 22.195536 22.147932
000010 23 80 b1 41 31 9b b1 41 f2 0a b1 41 e0 23 b1 41
       22.187567 22.200777 22.130344 22.142517
000020 64 80 b1 41 d5 5d b1 41 cd a2 b1 41 ee 0d b2 41
       22.18769 22.170816 22.204493 22.256802
000030 57 e2 b1 41 0c 8d b1 41 d0 d7 7c bd b0 8e b1 41
       22.235518 22.19387 -0.061729252 22.194672
000040 98 51 b1 41 bd b9 b1 41 1b 02 b2 41 4b af b1 41
       22.16484 22.215693 22.251028 22.210592
000050 7a a4 b1 41 d9 c1 b1 41 be 76 b1 41 c3 7d b1 41
       22.20531 22.219652 22.18298 22.186407
000060 3b 41 b1 41 5b d9 b1 41 a5 b9 b1 41 b6 b1 b0 41
       22.15685 22.23113 22.215647 22.086773
000070 1e fe b1 41 38 16 4f bd e9 e3 a5 3c 9a c5 b1 41
       22.24908 -0.0505583 0.020250278 22.221485
000080 10 d8 b1 41 97 d9 b0 41 d3 cc b1 41 d9 e5 b1 41
       22.2305 22.106245 22.225012 22.23723
000090 2d 49 b1 41 aa 4e b1 41 74 10 b1 41 f7 49 b1 41
       22.16073 22.16341 22.133034 22.161116
0000a0 b6 e9 b0 41 00 f0 b0 41 e2 86 b1 41 89 22 b2 41
       22.114117 22.117188 22.19086 22.266863
0000b0 b4 3a b1 41 f3 fa b1 41 d9 50 b1 41 7a 32 b1 41
       22.153664 22.247534 22.164476 22.149647
0000c0 5f 2e b1 41 f5 45 b1 41 72 20 b2 41 fb c4 b1 41
       22.147642 22.159159 22.265842 22.221182
0000d0 15 93 b1 41 60 c1 b1 41 d2 f2 b1 41 b0 fe b0 41
       22.196817 22.219421 22.243565 22.12436
0000e0 27 52 b1 41 ab d8 b1 41 18 a3 b1 41 f3 7a b0 41
       22.165113 22.230795 22.204636 22.060034
0000f0 a6 af 72 bd d8 2b b2 41 47 90 b1 41 49 cd b1 41
       -0.059249543 22.271408 22.195448 22.225237
000100 86 ce b1 41 7f c0 b1 41 96 11 b2 41 e7 37 b2 41
       22.225842 22.218992 22.258587 22.277296
000110 24 39 b1 41 6d 19 b2 41 5e 86 b1 41 45 96 b1 41
       22.1529 22.262415 22.190609 22.198374
000120 75 24 7f bd ef ba b1 41 2a 34 b1 41 31 19 b1 41
       -0.062290628 22.216276 22.15047 22.1373
000130 d5 8f b1 41 fe 12 b1 41 c7 f9 b1 41 3b 45 b1 41
       22.19523 22.134274 22.246962 22.158804
000140 eb 43 b1 41 ff 37 b1 41 cc f4 b1 41 b4 65 b1 41
       22.158163 22.152342 22.24453 22.17466
000150 17 0f b1 41 28 5a b1 41 45 ae b1 41 59 34 b2 41
       22.132368 22.169022 22.210093 22.27556
000160 db b3 b1 41 18 97 b1 41 45 ec b0 41 e1 7f b1 41
       22.21282 22.198776 22.115366 22.18744
000170 3a a6 b1 41 22 53 65 bd a7 5f b1 41 f1 d4 b0 41
       22.206165 -0.055987485 22.171705 22.103975
000180 63 d7 b1 41 f6 a5 b1 41 ca 76 b1 41 c7 bc b1 41
       22.23017 22.206036 22.183002 22.217176
000190 3f c6 b1 41 94 0e b1 41 04 19 b1 41 2a 5d b1 41
       22.2218 22.132118 22.137215 22.17049
0001a0 04 88 b1 41 b7 50 b2 41 b2 d9 88 bd 6c 65 b1 41
       22.191414 22.289412 -0.06682147 22.174522
0001b0 6e 14 b2 41 77 ed ca bc cc e4 b1 41 fe 28 b1 41
       22.259975 -0.024771435 22.236717 22.145016
0001c0 71 d6 b1 41 75 a9 b1 41 41 f2 b1 41 e8 77 b1 41
       22.229708 22.207743 22.243288 22.183548
0001d0 e4 b7 b1 41 58 55 b1 41 e7 1a b1 41 3c 1e b1 41
       22.21479 22.166672 22.138136 22.139763
0001e0 43 cd b1 41 b9 54 b1 41 91 0a b2 41 2d 64 b1 41
       22.225225 22.166368 22.25516 22.173914
0001f0 87 39 b1 41 59 39 b1 41 bf e6 b1 41 36 a9 b1 41
       22.15309 22.153002 22.237669 22.207623

layer3.weight f4 [168, 128]
000000 0f 50 03 40 9c 29 05 40 1b 19 05 40 bf 83 06 40
       2.0517614 2.0806646 2.0796573 2.1017911
000010 ef 88 07 40 d4 c0 08 40 28 bf 0b 40 6e 04 0c 40
       2.1177328 2.1367693 2.1835423 2.1877704
000020 0d 10 06 40 6d 8f 06 40 25 4b 0a 40 1d f1 0a 40
       2.0947297 2.102504 2.1608365 2.1709664
000030 20 f4 06 40 4d 6f 09 40 bd 38 26 3d 27 cb 0a 40
       2.1086502 2.1474183 0.040581454 2.1686494
000040 ac 1c 07 40 01 e3 04 40 c9 2a 05 40 f2 f2 08 40
       2.111125 2.0763552 2.0807364 2.1398282
000050 47 f8 0a 40 be 3e 06 40 95 46 0b 40 4e 2e 0c 40
       2.1714036 2.0975795 2.176183 2.1903262
000060 8d 05 0c 40 82 a7 09 40 c1 3a 06 40 15 71 0b 40
       2.1878388 2.1508489 2.097336 2.178777
000070 fe dc 07 40 69 09 88 bd 82 17 21 3d 83 dc 07 40
       2.1228633 -0.0664242 0.03932906 2.122834
000080 1b 70 04 40 b4 0f 0c 40 21 3a 06 40 04 72 09 40
       2.0693424 2.1884584 2.097298 2.147584
000090 83 82 0b 40 c7 40 0b 40 c0 98 03 40 39 ea 05 40
       2.1798408 2.1758287 2.0561981 2.0924208
0000a0 b0 40 0c 40 c8 94 09 40 6d 9b 0b 40 51 bc 08 40
       2.1914482 2.149706 2.1813614 2.136494
0000b0 d9 aa 08 40 b1 4b 08 40 ee 67 0a 40 5a 1b 05 40
       2.1354277 2.1296198 2.1625934 2.0797944
0000c0 c3 ba 05 40 ad f1 03 40 19 46 06 40 8e 28 07 40
       2.089524 2.0616257 2.0980284 2.1118503
0000d0 9b d0 05 40 86 2d 08 40 70 ef 0b 40 61 db 09 40
       2.0908573 2.1277785 2.186489 2.1540148
0000e0 21 ce 06 40 a5 a8 07 40 33 3a 0a 40 0f eb 02 40
       2.106331 2.1196682 2.1598022 2.0455968
0000f0 ca 46 70 bd 67 5e 04 40 e4 04 0a 40 24 8c 06 40
       -0.05866126 2.0682619 2.1565485 2.1023035
000100 9e 73 04 40 3c 99 09 40 92 9d 04 40 2f 02 0a 40
       2.0695567 2.1499777 2.0721173 2.1563833
000110 20 d9 08 40 69 52 07 40 c8 69 07 40 71 40 04 40
       2.1382523 2.114405 2.1158314 2.0664332
000120 cd e2 61 bc 56 50 06 40 e3 de 0a 40 37 26 05 40
       -0.013786984 2.0986533 2.169854 2.0804574
000130 60 d2 0b 40 5b d8 05 40 b5 70 05 40 55 d6 0b 40
       2.1847153 2.0913303 2.085004 2.1849568
000140 79 a1 05 40 b3 0f 06 40 a2 d7 07 40 46 1b 07 40
       2.0879805 2.0947082 2.1225362 2.1110396
000150 d2 ee 04 40 19 c1 04 40 7b 0e 06 40 a5 40 04 40
       2.0770764 2.0742857 2.0946338 2.0664456
000160 68 9f 09 40 c9 87 06 40 1b 75 0a 40 21 bc 04 40
       2.1503544 2.1020377 2.1633976 2.0739825
000170 b8 7f 04 40 9a 59 77 bd 0d 19 05 40 75 a9 05 40
       2.0702953 -0.060388185 2.079654 2.0884678
000180 18 2a 0c 40 45 9d 06 40 88 a0 0b 40 c9 d5 0b 40
       2.1900692 2.103349 2.181673 2.1849234
000190 37 b2 04 40 2d d6 03 40 7c a1 0c 40 22 6c 07 40
       2.0733774 2.0599473 2.1973562 2.115975
0001a0 0b 69 0c 40 68 74 07 40 87 99 1a 3d 20 88 05 40
       2.1939113 2.1164799 0.03774407 2.0864334
0001b0 d6 7e 0c 40 71 64 07 b8 0b 21 09 40 6e d3 0a 40
       2.1952415 -3.228005e-05 2.1426418 2.1691546
0001c0 5f f9 03 40 e1 93 0a 40 2b 32 0b 40 cd 4b 09 40
       2.0620954 2.1652758 2.174937 2.1452515
0001d0 89 34 0b 40 1f be 05 40 90 5d 0a 40 49 5c 07 40
       2.1750815 2.089729 2.1619606 2.1150076
0001e0 e5 f4 0b 40 5c fb 0a 40 40 70 06 40 f7 29 0b 40
       2.1868222 2.1715918 2.1006012 2.1744363
0001f0 8e 46 09 40 1e e1 09 40 a7 63 07 40 06 7d 06 40
       2.1449313 2.154365 2.1154573 2.1013808
000200 0d f0 8b 3f a0 21 91 3f 4c 57 91 3f a6 49 90 3f
       1.0932633 1.1338387 1.1354766 1.1272476
000210 3a ce 95 3f 73 42 89 3f 54 2d 90 3f 82 09 95 3f
       1.170356 1.0723404 1.1263833 1.1643527
000220 56 d9 8d 3f 8c f4 95 3f f4 62 92 3f f4 71 8a 3f
       1.1081951 1.1715255 1.1436448 1.0816026
000230 a3 63 8e 3f 25 e4 8c 3f cc 2a f9 bc aa 14 94 3f
       1.1124157 1.1007124 -0.030415915 1.1568806
000240 70 09 8e 3f d8 2d 8b 3f 7a 19 97 3f b4 5f 94 3f
       1.109663 1.0873365 1.180465 1.1591706
000250 92 28 93 3f 7e 41 93 3f f1 1f 89 3f ca be 8c 3f
       1.1496756 1.1504362 1.0712873 1.0995724
000260 fa ed 97 3f 47 a4 88 3f e1 b1 88 3f bd a9 8c 3f
       1.18695 1.0675133 1.0679284 1.09893
000270 3e e6 89 3f a3 b9 5f 3c 04 29 67 bd 6e d9 97 3f
       1.0773389 0.013655099 -0.0564356 1.1863229
000280 34 c6 8f 3f 7a 3f 8f 3f 78 3c 89 3f 62 0b 95 3f
       1.1232362 1.1191247 1.0721579 1.1644099
000290 b4 41 99 3f 02 30 88 3f d3 2b 89 3f 74 7a 96 3f
       1.1973176 1.0639651 1.0716499 1.175612
0002a0 f0 0f 8f 3f 4f 22 8c 3f 64 74 98 3f f9 92 8e 3f
       1.1176739 1.094797 1.191052 1.1138602
0002b0 e2 08 90 3f 3c f4 90 3f d5 b4 8a 3f 28 92 93 3f
       1.1252711 1.1324534 1.0836436 1.1528978
0002c0 d2 b9 94 3f c2 e1 89 3f d8 29 97 3f a2 61 95 3f
       1.1619208 1.0772021 1.1809645 1.167042
0002d0 bc 44 93 3f c8 9f 89 3f 78 87 8b 3f a4 36 96 3f
       1.1505351 1.0751886 1.0900717 1.1735425
0002e0 88 cc 8f 3f 0c 43 95 3f cf 33 8d 3f 8a 61 8f 3f
       1.1234293 1.1661086 1.1031436 1.1201642
0002f0 79 73 7c bd d5 cd 8e 3f b2 24 90 3f 42 13 8f 3f
       -0.06163356 1.1156565 1.1261199 1.1177752
000300 7e 8f 95 3f 5b 9a 8a 3f a6 e8 8d 3f 20 98 90 3f
       1.1684415 1.0828356 1.1086624 1.1296425
000310 d8 72 8f 3f 18 75 8d 3f 4e a6 90 3f e3 6c 89 3f
       1.1206923 1.1051359 1.1300752 1.0736355
000320 18 6b 45 bd 5e 5f 8d 3f 16 65 96 3f 8a 7d 96 3f
       -0.048197836 1.1044729 1.1749599 1.1757061
000330 9b b5 8c 3f 6a a5 93 3f d6 21 92 3f 4c 44 8d 3f
       1.0992922 1.1534855 1.1416576 1.1036468
000340 df 9b 89 3f 8b a1 88 3f 8e 99 8a 3f 9c e9 8b 3f
       1.0750693 1.0674299 1.0828111 1.0930667
000350 4d 4e 8d 3f 0c c0 95 3f 64 52 97 3f 88 c3 8a 3f
       1.103952 1.1699233 1.1822019 1.0840921
000360 06 5d 95 3f ae e4 97 3f a0 14 8f 3f 6c 6d 92 3f
       1.1669014 1.1866663 1.1178169 1.1439643
000370 94 8e 8f 3f 1e 7a 3f 3c 9e 88 95 3f 04 b4 8e 3f
       1.1215386 0.01168683 1.1682317 1.1148686
000380 38 73 98 3f 21 8e 88 3f a6 ee 8c 3f 42 82 8b 3f
       1.1910162 1.0668374 1.101033 1.0899127
000390 e6 b8 8d 3f 4b 5e 8a 3f 66 88 91 3f 4a 0e 91 3f
       1.1072052 1.0810026 1.136975 1.1332486
0003a0 28 5d 8a 3f f8 eb 91 3f e3 94 26 bc 78 90 8b 3f
       1.0809679 1.1400137 -0.010167333 1.0903463
0003b0 36 8c 8d 3f 32 d3 9b 3c ee 5f 96 3f bf 79 8e 3f
       1.1058414 0.019021604 1.1748025 1.1130904
0003c0 9a 3d 8f 3f 88 fd 95 3f 1a 59 94 3f 1d a4 8d 3f
       1.1190674 1.1717997 1.1589692 1.1065708
0003d0 b4 ab 98 3f bc 96 88 3f 21 b0 8b 3f 06 05 93 3f
       1.19274 1.0671 1.0913125 1.1485908
0003e0 c2 4d 8a 3f 50 7c 8a 3f 0e 66 93 3f d8 d0 95 3f
       1.080498 1.0819187 1.151552 1.1704359
0003f0 73 c1 8c 3f 64 7c 90 3f e2 fc 8b 3f 72 c4 8f 3f
       1.0996536 1.1287961 1.0936549 1.1231825

layer3.bias f4 [168]
000000 36 c1 5d 3f 7c b9 90 3f 43 d3 ce 3f 30 85 98 41
       0.8662294 1.1306605 1.6158222 19.065033
000010 48 ff cc 3f 93 03 c1 3f c4 63 8b 3f e7 39 88 3f
       1.6015406 1.5079216 1.0889821 1.064267
000020 7b 78 b3 3f 58 76 8a 3f 82 fb 68 40 5b f9 06 3f
       1.4021143 1.0817366 3.6403508 0.52724236
000030 57 3b 60 3f ef b6 9f 3f 50 59 7f 40 04 88 b1 3f
       0.87590545 1.2477702 3.9898262 1.3869634
000040 78 1b 80 41 f6 af a3 3f 6b 49 5d 40 99 cd bd 3f
       16.013412 1.2788074 3.457606 1.4828368
000050 ed a5 69 40 a6 af 24 40 8b ca 07 40 b2 67 cf 3f
       3.6507523 2.5732207 2.1217372 1.620352
000060 30 71 99 41 5b 02 29 40 46 51 97 41 85 1c cb 3f
       19.180267 2.6407688 18.914684 1.5868078
000070 86 9d 99 3f 1f 4d 5f 3f 69 cf 0f 40 ed 62 93 3f
       1.2001197 0.8722705 2.2470343 1.1514565
000080 bb 23 9b 3f 6d 69 23 40 b3 3c 95 41 0e 53 92 3f
       1.2120279 2.5533097 18.654638 1.1431596
000090 4d 74 21 40 0c aa 16 40 c6 b2 5c 40 7b ed 83 3f
       2.5227234 2.3541288 3.4484115 1.0306848
0000a0 a2 23 2a 40 80 87 92 41 56 a5 39 3f 21 cf 4b 3f
       2.6584249 18.316162 0.7251791 0.7961293
0000b0 9e 45 83 3f 92 c6 51 3f df bb 73 3f 77 8b fe 3f
       1.025562 0.8194362 0.95208544 1.9886311
0000c0 1b b8 57 40 a3 ab 82 3f 16 71 9d 41 d8 47 1a 40
       3.370612 1.0208629 19.680218 2.410635
0000d0 b0 fc 2a 40 88 cd 01 40 47 b1 b1 3f 41 86 96 40
       2.6716728 2.0281696 1.3882226 4.7038884
0000e0 d6 dc 98 41 57 33 89 3f 51 1c 2d 40 ab e8 a9 3f
       19.10783 1.0718793 2.7048533 1.327413
0000f0 77 09 f1 3f eb fa a9 3f 65 a7 3b 40 a9 06 9c 41
       1.8831013 1.3279699 2.932092 19.503252
000100 5b f4 d3 3f 5c e5 5a 3f 95 f3 8b 3f bb 56 0f 40
       1.6558946 0.85506225 1.093371 2.2396686
000110 b6 80 85 40 dd df b9 40 ca c2 af 3f 42 22 b1 3f
       4.171962 5.808577 1.373132 1.383858
000120 6a 0c 93 41 4b ca a0 3f df 5a 90 3f af 28 9e 41
       18.381062 1.2561735 1.1277732 19.769865
000130 97 09 bb 3f d4 16 ec 3f c4 77 a1 40 aa 1a 0c 40
       1.4612302 1.8444467 5.04587 2.1891274
000140 fd 23 31 40 19 91 b7 3f 14 bf c6 3f 7f 20 71 40
       2.7678216 1.4341155 1.5527062 3.7676084
000150 90 17 a3 3f 39 70 9c 41 32 59 86 3f ea 5f e8 3f
       1.2741566 19.554796 1.049597 1.8154271
000160 f1 f3 6d 3f 66 1e 74 40 5b 3c 2b 40 70 5c 30 40
       0.9295035 3.8143554 2.6755588 2.755642
000170 92 2c ea 3f e4 4b 91 41 a4 79 e6 3f f1 a9 7c 3f
       1.8294852 18.162056 1.8005872 0.9869681
000180 ba 53 10 40 24 9d 85 40 b8 cf 15 40 fe 6b 13 3f
       2.2551103 4.175432 2.3408031 0.5758666
000190 fc 33 ec 3e a2 e5 b4 3f 31 9b 4c 3f a0 66 8d 3f
       0.4613341 1.4132578 0.79924303 1.1046944
0001a0 73 6c 9b 41 13 99 c6 3f 7e 19 18 3f 48 42 16 40
       19.427954 1.5515465 0.594139 2.3477955
0001b0 5d e4 dd 3f 98 6c b6 40 f2 64 fe 3f 7a 01 70 40
       1.7335316 5.700756 1.9874556 3.7500901
0001c0 48 24 20 3f f2 64 9e 41 b2 17 d9 3f 2e d9 4b 3f
       0.6255536 19.79929 1.6960356 0.79628265
0001d0 5d b0 99 3f 6e e9 9e 41 c0 f1 1a 3f af 5d 87 3f
       1.2006947 19.86398 0.6052513 1.0575465
0001e0 b5 bf ed 3f 20 57 86 41 1d 36 96 3f 61 13 4a 3f
       1.8574129 16.792542 1.1735264 0.7893582
0001f0 64 83 5b 41 61 6f 69 40 f2 47 5f 3f da 3f 87 41
       13.719578 3.647423 0.87219155 16.906178
000200 e9 17 a0 40 fa 6d 56 40 64 6a 18 3f ae eb 2a 40
       5.0029187 3.3504624 0.5953734 2.6706347
000210 01 16 eb 3f 90 84 82 41 00 01 4d 40 a8 e0 dc 3f
       1.836609 16.314728 3.203186 1.725606
000220 12 40 c3 3f 9a 12 d7 3e b4 53 36 3f 35 d4 a2 3f
       1.5253928 0.4200638 0.7122147 1.272101
000230 f6 0a 29 3f 2a 24 60 3f 18 4a c8 3f 3a 87 d3 3f
       0.6603235 0.8755518 1.5647612 1.6525643
000240 24 50 21 3f 72 59 9b 3f 45 ea 79 40 2b 84 90 3f
       0.6301291 1.2136672 3.9049237 1.1290334
000250 5a a9 1a 3f f4 da e7 3f 18 ec e3 3e 6c ee 13 3f
       0.6041466 1.8113694 0.44516063 0.5778568
000260 ed 94 0b 3f 5d 21 e2 3e b8 8a 59 3f 38 1d b6 40
       0.5452412 0.4416608 0.84977293 5.6910667
000270 9a a8 0f 40 e5 82 fc 3e 60 a0 c7 3f f6 a9 9b 3f
       2.2446656 0.49318615 1.5595818 1.2161243
000280 26 23 11 3f b5 ae 5d 41 25 fe e2 3f 0f 47 9e 3e
       0.5669426 13.855153 1.7733809 0.30913588
000290 e0 ed a6 3f e7 ae 92 41 62 eb db 3e b6 61 d1 3e
       1.3041344 18.335402 0.4295302 0.4089486
