models/14-15/coin_model_weights.pth (torch, 161910 bytes, 6 tensors)

layer1.weight f4 [128, 82]
00000000: 5376 dd41 09db 5b41 919b 0641 e8d5 6241
00000010: ae99 c640 bda8 9b41 a735 7741 2268 4d41
00000020: 350c 6941 a4c6 9a41 55d2 c741 b6bc a241
00000030: 7213 9641 f851 8241 b59a da41 090b f141
00000040: d44c a041 cb75 9341 c2e2 d741 52ca 9341
00000050: b066 2141 5631 2541 52c5 be41 7e05 e941
00000060: 4262 5e41 9938 7241 f70c 8141 473c 5e41
00000070: 929c 1b40 7d2b 7041 92f1 3741 93e3 1741
00000080: 8687 e340 5264 ee41 badc ed41 614c fd41
00000090: 7178 fd41 26b7 ff41 ff84 fb41 6bc9 f841
000000a0: 699c 9641 a474 e541 96ed f741 478c fa41
000000b0: 13f4 f841 88bb f841 a5ee fd41 4ec2 f141
000000c0: 3a72 df41 e2c4 da41 1a1a f541 5844 b341
000000d0: a950 0042 fd4f 0042 1a5d f241 02dd e741
000000e0: 5e15 9b41 9630 f641 91b0 fa41 c257 fa41
000000f0: 4a0c f841 06ac f041 be6c ed41 daac f741
00000100: ff21 d141 cc3a f941 6c71 ff41 6196 fe41
00000110: a6bb f141 82ba dd41 efc9 fb41 56ae fb41
00000120: 3b82 fc41 57e9 0042 039a 0042 beb0 f741
00000130: 21a0 fd41 22ae fd41 fe12 0042 ee7e 0042
00000140: 0dd5 ff41 6204 6241 4c4a dd41 eacc 5c41
00000150: 71b9 0741 5bba 6341 2553 c640 574b 9b41
00000160: 4758 7541 80dc 4d41 7868 6b41 04b5 9b41
00000170: 7d63 c741 22b0 a241 6dda 9541 a552 8241
00000180: 00c6 da41 3115 f241 f19c a041 0e50 9441
00000190: 5b37 d841 a21d 9441 6a70 2241 824b 2541
000001a0: 7c20 bf41 940b e941 ec11 5f41 01b0 7241
000001b0: cb3e 8041 8eb5 5d41 c319 1540 5945 6f41
000001c0: 2b4e 3841 dc9d 1941 20d3 e340 1a77 ee41
000001d0: f245 ee41 adfb fc41 f5a9 fc41 484f ff41
000001e0: 9663 fc41 3660 f841 42fe 9541 a8a7 e541
000001f0: 960e f741 ac13 fa41 b5ad f841 128b f941
00000200: be76 fd41 5e1e f241 3ef4 df41 96fd d941
00000210: 9ae5 f541 9849 b341 f442 0042 4281 0042
00000220: aadd f241 f2ce e841 1481 9a41 7a4d f641
00000230: 85f9 f941 ddaa fa41 fef0 f741 8af3 f041
00000240: 437c ed41 e62d f841 0fdf d141 1415 fa41
00000250: ee35 0042 b533 fe41 4e53 f141 ba42 dd41
00000260: 289b fb41 492f fb41 69d2 fb41 875b 0142
00000270: d47c 0042 6591 f841 e2e3 fd41 92b6 fd41
00000280: 4e8f ff41 5911 0042 18df fe41 50a7 6141
00000290: b073 dd41 bebe 5b41 1bf6 0641 2403 6241
000002a0: add4 c640 cea5 9a41 d50e 7641 3169 4e41
000002b0: 7d10 6b41 ae30 9b41 5412 c741 47ab a241
000002c0: ce4a 9541 136c 8241 0158 db41 feff f141
000002d0: a57f a041 d21a 9441 09b7 d741 a18a 9341
000002e0: 6205 2241 732d 2641 2933 bf41 711c e941
000002f0: 9c48 5e41 03d5 7241 cf3c 8141 41a2 5e41
00000300: 4ab9 1940 5295 7041 6883 3741 8a37 1941
00000310: eb12 e440 2a37 ed41 d21b ee41 341e fe41
00000320: 6589 fd41 be7e ff41 4875 fc41 1208 f841
00000330: 642b 9641 fcfc e541 3af3 f741 058e f941
00000340: c20c f841 dc89 f941 8258 fd41 dadd f141
00000350: 2e53 e041 075a da41 de65 f641 54f3 b241
00000360: 1841 0042 1f53 0042 a2df f241 79ce e841
00000370: 7db4 9b41 066c f541 3eff f941 e57a fa41
00000380: 8a5c f741 b6a8 f041 51b9 ed41 5a18 f841
00000390: c49d d141 6aec f941 a619 0042 f80d ff41
000003a0: c2bb f141 9263 dd41 50aa fb41 526c fb41
000003b0: e81b fc41 f370 0142 c243 0042 fc81 f841
000003c0: c104 fe41 377a fe41 411d 0042 7bf3 ff41
000003d0: cc02 ff41 9918 6241 4238 de41 005a 5b41
000003e0: 380e 0841 9520 6441 f4b0 c440 80a0 9a41
000003f0: 5db5 7641 02e8 4e41 f998 6a41 7e59 9b41
27.682775 13.740975 8.41298 14.177223 6.2062597 19.457392 15.450599 12.837923
14.56548 19.346992 24.977701 20.342144 18.759495 16.290024 27.32554 30.130388
20.037514 18.432516 26.985722 18.47379 10.08757 10.324545 23.846348 29.127682
13.898989 15.138818 16.13133 13.889716 2.4314313 15.010617 11.496477 9.49306
7.1102934 29.798985 29.732777 31.662294 31.68381 31.964428 31.43994 31.098349
18.826372 28.681953 30.991009 31.318495 31.119177 31.091568 31.741526 30.219875
27.930775 27.346134 30.637745 22.408371 32.07877 32.078114 30.29546 28.982914
19.385433 30.773724 31.336214 31.29285 31.006 30.083996 29.678097 30.9594
26.1416 31.15371 31.930382 31.823427 30.216625 27.716068 31.4736 31.460125
31.56359 32.22787 32.150402 30.9613 31.703188 31.710026 32.018547 32.123955
31.979029 14.12607 27.661278 13.800028 8.482774 14.232997 6.1976495 19.411787
15.334052 12.866333 14.713005 19.463387 24.923578 20.336002 18.731653 16.290354
27.34668 30.260347 20.076632 18.53909 27.027029 18.51447 10.152445 10.330935
23.890862 29.130653 13.941875 15.16797 16.03066 13.856825 2.3296974 14.954431
11.519084 9.60104 7.119522 29.808155 29.784153 31.622889 31.582987 31.913712
31.548626 31.046978 18.74915 28.706863 30.882122 31.259605 31.084818 31.192905
31.68298 30.264828 27.994259 27.248821 30.73711 22.410934 32.065384 32.12623
30.358234 29.101048 19.313026 30.78783 31.246836 31.33343 30.992672 30.118916
29.685675 31.022411 26.233915 31.260292 32.052666 31.775248 30.165676 27.657581
31.45076 31.398088 31.47774 32.339382 32.121902 31.070993 31.73627 31.714146
31.944973 32.01694 31.858932 14.103348 27.681488 13.734068 8.435084 14.125767
6.2134614 19.33096 15.378621 12.9006815 14.691525 19.39877 24.88395 20.333632
18.661526 16.30277 27.41797 30.249996 20.062326 18.513096 26.964373 18.44269
10.126314 10.386096 23.89998 29.138887 13.892727 15.177005 16.154692 13.914613
2.4019341 15.036455 11.469582 9.576059 7.1273093 29.651936 29.763584 31.764748
31.692087 31.936886 31.557266 31.00394 18.771187 28.748528 30.993763 31.194345
31.00623 31.192314 31.668217 30.233326 28.040615 27.293959 30.79974 22.368813
32.06357 32.081173 30.359196 29.100817 19.463129 30.677746 31.24963 31.310007
30.920185 30.082378 29.715487 31.01189 26.202034 31.240437 32.025047 31.88182
30.216679 27.673618 31.45816 31.42789 31.513626 32.360302 32.06617 31.063469
31.752321 31.809675 32.02857 31.993887 31.876366 14.131005 27.77747 13.709473
8.503471 14.257955 6.1466007 19.32837 15.419278 12.931643 14.662347 19.418697

layer1.bias f4 [128]
00000000: ea6c f341 e7b4 f241 a18d f341 e190 f341
00000010: 6b8c f241 927a f241 2d68 f341 b143 f341
00000020: 6b7d f341 a1f5 f241 89b8 f241 1dbe f241
00000030: 7654 f341 599f f341 21af f341 4c92 5540
00000040: 1ab1 f241 45aa f341 c742 f341 7fb5 f241
00000050: 9981 f341 9f43 f341 511a f341 5921 f341
00000060: 7d37 f341 ed76 f341 9a08 f341 2d21 f341
00000070: 0b83 f341 1996 f241 e58d f341 d98d f341
00000080: c7ad f341 f523 f341 71a0 f241 299e f241
00000090: fa93 f341 d6b4 f241 b972 f341 1dd1 f241
000000a0: a585 f341 669c f241 5dab f341 4723 f341
000000b0: bdba f241 219e f241 0279 f241 95ad f341
000000c0: 7b39 f341 4b84 f341 05fa f241 bb9a f341
000000d0: 59b9 f241 95b4 f241 3ddf f241 c969 f241
000000e0: def6 f241 799d f341 1161 f341 5390 f241
000000f0: 529d f241 f1f4 f241 3907 f341 fb6a f241
00000100: d7a9 f241 67b8 f241 797f f341 1ddd f241
00000110: c129 f341 3592 f241 4ecd f241 15b2 f241
00000120: f52d f341 c6b4 f241 4d33 f341 6974 f241
00000130: eec3 f241 11d0 f241 9d6c f341 6959 f341
00000140: 8917 f341 b25f f341 7958 f341 9916 f341
00000150: 0586 f241 45b1 f241 11b0 f241 db6d f341
00000160: 5e03 f341 9909 f341 bea3 f341 414f f341
00000170: 8fce f241 6166 f341 9dbb f241 5d9b f341
00000180: ca1f f341 39ab f241 62a4 5c40 190d f341
00000190: 9298 f241 4a3f f341 cfb3 f241 3fd1 f241
000001a0: 16af f341 addc f241 89d4 f241 2645 f341
000001b0: 7574 f241 51f4 f241 cdb4 f241 e69e f341
000001c0: 3af5 f241 6905 f341 07ac f241 196e f341
000001d0: 3937 f341 237a f341 1d21 f341 69aa f341
000001e0: 7a38 f341 7d81 f241 fe04 f341 8f63 f241
000001f0: a588 f241 5341 f341 919b f341 363f f341
30.42818 30.338331 30.444155 30.445742 30.318563 30.309849 30.425867 30.408052
30.43624 30.369936 30.340105 30.342829 30.41624 30.452806 30.460512 3.3370543
30.336475 30.45814 30.407606 30.338621 30.43828 30.408018 30.38785 30.391283
30.402094 30.43307 30.3792 30.3912 30.438986 30.32329 30.444284 30.444262
30.459852 30.392557 30.32834 30.327227 30.447254 30.338299 30.431017 30.352106
30.440256 30.326366 30.458673 30.392225 30.34118 30.327211 30.309086 30.459757
30.403067 30.439596 30.37208 30.450552 30.340502 30.338175 30.359003 30.301653
30.37054 30.45189 30.422396 30.32047 30.326817 30.3696 30.378527 30.302237
30.33293 30.34004 30.437243 30.357965 30.395388 30.32139 30.350246 30.336954
30.39744 30.338268 30.40005 30.30684 30.345669 30.351595 30.428034 30.418657
30.386492 30.421726 30.4182 30.386034 30.31544 30.336557 30.33597 30.42864
30.376644 30.379686 30.454952 30.413698 30.350859 30.42499 30.341608 30.450861
30.390522 30.333605 3.4475331 30.381395 30.324497 30.405903 30.337797 30.35217
30.460491 30.357752 30.353777 30.408764 30.306864 30.369295 30.338282 30.452587
30.36974 30.377642 30.333998 30.428759 30.401964 30.434637 30.391169 30.458208
30.402576 30.313227 30.377438 30.298613 30.316721 30.406897 30.45096 30.405865

layer2.weight f4 [128, 128]
00000000: 45ab fb41 21e8 fb41 3b73 fc41 e7d1 fb41
00000010: 46e1 fb41 d466 fc41 7255 fc41 3722 fc41
00000020: 3ee4 fb41 6085 fc41 5437 fc41 56ef fb41
00000030: ac84 fc41 f72f fc41 ac2a fc41 b0b9 bfc1
00000040: a72a fc41 f7b2 fb41 c7b0 fb41 a6e0 fb41
00000050: 6986 fc41 b6e4 fb41 0f03 fd41 e15e fc41
00000060: 326d fc41 dc27 fc41 5d60 fc41 f92d fc41
00000070: c37c fc41 49f7 fb41 7dd7 fb41 c3dc fb41
00000080: 615c fc41 39d5 fb41 3939 fc41 acf8 fb41
00000090: cdf5 fb41 fb3f fc41 3ffc fb41 96f5 fb41
000000a0: c0ad fb41 b62a fc41 325e fc41 1747 fc41
000000b0: e5a6 fb41 f360 fc41 96aa fb41 a324 fc41
000000c0: 3eb2 fb41 c232 fc41 7f2f fc41 7313 fc41
000000d0: 85ca fb41 016c fc41 9e29 fc41 bc8e fb41
000000e0: 8a42 fc41 837b fc41 09c4 fb41 66d0 fb41
000000f0: 630e fd41 36f1 fb41 e136 fc41 0e3c fc41
00000100: f67c fb41 10f9 fb41 1e45 fc41 1a67 fc41
00000110: d20e fc41 842a fc41 5040 fc41 e13b fc41
00000120: 61c1 fb41 400f fc41 847a fc41 2a7a fc41
00000130: f09a fc41 4875 fc41 2020 fc41 f9cd fc41
00000140: 3808 fc41 ab58 fc41 d9c1 fb41 59b5 fb41
00000150: fba4 fb41 deee fb41 e0d3 fb41 ca94 fb41
00000160: 81f1 fb41 5059 fc41 7a52 fc41 ddbd fb41
00000170: 6c0b fc41 e4e8 fb41 e3d0 fb41 ee01 fc41
00000180: f09b fb41 33bd fb41 ec53 c0c1 5b12 fc41
00000190: ec9f fb41 7fd5 fb41 2fcf fc41 df10 fc41
000001a0: fb08 fc41 6a21 fc41 5487 fc41 58b1 fb41
000001b0: 8128 fc41 de8a fb41 df9c fc41 5004 fc41
000001c0: 9eb1 fb41 6823 fc41 a4a1 fb41 d263 fc41
000001d0: 29cc fb41 2eae fb41 53c5 fb41 ff40 fc41
000001e0: 8722 fc41 8b0f fc41 c386 fc41 35b0 fc41
000001f0: 9b63 fc41 0437 fc41 713d fc41 284a fc41
00000200: 2567 fb41 956a fb41 9ddf fb41 8ade fb41
00000210: 2891 fb41 d51a fc41 9e98 fb41 7a9e fb41
00000220: 0135 fc41 23eb fb41 e7cc fb41 9352 fc41
00000230: 48bc fb41 a720 fc41 d2e6 fb41 99c4 bec1
00000240: 00eb fb41 8b79 fb41 7a85 fb41 f7e9 fb41
00000250: 12f2 fb41 d129 fb41 8c3b fc41 2c55 fc41
00000260: 4ddf fb41 d84e fc41 c13d fc41 cfe4 fb41
00000270: 5afa fb41 55aa fb41 fb90 fb41 beb9 fb41
00000280: 8368 fb41 d14b fc41 7219 fc41 a4fb fb41
00000290: e0fb fb41 82b9 fb41 c9ea fb41 f513 fc41
000002a0: 7157 fb41 9b46 fb41 7b57 fb41 7260 fb41
000002b0: e91f fc41 01f9 fb41 604f fb41 f79e fb41
000002c0: 3c78 fb41 cada fb41 c779 fb41 8e62 fb41
000002d0: 34df fb41 00b9 fb41 59d8 fb41 f86b fb41
000002e0: 9c8b fb41 cbb6 fb41 f2fd fb41 7610 fc41
000002f0: f27a fc41 00e6 fb41 b8fb fb41 616b fc41
00000300: 0c44 fb41 26de fb41 3907 fc41 f928 fc41
00000310: 2b1a fc41 b8ec fb41 36ab fb41 c0f8 fb41
00000320: 5234 fc41 05dc fb41 9867 fb41 5294 fb41
00000330: 5d29 fc41 5707 fc41 4cf9 fb41 b611 fc41
00000340: a53b fc41 6180 fb41 bdb0 fb41 9277 fb41
00000350: dda9 fb41 bb5d fb41 54ab fb41 406a fb41
00000360: cc60 fb41 1ca2 fb41 9484 fb41 9cae fb41
00000370: 565e fb41 69b4 fb41 6eb4 fb41 96dc fb41
00000380: 39df fb41 7efe fb41 ddf1 bfc1 9f5a fc41
00000390: 14be fb41 2200 fc41 1db4 fc41 71e3 fb41
000003a0: 70a8 fb41 4afb fb41 8cf5 fb41 6081 fb41
000003b0: a898 fb41 28a5 fb41 efb0 fb41 67cf fb41
000003c0: e0c9 fb41 0c16 fc41 d287 fb41 5d7f fb41
000003d0: 5de3 fb41 6512 fc41 e092 fb41 26a2 fb41
000003e0: a19a fb41 2f67 fb41 9ddf fb41 cc91 fc41
000003f0: 003b fc41 4f79 fb41 f018 fc41 19be fb41
31.458628 31.488344 31.556265 31.477491 31.484997 31.550209 31.541721 31.516706
31.486446 31.565125 31.527016 31.491863 31.564781 31.52342 31.520836 -23.965668
31.520826 31.462385 31.461317 31.484692 31.56563 31.486675 31.626493 31.546328
31.553318 31.519463 31.547052 31.522448 31.560919 31.495745 31.480219 31.482794
31.545107 31.479113 31.52794 31.496422 31.49502 31.53124 31.498167 31.494915
31.459839 31.520855 31.545994 31.534712 31.456491 31.547338 31.458294 31.517889
31.462032 31.524784 31.523191 31.509497 31.473886 31.552736 31.52032 31.444695
31.53249 31.560308 31.47072 31.476757 31.632025 31.492779 31.526796 31.529324
31.436016 31.496613 31.533749 31.550343 31.507236 31.52076 31.531403 31.529238
31.469423 31.507446 31.559822 31.55965 31.575653 31.557266 31.515686 31.600573
31.504013 31.543295 31.469652 31.463549 31.455557 31.491634 31.478455 31.44765
31.492922 31.54361 31.540272 31.467707 31.505577 31.488716 31.476995 31.500942
31.451141 31.467382 -24.040977 31.508963 31.453087 31.479246 31.601164 31.508238
31.504385 31.516315 31.566078 31.461594 31.519777 31.442806 31.576597 31.502106
31.461727 31.517288 31.453926 31.54874 31.474688 31.460049 31.47135 31.531736
31.51686 31.50759 31.565802 31.586039 31.548635 31.526863 31.53 31.53621
31.425364 31.427042 31.484186 31.483662 31.445877 31.513102 31.44952 31.452381
31.52588 31.489813 31.47505 31.54032 31.466934 31.515944 31.487705 -23.845995
31.489746 31.434347 31.440174 31.48924 31.493198 31.395418 31.529076 31.541588
31.484034 31.538498 31.530153 31.486723 31.497242 31.45817 31.445791 31.465694
31.426031 31.53702 31.512424 31.497871 31.497986 31.46558 31.489641 31.509745
31.417696 31.409475 31.417715 31.422092 31.515581 31.496584 31.413757 31.45262
31.433708 31.48183 31.434462 31.423122 31.483986 31.465332 31.480639 31.42772
31.443169 31.464254 31.498997 31.508038 31.560032 31.487305 31.49791 31.552431
31.408226 31.48347 31.503527 31.520006 31.512777 31.490585 31.4586 31.49646
31.525547 31.482431 31.425583 31.447422 31.520197 31.503584 31.496727 31.508648
31.529123 31.437685 31.461298 31.433384 31.457941 31.420767 31.458656 31.42688
31.422264 31.454155 31.439735 31.460258 31.421062 31.46309 31.4631 31.482708
31.483995 31.499264 -23.993097 31.544249 31.467812 31.500065 31.587946 31.486055
31.457245 31.4977 31.494896 31.438171 31.44954 31.455643 31.461393 31.47627
31.473572 31.510765 31.441319 31.43719 31.486017 31.508982 31.446716 31.454174
31.450502 31.425383 31.484186 31.57119 31.528809 31.434233 31.512177 31.467821

layer2.bias f4 [128]
00000000: 3383 e541 a0f1 e541 17e7 e541 cb36 e541
00000010: e3b6 003d ee09 e541 5337 e541 6ffd e541
00000020: d98e e541 0510 e541 0a94 e541 a500 e641
00000030: 7c5c e541 11c9 e541 5484 e541 fc4b e541
00000040: 8888 e541 ccbe e541 d365 e541 452d e541
00000050: edf0 e441 7d79 e541 6c65 e541 b3d2 e541
00000060: 3404 e541 88f6 e541 cebb e541 1cdb e541
00000070: 16fb 09bd b9db e541 9a14 76bb b86b e541
00000080: d9a2 e441 baca e441 e8b6 e541 557e e541
00000090: be10 e541 1bb0 e541 fc43 e541 e555 e541
000000a0: c0e1 e541 7199 e541 8035 e541 1cad e541
000000b0: bf59 e541 75d9 e541 4db2 e441 4a8a 08bc
000000c0: bef8 71bd feeb e441 5c9f e541 35cb e541
000000d0: ab29 e541 59d9 e541 03ff e441 817a e541
000000e0: 3ee3 70bd 3633 e541 a444 e541 242e e541
000000f0: a10a e541 1f53 e541 5fd6 e541 fd24 e541
00000100: 5a9f e541 5697 e541 cbb3 e541 7dea e541
00000110: a386 e541 7d13 e541 dc00 e641 5190 e441
00000120: 38d1 e441 fefa e441 351e e641 778b e541
00000130: 8b78 e541 25ff e441 09a5 e541 8dc7 67bd
00000140: 6484 e541 ad47 e541 d952 e541 30e4 e541
00000150: 159b e541 235c 0d3c 95c9 e441 6f93 e541
00000160: 72df e541 4eb7 e441 e830 e641 874a e541
00000170: d57b e541 bf27 e541 32e7 e441 e7b0 e541
00000180: 6795 e541 7ad2 e541 d9d2 e441 c7b4 e541
00000190: 7e10 e541 3b6e e541 0d0b e541 1951 e541
000001a0: 15a5 e541 4ce1 e541 4b90 e541 8f3b e641
000001b0: 8a31 e541 3f3b e541 45c8 e541 60f6 e541
000001c0: bfa6 e541 cd71 e541 b0d8 e441 9dcf e541
000001d0: 6df8 e441 a97d e541 a043 e541 0987 e541
000001e0: b4de e441 d5c8 e541 8060 e541 5a46 e541
000001f0: cda6 e541 af55 e541 fbe2 e541 8a2d e541
28.689062 28.742981 28.737837 28.651754 0.031424414 28.629848 28.652014 28.748747
28.69475 28.632822 28.697285 28.750315 28.670158 28.723177 28.689613 28.662102
28.691666 28.718163 28.674719 28.647104 28.61764 28.68432 28.674522 28.72788
28.627052 28.745377 28.716702 28.731987 -0.03368672 28.732286 -0.00375489 28.677597
28.579515 28.598988 28.71431 28.686686 28.633175 28.710989 28.658195 28.66694
28.73523 28.699923 28.651123 28.709526 28.668821 28.73118 28.58706 -0.008333752
-0.05907511 28.61523 28.702812 28.724222 28.645346 28.731127 28.624517 28.684816
-0.058810465 28.650005 28.658516 28.64753 28.63019 28.665586 28.729673 28.64306
28.702808 28.698895 28.71279 28.739496 28.69074 28.634516 28.75042 28.570467
28.602158 28.622555 28.76475 28.693098 28.683859 28.624582 28.705584 -0.05658679
28.689644 28.659998 28.665453 28.73642 28.700724 0.008627924 28.598429 28.69699
28.734104 28.589504 28.77388 28.66139 28.685465 28.644407 28.612888 28.711378
28.69795 28.727772 28.602953 28.71327 28.633053 28.678823 28.630396 28.664598
28.705606 28.735008 28.695456 28.779081 28.649189 28.653929 28.722788 28.7453
28.706419 28.680567 28.605804 28.726374 28.621302 28.686357 28.65802 28.690935
28.608742 28.723063 28.67212 28.659351 28.706446 28.666838 28.73583 28.647236

layer3.weight f4 [98, 128]
00000000: 2cf4 4c41 cc92 4c41 f8e6 4c41 4d10 4c41
00000010: 8bf5 fb3c 82f6 4c41 a83d 4c41 49d6 4c41
00000020: 24a7 4c41 a67e 4d41 3492 4d41 1989 4c41
00000030: dc8c 4c41 b067 4d41 b4b9 4c41 62d8 4b41
00000040: 78be 4c41 b483 4c41 c29a 4c41 6056 4d41
00000050: 4f9d 4c41 4cd2 4b41 4a73 4c41 1ab3 4d41
00000060: bae1 4c41 1a1c 4c41 0a54 4c41 8dd4 4c41
00000070: e932 263d 2e33 4d41 0e86 523b 5697 4d41
00000080: c9b6 4d41 3dc6 4c41 b5ff 4c41 ed3d 4d41
00000090: 007c 4c41 ecbf 4c41 8949 4d41 0c94 4c41
000000a0: 1d32 4c41 d4eb 4b41 fe6d 4c41 417e 4c41
000000b0: b69f 4c41 be1e 4d41 39eb 4b41 9d1f 49bd
000000c0: dc0d abbc ca2e 4d41 1ca0 4b41 1c48 4c41
000000d0: 2419 4c41 ca76 4d41 7e20 4d41 2c59 4c41
000000e0: 6015 40ba e9ad 4c41 7d9a 4c41 39e7 4c41
000000f0: c86d 4c41 9420 4c41 d684 4c41 81d1 4c41
00000100: 481b 4d41 859d 4d41 adfb 4b41 1ed5 4c41
00000110: 4829 4c41 54aa 4d41 d052 4d41 e8ef 4b41
00000120: f411 4c41 a176 4c41 70e8 4b41 b093 4d41
00000130: 159b 4c41 2021 4c41 4eaa 4c41 d5c7 e53c
00000140: 6d5e 4d41 2e35 4c41 6e9b 4d41 2e99 4c41
00000150: e053 4c41 d04b cfbb 9cf5 4b41 68e8 4c41
00000160: ece1 4c41 2ec6 4b41 4f6a 4d41 fd52 4d41
00000170: 7dc4 4c41 a667 4c41 f174 4c41 049b 4d41
00000180: 5236 4c41 5c7f 4c41 edeb 4b41 b834 4c41
00000190: 4164 4d41 caf6 4c41 76e0 4b41 5cd2 4b41
000001a0: 09f7 4c41 e93e 4d41 ca2d 4d41 ac7c 4d41
000001b0: 19f1 4c41 fc71 4c41 f607 4c41 c4ee 4c41
000001c0: c890 4d41 5d45 4d41 90ce 4c41 4144 4d41
000001d0: c521 4d41 c45e 4d41 3323 4c41 baff 4c41
000001e0: 5cef 4b41 b18b 4c41 80e4 4c41 db48 4c41
000001f0: 1c89 4d41 dcf2 4c41 e9f7 4b41 c13c 4d41
00000200: 905d 2741 7e04 2841 aae6 2741 a67e 2641
00000210: d1ec 88bc 1eed 2641 dece 2641 fae5 2641
00000220: 45d6 2641 6694 2741 fe9e 2641 6e6b 2741
00000230: c63b 2741 067d 2641 8e86 2641 cace 2741
00000240: 6230 2641 e2d2 2741 c642 2741 32a1 2641
00000250: f30e 2741 8164 2641 e5a9 2641 a7ab 2641
00000260: f43a 2741 3fb4 2641 8270 2641 11a2 2641
00000270: 97e1 dcbc c44b 2741 0b3a 47bd 238f 2641
00000280: d04c 2741 8a67 2741 248c 2741 32ff 2741
00000290: b290 2641 593b 2741 5e9c 2741 36fc 2641
000002a0: 6125 2641 1a0a 2741 0d8f 2741 bb28 2741
000002b0: 8e8a 2741 35ef 2641 63f3 2741 aa10 eebc
000002c0: 4063 54bd e4d1 2641 8691 2741 36eb 2741
000002d0: c07c 2741 3e9d 2641 6632 2641 dce5 2741
000002e0: c12d 15bc eeef 2641 669a 2741 0ffc 2741
000002f0: 9646 2641 4238 2741 e26e 2641 028c 2641
00000300: c4ea 2641 cda2 2641 6803 2741 6c9d 2641
00000310: 669b 2641 aa84 2741 101e 2741 9859 2741
00000320: 420b 2841 4152 2641 22eb 2641 9e3c 2741
00000330: 4d7e 2641 0fdf 2641 c6c4 2641 d5cb a9bb
00000340: 92f5 2741 3cf6 2741 e2e3 2741 77e9 2741
00000350: bac6 2741 e788 913c 42fb 2641 7563 2741
00000360: 2225 2641 be92 2641 887d 2741 fa10 2741
00000370: 26b8 2641 de13 2741 c6ac 2741 72f8 2641
00000380: 9b8f 2641 e82e 2641 32e6 2641 19dd 2741
00000390: 2e3f 2741 4e98 2641 53f4 2741 f6f2 2741
000003a0: 8266 2641 7e4a 2641 46b9 2741 a90b 2841
000003b0: 1ea1 2741 95ee 2641 5e2e 2641 8238 2741
000003c0: ce21 2741 54dd 2641 965e 2741 d71b 2741
000003d0: dfa0 2641 4e0f 2741 a886 2641 90dc 2741
000003e0: ecaa 2741 888c 2741 8e7d 2641 f2d0 2641
000003f0: 02cb 2641 02d5 2641 1d9e 2741 495a 2641
12.809612 12.785839 12.806389 12.75398 0.030756732 12.810183 12.765053 12.802316
12.790806 12.84342 12.848194 12.783471 12.7843895 12.837814 12.795338 12.740328
12.796501 12.782154 12.787783 12.833588 12.788405 12.738842 12.778147 12.856226
12.805109 12.756861 12.770517 12.801892 0.040575895 12.824995 0.003212336 12.849447
12.857125 12.798398 12.812428 12.827619 12.780273 12.796856 12.830453 12.786144
12.762235 12.745075 12.776854 12.780824 12.788992 12.820005 12.744927 -0.049102414
-0.020880632 12.823923 12.726589 12.767605 12.756138 12.841501 12.820433 12.7717705
-0.0007327404 12.792459 12.787717 12.806451 12.776802 12.757954 12.782431 12.801148
12.81916 12.850957 12.748944 12.802031 12.760078 12.854084 12.832718 12.746071
12.754383 12.778962 12.744247 12.8485565 12.787862 12.758087 12.791578 0.028049389
12.835553 12.762983 12.850447 12.787397 12.770477 -0.006326176 12.747463 12.80674
12.805157 12.735884 12.838454 12.832761 12.797971 12.775305 12.77855 12.850346
12.763262 12.781094 12.745099 12.762871 12.836976 12.810251 12.7423 12.738857
12.810311 12.827859 12.823679 12.842937 12.808862 12.777828 12.751944 12.808292
12.847847 12.829434 12.80043 12.829164 12.8207445 12.835636 12.758594 12.812433
12.745937 12.784104 12.805786 12.767787 12.845974 12.809292 12.748025 12.8273325
10.460342 10.501097 10.493814 10.40592 -0.016714485 10.43289 10.425505 10.431147
10.427312 10.47373 10.413816 10.463728 10.452093 10.405523 10.40785 10.487986
10.386812 10.488985 10.453802 10.414354 10.44115 10.399537 10.416478 10.416907
10.451893 10.419005 10.402468 10.414567 -0.026963038 10.455997 -0.04863934 10.4099455
10.456253 10.462778 10.471714 10.499804 10.410326 10.451989 10.475676 10.436575
10.384126 10.439966 10.4724245 10.447444 10.471327 10.4334 10.496921 -0.02906068
-0.051852465 10.426243 10.473028 10.494925 10.467957 10.413389 10.387304 10.493618
-0.009105147 10.433577 10.475195 10.499038 10.392233 10.451235 10.402071 10.409182
10.432316 10.414746 10.438332 10.413433 10.412939 10.469889 10.4448395 10.459373
10.5027485 10.3950815 10.432405 10.452299 10.405835 10.429458 10.42304 -0.0051817694
10.497454 10.497616 10.493135 10.494498 10.486017 0.017765475 10.436342 10.4617815
10.384066 10.410826 10.468147 10.441645 10.419958 10.44235 10.479681 10.435656
10.41006 10.386452 10.4312 10.491479 10.452925 10.412184 10.497149 10.496817
10.400026 10.393187 10.482733 10.502847 10.476835 10.433248 10.38632 10.451296
10.445753 10.429035 10.460592 10.444297 10.414275 10.4412365 10.407875 10.491348
10.479229 10.471809 10.405653 10.426012 10.424562 10.427004 10.476102 10.397042

layer3.bias f4 [98]
00000000: 6d14 0841 742d ef40 5234 6240 d195 d240
00000010: 3bf2 1740 e587 4341 6f1c 8a40 9fc3 0241
00000020: 9299 0141 dc7f 0c41 719d e140 554e 0841
00000030: 861d bf40 985e 7340 2b33 2041 7a8b a240
00000040: 2a46 d940 d92f 0140 9d98 c740 183f d140
00000050: 3ed9 0b41 7b8e 6541 b5b2 2141 e444 0e41
00000060: 29b0 e340 e512 f340 b852 1b41 d867 0441
00000070: 7cb9 f140 ab35 9540 833b 0240 0645 5d41
00000080: 164f f840 a7e1 bf40 563a 9940 9115 f440
00000090: 13d9 0f41 0eab ff40 70de f040 a3aa 6940
000000a0: 93a4 9e40 3251 1141 edbb 0841 929a 0241
000000b0: 0cd6 1741 b032 7440 27e9 7b40 6b49 1341
000000c0: 1538 1140 96b7 ef40 9824 0741 2d95 1241
000000d0: 4547 d040 495d 4a41 8129 2d41 f27e 3041
000000e0: 34a7 9540 bd37 c840 d388 5e40 67b7 1f41
000000f0: 279f a341 24cf d740 7121 d040 1e54 c73f
00000100: 7a0c 0541 2802 1b41 1dc9 2441 0e4e 7540
00000110: b1e8 1141 7f55 1d41 f6c6 f340 484b 1541
00000120: 71c7 0d41 3561 2541 b297 0741 1560 2b41
00000130: c249 2241 7385 cd3f c902 4440 4aeb 1a41
00000140: 5c89 0d40 b233 2c41 89ba f640 d332 0141
00000150: 95f0 1340 80ec f840 16be 3141 781a 3541
00000160: b20d de40 2a41 1f41 3d0c 963f 3048 1e41
00000170: b3dc b040 a3f3 2f40 1797 2941 2c14 2940
00000180: 37a7 7b40 c3dc 943f
8.504987 7.4742985 3.5344434 6.580788 2.3741596 12.220677 4.315971 8.172759
8.099993 8.781216 7.050469 8.519124 5.972354 3.8026485 10.012492 5.079526
6.789815 2.0185454 6.2373796 6.538952 8.740538 14.347285 10.10613 8.891819
7.115254 7.5960565 9.707695 8.2753525 7.553892 4.6628013 2.0348823 13.829351
7.759654 5.9962955 4.788371 7.6276326 8.990497 7.9896307 7.527153 3.6510398
4.9575896 9.082323 8.54588 8.162737 9.489758 3.8155937 3.9361055 9.205424
2.269048 7.4911604 8.446434 9.16142 6.5087 12.647775 10.822633 11.0309925
4.6766605 6.256804 3.477101 9.982276 20.452711 6.7440357 6.504082 1.5572546
8.315546 9.688026 10.2991 3.832889 9.119309 9.833373 7.618037 9.330879
8.861192 10.336232 8.474535 10.710958 10.143007 1.605635 3.06267 9.682444
2.2115088 10.762621 7.7102704 8.074908 2.311559 7.7788696 11.108908 11.318962
6.939172 9.953409 1.1722485 9.892624 5.526941 2.7492454 10.599387 2.6418562
3.932081 1.1629871
