models/28-29/coin_model_weights.pth (torch, 541892 bytes, 8 tensors)

layer1.weight f4 [128, 82]
0	0x41f41751	30.511385
1	0x411df177	9.871451
2	0x40ddc557	6.9303393
3	0x412f5275	10.957631
4	0x413b4c01	11.706056
5	0x404da1b0	3.2129936
6	0x415e2d92	13.886126
7	0x4195b42a	18.71297
8	0x4126b963	10.42026
9	0x418d164c	17.635887
10	0x41dbb81e	27.464901
11	0x41e898e6	29.074657
12	0x40cd1183	6.4083877
13	0x4123ee17	10.245627
14	0x41c03698	24.026657
15	0x41db6eb7	27.42906
16	0x419e1fc2	19.765507
17	0x414b53a1	12.707917
18	0x41f01b2b	30.013266
19	0x41f0fbe3	30.122992
20	0x411e79bd	9.904721
21	0x41222512	10.13405
22	0x416b0e1d	14.690946
23	0x41e45b98	28.544724
24	0x415efbf8	13.936516
25	0x4154fd22	13.3118
26	0x4133be2a	11.233927
27	0x416da60f	14.853042
28	0x412ce65a	10.806238
29	0x41553b12	13.326921
30	0x40c040ef	6.0079265
31	0x40fb0ce5	7.845324
32	0x4117c5d6	9.4858
33	0x40f0b11f	7.521621
34	0x41e93afc	29.153801
35	0x41ec2c45	29.521616
36	0x41eb5c1e	29.41998
37	0x41e7fbca	28.997944
38	0x4182c4ca	16.346088
39	0x41e59ff9	28.703112
40	0x41dd4cfa	27.662586
41	0x41b0657b	22.049551
42	0x41d54a90	26.661407
43	0x41c8f868	25.121292
44	0x41da1112	27.258335
45	0x41dd6bd7	27.677656
46	0x41e99d5e	29.20184
47	0x41dff203	27.99317
48	0x41df47c6	27.910046
49	0x41c94e67	25.163282
50	0x417971cb	15.5902815
51	0x41a25af1	20.294405
52	0x41f3622a	30.422932
53	0x41da7e6d	27.311731
54	0x41c4394c	24.527977
55	0x41e330de	28.39886
56	0x41e71d15	28.8892
57	0x41f56241	30.672976
58	0x41ed32b2	29.649754
59	0x41ef4f2f	29.913664
60	0x41da30dd	27.273859
61	0x41f3cf95	30.476358
62	0x41f3579b	30.417776
63	0x41f4d402	30.60352
64	0x41f86471	31.049044
65	0x41eee231	29.860445
66	0x41f5d8ac	30.730797
67	0x41e13031	28.148531
68	0x41eca470	29.580292
69	0x41f1b5d6	30.213787
70	0x41d3dba1	26.48224
71	0x41f17e50	30.186676
72	0x41f725f0	30.893524
73	0x41eb1e36	29.389751
74	0x41ecf0c6	29.617565
75	0x41d61699	26.761034
76	0x41e441aa	28.532063
77	0x41ebb6f6	29.464336
78	0x41e9bbc4	29.216682
79	0x41b32d6d	22.39718
80	0x41ec097e	29.504635
81	0x41e9691e	29.176327
82	0x41f41bfa	30.51366
83	0x411d0884	9.814579
84	0x40dc29fe	6.880126
85	0x41310575	11.063832
86	0x413bf5f3	11.747546
87	0x404a14ac	3.1575117
88	0x415d9117	13.847922
89	0x419623e0	18.767517
90	0x412723f7	10.4462805
91	0x418d83a0	17.68927
92	0x41db856a	27.440144
93	0x41e91067	29.133009
94	0x40cd0284	6.406557
95	0x412389ca	10.22114
96	0x41bf566e	23.917202
97	0x41db2dbf	27.397337
98	0x419d96c1	19.69861
99	0x414cbf86	12.796759
100	0x41efb4f5	29.963358
101	0x41f140b8	30.1566
102	0x411ee36d	9.930524
103	0x411fb721	9.982209
104	0x4168b54c	14.544262
105	0x41e39a0a	28.450214
106	0x4160ca6a	14.0494175
107	0x4155adae	13.354902
108	0x4132abd7	11.166953
109	0x416e8fd4	14.910114
110	0x412c2b15	10.760518
111	0x4153f087	13.2462225
112	0x40c448af	6.1338725
113	0x40fac830	7.836937
114	0x411712a5	9.442052
115	0x40ed4ac2	7.4153757
116	0x41e9104f	29.132963
117	0x41eba2a2	29.45441
118	0x41eb118e	29.383572
119	0x41e6dfe2	28.859318
120	0x418341c8	16.40712
121	0x41e5ff2b	28.749594
122	0x41dde583	27.737066
123	0x41b0d7cd	22.105371
124	0x41d59d8c	26.701927
125	0x41c8e4e1	25.111757
126	0x41d9d689	27.229753
127	0x41dd77f2	27.683567
128	0x41e97f0e	29.187038
129	0x41e0670f	28.050322
130	0x41dee93f	27.86389
131	0x41c939f4	25.153297
132	0x4179b958	15.60775
133	0x41a2ca88	20.348892
134	0x41f427fc	30.519524
135	0x41db45d7	27.409101
136	0x41c3fe9c	24.499321
137	0x41e38b75	28.443094
138	0x41e74c62	28.912296
139	0x41f54420	30.658264
140	0x41ec719b	29.555471
141	0x41ee5ef2	29.79636
142	0x41da1e66	27.264843
143	0x41f3d39c	30.478325
144	0x41f2e3f2	30.361301
145	0x41f59e83	30.702398
146	0x41f92ce7	31.146925
147	0x41ee6179	29.797594
148	0x41f66014	30.796913
149	0x41e0a5b7	28.080915
150	0x41ecd33d	29.603144
151	0x41f19aa8	30.200516
152	0x41d48c0a	26.568378
153	0x41f18eb4	30.19468
154	0x41f7a04e	30.953274
155	0x41eb7216	29.430706
156	0x41ee00db	29.750418
157	0x41d61974	26.762428
158	0x41e4b0de	28.58636
159	0x41ecac4e	29.584133
160	0x41e9b438	29.212997
161	0x41b31e4d	22.389795
162	0x41ebcdf6	29.475567
163	0x41e8f6c7	29.120497
164	0x41f347d4	30.410072
165	0x411cba52	9.795488
166	0x40db3f16	6.851451
167	0x4130d3af	11.051681
168	0x413d278c	11.822155
169	0x4043aa40	3.0572662
170	0x415d1db7	13.819755
171	0x4195b2a8	18.712234
172	0x41277001	10.464845
173	0x418c8174	17.56321
174	0x41da41fe	27.282223
175	0x41e7d268	28.977737
176	0x40cd4f36	6.4159193
177	0x41222a1d	10.135282
178	0x41be8840	23.816528
179	0x41dab7a1	27.339663
180	0x419ccb67	19.599318
181	0x414b5862	12.709078
182	0x41efcb67	29.974318
183	0x41efc1d7	29.969648
184	0x411e666d	9.900006
185	0x4121098b	10.06483
186	0x416980d2	14.59395
187	0x41e3b1c6	28.461803
188	0x415edc91	13.928849
189	0x41519c62	13.100679
190	0x41328a2a	11.158731
191	0x416bdb8b	14.741099
192	0x412c1a97	10.756492
193	0x4154d313	13.301532
194	0x40c59665	6.1746087
195	0x40f90899	7.7822995
196	0x41168360	9.407074
197	0x40eefa6e	7.46807
198	0x41e99446	29.1974
199	0x41ebf2c8	29.493546
200	0x41ec3979	29.528063
201	0x41e70f80	28.882568
202	0x4182217f	16.266356
203	0x41e570bf	28.680052
204	0x41dd6e6e	27.67892
205	0x41b00130	22.00058
206	0x41d5a110	26.703644
207	0x41ca436c	25.28292
208	0x41d9c4f1	27.221163
209	0x41dda54a	27.705708
210	0x41e86432	29.048923
211	0x41e03868	28.027542
212	0x41de2fc6	27.773327
213	0x41c9ad9b	25.209768
214	0x41791489	15.567513
215	0x41a1b5d5	20.213785
216	0x41f3d000	30.476562
217	0x41daa1d1	27.329012
218	0x41c4a967	24.582716
219	0x41e37a9e	28.434872
220	0x41e70897	28.879194
221	0x41f59044	30.695442
222	0x41ed1071	29.633028
223	0x41eeafdf	29.835875
224	0x41da3197	27.274214
225	0x41f3b8d6	30.465252
226	0x41f33dde	30.405209
227	0x41f41e98	30.514938
228	0x41f8ff58	31.12468
229	0x41ee2c90	29.771759
230	0x41f6b03d	30.836054
231	0x41e160fb	28.172354
232	0x41ec62ca	29.548237
233	0x41f12866	30.144726
234	0x41d321e2	26.391544
235	0x41f0f23d	30.11828
236	0x41f7d2b4	30.977882
237	0x41eb03b2	29.376804
238	0x41ecde76	29.608624
239	0x41d53c55	26.654459
240	0x41e523c8	28.642471
241	0x41ecbc9c	29.592094
242	0x41e97e2e	29.186611
243	0x41b4183e	22.511837
244	0x41ea837d	29.314203
245	0x41e966db	29.175222
246	0x41f4d2f0	30.602997
247	0x411dbe18	9.85891
248	0x40dd5fc1	6.9179387
249	0x41313540	11.0755005
250	0x413d980d	11.849622
251	0x4048233e	3.127151
252	0x415d5098	13.832176
253	0x4196e3de	18.861263
254	0x412682de	10.40695
255	0x418e2bf0	17.771454

layer1.bias f4 [128]
0	0x41f0d2c6	30.102917
1	0x41f0c63e	30.096798
2	0x41efb866	29.965038
3	0x41f0d442	30.103642
4	0x41f06f2e	30.054287
5	0x41f0d242	30.102665
6	0x41f0efee	30.117153
7	0x41f0b6c2	30.089237
8	0x41f08996	30.06718
9	0x41f089b2	30.067234
10	0x41f05ea2	30.046207
11	0x41f156e6	30.16743
12	0x41f0197e	30.012447
13	0x41f09c82	30.07642
14	0x41f122d9	30.142015
15	0x41f14d2f	30.162687
16	0x41f09730	30.073822
17	0x3f84d950	1.0378819
18	0x41f1267a	30.143787
19	0x41f0fb1b	30.12261
20	0x41f01392	30.009556
21	0x41f159f6	30.168926
22	0x41f107d7	30.128828
23	0x41f13738	30.151962
24	0x41f04850	30.035309
25	0x41f0e828	30.113358
26	0x41ef6810	29.925812
27	0x41f04642	30.034306
28	0x41f110cf	30.133207
29	0x41f027b2	30.019382
30	0x41f0b8ee	30.090298
31	0x41f0cb8a	30.099384
32	0x41f0f491	30.119417
33	0x41f0ad68	30.084671
34	0x41f0c43b	30.095816
35	0x41f0e0f0	30.109833
36	0x41f15bc5	30.16981
37	0x41f049c4	30.036018
38	0x41f061c6	30.04774
39	0x41f109d2	30.129795
40	0x41f13780	30.1521
41	0x41f09e32	30.077244
42	0x41f058b5	30.043314
43	0x41f09b4e	30.075832
44	0x41f00590	30.002716
45	0x41f04be6	30.03706
46	0x41f0b8c8	30.090225
47	0x41f05061	30.039248
48	0x41f054f5	30.041483
49	0x41f04b52	30.036777
50	0x41f13f66	30.155956
51	0x41f05a5a	30.044117
52	0x41f14517	30.158735
53	0x41f037ed	30.027308
54	0x41f03eac	30.030602
55	0x41f165ce	30.17471
56	0x41f0d9a3	30.106268
57	0x41f0aae2	30.083439
58	0x41f01fc2	30.015507
59	0x41f063ae	30.048672
60	0x41f1177e	30.13647
61	0x41f0c2ef	30.095182
62	0x41f09f8a	30.0779
63	0x41f08ca6	30.068676
64	0x41f111de	30.133724
65	0x41f040a2	30.031559
66	0x41f088aa	30.06673
67	0x41f048ea	30.035603
68	0x41f06e0a	30.05373
69	0x41f0d324	30.103096
70	0x41f111ee	30.133755
71	0x41f0568f	30.042265
72	0x3fabc876	1.3420551
73	0x41f047bc	30.035027
74	0x41f0584c	30.043114
75	0x41f0ead3	30.11466
76	0x41f080fe	30.062984
77	0x41f1355b	30.151052
78	0x41f062f2	30.048313
79	0x41f0473d	30.034784
80	0x41f142fc	30.157707
81	0x41f0ea6a	30.11446
82	0x41f0e221	30.110415
83	0x41f0d560	30.104187
84	0x41f115d4	30.135658
85	0x41f0e33a	30.11095
86	0x41f06caa	30.053059
87	0x41f037a2	30.027164
88	0x41f09041	30.070436
89	0x41f03135	30.024027
90	0x41f143de	30.158138
91	0x41f0ca12	30.098667
92	0x41f0a28a	30.079365
93	0x41f12d63	30.147161
94	0x41f0b582	30.088627
95	0x41f04722	30.034733
96	0x41f10a56	30.130047
97	0x41f0d9e3	30.10639
98	0x41f0686a	30.050983
99	0x41f09156	30.070965
100	0x41f0c638	30.096786
101	0x41f0f26a	30.118366
102	0x41f10c60	30.131042
103	0x41f15892	30.168247
104	0x41f079f1	30.059542
105	0x41f064a2	30.049137
106	0x41f11bff	30.13867
107	0x41f11ab2	30.138035
108	0x41f045ca	30.034077
109	0x41f0970a	30.07375
110	0x41f09203	30.071295
111	0x41f088cb	30.066793
112	0x41f1544d	30.166162
113	0x41f05ccd	30.045313
114	0x41f04864	30.035347
115	0x41f0c205	30.094736
116	0x41f095b6	30.073101
117	0x41f13502	30.150883
118	0x41f0d42e	30.103603
119	0x41f0f3dd	30.119074
120	0x41f0db2e	30.107021
121	0x41f0c2e1	30.095156
122	0x41f030ee	30.023891
123	0x41f060d2	30.047276
124	0x41f0c63a	30.09679
125	0x41f0fbb6	30.122906
126	0x403ed135	2.981519
127	0x41f10cb5	30.131205

layer2.weight f4 [256, 128]
0	0x41f98ffe	31.195309
1	0x41f8b296	31.0872
2	0x41f9a083	31.203375
3	0x41f8451a	31.033741
4	0x41f89874	31.07444
5	0x41f8fa41	31.122194
6	0x41f8c1aa	31.094563
7	0x41f87ec1	31.061892
8	0x41f91c38	31.138779
9	0x41f88362	31.064152
10	0x41f9ba8c	31.216087
11	0x41f83f64	31.030952
12	0x41f89a36	31.075298
13	0x41f82a36	31.02061
14	0x41f90853	31.129065
15	0x41f8f7d5	31.121012
16	0x41f87a24	31.059639
17	0xc1d28815	-26.316446
18	0x41f8b1bc	31.086784
19	0x41f82270	31.016815
20	0x41f8a590	31.080841
21	0x41f8b771	31.089571
22	0x41f891b1	31.071138
23	0x41f87b76	31.060284
24	0x41f8447a	31.033436
25	0x41f87038	31.054794
26	0x41f8bea5	31.093088
27	0x41f8c4f1	31.096163
28	0x41f8786d	31.058802
29	0x41f90981	31.12964
30	0x41f9188d	31.136988
31	0x41f8fb44	31.122688
32	0x41f86895	31.051065
33	0x41f9a6e8	31.206497
34	0x41f8f1a8	31.117996
35	0x41f90d32	31.131443
36	0x41f8e85d	31.113459
37	0x41f87d89	31.061296
38	0x41f90bc0	31.130737
39	0x41f91a73	31.137915
40	0x41f8a0d4	31.07853
41	0x41f8b39d	31.087702
42	0x41f88660	31.065613
43	0x41f9049e	31.127254
44	0x41f8ea64	31.114449
45	0x41f8fee4	31.124458
46	0x41f84478	31.033432
47	0x41f90e9d	31.132135
48	0x41f8d7c9	31.105364
49	0x41f9a232	31.204197
50	0x41f98d73	31.194067
51	0x41f98fc2	31.195194
52	0x41f8fea4	31.124336
53	0x41f97dae	31.186367
54	0x41f8e11d	31.109919
55	0x41f86848	31.050919
56	0x41f83f76	31.030987
57	0x41f892b8	31.07164
58	0x41f88a85	31.067636
59	0x41f8e29d	31.110651
60	0x41f88150	31.06314
61	0x41f87f8c	31.062279
62	0x41f91050	31.132965
63	0x41f8f313	31.118689
64	0x41f91146	31.133434
65	0x41f8d394	31.10331
66	0x41f8afcf	31.085844
67	0x41f86e49	31.05385
68	0x41f8d608	31.104507
69	0x41f9b908	31.215347
70	0x41f96dfa	31.1787
71	0x41f8c391	31.095491
72	0xc1c04577	-24.033918
73	0x41f8f835	31.121195
74	0x41f8bc3d	31.091913
75	0x41f92bf4	31.146461
76	0x41f936ee	31.151821
77	0x41f8b5b6	31.088726
78	0x41f8d41a	31.103565
79	0x41f91c54	31.138832
80	0x41f8e5aa	31.11214
81	0x41f8789c	31.058891
82	0x41f92707	31.144056
83	0x41f8b0b1	31.086275
84	0x41f9136b	31.134481
85	0x41f8ba58	31.090988
86	0x41f8dc70	31.107635
87	0x41f99199	31.196093
88	0x41f8a2f6	31.07957
89	0x41f82e9f	31.022764
90	0x41f8e1cd	31.110254
91	0x41f99fda	31.203053
92	0x41f8afc6	31.085827
93	0x41f89294	31.071571
94	0x41f87bd6	31.060467
95	0x41f817dc	31.01165
96	0x41f8b052	31.086094
97	0x41f87057	31.054853
98	0x41f8c4d5	31.09611
99	0x41f89068	31.07051
100	0x41f8d743	31.105108
101	0x41f9076d	31.128626
102	0x41f82a10	31.020538
103	0x41f8a83b	31.082144
104	0x41f94d89	31.162859
105	0x41f963f4	31.173805
106	0x41f8398a	31.028095
107	0x41f9471a	31.159718
108	0x41f8496b	31.035849
109	0x41f9b9b0	31.215668
110	0x41f86e42	31.053837
111	0x41f842de	31.03265
112	0x41f86d87	31.05348
113	0x41f8991d	31.074762
114	0x41f94d7e	31.162838
115	0x41f8a935	31.08262
116	0x41f8f0a4	31.1175
117	0x41f8f2d7	31.118574
118	0x41f8d104	31.102058
119	0x41f8d0b8	31.101913
120	0x41f90418	31.126999
121	0x41f941f1	31.157198
122	0x41f9c7f7	31.22264
123	0x41f81f96	31.015423
124	0x41f92719	31.14409
125	0x41f94430	31.158295
126	0xc1a6132f	-20.759367
127	0x41f8377e	31.027096
128	0x41f97354	31.181313
129	0x41f91d40	31.139282
130	0x41f8d151	31.102205
131	0x41f89f0d	31.077662
132	0x41f87576	31.057354
133	0x41f90b51	31.130526
134	0x41f8f5ad	31.119959
135	0x41f8e3f2	31.111301
136	0x41f90421	31.127016
137	0x41f94f45	31.163706
138	0x41f98c9c	31.193657
139	0x41f87fe8	31.062454
140	0x41f89dd8	31.077072
141	0x41f8b801	31.089846
142	0x41f894a9	31.072588
143	0x41f8ebee	31.1152
144	0x41f91228	31.133865
145	0xc1d29c45	-26.326303
146	0x41f8703c	31.054802
147	0x41f83fda	31.031178
148	0x41f8d844	31.105598
149	0x41f8bf59	31.093431
150	0x41f85678	31.042221
151	0x41f86387	31.048597
152	0x41f88939	31.067003
153	0x41f84406	31.033215
154	0x41f8abc0	31.083862
155	0x41f89695	31.073526
156	0x41f8ce79	31.100817
157	0x41f89f15	31.077677
158	0x41f8bafe	31.091305
159	0x41f8b645	31.088999
160	0x41f92c8a	31.146748
161	0x41f91ad5	31.138102
162	0x41f82c39	31.021593
163	0x41f8532a	31.040607
164	0x41f8a59a	31.08086
165	0x41f85802	31.042973
166	0x41f9011a	31.125538
167	0x41f91049	31.132952
168	0x41f8b839	31.089952
169	0x41f94230	31.157318
170	0x41f89489	31.072527
171	0x41f877bd	31.058466
172	0x41f94a3c	31.161247
173	0x41f90e6c	31.132042
174	0x41f8e9c7	31.11415
175	0x41f926f3	31.144018
176	0x41f8cb5a	31.099293
177	0x41f92ef9	31.147936
178	0x41f9796a	31.184284
179	0x41f8de6a	31.1086
180	0x41f8951d	31.07281
181	0x41f8f444	31.11927
182	0x41f899a9	31.07503
183	0x41f87bf7	31.06053
184	0x41f850c1	31.03943
185	0x41f8fdcc	31.123924
186	0x41f89c7c	31.076408
187	0x41f86769	31.050493
188	0x41f8fb44	31.122688
189	0x41f937b0	31.152191
190	0x41f91730	31.136322
191	0x41f91b05	31.138193
192	0x41f8a7dd	31.081964
193	0x41f8d6a3	31.104803
194	0x41f885d1	31.06534
195	0x41f808fc	31.004387
196	0x41f85686	31.042248
197	0x41f9ca63	31.223822
198	0x41f9737c	31.181389
199	0x41f8b124	31.086494
200	0xc1c0540c	-24.041039
201	0x41f8be4e	31.092922
202	0x41f7dd44	30.98304
203	0x41f87eb6	31.06187
204	0x41f8fba8	31.122879
205	0x41f858e0	31.043396
206	0x41f8da01	31.106447
207	0x41f8def5	31.108866
208	0x41f8d44e	31.103664
209	0x41f8c90e	31.098171
210	0x41f8ef8d	31.116968
211	0x41f8f244	31.118294
212	0x41f8dba0	31.107239
213	0x41f85a06	31.043957
214	0x41f8df77	31.109114
215	0x41f914a2	31.135075
216	0x41f87b6c	31.060265
217	0x41f8ef80	31.116943
218	0x41f86a22	31.051823
219	0x41f8db11	31.106966
220	0x41f8c501	31.096193
221	0x41f8a250	31.079254
222	0x41f8e89b	31.113577
223	0x41f8cf8c	31.101341
224	0x41f8c95d	31.098322
225	0x41f88624	31.065498
226	0x41f8d524	31.104073
227	0x41f80883	31.004156
228	0x41f8787c	31.05883
229	0x41f8ccd5	31.100016
230	0x41f8bc39	31.091906
231	0x41f87fcd	31.062403
232	0x41f8fe67	31.12422
233	0x41f9774e	31.183254
234	0x41f8f194	31.117958
235	0x41f97614	31.182655
236	0x41f8a071	31.07834
237	0x41f95764	31.167671
238	0x41f80d76	31.006573
239	0x41f8602a	31.046955
240	0x41f89f7b	31.077871
241	0x41f8b47d	31.088129
242	0x41f8f252	31.11832
243	0x41f8a1a9	31.078936
244	0x41f91628	31.135818
245	0x41f8668a	31.050068
246	0x41f8f44c	31.119286
247	0x41f8e2ec	31.110802
248	0x41f89536	31.072857
249	0x41f946da	31.159595
250	0x41f9c819	31.222704
251	0x41f84940	31.035767
252	0x41f9032c	31.126549
253	0x41f93b5c	31.153984
254	0xc1a553f3	-20.66599
255	0x41f8b6e5	31.089304

layer2.bias f4 [256]
0	0x41f20522	30.252506
1	0x41f22968	30.270218
2	0x41f242fa	30.282703
3	0x41f23b06	30.27882
4	0x41f1de2a	30.233479
5	0x41f1bb01	30.21631
6	0x41f244ce	30.283596
7	0x41f20ac5	30.255259
8	0x41f176ef	30.183073
9	0x41f215e7	30.260695
10	0x41f1ac9e	30.209286
11	0xbcf6d0ce	-0.030128863
12	0x41f1829c	30.188774
13	0x41f17128	30.180252
14	0x41f2371a	30.276905
15	0x41f1fbae	30.24789
16	0x41f240c2	30.28162
17	0x41f21dc2	30.26453
18	0x41f20a8f	30.255156
19	0x41f190f3	30.195776
20	0x41f24086	30.281506
21	0x41f2112d	30.258387
22	0x41f1f0ea	30.242634
23	0x41f1cf45	30.226206
24	0x41f17d53	30.186193
25	0x41f25b02	30.294437
26	0x41f23862	30.27753
27	0x41f216d3	30.261145
28	0x41f1d6c3	30.229864
29	0x41f20277	30.251204
30	0x41f1f202	30.243168
31	0x41f18b02	30.192875
32	0x41f1de5b	30.233572
33	0x41f1b252	30.21207
34	0x41f21d36	30.264263
35	0x41f1c89a	30.22295
36	0x41f26692	30.300083
37	0x41f1f05a	30.24236
38	0x41f1895f	30.192076
39	0x41f20f5e	30.257504
40	0xbc1d82e1	-0.0096137235
41	0x41f1f1ea	30.243122
42	0x41f21dd6	30.264568
43	0x41f2462f	30.28427
44	0x41f1fabc	30.247429
45	0x41f1c178	30.219467
46	0x41f20584	30.252693
47	0x41f23a40	30.278442
48	0x41f1d4c6	30.228893
49	0x41f1f096	30.242474
50	0x41f1adc7	30.209852
51	0x41f1adba	30.209827
52	0x41f21928	30.262283
53	0x41f218ba	30.262074
54	0x41f2384b	30.277487
55	0x41f1fdd6	30.248943
56	0x41f1b6af	30.214201
57	0x41f177b8	30.183456
58	0x41f190ee	30.195766
59	0x41f1e236	30.235455
60	0x41f1c8aa	30.22298
61	0x41f1b24b	30.212057
62	0x41f2194a	30.262348
63	0x41f22050	30.265778
64	0x41f1e53f	30.236937
65	0x41f1c8fe	30.22314
66	0x41f1c649	30.221819
67	0x41f24cf7	30.28758
68	0xbccd79f2	-0.025082562
69	0x41f23fa6	30.281078
70	0x41f1f9fa	30.247059
71	0x41f19622	30.198307
72	0x41f213b0	30.259613
73	0x41f19149	30.19594
74	0x41f2533f	30.290648
75	0x41f24e67	30.288282
76	0x41f17770	30.18332
77	0x41f23f42	30.280888
78	0x41f20ba4	30.255684
79	0x41f1dbf4	30.232399
80	0x41f20acf	30.255278
81	0x41f24e23	30.288153
82	0x41f18d70	30.194061
83	0x41f22b0a	30.271015
84	0xbd296599	-0.041356657
85	0x41f2623f	30.297972
86	0x41f1a0c2	30.203495
87	0x41f26192	30.297642
88	0x41f20e30	30.256927
89	0x41f246fe	30.284664
90	0x41f227e6	30.269482
91	0x41f23714	30.276894
92	0x41f1ec26	30.240307
93	0x41f202ff	30.251463
94	0x41f239c7	30.278212
95	0x41f1bba7	30.216627
96	0x41f23416	30.275433
97	0x41f1787b	30.183828
98	0x41f23d10	30.279816
99	0xbcfdfb28	-0.03100355
100	0x41f1c86e	30.222866
101	0x41f232cf	30.274809
102	0x41f219d6	30.262615
103	0x41f237fe	30.27734
104	0x41f1c09b	30.219046
105	0x41f177fc	30.183586
106	0x41f24676	30.284405
107	0x41f215bd	30.260614
108	0x41f20bda	30.255787
109	0xbd5b75a5	-0.05357899
110	0x41f1bac2	30.21619
111	0x41f17a04	30.184578
112	0x41f205ae	30.252773
113	0x41f24036	30.281353
114	0x41f2018a	30.250751
115	0x41f1c39a	30.220509
116	0x41f200c6	30.250378
117	0x41f1e61e	30.237362
118	0x41f1e922	30.238834
119	0x41f1c2e0	30.220154
120	0x3bc2dfc7	0.0059470865
121	0x41f19952	30.199863
122	0x41f1974a	30.198872
123	0x41f1f5ae	30.24496
124	0x41f26136	30.297466
125	0x41f21336	30.25938
126	0x41f1a793	30.206823
127	0x41f216ce	30.261135
128	0x41f2274c	30.269188
129	0x41f21cba	30.264027
130	0x41f16597	30.174604
131	0x41f23ea6	30.28059
132	0x41f1d58c	30.22927
133	0x41f1a302	30.204594
134	0x41f24099	30.281542
135	0x41f1a956	30.207684
136	0x41f24222	30.282291
137	0x41f1acf2	30.209446
138	0x41f1dcfa	30.232899
139	0x41f2334c	30.275047
140	0x41f253d2	30.290928
141	0x41f1dac1	30.231813
142	0x41f17a62	30.184757
143	0x41f1887d	30.191645
144	0x41f1cac9	30.224016
145	0x41f21f0f	30.265165
146	0x41f1c296	30.220013
147	0x41f2238c	30.267357
148	0x41f227d6	30.269451
149	0x41f248fb	30.285635
150	0x41f24b3a	30.286732
151	0x41f202bc	30.251335
152	0x41f23d3e	30.279903
153	0x41f1ae0a	30.20998
154	0x41f212b1	30.259127
155	0x41f24e96	30.288372
156	0x41f1fb64	30.24775
157	0x41f247be	30.28503
158	0x41f1ed3d	30.240839
159	0x41f1ab82	30.208744
160	0x41f1c5af	30.221525
161	0x41f2125f	30.25897
162	0x41f23f7e	30.281002
163	0x41f24c16	30.287151
164	0x41f23408	30.275406
165	0x41f1fc12	30.248081
166	0x41f1e70b	30.237814
167	0x41f220f2	30.266087
168	0x41f1be36	30.217876
169	0x41f1afb3	30.21079
170	0x41f1aae6	30.208447
171	0x41f1ae63	30.21015
172	0x41f1c11a	30.219288
173	0x41f188fa	30.191883
174	0x41f18e76	30.194561
175	0x41f253f4	30.290993
176	0x41f1e9cd	30.23916
177	0x41f1fa08	30.247086
178	0x41f16943	30.176397
179	0x41f1c7fa	30.222645
180	0x3fb809b5	1.4377962
181	0x41f21706	30.261242
182	0x41f16b68	30.177444
183	0x41f1e1d8	30.235275
184	0x41f23276	30.27464
185	0x41f18a16	30.192425
186	0x41f1ddb1	30.233248
187	0xbd334877	-0.04377028
188	0x41f1cb69	30.224321
189	0x41f25a5a	30.294117
190	0x41f18348	30.189102
191	0x41f1ac7a	30.209217
192	0x41f1a344	30.20472
193	0x41f1da3e	30.231564
194	0x41f1d512	30.229038
195	0x41f1f98f	30.246855
196	0x41f1889e	30.191708
197	0x41f21f87	30.265394
198	0x41f1b52f	30.213469
199	0x41f1a50a	30.205585
200	0x41f1cccc	30.224998
201	0x41f25c9e	30.295223
202	0x41f228ac	30.26986
203	0x41f1c246	30.21986
204	0x41f257b9	30.292833
205	0x41f1eb52	30.239902
206	0x41f26012	30.29691
207	0x3b5a46ba	0.0033306316
208	0x41f20ed0	30.257233
209	0x41f1c53e	30.22131
210	0x41f2110b	30.258322
211	0x41f20000	30.25
212	0x41f18c4a	30.1935
213	0x41f1d9a2	30.231266
214	0x41f2194e	30.262356
215	0x41f1a01a	30.203175
216	0x41f1b690	30.214142
217	0x41f205d9	30.252855
218	0x41f1fa7a	30.247303
219	0x41f18052	30.187656
220	0x41f1c5e5	30.221628
221	0x41f22fce	30.273342
222	0xbd25d5cf	-0.040487107
223	0x41f18333	30.189062
224	0x41f1b35f	30.212584
225	0x41f2162a	30.260822
226	0x41f2535a	30.290699
227	0x41f2159e	30.260555
228	0x41f1f9ce	30.246975
229	0x41f238d8	30.277756
230	0x41f1bcc7	30.217176
231	0x41f1b3fa	30.21288
232	0x41f24ae6	30.286572
233	0x41f1fe1a	30.249073
234	0x41f21e4e	30.264797
235	0x41f16fc2	30.17957
236	0x41f24ceb	30.287558
237	0x41f18280	30.18872
238	0x41f1e33e	30.235958
239	0x41f1e032	30.23447
240	0x41f18cd6	30.193768
241	0x41f1cbf5	30.224588
242	0x41f173fa	30.18163
243	0x41f2076f	30.25363
244	0x41f19506	30.197765
245	0x41f22c32	30.27158
246	0x41f1f046	30.242321
247	0x41f1a0a1	30.203432
248	0x41f1a036	30.203228
249	0x41f1f439	30.24425
250	0x41f20afe	30.255367
251	0x41f25eea	30.296345
252	0x41f25313	30.290564
253	0x41f26576	30.299541
254	0x41f1eb56	30.23991
255	0x41f2194e	30.262356

layer3.weight f4 [256, 256]
0	0x3c9388db	0.018009594
1	0x3c4fe364	0.0126884915
2	0x3c0d6d25	0.008631979
3	0xbce60498	-0.028078362
4	0x3cee9be6	0.029127073
5	0xbd20272d	-0.03909986
6	0xbbc92b7e	-0.006139218
7	0x3c878d72	0.016546939
8	0xbd1f6c10	-0.038921416
9	0xbc9b179f	-0.018932162
10	0x3c892009	0.016738908
11	0x3d009cc3	0.0313995
12	0x3c650390	0.0139779
13	0xbce71acc	-0.02821102
14	0x3d16e7d3	0.03684218
15	0x3bd2369a	0.0064152004
16	0xbce1ab64	-0.027547546
17	0x3b7ad2d5	0.0038272638
18	0x3d0ad25e	0.033892028
19	0x3d08a251	0.033357922
20	0xbd159e9b	-0.03652821
21	0x3a7c0d3e	0.00096150103
22	0x3b476c69	0.0030429608
23	0xbd0e737e	-0.03477811
24	0xbd1fdb41	-0.039027456
25	0x3ca60e85	0.020270595
26	0x3cb245e3	0.02176184
27	0xbc999893	-0.01874951
28	0x3d199ce9	0.037503157
29	0x3c72598e	0.014791859
30	0xbd02d9f3	-0.031946134
31	0x3c680d29	0.014163294
32	0xbd0949c8	-0.03351763
33	0xbd22c731	-0.039740745
34	0xbca9ec9d	-0.020742709
35	0xbd0e8010	-0.0347901
36	0x3d0c2f4a	0.034224786
37	0x3d0f7b5a	0.035029747
38	0x3c036591	0.008019821
39	0xbca552df	-0.020181118
40	0x3d099a8b	0.03359465
41	0xbc745bd2	-0.01491447
42	0xba480d96	-0.0007631419
43	0xbc081e01	-0.008307935
44	0xbab18d7f	-0.0013546197
45	0xbcd6e97c	-0.02623438
46	0x3cd099b6	0.02546392
47	0xbcd712f4	-0.026254155
48	0x39f1888e	0.00046068843
49	0x3d0206e2	0.031744845
50	0x3b976e00	0.0046212673
51	0xbc30dd7f	-0.010794996
52	0xbcf5f35e	-0.030023273
53	0x3c868552	0.016420994
54	0x3bdcf2f4	0.0067428295
55	0x3a8aacf8	0.0010580113
56	0xbce709bf	-0.02820289
57	0x3cb8c197	0.022553248
58	0xbcc6a242	-0.024247292
59	0x3a459a18	0.00075379154
60	0xbced09ae	-0.02893528
61	0x3d0446b2	0.032293983
62	0xbc1e0b49	-0.009646245
63	0x3d0caa1c	0.034341916
64	0xbc9ec8a1	-0.019382777
65	0x3c61ed4a	0.013789484
66	0x3c99fc89	0.018797176
67	0xbd023281	-0.031786446
68	0x3cd0a28a	0.02546813
69	0xbc0fc723	-0.008775505
70	0xbc96ad59	-0.018393205
71	0x3a4920de	0.0007672439
72	0xbcea7282	-0.028619055
73	0x3ca5b4e3	0.020227855
74	0xbbe146c4	-0.006874891
75	0xbc80d029	-0.015724258
76	0xbce8951e	-0.028391417
77	0x3cad43d7	0.021150513
78	0x3c8753f4	0.016519524
79	0xbd22c85d	-0.039741863
80	0x3d03234b	0.03201608
81	0x3ab1d06a	0.001356614
82	0x3bee5152	0.0072728777
83	0x3ba84bc6	0.005135986
84	0x3c0330d8	0.008007251
85	0xbbc4af6f	-0.0060023586
86	0x3cf8d1ee	0.03037354
87	0x3c8d8aa8	0.01727803
88	0x3c7ebf10	0.015548483
89	0xbd065197	-0.032792654
90	0xbc409513	-0.011754292
91	0x3d019d4a	0.031644143
92	0x3c9e40cb	0.019318005
93	0xbcc039a2	-0.023464981
94	0x3af9a9a2	0.0019047747
95	0x3c846baa	0.01616462
96	0xbb8a835a	-0.004227084
97	0x3cc83c92	0.024442945
98	0xbc8744e8	-0.01651235
99	0xbcfe4dcc	-0.031042956
100	0x3cc7381c	0.024318747
101	0xbd0c1c21	-0.034206513
102	0xbc635761	-0.013875813
103	0xbb8ac1db	-0.004234535
104	0xbc8dee8a	-0.017325658
105	0x3c05aedd	0.008159366
106	0xbc11e534	-0.008904744
107	0xbce00318	-0.027345225
108	0xbd095dc1	-0.033536676
109	0xbca47eb3	-0.020079946
110	0x3aaa3c28	0.0012987899
111	0xbcfe0e8a	-0.031012792
112	0xbcc9265e	-0.024554428
113	0x3c8801e2	0.01660246
114	0x3cdb2479	0.02675079
115	0xbc27fd1c	-0.010253217
116	0xbca61091	-0.020271571
117	0xbcb9f4eb	-0.022699794
118	0x3caa97f2	0.020824406
119	0xbc245967	-0.010031081
120	0xbcdcb9e2	-0.026944105
121	0x3c9a7b69	0.018857675
122	0x3c816dde	0.01579946
123	0xbc93e529	-0.018053608
124	0x3c3dbfff	0.01158142
125	0x3cddc800	0.027072906
126	0x3b1c49d5	0.0023847718
127	0xbc095a1c	-0.0083833
128	0xbcedeb2e	-0.029042806
129	0xbce70a0f	-0.028203038
130	0xbd1cb48d	-0.038258124
131	0x3cb48d3b	0.02204
132	0x3d21a80b	0.0394669
133	0xbcc5d21a	-0.024148036
134	0x3ca0ab4b	0.019612929
135	0x3ce75000	0.02823639
136	0x3c02b47f	0.007977604
137	0xbc28b5fd	-0.010297296
138	0x3cfac6bb	0.03061234
139	0xbcb3be07	-0.021941198
140	0xbd0a5636	-0.033773623
141	0xbd26ae10	-0.040693343
142	0xb8cf5db2	-9.887981e-05
143	0xbba05c66	-0.0048938273
144	0xbd0c2fd6	-0.034225307
145	0x3cca8af6	0.024724465
146	0xbc4cc7e0	-0.012498826
147	0x3d0ccd17	0.034375276
148	0xbbce7190	-0.006300159
149	0xbd09fc73	-0.03368802
150	0x3d0bfcfa	0.034176804
151	0x39a219d6	0.00030918297
152	0x3ccdc348	0.025117531
153	0x3bd01122	0.0063496986
154	0xbc4aa6ef	-0.012368902
155	0xbc7efb33	-0.01556282
156	0xbd26ea5e	-0.040750854
157	0xbb5e23a9	-0.0033895767
158	0x3cf3e19a	0.029770661
159	0x3c38477f	0.011247515
160	0x3b4862be	0.0030576433
161	0xbd1568c7	-0.036476877
162	0xbd0f5af9	-0.034998868
163	0xbb14adc9	-0.0022686592
164	0x3cd6ebe6	0.026235532
165	0x3d0bf379	0.03416774
166	0xbd139dad	-0.036039043
167	0x3c87d9ac	0.016583286
168	0xbb869f9b	-0.004108382
169	0x3bca1c83	0.0061679496
170	0xbd21c9e0	-0.039499164
171	0x3cab1614	0.020884551
172	0xbbd69626	-0.006548661
173	0xbb6fb042	-0.0036573564
174	0x3bb69423	0.0055718585
175	0x3ce622a7	0.028092695
176	0xbc9fc58c	-0.019503377
177	0xbad517d4	-0.0016257712
178	0x3c03bf6a	0.008041242
179	0x3c9a6af7	0.018849833
180	0x3d0d242c	0.034458324
181	0x3bf4458a	0.0074545788
182	0xbca2050a	-0.019777793
183	0xbd132a3f	-0.03592896
184	0xb9618bcf	-0.00021509755
185	0xbcce104a	-0.025154252
186	0xbce6e183	-0.028183704
187	0xbcd21782	-0.025645975
188	0xbb2c13a2	-0.002625682
189	0xbce9157a	-0.028452624
190	0xbc241eef	-0.010017141
191	0x3d18343f	0.0371592
192	0x3cf10122	0.029419485
193	0x3cf25906	0.029583465
194	0x3d0bb584	0.034108654
195	0x3bdcd986	0.006739798
196	0xbb4539fe	-0.003009438
197	0xbd0c8d2b	-0.034314316
198	0x3cd258fc	0.025677197
199	0x3b542b70	0.0032374524
200	0xbcb727e3	-0.022357887
201	0x3c713976	0.014723172
202	0x3c44abf3	0.0120038865
203	0xbc6af15a	-0.014339769
204	0x3cf5d68e	0.030009534
205	0xbd090141	-0.03344846
206	0x3d039dd8	0.032132953
207	0x3bf16882	0.0073671946
208	0xbc2f0bfe	-0.0106840115
209	0x3a1421fb	0.00056508154
210	0x3ca3b65e	0.01998442
211	0x3c25fd3f	0.010131179
212	0xbd0729ca	-0.032998838
213	0x3c30b592	0.010785477
214	0x3ca6ebc8	0.020376101
215	0xbd18a703	-0.03726865
216	0xbd240f1c	-0.040053472
217	0x3cd1f884	0.025631197
218	0xbd280816	-0.041023336
219	0x3c836880	0.01604104
220	0x3d0b7575	0.034047563
221	0xbcceac22	-0.025228564
222	0xbb8ef4e0	-0.0043626875
223	0xbc292ab1	-0.01032512
224	0x3be73340	0.00705567
225	0xbc63c2cd	-0.013901425
226	0xbd1cbaaf	-0.038263973
227	0x3cb8d2db	0.022561481
228	0x3cef43d6	0.029207151
229	0xbc3b7a1a	-0.0114426855
230	0x3c8c3a76	0.01711772
231	0x3c97b285	0.018517742
232	0x3caac50a	0.020845909
233	0xbc0fae91	-0.008769647
234	0xbd0d8f61	-0.034560565
235	0x3bc1a265	0.0059092515
236	0x3d0e70f7	0.0347757
237	0x3cdcb27b	0.026940575
238	0xbcafd997	-0.02146606
239	0xbd032344	-0.032016054
240	0xbd0de4d6	-0.034642063
241	0x3bb486e7	0.0055092457
242	0x3a53efa2	0.00080847193
243	0x3d1e91d5	0.038713295
244	0x3c8f2359	0.01747291
245	0x3cedfc4a	0.029050965
246	0xbcaf8b83	-0.021428829
247	0x3d101395	0.035174925
248	0xbcb53673	-0.02212069
249	0x3ccc0938	0.02490674
250	0xbb6b4fda	-0.003590575
251	0x3bc2fbfc	0.005950449
252	0xbd0b6816	-0.03403481
253	0xbbae0ec6	-0.0053118197
254	0x3c1ba6b5	0.009500195
255	0x3ca1d862	0.0197565

layer3.bias f4 [256]
0	0xbd0ef58a	-0.034902133
1	0x3cc30366	0.023805331
2	0x41d53653	26.651525
3	0x41d55c12	26.669956
4	0x41d4e423	26.611395
5	0x41d50700	26.628418
6	0x41d514c7	26.635145
7	0x41d55420	26.666077
8	0x41d560d9	26.672289
9	0xbcf88b57	-0.03033988
10	0xbaec83da	-0.0018044666
11	0x41d5771b	26.683157
12	0x41d571b8	26.680527
13	0x41d4cc69	26.59981
14	0xbc6aeab2	-0.014338182
15	0xbd0f7e35	-0.03503247
16	0xbcaa3887	-0.020778907
17	0x41d55170	26.664764
18	0x41d5643e	26.673946
19	0x41d50dde	26.631771
20	0xbd1d73e1	-0.03844059
21	0x41d4fe75	26.624247
22	0x41d526d5	26.64396
23	0x41d531b0	26.649261
24	0x41d52744	26.644173
25	0x41d5657c	26.674553
26	0x41d520c3	26.640997
27	0xbd04e5b6	-0.032445632
28	0x3b2210a7	0.0024729164
29	0xbb07cd19	-0.0020721613
30	0x41d4ca61	26.598818
31	0xbc8b3d6b	-0.01699706
32	0x41d4e4c8	26.61171
33	0x41d4fd37	26.62364
34	0x41d53859	26.652514
35	0xbc64e829	-0.013971367
36	0x41d53b96	26.654095
37	0x41d53c2d	26.654383
38	0x41d55e30	26.67099
39	0x3b124255	0.002231737
40	0x41d50ca9	26.631182
41	0x41d505ae	26.627773
42	0x41d52c8f	26.646757
43	0xbc75aad6	-0.014994344
44	0x41d55a39	26.669054
45	0x41d4ff39	26.62462
46	0xbcc08bb7	-0.023504121
47	0x3cb72eff	0.022361277
48	0x41d4e58a	26.61208
49	0x41d529a8	26.64534
50	0xb81a780d	-3.6828267e-05
51	0x41d50ca9	26.631182
52	0x41d54545	26.658823
53	0x41d4d260	26.602722
54	0x41d572fd	26.681147
55	0xbc93e3ad	-0.0180529
56	0x41d4ec3f	26.615355
57	0x41d4d5f0	26.604462
58	0x41d55205	26.665049
59	0x41d545bd	26.659052
60	0x41d55228	26.665115
61	0x3d214f25	0.03938212
62	0x41d4f94f	26.621733
63	0xbbf6330a	-0.0075134085
64	0x41d5172d	26.636316
65	0x41d4a90c	26.582542
66	0x3c8bc8ba	0.017063487
67	0x41d54b34	26.66172
68	0xbce65ed4	-0.02812139
69	0xbd054b43	-0.03254248
70	0x41d51a34	26.637794
71	0x41d50c74	26.63108
72	0x41d4d370	26.603241
73	0x41d4f29e	26.618465
74	0x41d54130	26.65683
75	0x41d57013	26.679724
76	0x41d53765	26.652048
77	0x41d4faf2	26.622532
78	0x41d4e8b4	26.613625
79	0x41d515c6	26.635632
80	0x41d4b933	26.59043
81	0xbc954833	-0.018222904
82	0x41d55b28	26.66951
83	0x41d51503	26.63526
84	0x41d4da29	26.606524
85	0x41d4bf9a	26.593555
86	0x41d4d202	26.602543
87	0x3d002871	0.031288568
88	0x41d49a80	26.57544
89	0x41d51d1c	26.639214
90	0x41d535a2	26.651188
91	0x41d5092f	26.629484
92	0x41d55cfe	26.670406
93	0x41d54bce	26.662014
94	0x41d56918	26.676315
95	0x41d51ccc	26.639061
96	0x41d508a6	26.629223
97	0x41d54b2f	26.66171
98	0x41d4ee6c	26.616417
99	0x41d5598d	26.668726
100	0xbc2c8711	-0.010530249
101	0x41d4d497	26.603804
102	0x3c876561	0.016527833
103	0xbc8ca075	-0.017166356
104	0x41d4e215	26.610392
105	0x41d4b487	26.588148
106	0x41d4e6e9	26.61275
107	0x41d4c24d	26.594873
108	0x41d4db1a	26.606983
109	0xbcb5ad4f	-0.022177367
110	0x41d5489b	26.660452
111	0x41d4e9c1	26.614138
112	0xbd022b78	-0.031779736
113	0x41d49d46	26.576794
114	0x41d4f83a	26.621204
115	0x41d55e12	26.670933
116	0xbce5c5d7	-0.028048439
117	0xbc9fec1b	-0.019521764
118	0x41d563b7	26.673689
119	0xbc373872	-0.011182891
120	0xbbb1e183	-0.0054284944
121	0x41d507cc	26.628807
122	0x3d09febb	0.033690196
123	0x41d52046	26.640759
124	0x41d506fe	26.628414
125	0x41d5525f	26.66522
126	0x41d4d698	26.604782
127	0x41d4c09c	26.594048
128	0x41d576e2	26.683048
129	0x41d5761d	26.682673
130	0xbcd11fe4	-0.025527902
131	0x3c8749c6	0.01651467
132	0x41d51d09	26.639177
133	0x41d505e3	26.627874
134	0xbd296258	-0.041353554
135	0x41d57de8	26.686478
136	0x41d563b1	26.673677
137	0xbaab25f3	-0.0013057574
138	0x41d53fba	26.656116
139	0x41d50007	26.625013
140	0xbc1c990d	-0.0095579745
141	0x41d52f94	26.648232
142	0x41d4d6e4	26.604927
143	0x41d4bf44	26.593391
144	0x41d5338a	26.650166
145	0x41d5606d	26.672083
146	0x3cd76350	0.026292473
147	0x41d53be6	26.654247
148	0x41d4bd2a	26.592365
149	0x41d52f72	26.648167
150	0x41d55656	26.667156
151	0xbc86297f	-0.016377209
152	0x41d52a37	26.645613
153	0x41d4f98a	26.621845
154	0x41d4c66b	26.596884
155	0xbcaec326	-0.021333288
156	0xbb8e1d92	-0.004337021
157	0x41d4bbc6	26.591686
158	0xbd2066b3	-0.03916044
159	0x41d53221	26.649477
160	0x41d54722	26.659733
161	0xbc23101f	-0.009952574
162	0xbcf2480e	-0.029575374
163	0x41d49d36	26.576763
164	0x41d56202	26.672855
165	0x41d53727	26.65193
166	0x41d54cf9	26.662584
167	0x3ca8cd70	0.020605773
168	0x41d4fdc1	26.623903
169	0x41d57261	26.68085
170	0x41d534ca	26.650776
171	0xbcaaa784	-0.02083183
172	0x41d53f77	26.655989
173	0x41d555fc	26.666985
174	0x41d4cb0e	26.599148
175	0x41d4c7f3	26.597631
176	0x41d5565e	26.667171
177	0x41d56419	26.673876
178	0x41d5538a	26.66579
179	0xbcfdc102	-0.030975822
180	0x41d4fa9c	26.622368
181	0x41d540e0	26.656677
182	0x41d56de9	26.678667
183	0x41d53d4c	26.65493
184	0x41d4d899	26.60576
185	0x41d54af9	26.661608
186	0xbccd4a08	-0.025059715
187	0xbbd929b8	-0.0066272877
188	0x41d4d976	26.606182
189	0x41d5186e	26.636929
190	0x41d535e1	26.651308
191	0x41d4bfd5	26.593668
192	0x41d56c83	26.677984
193	0xbcb79722	-0.022410933
194	0x41d4c602	26.596684
195	0x41d55352	26.665684
196	0x41d52982	26.645267
197	0x41d523ac	26.642418
198	0x41d52b80	26.64624
199	0xbd07fa68	-0.03319779
200	0x41d513d1	26.634676
201	0xbd1d3223	-0.038377892
202	0x41d4aaeb	26.583456
203	0x41d4fd72	26.623753
204	0xbc9a206f	-0.018814294
205	0x41d4cfa5	26.601389
206	0x41d5523e	26.665157
207	0x41d5181b	26.63677
208	0xbcaad9a7	-0.020855738
209	0x41d54736	26.659771
210	0x41d506b9	26.628283
211	0x41d5345a	26.650562
212	0x41d54bac	26.66195
213	0x41d54ccd	26.6625
214	0x41d55868	26.668167
215	0x41d49493	26.572546
216	0xbd2bd4c6	-0.041950963
217	0x41d5110e	26.633327
218	0x41d4e6ec	26.612755
219	0xbc9c5cc6	-0.019087207
220	0x41d52fb6	26.648296
221	0x41d53908	26.652847
222	0x41d509bd	26.629755
223	0x41d518de	26.637142
224	0x41d50e8d	26.632105
225	0x41d57344	26.681282
226	0x41d48ac3	26.567755
227	0x3ca6144a	0.020273346
228	0x41d4f3b5	26.618998
229	0x41d4ce13	26.600622
230	0x41d520e0	26.641052
231	0x41d4efad	26.61703
232	0x41d4d898	26.605759
233	0x41d520de	26.641048
234	0xbce2708a	-0.027641553
235	0x41d4fc09	26.623064
236	0x41d55b30	26.669525
237	0x41d4ab99	26.583788
238	0x41d4c8e9	26.5981
239	0xbd01f92e	-0.031731777
240	0x41d4be23	26.59284
241	0x41d4bb03	26.591314
242	0x41d52497	26.642866
243	0xbd2effcb	-0.042724412
244	0x41d4e196	26.61015
245	0xbcaaafbe	-0.020835754
246	0x41d4f380	26.618896
247	0x41d4d5b2	26.604343
248	0x3d089958	0.033349365
249	0x41d57694	26.6829
250	0xbcae7057	-0.021293802
251	0x41d529fe	26.645504
252	0x41d50a60	26.630066
253	0x3c33531b	0.010945107
254	0x3d0b7fd6	0.03405746
255	0x3c87e0cb	0.016586682

layer4.weight f4 [98, 256]
0	0xbc97b861	-0.018520536
1	0x3ce942d4	0.028474249
2	0x3fbb3993	1.4626945
3	0x3fb788d1	1.4338628
4	0x3fb21f30	1.3915768
5	0x3fb88a33	1.4417175
6	0x3fb18d95	1.3871332
7	0x3fbbc336	1.4668949
8	0x3fb6e8d1	1.42898
9	0xbd1dc8eb	-0.03852169
10	0x3d25d39b	0.040485006
11	0x3fb2978b	1.3952497
12	0x3fbb9625	1.4655195
13	0x3fb5e510	1.4210529
14	0x3cc65825	0.024211952
15	0xbcd6fd84	-0.026243933
16	0x3cc8b4f9	0.024500357
17	0x3fbbd22d	1.4673516
18	0x3fb38eee	1.4027994
19	0x3fbc1002	1.4692385
20	0xbb627ebd	-0.0034560405
21	0x3fb31478	1.3990622
22	0x3fb6cf53	1.428202
23	0x3fb63d7e	1.4237516
24	0x3fba7435	1.4566714
25	0x3fba0cbc	1.4535136
26	0x3fb99def	1.4501323
27	0x3d035669	0.03206483
28	0xbd1815c7	-0.037130143
29	0x3c63c6ec	0.013902407
30	0x3fbab97b	1.4587854
31	0xbc2e59ab	-0.010641496
32	0x3fbae494	1.4601007
33	0x3fb853a9	1.4400531
34	0x3fb3d8be	1.405052
35	0x3bda3f9e	0.006660416
36	0x3fb64ccd	1.4242188
37	0x3fbd0a2a	1.4768727
38	0x3fb95c7d	1.448135
39	0xbaaeae62	-0.0013327117
40	0x3fb9f193	1.4526848
41	0x3fb8e404	1.4444585
42	0x3fbc2b73	1.470076
43	0x3d04128c	0.03224425
44	0x3fb60155	1.4219157
45	0x3fb88f1b	1.4418672
46	0x3d118ea4	0.035536423
47	0xbbfc6f19	-0.0077036736
48	0x3fb64b1b	1.424167
49	0x3fb94635	1.447455
50	0x3d2d663f	0.042333838
51	0x3fbbf961	1.4685479
52	0x3fba39f9	1.4548942
53	0x3fba25a5	1.4542738
54	0x3fb3a92b	1.4036001
55	0x3bce16da	0.006289345
56	0x3fb7e525	1.4366804
57	0x3fb2c289	1.3965617
58	0x3fb3eee1	1.4057275
59	0x3fb74964	1.4319272
60	0x3fbaab08	1.4583445
61	0x3c8f32a9	0.017480211
62	0x3fbb8b4e	1.4651887
63	0xbc8cd0f2	-0.017189477
64	0x3fb4861b	1.4103426
65	0x3fb19e88	1.3876505
66	0x3d0e8b36	0.03480073
67	0x3fb74754	1.4318643
68	0xbbf2018a	-0.0073854374
69	0x3c707556	0.014676413
70	0x3fb4730c	1.409761
71	0x3fb59510	1.4186115
72	0x3fb6229f	1.4229316
73	0x3fb9b7d0	1.450922
74	0x3fb51140	1.4145889
75	0x3fb9bdaa	1.4511006
76	0x3fb17bc4	1.3865895
77	0x3fb81b40	1.4383316
78	0x3fb58e61	1.4184076
79	0x3fb6077e	1.4221036
80	0x3fbc8107	1.4726876
81	0xb9830d79	-0.00024996305
82	0x3fb24853	1.3928322
83	0x3fb67fe1	1.4257776
84	0x3fb502da	1.4141495
85	0x3fb2e698	1.3976622
86	0x3fb36dd6	1.4017894
87	0x3cd69320	0.026193202
88	0x3fb9cc27	1.4515427
89	0x3fb75481	1.4322664
90	0x3fb1b815	1.3884302
91	0x3fb7bde4	1.4354825
92	0x3fba6dcf	1.4564761
93	0x3fb2a733	1.3957275
94	0x3fb51f4a	1.4150174
95	0x3fb32ba4	1.3997693
96	0x3fb75049	1.4321376
97	0x3fb3286a	1.3996708
98	0x3fbac769	1.4592105
99	0x3fb753c6	1.4322441
100	0x3c7d9d73	0.015479433
101	0x3fb665e4	1.4249845
102	0x3d08e092	0.033417292
103	0xbc883eac	-0.016631447
104	0x3fb38ae1	1.4026757
105	0x3fb98c6e	1.4495981
106	0x3fbb0c06	1.4613044
107	0x3fbb10f8	1.4614553
108	0x3fbc8a70	1.4729748
109	0xbd075db5	-0.03304835
110	0x3fb35297	1.400958
111	0x3fb6ad9d	1.4271733
112	0x3ca8f7b7	0.020625932
113	0x3fb60511	1.4220296
114	0x3fb27124	1.3940778
115	0x3fbb0a88	1.4612589
116	0xbb8d041c	-0.0043034684
117	0x3d18068b	0.037115615
118	0x3fb7e8ec	1.4367957
119	0x3c7ea138	0.015541367
120	0x3d135195	0.035966475
121	0x3fb5eb3d	1.4212414
122	0xbc0a48ec	-0.0084402375
123	0x3fba231e	1.4541967
124	0x3fb82315	1.4385706
125	0x3fb30b94	1.3987908
126	0x3fb21fb6	1.3915927
127	0x3fbc509f	1.4712104
128	0x3fbc0ff8	1.4692373
129	0x3fb28f0a	1.3949902
130	0xbcd32bd6	-0.025777739
131	0xbbfbaf27	-0.007680792
132	0x3fb50ec3	1.414513
133	0x3fb3476c	1.4006171
134	0xbb245679	-0.0025075956
135	0x3fbc37f9	1.4704581
136	0x3fb7fdd7	1.4374341
137	0x3aee7aaa	0.0018194516
138	0x3fb4edf4	1.4135118
139	0x3fba67ab	1.4562887
140	0xbcf50e6a	-0.0299141
141	0x3fb3e850	1.4055271
142	0x3fb8327c	1.4390407
143	0x3fb66223	1.4248699
144	0x3fbc1f71	1.4697095
145	0x3fb8ed97	1.4447507
146	0xbcc8af17	-0.024497552
147	0x3fbbb44a	1.4664395
148	0x3fb5414e	1.4160554
149	0x3fb8cf15	1.4438196
150	0x3fb5e74e	1.4211214
151	0xbc7cf6c5	-0.015439694
152	0x3fbbcc3e	1.4671705
153	0x3fbbc5c0	1.4669724
154	0x3fb61faf	1.4228419
155	0xbcd843e4	-0.02639956
156	0x3ce976f2	0.0284991
157	0x3fbba8be	1.4660871
158	0xbd18329b	-0.037157636
159	0x3fbaa9ed	1.4583107
160	0x3fbcb180	1.4741669
161	0x3cafe9ff	0.021473883
162	0xbcef0f26	-0.029182028
163	0x3fb6c0da	1.4277604
164	0x3fb8c644	1.4435506
165	0x3fb7c2da	1.4356339
166	0x3fb36eac	1.4018149
167	0x3c24a6c8	0.010049529
168	0x3fbbd77d	1.4675137
169	0x3fb4fe8f	1.4140185
170	0x3fb3283e	1.3996656
171	0x3c855401	0.016275408
172	0x3fb4b8c1	1.4118882
173	0x3fbc3c9e	1.4705999
174	0x3fb7cef5	1.4360033
175	0x3fbb2a2a	1.4622242
176	0x3fbb0462	1.4610713
177	0x3fb972af	1.4488124
178	0x3fb4c98c	1.4124007
179	0x3d07d145	0.03315856
180	0x3fb43959	1.4080001
181	0x3fb59d49	1.4188625
182	0x3fb8cd60	1.4437675
183	0x3fb7f031	1.4370176
184	0x3fbb0322	1.4610331
185	0x3fb742f5	1.4317309
186	0xbc98ef29	-0.018668728
187	0x3c49b708	0.012311704
188	0x3fb4dbe7	1.4129609
189	0x3fb72b3c	1.4310069
190	0x3fb71549	1.4303371
191	0x3fbefde5	1.4921232
192	0x3fb9d033	1.4516662
193	0xbcbb4e5b	-0.022864511
194	0x3fbb699b	1.4641603
195	0x3fb45440	1.4088211
196	0x3fb956cc	1.4479613
197	0x3fb73e37	1.4315861
198	0x3fb78f40	1.4340591
199	0xbcd512cc	-0.02600994
200	0x3fb47585	1.4098364
201	0x3cf59b0e	0.029981162
202	0x3fbc1b15	1.4695765
203	0x3fb2a417	1.3956326
204	0xbd00d9fe	-0.031457894
205	0x3fb33b80	1.4002533
206	0x3fb5e999	1.4211913
207	0x3fb88111	1.4414388
208	0xbb8014ab	-0.003908714
209	0x3fb436bf	1.4079207
210	0x3fb7565b	1.4323229
211	0x3fbb59b2	1.4636748
212	0x3fb6aece	1.4272096
213	0x3fb35fbe	1.4013593
214	0x3fb26e7a	1.3939965
215	0x3fbe6075	1.4873186
216	0x3d159d97	0.036527243
217	0x3fb1e209	1.3897105
218	0x3fbaf2ff	1.4605407
219	0x3c698756	0.014253458
220	0x3fb48c25	1.4105269
221	0x3fba40e6	1.4551055
222	0x3fb708b5	1.4299532
223	0x3fb85419	1.4400665
224	0x3fb8724e	1.4409883
225	0x3fb6a75c	1.4269824
226	0x3fd6c628	1.6779222
227	0x3d162357	0.036654796
228	0x3fb468df	1.4094504
229	0x3fba9f99	1.4579955
230	0x3fb95aa1	1.4480783
231	0x3fba5240	1.4556351
232	0x3fb0e2c6	1.3819206
233	0x3fb30df8	1.3988638
234	0x3cb26f47	0.021781577
235	0x3fb34f2b	1.4008535
236	0x3fbb386f	1.4626597
237	0x3fb3e377	1.4053792
238	0x3fbd5fdf	1.4794883
239	0x3d1bc4a1	0.038029317
240	0x3fb9aba0	1.4505501
241	0x3fb538a5	1.4157912
242	0x3fb61a32	1.4226744
243	0xbd230a2b	-0.03980462
244	0x3fb63035	1.4233462
245	0x3ca968dc	0.020679884
246	0x3fb8d483	1.4439853
247	0x3fb55ab4	1.4168305
248	0xbd239459	-0.039936397
249	0x3fb6dcb9	1.4286109
250	0x3bded092	0.006799766
251	0x3fb85beb	1.4403051
252	0x3fb74185	1.431687
253	0xbc4d1454	-0.012517054
254	0x3bfbc652	0.0076835537
255	0x3bd5e74c	0.006527817

layer4.bias f4 [98]
0	0x3f89162c	1.0709891
1	0x40bd9240	5.924103
2	0x40425b88	3.0368366
3	0x3fbf0cf5	1.4925829
4	0x40f102d0	7.5315933
5	0x3feebbdb	1.8651079
6	0x4087dc9c	4.24568
7	0x3efe69c0	0.49690056
8	0x3fb93307	1.4468697
9	0x40e9069b	7.2820563
10	0x4004b470	2.073513
11	0x40285dbb	2.6307209
12	0x40f858c5	7.760836
13	0x40552a55	3.3307087
14	0x4108cffe	8.550779
15	0x413668f5	11.400624
16	0x40082828	2.127451
17	0x3fadd5df	1.3580893
18	0x40e5070b	7.1571097
19	0x40de9a6f	6.9563518
20	0x3fe9472e	1.8224847
21	0x400b0c7b	2.1726367
22	0x3ff20bcb	1.8909849
23	0x40991378	4.7836266
24	0x415ea7fd	13.916013
25	0x4111e4b3	9.118335
26	0x40eb0f26	7.345599
27	0x40bcc264	5.8987293
28	0x4173f6ef	15.2477865
29	0x4115105a	9.316492
30	0x40f94d90	7.790718
31	0x4114a061	9.289155
32	0x4105bffa	8.359369
33	0x40532d11	3.2996256
34	0x3f724659	0.9463859
35	0x3fde7b32	1.7381346
36	0x40809919	4.0186887
37	0x40d95a44	6.7922688
38	0x413ad8bc	11.677914
39	0x410d031a	8.813257
40	0x406f9905	3.7437146
41	0x40c11787	6.034122
42	0x41af98e6	21.949657
43	0x40b65ff9	5.6992154
44	0x409ac989	4.8371015
45	0x40b83c68	5.757374
46	0x40730791	3.7973368
47	0x41039418	8.223656
48	0x4036b90b	2.8550441
49	0x400f9c04	2.2438974
50	0x410b6e1f	8.714385
51	0x4089dd59	4.30827
52	0x4100dceb	8.053935
53	0x40c4eac5	6.1536584
54	0x40ec43fb	7.3832984
55	0x40ecb864	7.3975086
56	0x40f4ff21	7.6561437
57	0x4126f506	10.43482
58	0x4101cc24	8.112339
59	0x408abef3	4.335809
60	0x4101e379	8.118035
61	0x40a81574	5.252619
62	0x40174331	2.363476
63	0x40ff7aca	7.983739
64	0x4096d78e	4.713813
65	0x40a64669	5.196095
66	0x40b87c62	5.7651834
67	0x4088bf0f	4.2733226
68	0x402a01b2	2.6563535
69	0x408f98d8	4.4874077
70	0x40fe0f99	7.939404
71	0x4107ec0a	8.495127
72	0x40fc46de	7.883651
73	0x3ffaa529	1.9581653
74	0x4104c7b1	8.298753
75	0x407c46ce	3.9418216
76	0x40cf7ec3	6.484224
77	0x40f92432	7.7856684
78	0x40616c0d	3.52222
79	0x410219ff	8.131347
80	0x407faeee	3.9950519
81	0x4092ebc4	4.59128
82	0x40092062	2.1426015
83	0x41436df9	12.214349
84	0x4075eb7e	3.8424983
85	0x41045eea	8.273172
86	0x41012c80	8.073364
87	0x3fb78de2	1.4340174
88	0x3fc95679	1.5729514
89	0x3fc7cdc0	1.5609665
90	0x410826f5	8.509511
91	0x41532ce6	13.198462
92	0x411d4ea1	9.8316965
93	0x403baca7	2.9324129
94	0x3f9a76bf	1.2067488
95	0x4033160c	2.7982206
96	0x4107b25c	8.481045
97	0x3fcfde57	1.6239728
