models/28-29/guerrilla_model_weights.pth (torch, 613952 bytes, 8 tensors)

layer1.weight f4 [128, 82]
0	0x41b666b8	22.800156
1	0x419990b8	19.195663
2	0x417dc56b	15.860698
3	0x41886e04	17.053719
4	0x41999244	19.196419
5	0x4114b7de	9.294889
6	0x41b03393	22.025183
7	0x41b47173	22.555395
8	0x41b3c8a7	22.472975
9	0x41a20524	20.25251
10	0x41b6fd1c	22.873589
11	0x41b64b88	22.78688
12	0x4174610d	15.273694
13	0x416fa903	14.978763
14	0x41b750f0	22.91452
15	0x41b69c00	22.826172
16	0x41b65b8b	22.794699
17	0x41b0b98d	22.090601
18	0x41b71b94	22.888466
19	0x41b61618	22.760788
20	0x41a5782c	20.683678
21	0x419d35a0	19.651184
22	0x41b64fab	22.7889
23	0x41b64d40	22.78772
24	0x41a5873f	20.691038
25	0x41b60e83	22.757086
26	0x41b5eeb7	22.74156
27	0x41ae77aa	21.80843
28	0x41521c52	13.131914
29	0x41b61708	22.761246
30	0x41a984ac	21.189781
31	0x4153e7b9	13.244073
32	0x41354811	11.330094
33	0x41083b46	8.514471
34	0x41b61a78	22.762924
35	0x41b4e9b4	22.614113
36	0x41b5636c	22.673546
37	0x41b4e464	22.611519
38	0x41a94b82	21.16187
39	0x41b5f890	22.746368
40	0x41b61c08	22.763687
41	0x41b46907	22.551283
42	0x41b60a88	22.755142
43	0x41b4df50	22.60904
44	0x41b55ca0	22.670227
45	0x41b5483c	22.66027
46	0x41b58fcc	22.695213
47	0x41b5df04	22.733894
48	0x41b5fbb0	22.747894
49	0x41b566c8	22.675186
50	0x41b5ca78	22.723862
51	0x41b4ddfc	22.60839
52	0x41b5c6e0	22.722107
53	0x41b54827	22.66023
54	0x41b55493	22.666296
55	0x41b61668	22.76094
56	0x41b5631c	22.673393
57	0x41b56efc	22.679192
58	0x41b567a4	22.675606
59	0x41b4ff80	22.624756
60	0x41b4b570	22.588593
61	0x41b57230	22.680756
62	0x41b52528	22.643143
63	0x41b5d0f4	22.727028
64	0x41b59f1c	22.70269
65	0x41b51d30	22.639252
66	0x41b5d8b0	22.730804
67	0x41b5b8d0	22.71524
68	0x41b64f70	22.788788
69	0x41b65ec0	22.796265
70	0x41b5f160	22.742859
71	0x41b68008	22.812515
72	0x41b58db0	22.694183
73	0x41b5fda4	22.748848
74	0x41b51380	22.634521
75	0x41b66078	22.797104
76	0x41b5ddd8	22.733322
77	0x41b52744	22.644173
78	0x41b50b10	22.630402
79	0x41b3200a	22.390644
80	0x41b4d5dc	22.604424
81	0x41b61870	22.761932
82	0x41b62edc	22.77288
83	0x419937fb	19.152334
84	0x417d0a90	15.815079
85	0x41886f4a	17.05434
86	0x41985f78	19.046616
87	0x41156476	9.337027
88	0x41af9090	21.945587
89	0x41b393cd	22.447168
90	0x41b3c250	22.46988
91	0x41a295b1	20.323092
92	0x41b5e508	22.736832
93	0x41b64598	22.783981
94	0x41754c19	15.331079
95	0x4170802e	15.031294
96	0x41b64034	22.78135
97	0x41b65880	22.793213
98	0x41b5e1e7	22.735304
99	0x41b1002a	22.12508
100	0x41b65eac	22.796227
101	0x41b56970	22.676483
102	0x41a62235	20.766703
103	0x419e6d8d	19.803492
104	0x41b66577	22.799543
105	0x41b5fac0	22.747437
106	0x41a64bfc	20.787102
107	0x41b669af	22.801603
108	0x41b69a47	22.82533
109	0x41aed34e	21.853176
110	0x41520fe6	13.128881
111	0x41b59d50	22.701813
112	0x41a933f8	21.150375
113	0x4154d133	13.301074
114	0x41361a6f	11.3814535
115	0x4108e735	8.556447
116	0x41b69228	22.821365
117	0x41b4f800	22.621094
118	0x41b509f8	22.629868
119	0x41b4b098	22.586227
120	0x41a8723a	21.055775
121	0x41b536bc	22.651726
122	0x41b5c2f8	22.7202
123	0x41b43bca	22.529194
124	0x41b62cc0	22.77185
125	0x41b5bf4c	22.718407
126	0x41b57230	22.680756
127	0x41b4ff30	22.624603
128	0x41b5a714	22.706581
129	0x41b518f8	22.637192
130	0x41b5f14c	22.74282
131	0x41b51510	22.635284
132	0x41b66758	22.80046
133	0x41b55548	22.666641
134	0x41b61334	22.759377
135	0x41b5faab	22.747396
136	0x41b592d7	22.6967
137	0x41b55548	22.666641
138	0x41b5e878	22.73851
139	0x41b630e4	22.773872
140	0x41b5b0d8	22.71135
141	0x41b5fb10	22.74759
142	0x41b622e8	22.767044
143	0x41b5b290	22.712189
144	0x41b51560	22.635437
145	0x41b52118	22.64116
146	0x41b5a7f0	22.707
147	0x41b53270	22.649628
148	0x41b52a8c	22.645775
149	0x41b54af8	22.661606
150	0x41b549f4	22.66111
151	0x41b4e66c	22.61251
152	0x41b52424	22.642647
153	0x41b6798c	22.80935
154	0x41b5dd4c	22.733055
155	0x41b57fc8	22.687393
156	0x41b5dc70	22.732635
157	0x41b4e108	22.609879
158	0x41b4a530	22.580658
159	0x41b4c268	22.594925
160	0x41b55354	22.665688
161	0x41b22d13	22.272009
162	0x41b60380	22.751709
163	0x41b5c924	22.723213
164	0x41b66d70	22.803436
165	0x41996ee0	19.179138
166	0x417f952c	15.973919
167	0x41893c4a	17.154438
168	0x4198fe41	19.124147
169	0x4117ac25	9.479527
170	0x41b17d4e	22.186184
171	0x41b474d4	22.557045
172	0x41b344ca	22.408588
173	0x41a20771	20.253633
174	0x41b6bb18	22.841354
175	0x41b69c78	22.8264
176	0x41749182	15.285524
177	0x4170959a	15.036524
178	0x41b6b21c	22.836967
179	0x41b5cbe0	22.724548
180	0x41b68417	22.814497
181	0x41b0c250	22.09488
182	0x41b62f54	22.77311
183	0x41b6964c	22.823387
184	0x41a6c960	20.848328
185	0x419ea00a	19.828144
186	0x41b6a95b	22.832693
187	0x41b70244	22.876106
188	0x41a69500	20.822754
189	0x41b62dc3	22.772345
190	0x41b5ed9f	22.741026
191	0x41af5874	21.91819
192	0x4152ea91	13.182267
193	0x41b674c8	22.807022
194	0x41a9bf2c	21.218346
195	0x4154a6b0	13.290695
196	0x41370c0e	11.440443
197	0x410afe2e	8.687056
198	0x41b5de50	22.733551
199	0x41b56344	22.67347
200	0x41b679dc	22.809502
201	0x41b616e0	22.76117
202	0x41a90f63	21.132513
203	0x41b62b44	22.771126
204	0x41b63c88	22.779556
205	0x41b59fbb	22.702993
206	0x41b5424c	22.657372
207	0x41b5da40	22.731567
208	0x41b64714	22.784706
209	0x41b5b8d0	22.71524
210	0x41b5cdc0	22.725464
211	0x41b4f418	22.619186
212	0x41b53c70	22.65451
213	0x41b64048	22.781387
214	0x41b62a68	22.770706
215	0x41b56bb4	22.67759
216	0x41b67130	22.805267
217	0x41b65983	22.793707
218	0x41b5406a	22.656452
219	0x41b566f0	22.675262
220	0x41b62860	22.769714
221	0x41b5f070	22.742401
222	0x41b5780c	22.683617
223	0x41b650c4	22.789436
224	0x41b50fac	22.632652
225	0x41b5a8a4	22.707344
226	0x41b58400	22.689453
227	0x41b5591c	22.66851
228	0x41b5b768	22.714554
229	0x41b640e8	22.781693
230	0x41b5d8b0	22.730804
231	0x41b609e8	22.754837
232	0x41b5a96c	22.707726
233	0x41b5dba8	22.732254
234	0x41b5d478	22.728745
235	0x41b6a5d8	22.830978
236	0x41b6a13c	22.828728
237	0x41b61d20	22.764221
238	0x41b58f18	22.69487
239	0x41b5cc30	22.7247
240	0x41b57c80	22.685791
241	0x41b5eb0c	22.739769
242	0x41b579ec	22.684532
243	0x41b38177	22.438215
244	0x41b5fb74	22.74778
245	0x41b5e5a8	22.737137
246	0x41b6e318	22.860886
247	0x41999bd8	19.201096
248	0x417d789d	15.841947
249	0x41889816	17.07426
250	0x41992d18	19.147018
251	0x41158ce3	9.346896
252	0x41b0f11b	22.117727
253	0x41b35ea3	22.42121
254	0x41b36ec0	22.429077
255	0x41a1f8e4	20.246529

layer1.bias f4 [128]
0	0x41b69778	22.82396
1	0x41b62108	22.766129
2	0x41b67054	22.804848
3	0x41b6e00c	22.859398
4	0x41b5cb04	22.724129
5	0x41b6e3a4	22.861153
6	0x41b6540c	22.791039
7	0x41b7035c	22.87664
8	0x41b6a218	22.829147
9	0x41b6c158	22.844406
10	0x41b5fed0	22.74942
11	0x41b6a984	22.832771
12	0x41b73764	22.902046
13	0x41b64e80	22.78833
14	0x41b6ce78	22.850815
15	0x41b60f38	22.757431
16	0x41b609ac	22.754723
17	0x41b6d030	22.851654
18	0x41b704c4	22.877327
19	0x41b748e4	22.910591
20	0x41b6d314	22.853065
21	0x41b693b8	22.822128
22	0x41b60920	22.754456
23	0x41b62590	22.768341
24	0x41b67f90	22.812286
25	0x41b61168	22.7585
26	0x41b74ee8	22.913528
27	0x41b64de0	22.788025
28	0x41b68530	22.815033
29	0x41b709d8	22.879807
30	0x41b689b8	22.817245
31	0x41b60100	22.750488
32	0x41b74ba0	22.911926
33	0x41b65934	22.793556
34	0x41b6a7e0	22.83197
35	0x41b5ce24	22.725655
36	0x41b65470	22.79123
37	0x41b68364	22.814156
38	0x41b628c4	22.769905
39	0x41b63ef4	22.780739
40	0x41b65e48	22.796036
41	0x41b5e0bc	22.734734
42	0x41b60218	22.751022
43	0x41b6004c	22.750145
44	0x41b64f20	22.788635
45	0x41b73750	22.902008
46	0x41b6cb1c	22.849174
47	0x41b6347c	22.775627
48	0x41b72db4	22.897316
49	0x41b61b40	22.763306
50	0x41b653e4	22.790962
51	0x41b662e4	22.798286
52	0x41b673d8	22.806564
53	0x41b607b8	22.753769
54	0x41b5e940	22.738892
55	0x41b71f54	22.890297
56	0x41b60a74	22.755104
57	0x41b70a78	22.880112
58	0x41b5b9ac	22.71566
59	0x41b65d1c	22.795464
60	0x41b626e4	22.76899
61	0x41b6180c	22.761742
62	0x41b630d0	22.773834
63	0x41b67158	22.805344
64	0x41b64034	22.78135
65	0x41b66500	22.799316
66	0x41b6941c	22.822319
67	0x41b73200	22.899414
68	0x41b66794	22.800575
69	0x41b6abdc	22.833916
70	0x41b6171c	22.761284
71	0x41b738a4	22.902657
72	0x41b61294	22.759071
73	0x41b6d184	22.852303
74	0x41b7026c	22.876183
75	0x41b67a2c	22.809654
76	0x41b6ab28	22.833572
77	0x41b6d3c8	22.853409
78	0x41b6f858	22.871262
79	0x41b662f8	22.798325
80	0x41b61898	22.762009
81	0x41b64aac	22.78646
82	0x41b6a150	22.828766
83	0x41b5f0c0	22.742554
84	0x41b5f584	22.74488
85	0x41b5f4bc	22.7445
86	0x41b6afd8	22.835861
87	0x41b6919c	22.821098
88	0x41b68558	22.81511
89	0x41b6aa24	22.833076
90	0x41b6e548	22.861954
91	0x41b681fc	22.813469
92	0x41b60934	22.754494
93	0x41b70f14	22.882362
94	0x41b6e0ac	22.859703
95	0x41b70a14	22.879921
96	0x41b67810	22.808624
97	0x41b6ee80	22.866455
98	0x41b61b40	22.763306
99	0x41b7175c	22.886406
100	0x41b5e1d4	22.735268
101	0x41b5b574	22.7136
102	0x41b709d8	22.879807
103	0x41b741c8	22.90712
104	0x41b680d0	22.812897
105	0x41b6d710	22.855011
106	0x41b6e228	22.860428
107	0x41b64d90	22.787872
108	0x41b73aac	22.903648
109	0x41b6b5a0	22.838684
110	0x41b62838	22.769638
111	0x41b6b08c	22.836205
112	0x41b741b4	22.907082
113	0x41b728a0	22.894836
114	0x41b610a0	22.758118
115	0x41b660b4	22.797218
116	0x41b62ae0	22.770935
117	0x41b73d04	22.904793
118	0x41b6e7b4	22.863136
119	0x41b6b67c	22.839104
120	0x41b5c410	22.720734
121	0x41b5f6d8	22.74553
122	0x41b5f368	22.74385
123	0x41b6a3e4	22.830025
124	0x41b667bc	22.800652
125	0x41b6c6d0	22.847076
126	0x41b7111c	22.883354
127	0x41b6cc48	22.849747

layer2.weight f4 [256, 128]
0	0x41b79394	22.94706
1	0x41b78e94	22.944618
2	0x41b6dbc0	22.8573
3	0x41b64200	22.782227
4	0x41b75c08	22.919937
5	0x41b68850	22.816559
6	0x41b714f0	22.885223
7	0x41b6c658	22.846848
8	0x41b6c590	22.846466
9	0x41b6d440	22.853638
10	0x41b7f208	22.99318
11	0x41b684b8	22.814804
12	0x41b6a330	22.829681
13	0x41b6e9e4	22.864204
14	0x41b68030	22.812592
15	0x41b67964	22.809273
16	0x41b66668	22.800003
17	0x41b738b8	22.902695
18	0x41b750a0	22.914368
19	0x41b677d4	22.80851
20	0x41b746a0	22.909485
21	0x41b6cc70	22.849823
22	0x41b6e6d8	22.862717
23	0x41b77c9c	22.935844
24	0x41b6f1f0	22.868134
25	0x41b6b000	22.835938
26	0x41b6d3dc	22.853447
27	0x41b76810	22.925812
28	0x41b66ac8	22.80214
29	0x41b74f74	22.913795
30	0x41b6937c	22.822014
31	0x41b72008	22.89064
32	0x41b776fc	22.933098
33	0x41b66794	22.800575
34	0x41b7a730	22.956635
35	0x41b6ffb0	22.874847
36	0x41b731c4	22.8993
37	0x41b61d98	22.76445
38	0x41b64020	22.781311
39	0x41b65524	22.791573
40	0x41b6f114	22.867714
41	0x41b71a68	22.887894
42	0x41b67c70	22.81076
43	0x41b74240	22.907349
44	0x41b631c0	22.774292
45	0x41b736ec	22.901817
46	0x41b6baa0	22.841125
47	0x41b74240	22.907349
48	0x41b6aeac	22.835289
49	0x41b73584	22.90113
50	0x41b76aa4	22.92707
51	0x41b731b0	22.899261
52	0x41b72cc4	22.896858
53	0x41b6ad30	22.834564
54	0x41b76130	22.922455
55	0x41b64304	22.782722
56	0x41b6b26c	22.83712
57	0x41b67540	22.807251
58	0x41b775a8	22.93245
59	0x41b6c6bc	22.847038
60	0x41b74970	22.910858
61	0x41b683f0	22.814423
62	0x41b78d2c	22.943932
63	0x41b6d3f0	22.853485
64	0x41b63620	22.776428
65	0x41b7c51c	22.971245
66	0x41b64ca0	22.787415
67	0x41b6671c	22.800346
68	0x41b6b898	22.840134
69	0x41b721d4	22.891518
70	0x41b63ff8	22.781235
71	0x41b7148c	22.885033
72	0x41b72030	22.890717
73	0x41b6dbe8	22.857376
74	0x41b65ba0	22.794739
75	0x41b6accc	22.834373
76	0x41b71360	22.88446
77	0x41b68080	22.812744
78	0x41b6b6a4	22.83918
79	0x41b6ef0c	22.866722
80	0x41b6ab64	22.833687
81	0x41b6a86c	22.832237
82	0x41b67cd4	22.810951
83	0x41b6cdc4	22.850471
84	0x41b71a04	22.887703
85	0x41b6b938	22.840439
86	0x41b63030	22.77353
87	0x41b698e0	22.824646
88	0x41b6e4d0	22.861725
89	0x41b74380	22.907959
90	0x41b67d88	22.811295
91	0x41b69250	22.821442
92	0x41b66ac8	22.80214
93	0x41b67b80	22.810303
94	0x41b6fed4	22.874428
95	0x41b6bf78	22.84349
96	0x41b69b38	22.82579
97	0x41b6d2d8	22.852951
98	0x41b77cb0	22.935883
99	0x41b63670	22.77658
100	0x41b72454	22.892738
101	0x41b75258	22.915207
102	0x41b66118	22.79741
103	0x41b66ab4	22.802101
104	0x41b76edc	22.92913
105	0x41b75898	22.918259
106	0x41b73a98	22.90361
107	0x41b6f588	22.869888
108	0x41b65088	22.789322
109	0x41b71c34	22.888771
110	0x41b677d4	22.80851
111	0x41b6f038	22.867294
112	0x41b64c78	22.787338
113	0x41b743e4	22.90815
114	0x41b7701c	22.92974
115	0x41b6f0b0	22.867523
116	0x41b6a920	22.83258
117	0x41b6b104	22.836433
118	0x41b6b4b0	22.838226
119	0x41b711bc	22.88366
120	0x41b72904	22.895027
121	0x41b6f588	22.869888
122	0x41b72738	22.89415
123	0x41b70b18	22.880417
124	0x41b68b34	22.81797
125	0x41b73494	22.900673
126	0x41b6a2e0	22.829529
127	0x41b6a2a4	22.829414
128	0x41b6a8e4	22.832466
129	0x41b6be4c	22.842918
130	0x41b6f1b4	22.86802
131	0x41b68454	22.814613
132	0x41b69ee4	22.827583
133	0x41b76bd0	22.927643
134	0x41b78cb4	22.943703
135	0x41b709d8	22.879807
136	0x41b67554	22.80729
137	0x41b6f984	22.871834
138	0x41b76f2c	22.929283
139	0x41b72fe4	22.898384
140	0x41b67658	22.807785
141	0x41b6dbe8	22.857376
142	0x41b65e20	22.79596
143	0x41b74f10	22.913605
144	0x41b72404	22.892586
145	0x41b6bdd4	22.84269
146	0x41b6f808	22.871109
147	0x41b76eb4	22.929054
148	0x41b642dc	22.782646
149	0x41b796a0	22.948547
150	0x41b6c630	22.846771
151	0x41b7bb6c	22.966515
152	0x41b6ea20	22.864319
153	0x41b717d4	22.886635
154	0x41b72508	22.893082
155	0x41b712d4	22.884193
156	0x41b6f5d8	22.87004
157	0x41b6a038	22.828232
158	0x41b641b0	22.782074
159	0x41b6aa88	22.833267
160	0x41b6c658	22.846848
161	0x41b6ace0	22.834412
162	0x41b6d51c	22.854057
163	0x41b6c52c	22.846275
164	0x41b6d670	22.854706
165	0x41b6e584	22.862068
166	0x41b6518c	22.789818
167	0x41b71f04	22.890144
168	0x41b6bbcc	22.841698
169	0x41b6bf78	22.84349
170	0x41b67a54	22.80973
171	0x41b6716c	22.805382
172	0x41b74510	22.908722
173	0x41b69fe8	22.82808
174	0x41b6c5b8	22.846542
175	0x41b75294	22.915321
176	0x41b62d4c	22.772118
177	0x41b74088	22.90651
178	0x41b71298	22.884079
179	0x41b68864	22.816597
180	0x41b6b5f0	22.838837
181	0x41b698cc	22.824608
182	0x41b74f74	22.913795
183	0x41b6d10c	22.852074
184	0x41b71734	22.88633
185	0x41b6fe48	22.87416
186	0x41b6e0c0	22.859741
187	0x41b708e8	22.879349
188	0x41b65b00	22.794434
189	0x41b668fc	22.801262
190	0x41b6b564	22.83857
191	0x41b732b4	22.899757
192	0x41b7445c	22.908379
193	0x41b7a8c0	22.957397
194	0x41b65e84	22.79615
195	0x41b745b0	22.909027
196	0x41b642f0	22.782684
197	0x41b71360	22.88446
198	0x41b6a240	22.829224
199	0x41b6f7f4	22.87107
200	0x41b6a77c	22.83178
201	0x41b6c860	22.84784
202	0x41b70640	22.878052
203	0x41b665a0	22.799622
204	0x41b64264	22.782417
205	0x41b74984	22.910896
206	0x41b69318	22.821823
207	0x41b74984	22.910896
208	0x41b743bc	22.908073
209	0x41b6c040	22.843872
210	0x41b6c220	22.844788
211	0x41b66c58	22.802902
212	0x41b6c860	22.84784
213	0x41b615c8	22.760635
214	0x41b65d30	22.795502
215	0x41b6fc40	22.873169
216	0x41b68120	22.81305
217	0x41b69c00	22.826172
218	0x41b6da58	22.856613
219	0x41b6f9c0	22.871948
220	0x41b69020	22.820374
221	0x41b70230	22.876068
222	0x41b7526c	22.915245
223	0x41b71dec	22.88961
224	0x41b719f0	22.887665
225	0x41b6d0f8	22.852036
226	0x41b76edc	22.92913
227	0x41b6bfdc	22.843681
228	0x41b7b5f4	22.963844
229	0x41b70550	22.877594
230	0x41b74678	22.909409
231	0x41b6b910	22.840363
232	0x41b6f36c	22.868858
233	0x41b6a8bc	22.83239
234	0x41b74560	22.908875
235	0x41b719a0	22.887512
236	0x41b71f54	22.890297
237	0x41b7c864	22.972847
238	0x41b713c4	22.884651
239	0x41b6d0e4	22.851997
240	0x41b69368	22.821976
241	0x41b6ba8c	22.841087
242	0x41b7a4c4	22.955452
243	0x41b73d2c	22.90487
244	0x41b73f0c	22.905785
245	0x41b71fcc	22.890526
246	0x41b77594	22.932411
247	0x41b7035c	22.87664
248	0x41b6fe84	22.874275
249	0x41b78d40	22.94397
250	0x41b68404	22.81446
251	0x41b6eebc	22.86657
252	0x41b77378	22.931381
253	0x41b6725c	22.80584
254	0x41b6f240	22.868286
255	0x41b720d0	22.891022

layer2.bias f4 [256]
0	0x41b7ec2c	22.990318
1	0x41b84960	23.035828
2	0x41b85874	23.04319
3	0x41b78c50	22.943512
4	0xbd1ee64d	-0.03879385
5	0x41b7607c	22.922112
6	0x41b7be3c	22.967888
7	0x41b7783c	22.933708
8	0x41b860f8	23.047348
9	0x41b85838	23.043076
10	0x41b7d7a0	22.980286
11	0x41b7d520	22.979065
12	0xbcc78675	-0.024356106
13	0x41b7c9a4	22.973457
14	0x41b84a64	23.036324
15	0x41b77350	22.931305
16	0x41b78c8c	22.943626
17	0x41b7c6d4	22.972084
18	0x41b76eb4	22.929054
19	0x41b81990	23.012482
20	0x41b83a4c	23.028465
21	0x41b7cf30	22.976166
22	0x41b8516c	23.039757
23	0x41b84cd0	23.037506
24	0x41b8381c	23.027397
25	0x41b80270	23.00119
26	0x41b794c0	22.947632
27	0x41b811d4	23.008705
28	0x41b77cb0	22.935883
29	0x41b7d1c4	22.977425
30	0x41b7c0e4	22.969185
31	0x41b7c2d8	22.970139
32	0x41b7db9c	22.982231
33	0x41b82390	23.017365
34	0xbcceb990	-0.025234967
35	0x41b84a78	23.036362
36	0x41b85554	23.041664
37	0x41b850a4	23.039375
38	0x41b75be0	22.91986
39	0x41b77508	22.932144
40	0x41b857c0	23.042847
41	0x41b7fdd4	22.99894
42	0x41b7fb90	22.997833
43	0x41b84848	23.035294
44	0x41b78a98	22.942673
45	0x41b82958	23.020187
46	0x41b81cec	23.014122
47	0x41b79768	22.948929
48	0x41b76aa4	22.92707
49	0x41b78494	22.939735
50	0x41b84474	23.033424
51	0x41b832e0	23.024841
52	0x41b748a8	22.910477
53	0x41b84d98	23.037888
54	0x41b79da8	22.95198
55	0x41b84cf8	23.037582
56	0x41b816e8	23.011185
57	0x41b84140	23.03186
58	0x41b84fa0	23.03888
59	0x41b82ebc	23.02282
60	0x41b7eb78	22.989975
61	0x41b7eeac	22.991539
62	0x41b84190	23.032013
63	0x41b83380	23.025146
64	0x41b815e4	23.010689
65	0x41b83c40	23.029419
66	0x41b7b964	22.965523
67	0x41b7e4d4	22.986732
68	0x41b820fc	23.016106
69	0x41b7b9b4	22.965675
70	0x41b808ec	23.004356
71	0x41b7f8e8	22.996536
72	0x41b7e088	22.984634
73	0x41b81eb8	23.015
74	0x41b85cfc	23.045403
75	0x41b7f5b4	22.994972
76	0x41b7ccc4	22.974983
77	0x41b8395c	23.028008
78	0x41b7e72c	22.987877
79	0x41b82fd4	23.023354
80	0x41b7de1c	22.983452
81	0x41b834e8	23.025833
82	0x41b76720	22.925354
83	0x41b77fd0	22.937408
84	0x41b840c8	23.031631
85	0x41b790b0	22.945648
86	0x41b81f6c	23.015343
87	0x41b783cc	22.939354
88	0x41b7cfa8	22.976395
89	0x41b84cf8	23.037582
90	0x41b7c378	22.970444
91	0x41b7850c	22.939964
92	0x41b77684	22.932869
93	0x41b7fa50	22.997223
94	0x41b7bbf8	22.966782
95	0x41b83da8	23.030106
96	0x41b766bc	22.925163
97	0x41b79b28	22.95076
98	0x41b84f8c	23.038841
99	0x41b80e78	23.007065
100	0x41b7a050	22.953278
101	0x41b7bce8	22.96724
102	0x41b81684	23.010994
103	0x41b7e18c	22.98513
104	0x41b81058	23.00798
105	0xbd4cbfe6	-0.049987696
106	0x41b7d50c	22.979027
107	0x41b79c04	22.95118
108	0x41b77b98	22.935349
109	0x41b7b4c8	22.963272
110	0x41b7be14	22.967812
111	0x41b84de8	23.03804
112	0x41b7d4bc	22.978874
113	0x41b764f0	22.924286
114	0x41b831dc	23.024345
115	0x41b78b38	22.942978
116	0x41b7332c	22.899986
117	0x41b7b270	22.962128
118	0x41b791c8	22.946182
119	0x41b7cad0	22.97403
120	0x41b83f88	23.031021
121	0x41b7fb90	22.997833
122	0x41b81828	23.011795
123	0x41b75d48	22.920547
124	0x41b780e8	22.937943
125	0x41b84140	23.03186
126	0x41b819a4	23.01252
127	0x41b840a0	23.031555
128	0x41b7d8e0	22.980896
129	0xbd4a4723	-0.049384248
130	0x41b7b2e8	22.962357
131	0x41b7fc6c	22.998253
132	0x41b825e8	23.018509
133	0x41b857c0	23.042847
134	0x41b7832c	22.939049
135	0x41b76a40	22.92688
136	0x41b7a6e0	22.956482
137	0x41b78214	22.938515
138	0x41b79754	22.94889
139	0x41b83cf4	23.029762
140	0x41b75208	22.915054
141	0x41b83074	23.023659
142	0x41b7ad34	22.959572
143	0x41b7cd3c	22.975212
144	0x41b75e74	22.92112
145	0x41b865a8	23.049637
146	0x41b77378	22.931381
147	0x41b79448	22.947403
148	0x41b8228c	23.016869
149	0x41b7d91c	22.98101
150	0x41b83f60	23.030945
151	0x41b7e2e0	22.985779
152	0x41b7819c	22.938286
153	0x41b7d5e8	22.979446
154	0x41b802fc	23.001457
155	0x41b7ab90	22.95877
156	0x41b86954	23.05143
157	0x41b83880	23.027588
158	0x41b7fb04	22.997566
159	0x41b85b08	23.044449
160	0x41b75c58	22.92009
161	0x41b7d778	22.98021
162	0x41b867c4	23.050667
163	0x41b76324	22.923409
164	0x41b84f78	23.038803
165	0x41b78458	22.939621
166	0x41b7530c	22.91555
167	0x41b7cc10	22.97464
168	0x41b7d1d8	22.977463
169	0xbcf7f55a	-0.03026836
170	0x41b842a8	23.032547
171	0x41b7a2bc	22.95446
172	0x41b80d38	23.006454
173	0x41b83ed4	23.030678
174	0x41b80810	23.003937
175	0x41b79bf0	22.951141
176	0x41b7d7c8	22.980362
177	0x41b84960	23.035828
178	0xbd5f3140	-0.054490328
179	0x41b7ac6c	22.95919
180	0x41b83a24	23.028389
181	0x41b7f640	22.99524
182	0x41b85784	23.042732
183	0x41b76374	22.923561
184	0x41b76b80	22.92749
185	0x41b795ec	22.948204
186	0x41b7d00c	22.976585
187	0x41b83268	23.024612
188	0x41b77e2c	22.936607
189	0x41b7e18c	22.98513
190	0x41b7ca08	22.973648
191	0x41b8214c	23.016258
192	0x41b84050	23.031403
193	0x41b7eeac	22.991539
194	0x41b8250c	23.01809
195	0x41b7bcac	22.967125
196	0x41b85ef0	23.046356
197	0x41b86594	23.049599
198	0x41b82e44	23.02259
199	0x41b78714	22.940956
200	0x41b75974	22.918678
201	0x41b7ad98	22.959763
202	0x41b79e5c	22.952324
203	0x41b80630	23.003021
204	0x41b7a3e8	22.955032
205	0x41b79c04	22.95118
206	0x41b78868	22.941605
207	0x41b7cd50	22.97525
208	0x41b7f2a8	22.993484
209	0x41b78598	22.940231
210	0x41b7f8fc	22.996574
211	0x41b7e18c	22.98513
212	0x41b8322c	23.024498
213	0x41b813b4	23.00962
214	0x41b87624	23.057686
215	0x41b7e830	22.988373
216	0x41b7b900	22.965332
217	0x41b78674	22.94065
218	0x41b80eb4	23.00718
219	0x41b85f2c	23.04647
220	0x41b815bc	23.010612
221	0x41b76108	22.922379
222	0x41b777d8	22.933517
223	0x41b85220	23.0401
224	0x41b8471c	23.034721
225	0x41b81918	23.012253
226	0xbcf7c702	-0.030246262
227	0x41b76dec	22.928673
228	0x41b793a8	22.947098
229	0x41b79920	22.949768
230	0x41b7ce40	22.975708
231	0x41b848e8	23.035599
232	0x41b71e50	22.889801
233	0xbd859c4a	-0.065239504
234	0x41b78d40	22.94397
235	0x41b804f0	23.00241
236	0x41b7bdd8	22.967697
237	0x41b7b720	22.964417
238	0x41b7ceb8	22.975937
239	0x41b7df70	22.9841
240	0x41b7e858	22.98845
241	0x41b7fb54	22.997719
242	0xbd81ab62	-0.06331517
243	0x41b7e254	22.985512
244	0x41b7959c	22.948051
245	0x41b75fdc	22.921806
246	0x41b7846c	22.93966
247	0x41b75280	22.915283
248	0x41b82840	23.019653
249	0xbcd3f41c	-0.025873236
250	0x41b76a04	22.926765
251	0x41b80540	23.002563
252	0x41b79664	22.948433
253	0x41b84cf8	23.037582
254	0x41b83880	23.027588
255	0x41b831f0	23.024384

layer3.weight f4 [256, 256]
0	0x41b6e700	22.862793
1	0x41b71130	22.883392
2	0x41b67dec	22.811485
3	0x41b70dac	22.881676
4	0xbc8741bd	-0.016510839
5	0x41b6da94	22.856728
6	0x41b6f90c	22.871605
7	0x41b69250	22.821442
8	0x41b6bc08	22.841812
9	0x41b6cec8	22.850967
10	0x41b66c58	22.802902
11	0x41b6ec00	22.865234
12	0xbc182945	-0.009287183
13	0x41b6ba8c	22.841087
14	0x41b67f40	22.812134
15	0x41b6eb74	22.864967
16	0x41b6b050	22.83609
17	0x41b64ca0	22.787415
18	0x41b6ad6c	22.834679
19	0x41b69c78	22.8264
20	0x41b70bb8	22.880722
21	0x41b70d70	22.881561
22	0x41b69264	22.82148
23	0x41b6fd08	22.87355
24	0x41b670b8	22.805038
25	0x41b6db48	22.85707
26	0x41b68ff8	22.820297
27	0x41b66c44	22.802864
28	0x41b64e6c	22.788292
29	0x41b667f8	22.800766
30	0x41b67374	22.806374
31	0x41b69ffc	22.828117
32	0x41b69110	22.820831
33	0x41b66f50	22.804352
34	0x3b1a7245	0.0023566645
35	0x41b662e4	22.798286
36	0x41b66fa0	22.804504
37	0x41b6482c	22.78524
38	0x41b6a72c	22.831627
39	0x41b6b1a4	22.836739
40	0x41b6e2f0	22.86081
41	0x41b6abdc	22.833916
42	0x41b65c7c	22.795158
43	0x41b70af0	22.88034
44	0x41b69660	22.823425
45	0x41b655ec	22.791954
46	0x41b6d0e4	22.851997
47	0x41b69f0c	22.82766
48	0x41b6a7cc	22.831932
49	0x41b6b7bc	22.839714
50	0x41b65e98	22.796188
51	0x41b68b5c	22.818047
52	0x41b6f3e4	22.869087
53	0x41b68ee0	22.819763
54	0x41b650ec	22.789513
55	0x41b681d4	22.813393
56	0x41b6a420	22.83014
57	0x41b6ec3c	22.865349
58	0x41b6cb1c	22.849174
59	0x41b6a3d0	22.829987
60	0x41b65a74	22.794167
61	0x41b726e8	22.893997
62	0x41b6f510	22.86966
63	0x41b6d0bc	22.851921
64	0x41b6c860	22.84784
65	0x41b6f59c	22.869926
66	0x41b66adc	22.802177
67	0x41b69818	22.824265
68	0x41b6f77c	22.870842
69	0x41b68c38	22.818466
70	0x41b6833c	22.81408
71	0x41b6e610	22.862335
72	0x41b63e90	22.780548
73	0x41b70208	22.875992
74	0x41b65d30	22.795502
75	0x41b6b6cc	22.839256
76	0x41b6d670	22.854706
77	0x41b6b654	22.839027
78	0x41b6b2bc	22.837273
79	0x41b7099c	22.879692
80	0x41b65f74	22.796608
81	0x41b6beec	22.843224
82	0x41b6a150	22.828766
83	0x41b690e8	22.820755
84	0x41b7058c	22.877708
85	0x41b6e318	22.860886
86	0x41b6a8f8	22.832504
87	0x41b6d008	22.851578
88	0x41b6b6cc	22.839256
89	0x41b6f830	22.871185
90	0x41b6f2e0	22.868591
91	0x41b6e6c4	22.862679
92	0x41b6c928	22.84822
93	0x41b6cb6c	22.849327
94	0x41b67f2c	22.812096
95	0x41b6ca40	22.848755
96	0x41b70028	22.875076
97	0x41b6cba8	22.849442
98	0x41b66370	22.798553
99	0x41b6f0b0	22.867523
100	0x41b66780	22.800537
101	0x41b64688	22.78444
102	0x41b6f45c	22.869316
103	0x41b6a498	22.830368
104	0x41b6b730	22.839447
105	0x3d031863	0.03200568
106	0x41b6ea48	22.864395
107	0x41b6da80	22.85669
108	0x41b67338	22.80626
109	0x41b6accc	22.834373
110	0x41b6a3f8	22.830063
111	0x41b6f2cc	22.868553
112	0x41b6f2b8	22.868515
113	0x41b6964c	22.823387
114	0x41b6a150	22.828766
115	0x41b6acf4	22.83445
116	0x41b67a40	22.809692
117	0x41b6cf40	22.851196
118	0x41b6a498	22.830368
119	0x41b67d88	22.811295
120	0x41b68878	22.816635
121	0x41b6d9e0	22.856384
122	0x41b697c8	22.824112
123	0x41b6c2d4	22.84513
124	0x41b69da4	22.826973
125	0x41b6941c	22.822319
126	0x41b6dc24	22.85749
127	0x41b6ed18	22.865768
128	0x41b711d0	22.883698
129	0x3d362417	0.04446801
130	0x41b65380	22.790771
131	0x41b66c6c	22.80294
132	0x41b6fccc	22.873436
133	0x41b6d92c	22.856041
134	0x41b6e700	22.862793
135	0x41b6e8e0	22.863708
136	0x41b686fc	22.81591
137	0x41b66730	22.800385
138	0x41b66c80	22.802979
139	0x41b6a330	22.829681
140	0x41b695fc	22.823235
141	0x41b68f1c	22.819878
142	0x41b6fa74	22.872292
143	0x41b6d33c	22.853142
144	0x41b65d08	22.795425
145	0x41b6a920	22.83258
146	0x41b6b820	22.839905
147	0x41b68ff8	22.820297
148	0x41b65d30	22.795502
149	0x41b6d8f0	22.855927
150	0x41b715e0	22.885681
151	0x41b6f6f0	22.870575
152	0x41b68ecc	22.819725
153	0x41b6bca8	22.842117
154	0x41b70c6c	22.881065
155	0x41b6856c	22.815147
156	0x41b6f5b0	22.869965
157	0x41b681e8	22.81343
158	0x41b672ac	22.805992
159	0x41b6a560	22.83075
160	0x41b6c784	22.84742
161	0x41b6810c	22.813011
162	0x41b6c504	22.846199
163	0x41b7012c	22.875572
164	0x41b668fc	22.801262
165	0x41b67004	22.804695
166	0x41b66370	22.798553
167	0x41b6bb18	22.841354
168	0x41b6be4c	22.842918
169	0xbc38208b	-0.011238228
170	0x41b700c8	22.875381
171	0x41b65808	22.792984
172	0x41b6aa60	22.83319
173	0x41b671f8	22.805649
174	0x41b71400	22.884766
175	0x41b69610	22.823273
176	0x41b65a74	22.794167
177	0x41b71db0	22.889496
178	0x3cb7c8a7	0.022434546
179	0x41b6f4fc	22.869621
180	0x41b6cf18	22.85112
181	0x41b69048	22.82045
182	0x41b67770	22.80832
183	0x41b697a0	22.824036
184	0x41b69bd8	22.826096
185	0x41b68e2c	22.81942
186	0x41b6a2e0	22.829529
187	0x41b6d044	22.851692
188	0x41b6beb0	22.84311
189	0x41b6b154	22.836586
190	0x41b69ef8	22.827621
191	0x41b6deb8	22.85875
192	0x41b6d10c	22.852074
193	0x41b67b94	22.81034
194	0x41b6fbb4	22.872902
195	0x41b6ce50	22.850739
196	0x41b67eb4	22.811867
197	0x41b68c4c	22.818504
198	0x41b67be4	22.810493
199	0x41b6c7d4	22.847572
200	0x41b71a68	22.887894
201	0x41b712fc	22.88427
202	0x41b6ae48	22.835098
203	0x41b708ac	22.879234
204	0x41b6bbb8	22.84166
205	0x41b68f1c	22.819878
206	0x41b663d4	22.798744
207	0x41b6e354	22.861
208	0x41b65d6c	22.795616
209	0x41b6e28c	22.860619
210	0x41b6a86c	22.832237
211	0x41b6e520	22.861877
212	0x41b6c93c	22.848259
213	0x41b65ca4	22.795235
214	0x41b67888	22.808853
215	0x41b72328	22.892166
216	0x41b66dc0	22.803589
217	0x41b6b528	22.838455
218	0x41b6a9c0	22.832886
219	0x41b69ffc	22.828117
220	0x41b6f718	22.870651
221	0x41b67d10	22.811066
222	0x41b66398	22.79863
223	0x41b6dda0	22.858215
224	0x41b6fc54	22.873207
225	0x41b657b8	22.792831
226	0x3d1aef3b	0.037825804
227	0x41b70910	22.879425
228	0x41b670a4	22.805
229	0x41b69480	22.82251
230	0x41b68634	22.815529
231	0x41b67e3c	22.811638
232	0x41b6cec8	22.850967
233	0x3d2f49b3	0.042794894
234	0x41b6fc40	22.873169
235	0x41b6ae5c	22.835136
236	0x41b688c8	22.816788
237	0x41b65e5c	22.796074
238	0x41b66ba4	22.802559
239	0x41b6b4ec	22.83834
240	0x41b6b7d0	22.839752
241	0x41b68698	22.81572
242	0x3d0dc965	0.034615893
243	0x41b652cc	22.790428
244	0x41b6f8d0	22.87149
245	0x41b6fe70	22.874237
246	0x41b70cd0	22.881256
247	0x41b6b9ec	22.840782
248	0x41b706b8	22.87828
249	0x3c94f36f	0.018182484
250	0x41b714b4	22.885109
251	0x41b70bb8	22.880722
252	0x41b69e08	22.827164
253	0x41b6f880	22.871338
254	0x41b6cce8	22.850052
255	0x41b714dc	22.885185

layer3.bias f4 [256]
0	0x41b94838	23.160263
1	0x41b72c97	22.896772
2	0x41b98e38	23.194443
3	0x41b8d479	23.103746
4	0x41b90550	23.127594
5	0xbd2d449f	-0.04230177
6	0x41b99588	23.198013
7	0x41b97f9c	23.18731
8	0x41b8f961	23.121767
9	0x41b94d95	23.162882
10	0xbc57009e	-0.013122706
11	0x41b9cec0	23.225952
12	0x41b94844	23.160286
13	0x41b9664c	23.17495
14	0x3d246ee8	0.04014483
15	0xbc94eba9	-0.018178778
16	0x41b8b842	23.08997
17	0x41b97614	23.182655
18	0x41b9300d	23.148462
19	0x3cbbca52	0.022923622
20	0x41b911ec	23.13375
21	0x41b9506c	23.164268
22	0x41b905bc	23.1278
23	0x41b8f909	23.1216
24	0x41b99824	23.199287
25	0xbc2581aa	-0.010101715
26	0x41b93556	23.151043
27	0x41b92c3b	23.146597
28	0x41b95224	23.165108
29	0x41b97a88	23.18483
30	0x41b94090	23.156525
31	0x41b90dea	23.131794
32	0x41b93654	23.151527
33	0x41b8f241	23.118288
34	0xbc8b5e77	-0.017012818
35	0x41b9a648	23.206192
36	0xbc913919	-0.017727422
37	0x41b95844	23.168098
38	0x41b93075	23.14866
39	0x41b997a6	23.199047
40	0xbcb5ac7f	-0.02217698
41	0x41b90cec	23.13131
42	0x41b99230	23.19638
43	0x41b958db	23.168386
44	0x41b974d4	23.182045
45	0x3cd08afc	0.025456898
46	0x3ba49732	0.0050229067
47	0x41b91410	23.134796
48	0x41b98118	23.188034
49	0xbcf5ffce	-0.030029204
50	0x41b8ee10	23.116241
51	0x41b97d6c	23.186241
52	0x41b8e244	23.110481
53	0x41b932d9	23.149828
54	0x41b9bced	23.217249
55	0x41b98803	23.191412
56	0xbc136d47	-0.008998222
57	0x41b98304	23.188972
58	0x41b95b84	23.169685
59	0x3cfef5d7	0.031123085
60	0x41b98334	23.189064
61	0x41b9126c	23.133995
62	0x41b906fc	23.12841
63	0x3cda49a0	0.026646435
64	0x41b97858	23.183762
65	0x41b9a288	23.204361
66	0x41b992ee	23.196743
67	0x41b94414	23.158241
68	0x41b95180	23.164795
69	0x41b9083c	23.12902
70	0x41b9b436	23.212994
71	0x41b8efe3	23.117132
72	0xbd065e69	-0.03280488
73	0x3d3780d3	0.04480059
74	0x41b96696	23.17509
75	0x41b99a71	23.20041
76	0x41b94a90	23.161407
77	0x41b94b1c	23.161674
78	0x41b9b638	23.213974
79	0x41b9acd8	23.209396
80	0xbcb6e0d2	-0.022324
81	0x41b9bcb0	23.217133
82	0x41b99338	23.196884
83	0xbc107885	-0.008817797
84	0xbcec1b2e	-0.028821554
85	0x41b9ad1b	23.209524
86	0x41b8c877	23.097883
87	0x41b91820	23.13678
88	0x3be72fe4	0.0070552696
89	0x3ccae807	0.024768842
90	0x3d028402	0.031864174
91	0x41b96958	23.176437
92	0x3d3d6a35	0.046243865
93	0x41b96d87	23.17848
94	0x41b8f48c	23.119408
95	0x41b9233f	23.14221
96	0xbbbb406f	-0.005714468
97	0x41b9af58	23.210617
98	0x41b995cb	23.198141
99	0xbd40399b	-0.046929937
100	0x41b9ba41	23.215944
101	0xbc19c97b	-0.009386416
102	0x41b92de4	23.147408
103	0x41b94bcf	23.162016
104	0x41b97a24	23.184639
105	0x41b98381	23.18921
106	0x41b90300	23.126465
107	0x41b97b4b	23.185202
108	0x3d2c1d19	0.042019937
109	0x41b9aa55	23.20817
110	0xbc940987	-0.01807095
111	0x3d4715c7	0.048604753
112	0x41b97e18	23.18657
113	0xbce74c27	-0.028234554
114	0x41b9a539	23.205675
115	0x3d1320a3	0.035919797
116	0xbd1c1893	-0.038109373
117	0x41b99720	23.198792
118	0xbcdfca29	-0.027318077
119	0x41b9b728	23.214432
120	0x41b90d50	23.1315
121	0x41b949d8	23.161057
122	0xbbac1b3a	-0.005252269
123	0x41b99aa4	23.200508
124	0x41b9aa44	23.208138
125	0x41b97b9a	23.185352
126	0x41b99a3e	23.200314
127	0x41b96cb4	23.178078
128	0x41b93ec4	23.155647
129	0x41b92218	23.141647
130	0x41b94c3d	23.162226
131	0xbcb7262f	-0.022357075
132	0x41b90f94	23.132607
133	0xbabce69a	-0.0014411986
134	0x41b986f4	23.190895
135	0xbbe6d986	-0.007044974
136	0x41b9a5b5	23.205912
137	0x41b94b08	23.161636
138	0xbc961669	-0.018321233
139	0x41b93334	23.150002
140	0x41b98794	23.1912
141	0xbd3caa71	-0.046060983
142	0x41b966e5	23.175241
143	0x41b99a40	23.200317
144	0x41b94270	23.15744
145	0x41b9b170	23.21164
146	0x41b98cdc	23.193779
147	0xbd161b2d	-0.03664701
148	0x3be1d945	0.0068923556
149	0x41b93756	23.15202
150	0x41b92b3c	23.14611
151	0x41b9895e	23.192074
152	0xbc3d2ad6	-0.011545857
153	0x41b946b3	23.159521
154	0x41b93223	23.14948
155	0x41b93a3c	23.153435
156	0x3bdb587c	0.006693898
157	0xbc21e654	-0.009881575
158	0x41b8e9c4	23.114143
159	0x41b99fda	23.203053
160	0x41b98e9c	23.194633
161	0x3cb02f2b	0.021506866
162	0x3bc5cecc	0.006036615
163	0x41b976b4	23.18296
164	0xbd3587fa	-0.04431913
165	0x41b91a98	23.137985
166	0xbc72e816	-0.014825841
167	0x41b94cfc	23.16259
168	0x41b9273b	23.144156
169	0x41b8f651	23.120272
170	0x41b8fa62	23.122257
171	0x41b95295	23.165323
172	0xbcd37c3a	-0.025816072
173	0xbd2bbbc9	-0.041927133
174	0xbd01b8f5	-0.03167053
175	0x41b95984	23.168709
176	0xbcd0c7d8	-0.025485918
177	0xbd190739	-0.037360404
178	0x41b947b9	23.16002
179	0x3c3ddcc8	0.011588283
180	0x41b92e0c	23.147484
181	0x41b92e18	23.147507
182	0x41b97664	23.182808
183	0x41b960c9	23.172258
184	0x41b8f220	23.118225
185	0x41b923bc	23.142448
186	0xbd2faf8b	-0.04289202
187	0x41b9182c	23.136803
188	0x41b8ff8f	23.124784
189	0x41b96969	23.17647
190	0x41b98f28	23.1949
191	0x3c6a5fa2	0.014305027
192	0x41b955c4	23.166878
193	0x41b971dc	23.180595
194	0x3c06961e	0.008214502
195	0x41b97ef8	23.186996
196	0xbc73f992	-0.014891045
197	0xbd2a3838	-0.04155752
198	0x41b950bc	23.164421
199	0x41b9455b	23.158865
200	0x3d3c3dec	0.04595749
201	0x3d214b6d	0.039378572
202	0x41b977e9	23.18355
203	0x41b9a0f8	23.203598
204	0x41b91366	23.134472
205	0x41b982cf	23.188871
206	0x41b953b4	23.16587
207	0x41b9b647	23.214003
208	0x41b942b9	23.15758
209	0x41b9b7bd	23.214716
210	0x41b9194d	23.137354
211	0x41b974ac	23.181969
212	0x41b98cdd	23.19378
213	0xbcee68d2	-0.029102717
214	0x41b95ed5	23.171305
215	0x41b962a0	23.173157
216	0x41b9c3ef	23.22067
217	0x41b943ec	23.158165
218	0xbd226fe2	-0.03965748
219	0x41b90120	23.12555
220	0x41b96013	23.171911
221	0xbc8c63c4	-0.017137416
222	0x41b9587f	23.168211
223	0xbd038c1d	-0.032116044
224	0x3c25f331	0.010128782
225	0x41b95f57	23.171553
226	0x41b96ff0	23.179657
227	0x41b97498	23.18193
228	0x41b9678c	23.17556
229	0x41b9954f	23.197905
230	0x41b944c8	23.158585
231	0xbd3e55bd	-0.046468485
232	0x41b97128	23.180252
233	0x41b94333	23.157812
234	0x41b8eac8	23.11464
235	0xbcfce98e	-0.030873086
236	0x3950987a	0.00019893228
237	0x41b97970	23.184296
238	0x41b8fbd0	23.122955
239	0x41b95b78	23.169662
240	0x41b9a4e0	23.205505
241	0x41b90717	23.128462
242	0x41b98812	23.19144
243	0x41b9c4e8	23.221146
244	0x41b9a68a	23.206318
245	0x41b96317	23.173384
246	0x41b9a2e1	23.20453
247	0xbd10724f	-0.035265263
248	0x41b97358	23.18132
249	0x41b93de8	23.155228
250	0xbd1e2f08	-0.03861907
251	0x41b9b5fc	23.21386
252	0x3d33df3e	0.043914072
253	0x3c2ed483	0.010670784
254	0x41b90f94	23.132607
255	0xbcf96416	-0.030443233

layer4.weight f4 [168, 256]
0	0x4004a658	2.0726528
1	0x401159d7	2.2711084
2	0x40026c3a	2.0378556
3	0x4004af44	2.0731974
4	0x400285e6	2.0394225
5	0xba8dc93e	-0.0010817421
6	0x4004d56f	2.075527
7	0x40035f73	2.0527008
8	0x40028435	2.0393193
9	0x400552e7	2.083185
10	0x3d1633a1	0.03667033
11	0x40018cd2	2.02422
12	0x40023ece	2.0350833
13	0x40024051	2.0351756
14	0xbd3216af	-0.043478664
15	0x3ce7fa3c	0.028317563
16	0x40024000	2.0351562
17	0x4001e4fe	2.0296016
18	0x400314b2	2.0481381
19	0xbcafd7b6	-0.021465164
20	0x40030bac	2.0475874
21	0x4001cf55	2.0282795
22	0x40050f71	2.0790675
23	0x40055d4e	2.0838199
24	0x4005b712	2.0892987
25	0x3d344e7f	0.044020172
26	0x40013fdb	2.0195224
27	0x4005d0d1	2.0908701
28	0x40018c32	2.0241818
29	0x4006824f	2.1017034
30	0x40053f4d	2.0819886
31	0x400512b6	2.079267
32	0x4002868d	2.0394623
33	0x400677ad	2.1010544
34	0x3c555b52	0.013022261
35	0x40041d7d	2.0642998
36	0x3cb1cec3	0.021705037
37	0x400640d5	2.097707
38	0x40044e92	2.0672956
39	0x4002122a	2.0323586
40	0x3c4a1b94	0.012335677
41	0x400242f0	2.0353355
42	0x4005e108	2.0918598
43	0x400420dd	2.0645058
44	0x400599af	2.087505
45	0xbb9f573c	-0.004862694
46	0xbd00b050	-0.031418145
47	0x400699e2	2.1031423
48	0x40035ac5	2.0524151
49	0xbbf99042	-0.007616074
50	0x400517e4	2.0795832
51	0x400551ef	2.0831258
52	0x4003181f	2.0483472
53	0x40029e26	2.0409026
54	0x40056074	2.084012
55	0x400581a8	2.0860386
56	0x3cdf4699	0.027255343
57	0x4005add6	2.088735
58	0x4002c70c	2.0433989
59	0xbc52671a	-0.012841964
60	0x40070324	2.1095667
61	0x40032c8c	2.049594
62	0x4005acd6	2.088674
63	0xbd0267e7	-0.03183737
64	0x40064b0c	2.0983305
65	0x400623b4	2.0959291
66	0x4003ba26	2.0582366
67	0x40020e5e	2.032127
68	0x4003352f	2.050121
69	0x4006a0c9	2.1035635
70	0x4004220a	2.0645776
71	0x400679ce	2.1011844
72	0x3a2eb017	0.00066638127
73	0x3d05f1f9	0.032701466
74	0x4004b938	2.0738049
75	0x4003c161	2.058678
76	0x40042469	2.0647223
77	0x4003a730	2.0570793
78	0x4002c6f6	2.0433936
79	0x400346b9	2.0511916
80	0xbcb220df	-0.02174419
81	0x40027125	2.0381558
82	0x4001a736	2.0258307
83	0x3bcf0960	0.0063182563
84	0x3d2ac35e	0.041690223
85	0x4004ad41	2.0730746
86	0x40038ff1	2.0556605
87	0x400485f3	2.0706756
88	0xbd3ba126	-0.04580798
89	0x3cc0d098	0.023536965
90	0x3c9edf76	0.019393664
91	0x40018d79	2.0242598
92	0x3b339e4a	0.002740758
93	0x400197d6	2.0248923
94	0x4006dd6f	2.1072652
95	0x4002c171	2.0430567
96	0xbb6aefb2	-0.0035848436
97	0x4002b3d9	2.042227
98	0x4006823c	2.1016989
99	0xbc9331d3	-0.017968094
100	0x40063ea8	2.0975742
101	0xbcdc1564	-0.026865669
102	0x4006d8ca	2.1069818
103	0x400675f5	2.1009495
104	0x4006b53a	2.1048112
105	0x4001f196	2.0303702
106	0x4003e402	2.0607915
107	0x400302e3	2.0470512
108	0x3ca27e16	0.019835513
109	0x4001b2d5	2.02654
110	0x3d1045b3	0.03522272
111	0x3c1a8587	0.009431249
112	0x40012ef8	2.0184917
113	0xbd0d2990	-0.034463465
114	0x40065b04	2.0993052
115	0x3cf8f099	0.030388163
116	0x3d29252b	0.04129521
117	0x4004b872	2.0737576
118	0x3d08f98e	0.03344112
119	0x40025cb3	2.036908
120	0x40069f4b	2.1034725
121	0x4004b499	2.0735228
122	0x3c0e1744	0.008672539
123	0x40025235	2.0362675
124	0x4003cbdb	2.0593174
125	0x40028836	2.0395637
126	0x4006a8ba	2.1040483
127	0x400555a8	2.083353
128	0x40060359	2.0939543
129	0x40065a32	2.099255
130	0x400436e6	2.0658507
131	0x3d07e795	0.03317984
132	0x4001af47	2.026323
133	0x3d1e6839	0.038673613
134	0x4002c5cb	2.0433223
135	0x3d1d34e9	0.038380537
136	0x4004a626	2.072641
137	0x40056b8c	2.0846891
138	0xbb189673	-0.0023283034
139	0x4005a8c8	2.0884266
140	0x4003a5c8	2.0569935
141	0xbc10d7c1	-0.008840502
142	0x40053096	2.0810905
143	0x40016a9c	2.022132
144	0x40022de1	2.0340502
145	0x40019f43	2.0253456
146	0x40049e83	2.0721748
147	0x3c8c6bd6	0.017141264
148	0xbc051b59	-0.008124196
149	0x4006fee4	2.1093073
150	0x40018a60	2.0240707
151	0x40053121	2.0811236
152	0xbc97ddd7	-0.018538399
153	0x4003bac1	2.0582736
154	0x4002c169	2.0430548
155	0x400640ca	2.0977044
156	0xbcd6cb8a	-0.026220102
157	0x3d2a673f	0.04160237
158	0x400472eb	2.069514
159	0x4003fac8	2.0621815
160	0x4002df6b	2.0448864
161	0xbc357c5e	-0.011077015
162	0xbb067e36	-0.0020522005
163	0x40012136	2.017652
164	0xbc0c18d2	-0.0085508395
165	0x4002abe8	2.0417423
166	0xbbed239a	-0.00723691
167	0x4005fd7a	2.093596
168	0x4002b68f	2.0423925
169	0x4002870f	2.0394933
170	0x4001c4e6	2.0276427
171	0x4001ce65	2.0282223
172	0x3c72859a	0.014802361
173	0x3cebc1b2	0.028778885
174	0xbc930aeb	-0.017949542
175	0x40064197	2.0977533
176	0xbca03ebc	-0.019561164
177	0xbc6535d6	-0.013989886
178	0x40060b30	2.0944328
179	0xbbabd8f3	-0.005244368
180	0x400456d7	2.0678003
181	0x4003e1ff	2.0606687
182	0x40019116	2.0244803
183	0x40033a1e	2.0504222
184	0x4005bf57	2.0898035
185	0x40019a4d	2.0250428
186	0x3cea7e8e	0.0286248
187	0x4005c29f	2.0900037
188	0x40015679	2.0209029
189	0x4005976d	2.0873673
190	0x40043765	2.065881
191	0x3cfcc85a	0.030857254
192	0x4002dac1	2.0446017
193	0x40017c2a	2.0232034
194	0x3cffa793	0.031207835
195	0x4003ea49	2.0611746
196	0x3d23245e	0.039829604
197	0x3c24a2b1	0.010048554
198	0x4003bc84	2.058381
199	0x40070529	2.10969
200	0xbafa3958	-0.0019090576
201	0x3d2e0acf	0.042490777
202	0x4002625c	2.0372534
203	0x40033d7c	2.0506277
204	0x40037287	2.0538652
205	0x40061d99	2.0955565
206	0x4006d7a1	2.106911
207	0x4002d8bd	2.0444787
208	0x4003a08e	2.0566745
209	0x4003e6c5	2.06096
210	0x40056155	2.0840657
211	0x400285f6	2.0394263
212	0x40012e83	2.0184639
213	0xbc0c0ae0	-0.008547515
214	0x40032d58	2.0496426
215	0x4006869e	2.1019664
216	0x4001576d	2.020961
217	0x4003551d	2.05207
218	0x3cda4970	0.026646346
219	0x4002ba3c	2.0426168
220	0x4002e94e	2.0454898
221	0xbc9b4f7b	-0.018958798
222	0x4005102f	2.0791128
223	0x3c587da0	0.013213545
224	0xbccb0dbc	-0.024786822
225	0x40020596	2.031591
226	0x400125c7	2.0179307
227	0x4004f67f	2.077545
228	0x40044370	2.066616
229	0x40064fa3	2.0986106
230	0x4002df60	2.0448837
231	0xbc8fad51	-0.017538698
232	0x4002cb6b	2.0436656
233	0x40014480	2.019806
234	0x4004adff	2.0731199
235	0x3cdb2fa0	0.026756108
236	0xbce397cb	-0.027782341
237	0x4001af66	2.0263305
238	0x4003ec51	2.0612986
239	0x400200dd	2.0313027
240	0x4003e7c7	2.0610216
241	0x4004f1bb	2.077254
242	0x40027817	2.0385797
243	0x4002406b	2.0351818
244	0x40068ced	2.1023514
245	0x4003473f	2.0512235
246	0x40036ada	2.0533967
247	0x3d286a73	0.041117143
248	0x400199c7	2.0250108
249	0x4007069e	2.109779
250	0x3ccc357e	0.02492785
251	0x4003d3b2	2.0597959
252	0xbc1b3c57	-0.009474835
253	0xbc67cbb1	-0.014147685
254	0x4005a717	2.0883234
255	0xbd36e2cf	-0.044649895

layer4.bias f4 [168]
0	0x400271cb	2.0381954
1	0x3d14fd51	0.036374394
2	0x3f530cb0	0.82441235
3	0x4001dcc5	2.0290997
4	0x3f3ab5bf	0.7293357
5	0x3f228d60	0.6349697
6	0x4174bca2	15.296053
7	0x3f3e90ce	0.74439704
8	0x3f14c519	0.5811325
9	0x3f2a875b	0.66612786
10	0x3f5e39d0	0.86806965
11	0x3f358cb0	0.709178
12	0x417b0dfd	15.690915
13	0x40180e87	2.3758867
14	0x3fa6961c	1.301456
15	0x40bf1488	5.9712563
16	0x404917b6	3.1420722
17	0x3f019edb	0.5063302
18	0x3efcf296	0.49403828
19	0x3f7f3493	0.99689597
20	0x3f36b69c	0.7137239
21	0x3f084549	0.5323072
22	0x408acabe	4.337249
23	0x3f609ee2	0.87742436
24	0x40c4ebda	6.1537905
25	0x40b66f29	5.7010694
26	0x401e214a	2.4707818
27	0x3f9bc14a	1.2168362
28	0x40be31cb	5.9435782
29	0x417577a8	15.341713
30	0x4007854e	2.1175113
31	0x4008a3f2	2.1350064
32	0x40438d15	3.055486
33	0x3fd4a168	1.6611757
34	0x3fa39fdb	1.2783159
35	0x3f6ea545	0.9322093
36	0x3faaf879	1.3357078
37	0x3f67a69b	0.90488595
38	0x40802026	4.0039244
39	0x3f17866c	0.59189487
40	0x41a1880c	20.19143
41	0x3fb6d704	1.4284368
42	0x41767552	15.403643
43	0x40164f30	2.3485832
44	0x3f0e1643	0.5550272
45	0x4177ec21	15.495149
46	0x40a38252	5.1096582
47	0x3f37db16	0.71818674
48	0x3f82945c	1.0201526
49	0x3f54177a	0.8284832
50	0x3f5f8ae9	0.87321335
51	0x3f55412f	0.8330259
52	0x40038c6d	2.055446
53	0x3feae061	1.8349725
54	0x4089f511	4.3111653
55	0x400d7029	2.2099707
56	0x40908026	4.515643
57	0x3f3e838d	0.7441948
58	0x40fe0d3e	7.9391165
59	0x40a47743	5.1395583
60	0x4036fb1e	2.859077
61	0x41043ff6	8.265615
62	0x419a6a45	19.30189
63	0x3fe4bd73	1.7870315
64	0x3f8a63b0	1.0811672
65	0x402e7bd7	2.7263086
66	0x4001f3ee	2.0305133
67	0x3f936dc0	1.1517868
68	0x3fcd89b1	1.6057645
69	0x40386956	2.8814292
70	0x3fb93cf0	1.4471722
71	0x410574c9	8.341012
72	0x3fbed146	1.4907615
73	0x3fb1aefe	1.3881528
74	0x419dd9a7	19.731276
75	0x3faaa4b6	1.3331516
76	0x41049a98	8.287743
77	0x3f949bc0	1.1610031
78	0x41ab18ef	21.387175
79	0x3fea9c4f	1.8328952
80	0x3ff8b4c6	1.9430168
81	0x3fb3dbd6	1.4051464
82	0x41acd79c	21.605278
83	0x3f668fa1	0.9006291
84	0x3f704c5f	0.93866533
85	0x3f68105e	0.90649974
86	0x40833477	4.1001544
87	0x40907e40	4.5154114
88	0x3f86d0a2	1.053242
89	0x40359c81	2.8376772
90	0x41a64752	20.784824
91	0x3f9e9cec	1.2391639
92	0x3fb1ab94	1.3880486
93	0x3fbbf5e4	1.4684415
94	0x4171659d	15.087308
95	0x3fda9abe	1.7078474
96	0x3f7a8300	0.9785614
97	0x409f79df	4.983627
98	0x3f829b4b	1.0203642
99	0x3f54df2c	0.83153033
100	0x3fb09ded	1.3798195
101	0x3f93d03b	1.1547922
102	0x419dbc0a	19.716816
103	0x3f757a6c	0.95889926
104	0x3fbb2331	1.4620115
105	0x40b8aaa2	5.770829
106	0x402fa437	2.7443979
107	0x3f768a50	0.963048
108	0x3faa7801	1.3317872
109	0x3fcfbeaa	1.6230061
110	0x41a29ce5	20.326609
111	0x403d9222	2.9620442
112	0x41a2d5ba	20.354359
113	0x402e0c15	2.7194874
114	0x3fabae74	1.3412614
115	0x4019097c	2.3912039
116	0x400be748	2.1859913
117	0x3fea1c4c	1.8289886
118	0x3fb30ea1	1.3988839
119	0x4006a388	2.1037312
120	0x3f80ca90	1.0061817
121	0x41a11362	20.134464
122	0x3f0f2042	0.55908597
123	0x3f6d3f1f	0.9267444
124	0x40288a82	2.6334538
125	0x3fc652a7	1.5493973
126	0x4026c001	2.605469
127	0x3f8784cb	1.05874
128	0x419e046a	19.752155
129	0x402e3b3b	2.7223651
130	0x40900329	4.5003858
131	0x411097c6	9.037054
132	0x413424c0	11.258972
133	0x4072faa4	3.796548
134	0x3fae8e60	1.3637199
135	0x3fe6fd3a	1.8046029
136	0x40313930	2.7691154
137	0x403c37d5	2.9409077
138	0x3f6c2d66	0.9225677
139	0x40f345a4	7.602251
140	0x41a5010d	20.625513
141	0x3f922da2	1.1420176
142	0x41a1e66a	20.237507
143	0x3f9c2daf	1.2201442
144	0x3faf48d5	1.3694102
145	0x3fdbf876	1.7185199
146	0x3fb25872	1.3933241
147	0x3fc8caca	1.5686886
148	0x3f18db69	0.59709793
149	0x3f17f200	0.5935364
150	0x41a4b761	20.58954
151	0x3f1199c8	0.56875277
152	0x3ffac6f8	1.959197
153	0x3fde15d1	1.7350408
154	0x401505ef	2.3284872
155	0x3f7869ab	0.97036237
156	0x407ec27f	3.980621
157	0x3ef5559b	0.47916874
158	0x4156c625	13.423375
159	0x402c5502	2.6926885
160	0x3faf2661	1.3683587
161	0x40c4ee47	6.1540866
162	0x400cce54	2.2000933
163	0x3edf0374	0.43557322
164	0x3fb17efa	1.3866875
165	0x41a5a068	20.703323
166	0x3f0d5a94	0.55216336
167	0x3f443753	0.7664692
