models/10-11/coin_model_weights.pth (torch, 161910 bytes, 6 tensors)

layer1.weight f4 [128, 82]
19.323189 5.557754 7.171247 7.6021957 2.6673696 9.284482 10.153515 9.857438
8.081557 12.717544 18.83791 6.001549 4.521098 5.2926283 18.945011 21.079172
8.24098 13.2991085 12.866717 17.68565 7.9058876 9.583748 12.871214 18.904959
17.61052 13.538765 8.872173 10.947975 9.721181 0.12939529 8.519627 7.554271
7.884371 23.25112 23.510769 22.715912 22.783468 26.614773 25.884956 24.18201
24.789476 25.27339 23.210184 22.96739 22.748755 22.088705 25.21763 20.521824
22.582153 18.612186 13.865249 22.336048 22.500849 21.972933 25.032686 27.322445
24.752394 24.689837 20.225197 20.88095 22.240639 23.369953 20.102654 6.935902
20.660635 19.980436 10.974083 21.621933 23.542524 24.135138 23.838697 24.20458
22.055431 17.712656 21.8309 6.4921722 24.247532 24.220669 24.304161 24.612322
24.228243 24.134007 19.359146 5.5189095 7.145155 7.6315427 2.7372026 9.22389
10.071209 9.843175 8.013862 12.657766 18.892076 6.01098 4.556003 5.3539915
18.87369 21.044706 8.160518 13.250736 12.845311 17.598434 7.940592 9.572365
12.799503 18.975721 17.60271 13.506918 8.905169 10.960294 9.824799 0.108163215
8.463349 7.5476284 7.9534616 23.226631 23.561611 22.723236 22.827566 26.681566
25.767199 24.137344 24.717768 25.279293 23.19655 23.115576 22.737965 22.083862
25.17841 20.589577 22.718462 18.55651 13.87942 22.354895 22.4694 22.01824
25.043617 27.385391 24.755138 24.737778 20.168514 20.939907 22.29151 23.280828
20.150934 6.957485 20.628067 19.969818 11.002191 21.711866 23.465801 24.204288
23.790955 24.194834 21.991005 17.672419 21.774157 6.5502124 24.268387 24.201794
24.336285 24.674244 24.291586 24.117247 19.29089 5.6415815 7.1097813 7.483623
2.7024817 9.1842575 10.134078 9.943912 8.016127 12.788967 18.917624 6.070628
4.580217 5.2656226 18.887169 21.053036 8.232411 13.265817 12.814871 17.650015
7.9758267 9.635403 12.8695545 18.885847 17.56862 13.494565 8.883776 10.947201
9.693847 0.10469844 8.380033 7.543503 7.939245 23.122478 23.496456 22.642986
22.787323 26.613169 25.876135 24.123571 24.789705 25.259247 23.163513 22.968035
22.74562 22.062548 25.198536 20.580679 22.602419 18.631056 13.887418 22.412706
22.547516 21.968367 24.944447 27.270819 24.78418 24.629887 20.121552 20.899761
22.19867 23.368597 20.22166 7.0354815 20.565674 19.95242 10.910532 21.643465
23.424696 24.191729 23.873762 24.202888 22.01688 17.62043 21.762333 6.470423
24.232897 24.27406 24.347044 24.59385 24.160229 24.055086 19.24878 5.5125628
7.191419 7.4961343 2.755052 9.24177 10.1221485 9.909125 8.0568 12.700138
00000000: e495 9a41 1fd9 b140 db7a e540 3045 f340
00000010: 2fb6 2a40 3d8d 1441 cc74 2241 11b8 1d41
00000020: 0f4e 0141 0f7b 4b41 0ab4 9641 b00c c040
00000030: d6ac 9040 365d a940 628f 9741 25a2 a841
00000040: 0edb 0341 26c9 5441 13de 4d41 367c 8d41
00000050: 08fd fc40 0857 1941 7ef0 4d41 5b3d 9741
00000060: 58e2 8c41 c89e 5841 6cf4 0d41 e82a 2f41
00000070: f589 1b41 3380 043e 6450 0841 97bc f140
00000080: c44c fc40 4b02 ba41 0e16 bc41 30ba b541
00000090: 8b44 b641 0eeb d441 6414 cf41 c274 c141
000000a0: d950 c641 e72f ca41 75ae b941 37bd b741
000000b0: 73fd b541 abb5 b041 b5bd c941 b22c a441
000000c0: 40a8 b441 c2e5 9441 0fd8 5d41 3ab0 b241
000000d0: bd01 b441 91c8 af41 f142 c841 5e94 da41
000000e0: e704 c641 c984 c541 34cd a141 300c a741
000000f0: d4ec b141 aaf5 ba41 3cd2 a041 e9f2 dd40
00000100: fb48 a541 efd7 9f41 d895 2f41 b8f9 ac41
00000110: 1757 bc41 c314 c141 a7b5 be41 fba2 c141
00000120: 8671 b041 85b3 8d41 afa5 ae41 e0bf cf40
00000130: f2fa c141 eec3 c141 ec6e c241 09e6 c441
00000140: 71d3 c141 7212 c141 88df 9a41 e89a b040
00000150: 1ca5 e440 9935 f440 542e 2f40 0e95 1341
00000160: ac23 2141 a57d 1d41 c738 0041 3686 4a41
00000170: f922 9741 f359 c040 c7ca 9140 e653 ab40
00000180: 51fd 9641 8f5b a841 7b91 0241 0403 5441
00000190: 6586 4d41 98c9 8c41 5419 fe40 6828 1941
000001a0: c4ca 4c41 47ce 9741 5ad2 8c41 561c 5841
000001b0: 927b 0e41 5d5d 2f41 6032 1d41 ad84 dd3d
000001c0: e169 0741 2c86 f140 c282 fe40 24d0 b941
000001d0: 2e7e bc41 30c9 b541 db9e b641 d973 d541
000001e0: 3923 ce41 4819 c141 fdbd c541 fe3b ca41
000001f0: 8992 b941 b3ec b841 5ae7 b541 c0ab b041
00000200: 626d c941 74b7 a441 69bf b541 bc73 9441
00000210: 1b12 5e41 d3d6 b241 55c1 b341 5b25 b041
00000220: 5459 c841 4815 db41 860a c641 f8e6 c541
00000230: 1e59 a141 ee84 a741 0355 b241 233f ba41
00000240: 1d35 a141 b8a3 de40 4806 a541 30c2 9f41
00000250: f908 3041 e7b1 ad41 f6b9 bb41 62a2 c141
00000260: e053 be41 058f c141 94ed af41 1d61 8d41
00000270: 7931 ae41 579b d140 a825 c241 469d c141
00000280: b6b0 c241 da64 c541 2b55 c241 1ff0 c041
00000290: be53 9a41 d687 b440 5483 e340 d779 ef40
000002a0: 76f5 2c40 b8f2 1241 2f25 2241 431a 1f41
000002b0: 0e42 0041 9c9f 4c41 4b57 9741 9642 c240
000002c0: 2391 9240 fb7f a840 ec18 9741 9e6c a841
000002d0: f5b7 0341 c940 5441 b609 4d41 3b33 8d41
000002e0: f939 ff40 9c2a 1a41 b2e9 4d41 3716 9741
000002f0: 898c 8c41 bde9 5741 f223 0e41 bc27 2f41
00000300: ff19 1b41 236c d63d 9d14 0641 6064 f140
00000310: 4c0e fe40 d6fa b841 bef8 bb41 d624 b541
00000320: 704c b641 c5e7 d441 5302 cf41 13fd c041
00000330: 5151 c641 f012 ca41 e04e b941 89be b741
00000340: 08f7 b541 1980 b041 9a96 c941 3ba5 a441
00000350: c1d1 b441 670c 9541 dd32 5e41 394d b341
00000360: 5061 b441 37bf af41 3a8e c741 a32a da41
00000370: 0046 c641 020a c541 f0f8 a041 b632 a741
00000380: e096 b141 e3f2 ba41 f6c5 a141 aa22 e140
00000390: 8086 a441 8e9e 9f41 8a91 2e41 d125 ad41
000003a0: c765 bb41 a988 c141 77fd be41 849f c141
000003b0: 9222 b041 a4f6 8c41 4219 ae41 b50d cf40
000003c0: f9dc c141 4631 c241 bfc6 c241 34c0 c441
000003d0: 2648 c141 d170 c041 80fd 9941 ea66 b040
000003e0: 1b20 e640 55e0 ef40 c652 3040 4ade 1341
000003f0: 52f4 2141 c78b 1e41 a7e8 0041 c433 4b41

layer1.bias f4 [128]
20.985151 20.921822 20.913004 20.955172 20.899986 20.843822 21.001957 20.891811
20.98707 20.970118 20.900333 20.980967 20.967953 20.989346 20.889172 20.87397
20.982105 20.88312 20.927347 20.878038 21.002535 20.919727 20.997074 20.91049
20.913515 20.971449 20.938225 20.928846 20.93498 20.8984 20.840324 20.876593
20.961803 20.855282 20.962574 20.864824 20.913357 20.949442 20.86656 20.975483
20.892128 20.901096 20.945751 20.923609 20.944098 20.895054 20.975708 20.8645
20.913013 20.955948 20.946665 20.886272 20.890509 20.955881 20.92718 20.881695
20.991642 20.975697 20.878447 20.872198 20.965511 20.910133 20.913958 20.907139
20.952572 20.952656 20.944508 20.893171 20.950315 20.90253 20.87982 20.9457
20.88119 20.897596 20.885925 20.878803 20.902575 20.896181 20.923336 21.00142
20.950665 20.867899 20.994242 20.922497 21.001904 20.904884 20.92718 20.880411
20.984838 20.977476 20.980915 20.891163 20.934866 20.929796 20.971178 20.996202
20.945738 20.88303 5.4521036 20.840416 20.97195 20.919432 20.963762 20.936817
20.889868 20.996054 20.967888 20.954206 21.00326 20.978626 20.905645 20.930607
20.880198 20.914711 20.908735 20.84455 20.99563 20.983242 20.958275 20.973057
20.931253 20.868944 20.987658 20.992878 20.935404 20.938356 20.994743 20.886349
00000000: 97e1 a741 e45f a741 d54d a741 31a4 a741
00000010: 2c33 a741 26c0 a641 0204 a841 6e22 a741
00000020: 85e5 a741 cdc2 a741 e233 a741 05d9 a741
00000030: 5ebe a741 2eea a741 061d a741 e4fd a641
00000040: 5adb a741 a110 a741 356b a741 3906 a741
00000050: 3105 a841 9a5b a741 02fa a741 af48 a741
00000060: e14e a741 87c5 a741 7c81 a741 476e a741
00000070: d77a a741 ec2f a741 fcb8 a641 4303 a741
00000080: c6b1 a741 9ed7 a641 5ab3 a741 29eb a641
00000090: 8e4e a741 7598 a741 b7ee a641 cacd a741
000000a0: 1423 a741 7235 a741 e690 a741 8d63 a741
000000b0: 838d a741 1229 a741 40ce a741 7fea a641
000000c0: da4d a741 c8a5 a741 c592 a741 1617 a741
000000d0: c31f a741 a5a5 a741 dd6a a741 b60d a741
000000e0: e2ee a741 3ace a741 0f07 a741 43fa a641
000000f0: 5eb9 a741 f447 a741 c94f a741 d241 a741
00000100: de9e a741 0a9f a741 5a8e a741 3725 a741
00000110: 3f9a a741 6238 a741 df09 a741 cb90 a741
00000120: ad0c a741 472e a741 6016 a741 ca07 a741
00000130: 7938 a741 612b a741 fe62 a741 e802 a841
00000140: f69a a741 75f1 a641 35f4 a741 4661 a741
00000150: e603 a841 343d a741 dd6a a741 150b a741
00000160: f3e0 a741 dfd1 a741 ead8 a741 1a21 a741
00000170: 9b7a a741 3970 a741 f9c4 a741 39f8 a741
00000180: df90 a741 7210 a741 a277 ae40 2cb9 a641
00000190: 8ec6 a741 ff5a a741 c9b5 a741 9a7e a741
000001a0: 731e a741 ebf7 a741 3cbe a741 37a2 a741
000001b0: ad06 a841 3ad4 a741 c33e a741 e271 a741
000001c0: a50a a741 5451 a741 1745 a741 a3c1 a641
000001d0: 0df7 a741 aedd a741 8caa a741 d2c8 a741
000001e0: 3573 a741 99f3 a641 b9e6 a741 6af1 a741
000001f0: b57b a741 c181 a741 3cf5 a741 3e17 a741

layer2.weight f4 [128, 128]
-0.014868436 -0.054486156 -0.03824717 0.015507811 0.045653652 0.022541864 -0.01589089 -0.038152438
-0.025125854 -0.0061672595 -0.014706591 -0.020214377 0.012632579 -0.044516515 0.044347774 -0.008630822
-0.031023743 -0.04920489 -0.025238369 0.05377347 0.038159665 0.00485437 -0.010212809 -0.05005864
-0.034264818 -0.035768513 -0.004807593 -0.018666567 -0.052954644 0.028415948 0.011010806 -0.03231846
-0.0110150045 0.012897931 -0.009193753 0.00905344 0.025898848 0.03787766 -0.020849988 0.025472041
-0.034054734 -0.026593197 0.012403694 0.042807456 -0.00467033 -0.051922053 -0.022987366 0.008649422
0.0085364655 -0.019238697 -0.022876112 -0.005697494 0.046714224 0.0040792525 0.0031310394 -0.030274738
-0.05424904 -0.054500572 0.002911699 0.034895636 -0.03812558 -0.031366937 0.021323128 0.008378335
-0.049296428 -0.006840828 0.004821246 0.04084691 -0.017985174 0.025246006 -0.034120426 0.0027718812
0.024985567 -0.026264656 0.05500166 -0.025343128 -0.032595582 0.033270232 0.03934711 -0.009288524
0.048358507 0.024616584 -0.0030275818 0.02351094 -0.043922566 -0.007656592 0.0341791 -0.02874573
-0.04904641 0.03550141 0.034550156 -0.0031067529 0.0112651205 -0.024006963 -0.019817181 -0.054643866
0.022327846 -0.013922882 -0.051684305 0.04726279 0.0013147029 0.040908918 -0.04832978 -0.00077385793
-0.03614011 -0.018746773 -0.022754623 -0.0051661786 0.0085460255 0.055429343 -0.043335922 -0.03807007
0.054388758 0.04878665 -0.050027773 -0.045334112 -0.015875677 0.023489455 -0.02521982 -0.04682505
-0.016414693 -0.03639969 -0.008975721 0.030770876 0.049991645 -0.034260962 0.03462388 0.004770545
23.407206 23.433893 23.474781 23.472836 23.463017 23.434023 23.322062 23.422945
23.454376 23.372494 23.410677 23.409695 23.45493 23.438545 23.480421 23.447891
23.374817 23.444578 23.396431 23.315636 23.35844 23.394485 23.460888 23.450184
23.421516 23.472754 23.366825 23.438835 23.471712 23.44435 23.481974 23.350084
23.438066 23.4514 23.393875 23.376766 23.395344 23.355957 23.395386 23.46815
23.451153 23.42369 23.368393 23.44873 23.342194 23.41156 23.350225 23.389183
23.431314 23.367367 23.433418 23.401882 23.344875 23.393116 23.360973 23.412132
23.46851 23.434464 23.39249 23.37193 23.378616 23.424505 23.412086 23.397821
23.432804 23.37066 23.39422 23.417755 23.350737 23.473085 23.37783 23.358974
23.400288 23.424927 23.440203 23.384394 23.389584 23.44768 23.363207 23.349915
23.43391 23.35859 23.414474 23.349298 23.430437 23.388054 23.450808 23.4169
23.466457 23.442348 23.40364 23.478123 23.425632 23.369213 23.392574 23.392273
23.419718 23.360077 -24.417511 23.364464 23.35132 23.485104 23.410553 23.425802
23.349207 23.405909 23.372097 23.366835 23.381859 23.4061 23.439669 23.384596
23.393456 23.35178 23.439842 23.414665 23.42907 23.48405 23.36568 23.384624
23.457771 23.447239 23.445122 23.417816 23.47691 23.428312 23.441025 23.477575
00000000: be9a 73bc e02c 5fbd 11a9 1cbd 7914 7e3c
00000010: 53ff 3a3d b7a9 b83c 9d2d 82bc bb45 1cbd
00000020: bcd4 cdbc b916 cabb eaf3 70bc 9f98 a5bc
00000030: e0f8 4e3c f356 36bd 03a6 353d 4b68 0dbc
00000040: 8125 febc 118b 49bd b2c0 cebc 9241 5c3d
00000050: 4f4d 1c3d 6811 9f3b a053 27bc 4a0a 4dbd
00000060: 4459 0cbd 0182 12bd 0389 9dbb a1ea 98bc
00000070: f8e6 58bd 90c8 e83c ab66 343c 5d60 04bd
00000080: 4778 34bc d851 533c 65a1 16bc e154 143c
00000090: d229 d43c 9b25 1b3d 98cd aabc beaa d03c
000000a0: fa7c 0bbd fad9 d9bc dd38 4b3c df56 2f3d
000000b0: 9109 99bb 38ac 54bd 0050 bcbc 4eb6 0d3c
000000c0: 88dc 0b3c 799a 9dbc af66 bbbc 0bb2 babb
000000d0: 6a57 3f3d 40ab 853b 2032 4d3b ba02 f8bc
000000e0: 3e34 5ebd fe3b 5fbd 34d2 3e3b baee 0e3d
000000f0: 9129 1cbd 9e7a 00bd d7ad ae3c 4945 093c
00000100: 0deb 49bd 0629 e0bb 8bfb 9d3b 174f 273d
00000110: a555 93bc b6d0 ce3c dcc1 0bbd 73a8 353b
00000120: 88ae cc3c fa28 d7bc 6c49 613d 649c cfbc
00000130: f282 05bd 5e46 083d 6f2a 213d e52e 18bc
00000140: 9213 463d b8a8 c93c 656a 46bb 049a c03c
00000150: 26e8 33bd 26e4 fabb 62ff 0b3d 2a7c ebbc
00000160: e3e4 48bd ed69 113d 7784 0d3d aa9a 4bbb
00000170: 5791 383c 40aa c4bc a457 a2bc 3fd2 5fbd
00000180: e3e8 b63c cd1c 64bc ecb2 53bd a196 413d
00000190: 1c52 ac3a 1c90 273d 73f5 45bd badc 4aba
000001a0: a707 14bd d592 99bc e767 babc 0c49 a9bb
000001b0: a104 0c3c e109 633d 0281 31bd 5def 1bbd
000001c0: bfc6 5e3d 83d4 473d ece9 4cbd 43b0 39bd
000001d0: b50d 82bc f56c c03c cc99 cebc a0cb 3fbd
000001e0: 1b78 86bc d717 15bd e70e 13bc 3413 fc3c
000001f0: 0ac4 4c3d 3955 0cbd c5d1 0d3d 3b52 9c3b
00000200: f541 bb41 9d78 bb41 5acc bb41 5ec8 bb41
00000210: 42b4 bb41 e178 bb41 9593 ba41 3162 bb41
00000220: 90a2 bb41 defa ba41 1149 bb41 0e47 bb41
00000230: b2a3 bb41 2482 bb41 e7d7 bb41 4895 bb41
00000240: a0ff ba41 7f8e bb41 e42b bb41 6c86 ba41
00000250: 16de ba41 e827 bb41 e6af bb41 fa99 bb41
00000260: 445f bb41 33c8 bb41 42ef ba41 bc82 bb41
00000270: 11c6 bb41 078e bb41 15db bb41 f9cc ba41
00000280: 2981 bb41 789c bb41 a826 bb41 9e03 bb41
00000290: aa29 bb41 00d9 ba41 c029 bb41 c5be bb41
000002a0: f69b bb41 b863 bb41 78f2 ba41 0097 bb41
000002b0: d0bc ba41 e04a bb41 43cd ba41 0c1d bb41
000002c0: 5573 bb41 5ef0 ba41 a477 bb41 0e37 bb41
000002d0: 4ec2 ba41 1a25 bb41 46e3 ba41 0c4c bb41
000002e0: 82bf bb41 c879 bb41 d223 bb41 b6f9 ba41
000002f0: 6807 bb41 6365 bb41 f44b bb41 bd2e bb41
00000300: 6276 bb41 1df7 ba41 5d27 bb41 9057 bb41
00000310: 4fce ba41 e1c8 bb41 cc05 bb41 2edf ba41
00000320: ca33 bb41 4066 bb41 8985 bb41 3d13 bb41
00000330: de1d bb41 d994 bb41 d9e7 ba41 a0cc ba41
00000340: a678 bb41 64de ba41 d850 bb41 5dcb ba41
00000350: 8971 bb41 bc1a bb41 419b bb41 d055 bb41
00000360: 4ebb bb41 ee89 bb41 a83a bb41 32d3 bb41
00000370: b267 bb41 26f4 ba41 fe23 bb41 6023 bb41
00000380: 955b bb41 70e1 ba41 1057 c3c1 6cea ba41
00000390: 81cf ba41 7ee1 bb41 d048 bb41 0b68 bb41
000003a0: 2dcb ba41 4d3f bb41 0efa ba41 47ef ba41
000003b0: 0c0e bb41 b13f bb41 7184 bb41 a713 bb41
000003c0: cc25 bb41 72d0 ba41 cc84 bb41 3c51 bb41
000003d0: bc6e bb41 56df bb41 eaec ba41 b613 bb41
000003e0: 84a9 bb41 f293 bb41 9c8f bb41 b057 bb41
000003f0: b6d0 bb41 2f6d bb41 3887 bb41 13d2 bb41

layer2.bias f4 [128]
-0.001375525 20.555347 20.57198 20.711731 20.68993 20.67847 20.69125 20.683968
0.0146461595 20.569054 20.573221 20.651863 20.69642 20.718847 20.709114 20.60433
20.523113 20.700102 20.655874 20.583406 20.566677 20.590456 20.57381 20.60618
20.636265 -0.03129592 20.756842 20.608604 20.656256 20.665575 20.758654 20.646461
20.631605 -0.011147494 20.626944 20.554089 20.734718 20.544342 20.61014 20.676807
20.70579 20.719727 20.640285 20.648876 20.642632 20.545069 -0.04488454 20.62636
-0.04601665 20.584352 20.664309 20.53238 -0.0007601382 20.532862 20.564913 20.626787
20.607027 20.628866 20.728806 20.67719 20.540579 -0.045175742 20.57812 20.595774
20.64732 20.669865 20.597782 20.651863 20.604738 20.701942 0.04085742 20.604355
20.687576 20.69797 20.583616 20.581558 0.0101027815 20.68899 20.644196 20.576998
20.695593 20.615406 20.568031 20.694744 20.651217 -0.033286422 20.663946 20.619057
20.613916 20.63214 20.688086 20.689013 20.581434 20.656923 -0.022975279 20.595278
20.548828 20.629625 20.691757 20.577227 20.664495 20.59861 20.750612 20.581821
20.637392 20.665733 20.680002 20.662508 20.739487 20.656898 20.691599 -0.039344225
-0.03071123 20.646637 20.631943 20.74841 20.698524 20.587204 20.639118 20.636211
20.629171 20.569464 20.612291 20.604643 20.718416 20.722506 20.715502 20.577208
00000000: f64a b4ba 5a71 a441 6a93 a441 a0b1 a541
00000010: fa84 a541 826d a541 ae87 a541 c478 a541
00000020: 72f6 6f3c 6c8d a441 f595 a441 0437 a541
00000030: 4592 a541 33c0 a541 44ac a541 abd5 a441
00000040: 562f a441 cf99 a541 3b3f a541 d1aa a441
00000050: 8e88 a441 41b9 a441 2a97 a441 75d9 a441
00000060: 1217 a541 2730 00bd 030e a641 6cde a441
00000070: 0340 a541 1953 a541 b911 a641 f42b a541
00000080: 870d a541 fba3 36bc fb03 a541 c66e a441
00000090: b4e0 a541 d05a a441 91e1 a441 1a6a a541
000000a0: 75a5 a541 00c2 a541 4e1f a541 e630 a541
000000b0: 1c24 a541 4d5c a441 dad8 37bd c902 a541
000000c0: f47b 3cbd c1ac a441 8150 a541 5042 a441
000000d0: 0344 47ba 4d43 a441 f184 a441 a903 a541
000000e0: 31db a441 eb07 a541 98d4 a541 e36a a541
000000f0: 1b53 a441 330a 39bd fd9f a441 25c4 a441
00000100: b62d a541 e25b a541 42c8 a441 0437 a541
00000110: 81d6 a441 949d a541 1c5a 273d b8d5 a441
00000120: 2880 a541 7195 a541 3fab a441 08a7 a441
00000130: 2386 253c 0d83 a541 5027 a541 b19d a441
00000140: 9390 a541 5aec a441 548b a441 d68e a541
00000150: b135 a541 5857 08bd c34f a541 d4f3 a441
00000160: 4de9 a441 9f0e a541 3381 a541 1983 a541
00000170: c7a6 a441 6141 a541 a736 bcbc 21c3 a441
00000180: 0064 a441 7909 a541 b888 a541 299e a441
00000190: e350 a541 f4c9 a441 4101 a641 92a7 a441
000001a0: 6119 a541 6c53 a541 a570 a541 d14c a541
000001b0: 78ea a541 5441 a541 6588 a541 6927 21bd
000001c0: 1e96 fbbc 502c a541 380e a541 befc a541
000001d0: 9496 a541 98b2 a441 ea1c a541 f616 a541
000001e0: 8b08 a541 438e a441 f9e5 a441 4fd6 a441
000001f0: 51bf a541 b1c7 a541 59b9 a541 1f9e a441

layer3.weight f4 [98, 128]
-0.010113216 6.442114 6.483501 6.468908 6.481959 6.459305 6.4856296 6.468163
-0.02026728 6.4095426 6.4699626 6.4399858 6.422088 6.4683533 6.4165792 6.391568
6.4751196 6.4709716 6.4057007 6.412577 6.38782 6.4709687 6.4102054 6.4134088
6.4611216 0.05080791 6.450783 6.409737 6.4145255 6.461956 6.4144835 6.4522076
6.4142804 0.010975601 6.4724054 6.4883714 6.441404 6.4885583 6.386971 6.4758434
6.4737344 6.4138427 6.466699 6.4640045 6.4012465 6.4421077 -0.024292888 6.4218655
-0.03035597 6.4665284 6.388234 6.419834 0.0038608313 6.3887343 6.4263296 6.384723
6.3761144 6.4037323 6.4351974 6.4545665 6.389588 0.0049316664 6.417399 6.481916
6.47941 6.4234033 6.4816494 6.4549103 6.4657264 6.417044 -0.025703162 6.4156437
6.392402 6.433106 6.483919 6.4792666 0.04929288 6.440577 6.451713 6.4363265
6.44836 6.3878217 6.43437 6.3919787 6.429802 0.0005273928 6.483771 6.44815
6.4646873 6.4035764 6.473595 6.472914 6.4655933 6.454172 -0.046857983 6.3978076
6.391321 6.4245596 6.4293413 6.3896313 6.3852654 6.4382415 6.469724 6.4203725
6.4344416 6.425509 6.4894547 6.415406 6.4851704 6.4426513 6.4806347 -0.018699592
-0.012349033 6.398427 6.435723 6.3838897 6.4736886 6.432699 6.4241605 6.459063
6.4069967 6.413702 6.403869 6.393161 6.401121 6.4257293 6.4748087 6.4517536
-0.036661502 7.0964684 7.033086 7.0620394 7.0223465 7.0664105 7.048691 7.0062494
-0.0049238177 7.030594 7.070183 7.0067 7.0809865 7.040515 7.082892 6.9983444
7.006565 6.9997606 7.086981 7.07397 7.0203342 7.0632463 7.00432 6.997338
7.088058 -0.0026628503 7.1277966 7.0273247 7.0374403 7.036387 7.08471 7.0650434
6.9994745 0.039792404 6.9900045 7.0852604 7.0389214 7.032595 7.039695 7.104575
7.0511284 7.015356 7.0377793 7.01352 6.987814 7.036921 -0.018460503 7.0459657
-0.04039288 7.078736 6.9977264 7.046349 0.0059905513 7.0927315 7.057411 7.0722723
7.0087357 7.005639 7.002475 7.0531034 7.000978 -0.01647915 7.0916386 6.996299
7.022109 7.055701 7.076769 7.0494714 7.0432663 7.032547 -0.04394504 7.057635
7.0055747 7.0417643 7.031009 7.0591307 -0.025581043 7.0058227 7.0688 7.0071864
7.046925 6.9912324 7.030053 7.090194 7.092092 0.04664388 7.0974545 6.9753046
7.0439725 6.9913983 7.070299 7.076454 7.0203075 7.0323377 -0.027734946 7.0147896
7.0497766 7.033906 7.0044384 7.064459 7.013708 7.082649 7.0004272 7.019683
7.0372467 7.023188 7.0551825 7.0078354 7.038962 7.0396023 7.0766983 -0.0139683215
0.022130182 7.0021973 7.0523815 7.0586796 7.0024586 6.9908 7.0871105 7.0508027
7.021371 7.0405626 7.04201 7.007146 7.0842123 7.0604115 7.0890718 7.0051146
00000000: e7b1 25bc cc25 ce40 d778 cf40 4b01 cf40
00000010: 356c cf40 a0b2 ce40 478a cf40 31fb ce40
00000020: 9107 a6bc f91a cd40 ef09 cf40 5d14 ce40
00000030: bf81 cd40 c0fc ce40 9e54 cd40 ba87 cc40
00000040: 2e34 cf40 3312 cf40 80fb cc40 d533 cd40
00000050: 0569 cc40 2d12 cf40 6720 cd40 a53a cd40
00000060: 82c1 ce40 f41b 503d d06c ce40 911c cd40
00000070: cb43 cd40 58c8 ce40 7343 cd40 7c78 ce40
00000080: c941 cd40 02d3 333c f21d cf40 bda0 cf40
00000090: fb1f ce40 45a2 cf40 1162 cc40 1c3a cf40
000000a0: d528 cf40 333e cd40 33ef ce40 20d9 ce40
000000b0: 03d7 cc40 bf25 ce40 e101 c7bc ec7f cd40
000000c0: 15ad f8bc cded ce40 6a6c cc40 486f cd40
000000d0: 0006 7d3b 8370 cc40 7ea4 cd40 a74f cc40
000000e0: 2109 cc40 60eb cc40 23ed cd40 cf8b ce40
000000f0: 8177 cc40 d199 a13b 555b cd40 db6b cf40
00000100: 5457 cf40 858c cd40 ac69 cf40 a08e ce40
00000110: 3be7 ce40 6d58 cd40 708f d2bc f44c cd40
00000120: 8f8e cc40 01dc cd40 447c cf40 2756 cf40
00000130: 55e7 493d 3519 ce40 6f74 ce40 63f6 cd40
00000140: f758 ce40 0969 cc40 5ce6 cd40 178b cc40
00000150: f0c0 cd40 bb40 0a3a 0d7b cf40 3f57 ce40
00000160: b8de ce40 19ea cc40 b127 cf40 1d22 cf40
00000170: 24e6 ce40 9488 ce40 28ee 3fbd d7ba cc40
00000180: b485 cc40 fe95 cd40 2abd cd40 dc77 cc40
00000190: 1854 cc40 1306 ce40 fb07 cf40 b173 cd40
000001a0: f2e6 cd40 c59d cd40 9da9 cf40 024b cd40
000001b0: 8486 cf40 332a ce40 5c61 cf40 e32f 99bc
000001c0: 9953 4abc eabf cc40 71f1 cd40 d348 cc40
000001d0: 7528 cf40 acd8 cd40 b992 cd40 a5b0 ce40
000001e0: 1e06 cd40 0c3d cd40 7fec cc40 c694 cc40
000001f0: fcd5 cc40 939f cd40 a231 cf40 c474 ce40
00000200: 5f2a 16bd 4516 e340 0a0f e140 3afc e140
00000210: 10b7 e040 0920 e240 e08e e140 3233 e040
00000220: fa57 a1bb a0fa e040 f03e e240 e336 e040
00000230: 7197 e240 e64b e140 0da7 e240 70f2 df40
00000240: c835 e040 0afe df40 8cc8 e240 f65d e240
00000250: 94a6 e040 1d06 e240 6423 e040 31ea df40
00000260: 5fd1 e240 3783 2ebb e916 e440 d8df e040
00000270: b632 e140 152a e140 f2b5 e240 d614 e240
00000280: b2fb df40 5cfd 223d 1eae df40 74ba e240
00000290: d83e e140 050b e140 2e45 e140 ae58 e340
000002a0: d8a2 e140 cc7d e040 7d35 e140 c16e e040
000002b0: 2c9c df40 752e e140 7b3a 97bc 8d78 e140
000002c0: 0173 25bd 0185 e240 60ed df40 b17b e140
000002d0: 634c c43b a8f7 e240 50d6 e140 0e50 e240
000002e0: 9047 e040 322e e040 4614 e040 06b3 e140
000002f0: 0308 e040 48ff 86bc b4ee e240 aee1 df40
00000300: 1eb5 e040 4dc8 e140 e474 e240 4595 e140
00000310: 7062 e140 a00a e140 b7ff 33bd 25d8 e140
00000320: ab2d e040 2256 e140 07fe e040 66e4 e140
00000330: 568f d1bc b32f e040 9c33 e240 df3a e040
00000340: 6980 e140 2db8 df40 32f6 e040 dfe2 e240
00000350: 6bf2 e240 a70d 3f3d 591e e340 b235 df40
00000360: 3968 e140 89b9 df40 e43f e240 5072 e240
00000370: 5ca6 e040 e908 e140 6634 e3bc 2879 e040
00000380: c597 e140 c215 e140 5c24 e040 0c10 e240
00000390: 4c70 e040 10a5 e240 8003 e040 3ea1 e040
000003a0: 2031 e140 f5bd e040 0ec4 e140 3040 e040
000003b0: 2d3f e140 6c44 e140 5074 e240 63db 64bc
000003c0: 5b4a b53c 0012 e040 1cad e140 b4e0 e140
000003d0: 2414 e040 a2b4 df40 9cc9 e240 2da0 e140
000003e0: 12af e040 4a4c e140 2558 e140 8a3a e040
000003f0: deb1 e240 e4ee e140 add9 e240 e629 e040

layer3.bias f4 [98]
4.059693 5.47409 4.8780594 5.0285707 4.7255073 4.271641 4.8186793 6.1383343
7.7296996 2.957978 4.7419457 4.029582 3.6366346 4.9644074 3.0392625 5.455203
3.119893 4.587635 3.196439 1.4841083 2.9983642 4.6738367 2.8452199 3.8453808
9.145733 3.3986802 3.809906 5.4383707 13.5140085 2.5826962 2.5338373 4.3328753
2.1826506 4.7465014 3.4108307 2.0928526 4.165437 3.7873504 8.962936 3.5145028
3.7261283 5.08986 1.9932526 4.1348114 1.153814 4.698873 3.953767 2.9611485
2.3260782 3.8003736 3.8118253 3.950795 2.4956355 3.6669047 3.0509763 7.4105506
4.236426 2.2395089 0.5622803 3.12464 1.0197593 5.1126747 3.3824587 4.075085
4.224495 -2.3117428 8.431309 3.4628048 4.7000566 1.2019601 1.8706009 4.3837576
4.5843463 15.679507 4.173436 1.7465147 2.8078794 4.275043 4.8485065 1.3918558
3.1672 4.0234957 2.3302705 4.295281 5.709676 2.6030622 4.5871544 3.1937737
4.7847986 6.2757106 4.187695 0.67760205 4.5142875 3.7680733 3.3973384 6.1332784
4.158018 4.8954225
00000000: 01e9 8140 bf2b af40 1019 9c40 0dea a040
00000010: 5b37 9740 48b1 8840 9f32 9a40 3c6d c440
00000020: b359 f740 834f 3d40 05be 9740 56f2 8040
00000030: 9fbe 6840 6ddc 9e40 4783 4240 0691 ae40
00000040: 54ac 4740 e8cd 9240 7592 4c40 43f7 bd3f
00000050: 33e5 3f40 1290 9540 1518 3640 b81a 7640
00000060: ec54 1241 fa83 5940 80d5 7340 2207 ae40
00000070: 6139 5841 e54a 2540 642a 2240 eaa6 8a40
00000080: 8cb0 0b40 57e3 9740 0d4b 5a40 4cf1 0540
00000090: 434b 8540 f363 7240 3068 0f41 9ded 6040
000000a0: e378 6e40 22e0 a240 e722 ff3f 6050 8440
000000b0: 2db0 933f 2b5d 9640 850a 7d40 7583 3d40
000000c0: 77de 1440 5239 7340 f2f4 7340 d3d9 7c40
000000d0: 7eb8 1f40 91ae 6a40 3243 4340 3b23 ed40
000000e0: cd90 8740 1d54 0f40 9af1 0f3f 1afa 4740
000000f0: 7987 823f 089b a340 347a 5840 1967 8240
00000100: 102f 8740 98f3 13c0 a4e6 0641 989e 5d40
00000110: dd66 9640 d4d9 993f da6f ef3f be47 8c40
00000120: f7b2 9240 43df 7a41 ca8c 8540 cb8d df3f
00000130: 4cb4 3340 27cd 8840 f726 9b40 5528 b23f
00000140: 68b3 4a40 7ac0 8040 2723 1540 f172 8940
00000150: aab5 b640 9298 2640 f8c9 9240 ca66 4c40
00000160: 121d 9940 9fd2 c840 9901 8640 5477 2d3f
00000170: 0b75 9040 1d28 7140 fe6d 5940 d143 c440
00000180: 7c0e 8540 4da7 9c40
