models/12-13/guerrilla_model_weights.pth (torch, 161960 bytes, 6 tensors)

layer1.weight f4 [128, 82]
00000000: dff8 df3d 4fbd 0b3d 629b 093e 5b05 be3d
00000010: 4b87 443d 63eb 923d c7d5 65bc 0aa5 f83d
00000020: 73c2 5b3d d305 723d 0b29 8d3c cfc4 69bc
00000030: ff6a 423e dce3 12ba 5384 3d3e 17a7 513e
00000040: ba01 44bc eb45 b73d 3df4 ebbc d539 f2bc
00000050: abe2 bb3d 5991 12bd a4c6 ae3d 4495 ec3d
00000060: 670b 133d b479 e0bd d61e cb3b 4991 9abd
00000070: f5f6 543d 79d1 fc3d 7819 103e 3599 ca3c
00000080: f645 ba3d fe68 94bd e85b fc3c 36ac b73d
00000090: 665e 76bd 0a28 a43c 2c7b 6f3d 3c88 ab3d
000000a0: b980 f3bd 669e 81bd 8a54 2ebd ccdb b13d
000000b0: f3f7 d33c f503 433c ee9f 36bd e20f a6bd
000000c0: 8e7e 87bd a506 8fbd 21b5 77bd 2f80 173d
000000d0: ffa8 7cbc 8a73 29bd fa36 50bd a5d9 d4bd
000000e0: 0b04 833d 5375 be3d 6b2e d83d bf22 1e3d
000000f0: dfc5 923d 0e2d 5cbb 96f5 b33d 55d0 5e3c
00000100: cc32 b83d 0f3b ef3d 0420 153e cbaa 77bc
00000110: 50f7 83bd 3193 47bd 925b 2fbd 8f52 19bd
00000120: 6433 b43d d9d7 633d 33fa 76bd 9506 db3d
00000130: 5532 f4bb 9d8b 86bb 2f9e b13d 6401 c2bd
00000140: 7957 d4bc d5e6 02bd 178d 3c3e a72e b43b
00000150: c027 2b3e 577f ecbc efac c23b 9063 0bbd
00000160: 084e e73d e7b1 a23d cda2 c1bd f01a 2b3e
00000170: fb72 333e 042a 393d 7279 8b3d 214b 7c3d
00000180: 3013 033e acb4 e13d 464b 273d 7f82 043e
00000190: cf54 4d3d 142c 0b3e 4d13 873c 37db 2a3e
000001a0: bec6 38bd 0b9f 3f3e c122 d13c af7c d5bc
000001b0: d320 e93c 7fcb ffbc 6a0e 993d 3944 bbbd
000001c0: 19c6 e23c 2f27 9538 92a3 553e a86a a4bc
000001d0: 4d5a 4fbd 7d89 763b 7cad 53bd bca5 223d
000001e0: 7c96 0bbe c8e6 d9bb a998 9f3d 7b7d 0abd
000001f0: 1c00 143d f182 16bd 6821 44bc 5560 763c
00000200: fef5 c93a 6ef5 f33d b7a5 e63d 5fbe 4e3d
00000210: ba96 61bd f0f0 1f3d f96d 033d ddee 403c
00000220: fe02 81bb 25d4 ab3b 5eb5 603d 7fd7 6ebd
00000230: 3023 e63d baba 7ebd 2d87 c63d a5e0 f73d
00000240: a08a 033e e3f4 743d 73bc 9cbd 1f4d a43c
00000250: adb4 1cbb 12a2 a23d bb09 d23d a687 85bc
00000260: bd11 6ebd 7029 97bd dae7 c1bc 628a 00be
00000270: 9e6e a83c 49a3 d93c 066d 743d f5ea eabd
00000280: af0b 91bc 3e3e d5bc 8fdd a6bc c35b 823d
00000290: a6a7 433e dec8 993d a9ff 993d 023b 83bd
000002a0: 5e69 143e 5b49 6a3c a126 77bc d9c6 1c3e
000002b0: 5bda 023e 8065 e93c a37b d13d 7d38 81bd
000002c0: abd5 253e e808 3b3d 040c cd3d ca33 663e
000002d0: a921 843d db9d 423e a221 5d3e 7eb9 593d
000002e0: 0b7e c93a af1e 0b3c de3b 523c e619 613c
000002f0: 6a0e 503e e5e2 8a3d a14b 9d3d 16cb a53d
00000300: 2376 993d f152 0bbd 9e91 c13c 4c15 913d
00000310: 9d58 0c3d 6897 e23d 825a 0ebc 02af c93c
00000320: f78b d83d cc46 ac3d 1b5c 00be eca7 85bd
00000330: 731f de3d 3b7c 8d3d bd40 2f3c 4d07 adbd
00000340: 2fa4 a8bd dbb4 873d ff9d c53d b53a 4ebd
00000350: 5003 9bbd e0df 293d daa0 10bd 5ab4 0f3e
00000360: d28d f43d a5dd 86bc d8f5 643c f13b afbd
00000370: 21ce 4cbc 0c55 afbd f248 d6bd 1191 013e
00000380: fb7a 913d b77c cbbd 1836 813d d144 883d
00000390: c5c5 c93c 4717 bdbd 8b13 1a3e 0a33 e33c
000003a0: 330a 08be 91b6 81bd d63e c4bc e451 d0bc
000003b0: 5396 9c3d 32e2 a03c 829f f6bc f5b1 a8bd
000003c0: 25ca aabd 1634 29bd 362d b3bd d6ed ad3d
000003d0: 5a71 56bd 29fa 52bd d669 4d3e 116b af3c
000003e0: 1b66 b5bc 3d7f 71bd 99d1 e83a a073 093e
000003f0: 0fe4 2b3d bd7e 963d 7112 dfbc 289a edba
0.1093614 0.034116086 0.1343818 0.09278365 0.047980588 0.07173803 -0.014028019 0.12140854
0.053652238 0.059087586 0.017231485 -0.014268114 0.18986128 -0.00056034117 0.18507509 0.20473896
-0.011963302 0.08948883 -0.028802985 -0.029568592 0.09174093 -0.035783146 0.085339814 0.11551908
0.035899546 -0.10960713 0.0061987443 -0.07547242 0.05199333 0.12344641 0.14072216 0.024731258
0.09095375 -0.07246588 0.030805543 0.089683935 -0.06014862 0.020038623 0.058467075 0.08375594
-0.11889786 -0.0632904 -0.04256109 0.08684501 0.025875067 0.011902799 -0.044586115 -0.08108498
-0.06615935 -0.06983689 -0.060475472 0.03698748 -0.015421151 -0.041369952 -0.05083368 -0.10393075
0.063972555 0.092997216 0.105557285 0.038607355 0.07166647 -0.003359619 0.08787076 0.013599475
0.08994064 0.116811864 0.14562994 -0.015116404 -0.064436555 -0.048724357 -0.042811938 -0.03743225
0.087988645 0.05562577 -0.060297202 0.10694615 -0.007452289 -0.0041059987 0.08672749 -0.094729215
-0.025920616 -0.03195842 0.18413197 0.0054987255 0.16714382 -0.028869314 0.0059410254 -0.034030497
0.1129418 0.079440884 -0.0945488 0.16709495 0.1752433 0.045206085 0.06810273 0.061595086
0.12800288 0.110207886 0.04084327 0.12940405 0.050129708 0.13591033 0.016488696 0.16685186
-0.04511141 0.18713014 0.025529267 -0.02606043 0.028458035 -0.031224964 0.074734524 -0.09143872
0.027682351 7.112172e-05 0.20863178 -0.020070389 -0.050623227 0.003761857 -0.05167912 0.039708838
-0.13631624 -0.0066498257 0.077927895 -0.033811074 0.036132917 -0.03674597 -0.011970855 0.015037616
0.0015408394 0.119120464 0.11262076 0.05047452 -0.055075385 0.039048135 0.0320873 0.011775699
-0.0039371243 0.0052437955 0.054860465 -0.05831098 0.1123718 -0.062189795 0.096937515 0.121033944
0.1284585 0.059803855 -0.07653131 0.020056305 -0.0023911402 0.07941069 0.10255762 -0.016300034
-0.058122385 -0.073809505 -0.023670126 -0.12552789 0.020560559 0.026567118 0.059674285 -0.11470596
-0.017705766 -0.026030656 -0.02036932 0.063651584 0.19106922 0.075090155 0.075194664 -0.06407739
0.1449332 0.014299716 -0.015084893 0.1531023 0.12778609 0.028490782 0.1022866 -0.063096024
0.16194789 0.04566279 0.100120574 0.22480693 0.06451733 0.1900553 0.21594861 0.053155415
0.0015372647 0.008491202 0.012831656 0.013739085 0.20317999 0.06781558 0.07680441 0.08095376
0.07493236 -0.034014646 0.023629006 0.0708414 0.034264196 0.11064035 -0.008688571 0.024619583
0.10573571 0.08411941 -0.12535135 -0.06526169 0.10845842 0.06908461 0.010696587 -0.08448658
-0.082344405 0.06626292 0.09649276 -0.050348956 -0.07568991 0.04147327 -0.03530965 0.14033642
0.119411126 -0.01646311 0.013974629 -0.08556355 -0.012500317 -0.08561143 -0.10463132 0.12652995
0.07103535 -0.09935897 0.06309146 0.06653751 0.024630437 -0.092329554 0.15046518 0.027734298
-0.1328514 -0.0633365 -0.023955744 -0.025429673 0.076458596 0.019639108 -0.030105356 -0.082370676
-0.08339337 -0.04130944 -0.08748858 0.08492629 -0.052354194 -0.051508103 0.20059904 0.021413358
-0.022143414 -0.058959235 0.001776266 0.13423014 0.04196554 0.07348392 -0.027230473 -0.0018127607

layer1.bias f4 [128]
00000000: 60af c03d cd33 da3d 2feb 203e 40ca 7dbd
00000010: c180 253e 2785 083e cb90 3b3e ced1 033e
00000020: d04b 8f3d 88cf 133e 697a ca3d 6607 243a
00000030: 8ffd 2e3e 4d6d 0d3e 4fd5 f13d 456a 933d
00000040: fedf a03d 0dea 073e 63f1 d7bc 66e5 183e
00000050: 93bc 403c f71a a5bb 74b7 ab3c 59d5 b83d
00000060: eef4 223e f213 3b3e 780d 2a3e dcfb e83d
00000070: 8ee3 2b3e a27b a13d 66f9 f83d c12b 0e3e
00000080: 12d6 423e 96ba 153e f254 2a3e 7dd9 ba3a
00000090: 1438 783d a07a b7bc 737a 9d3c 3eef 913c
000000a0: 3911 363e 8a60 f93d 38c1 5f3c b66b 8d3d
000000b0: 2014 acbd 3c01 d63d 8faa e9bb 7c16 8d3d
000000c0: aeb3 b9bc e086 463d ccd3 513d 380c aa3b
000000d0: c1b0 0a3e 1e9b ae3d 0a27 fa3d 940a 653d
000000e0: 733c 063c 299c 7b3d 2f62 cd3c 5c0d 283e
000000f0: f5a6 263e e178 883d 29ce a43d e7fc 113e
00000100: a808 bc3d 9771 833c 88f5 853b b570 1a3d
00000110: 9dbf 1b3d cd82 c439 4daa 83bc 7753 393e
00000120: ceff ff3c bb36 dd3d 2853 af3c edd4 d63d
00000130: 41f0 303d 0906 f23d c6fa ed3d d9ed eb3d
00000140: 99a9 af3c 0cfc 263e 62df 463e f105 67bc
00000150: 17e1 dd3d 052c 603e 140b 1ebd 5ce1 0d3d
00000160: 283b a53b 2ec3 dcbc 41bd f93d e7ba 0b3e
00000170: 1bdf 14bd d7a6 b83c a2f2 323e bb1c 4a3e
00000180: 3b3f fd3d 7edb 05bd e81d 653d aaca f13d
00000190: e74b d53d 5f8b bd3d 68cf 06bc c4b8 1c3d
000001a0: ea05 c33d cbc3 5a3d 1da8 913d 0b06 ce3c
000001b0: c08c 123e 0ad2 f93d 7eb2 193e 4e07 483e
000001c0: 0a13 ecbc e1c4 463c e491 db3d 314b 193e
000001d0: 58fc e43d fc31 823c fea8 cb3d fa46 103e
000001e0: 27d2 693d 3214 43bc 2784 cc3d 314f a03d
000001f0: 8c63 4d3d 1794 b83c f044 e23d 1214 133e
0.0940845 0.106544115 0.15714715 -0.06196046 0.16162397 0.13332044 0.18316953 0.12873003
0.06996882 0.14434636 0.09886629 0.0006257206 0.17088912 0.13811226 0.118082635 0.07198004
0.07855223 0.13272877 -0.02636022 0.14931259 0.01176371 -0.005038615 0.0209615 0.09025068
0.15913746 0.18269327 0.166067 0.11376163 0.16786024 0.07884909 0.12156944 0.13883878
0.19026974 0.14621958 0.16633967 0.001425549 0.060600355 -0.02239734 0.019223427 0.017814275
0.17780007 0.121766165 0.013656907 0.0690531 -0.08402276 0.10449454 -0.007130928 0.06889054
-0.022668686 0.04846847 0.051227376 0.005189445 0.13543989 0.0852568 0.12214477 0.05591829
0.008193123 0.061428223 0.025071232 0.16411346 0.16274627 0.06663681 0.080471344 0.14256631
0.091813385 0.016045375 0.0040881075 0.037705142 0.038024534 0.00037481487 -0.016072417 0.18098246
0.031249907 0.10801455 0.021401957 0.10489831 0.043197874 0.11817557 0.11620097 0.11519975
0.021443175 0.16307086 0.19421151 -0.014100538 0.10833948 0.21891792 -0.038584784 0.034638748
0.0050424524 -0.026948538 0.121943004 0.13645516 -0.036345582 0.022540493 0.1747537 0.19737522
0.12365576 -0.032680027 0.055936724 0.11806233 0.10414868 0.092550986 -0.00822816 0.038262144
0.095226124 0.05340938 0.07112143 0.025149366 0.14311504 0.12198265 0.15009496 0.19534037
-0.028817672 0.0121319005 0.10721186 0.1497009 0.11180943 0.015892975 0.09944342 0.14089575
0.057085183 -0.01190667 0.099861436 0.078276046 0.050143763 0.022531552 0.11048305 0.14363125

layer2.weight f4 [128, 128]
00000000: 771e 883c 6b5d 153c 1780 e93b 9546 d23d
00000010: 5c90 003e 9b48 fe3d d177 8e3c 2f1b 033e
00000020: aa51 8c3d bbac c43d c7fc 543d 7c25 6c3a
00000030: 98fd e4bc fe08 d53d d3df 583d fc97 8f3d
00000040: 6f40 033e b6d5 d93d 0a3f e13d 9677 e0bc
00000050: 39b4 c33d 11b7 f8ba 7c53 84bc 0227 893c
00000060: 5912 3a3d 939c af3d cf54 a4bc 383c 743c
00000070: 4f1e 86bd 5254 f63d 998b a43d 4256 e53d
00000080: 6a00 d93c 0ba9 fd3d 5175 e03d c092 763d
00000090: 440b 423d 9d79 b7bd 6062 233c 6722 8c3d
000000a0: 0510 6d3d adba 323d feb1 fc3d 497b babc
000000b0: 0838 e63d 8e20 223c ba8e f53d 4e3c 0e3b
000000c0: bf6b b13d ca5b cfbc ca2e cfbc 6d28 323c
000000d0: 14a9 78bd 1b88 27bd 2f60 a93d a363 23bd
000000e0: f297 c2bc 5a86 9ebc 3157 ca3d 9abc cb3a
000000f0: c74c 4a3d acd7 27bd 243a cd3c 64ab 243d
00000100: f656 a43d 0b07 ba3d e93b d43b 6d0b 52bd
00000110: ce7c a53d f102 e33d 375a 8a3d 6753 36bd
00000120: 0654 8dbc 675c 60bd 32c9 163c 41ca ca39
00000130: 6cef fc3c ab69 d43d 17e7 153e 39bd a83d
00000140: cdd6 ab3d a1e3 393c 5726 c63d c776 1f3d
00000150: 1576 8e3d ab0f cc3d c3de 3bbc 2182 ae3b
00000160: 3eb8 5abc dc6b 03bd d76a a93d 7c7a c93d
00000170: 53fc 893d f4da 943d 754c 823d 1f68 37bd
00000180: e5b6 bc3d 931f ca3d 9093 b13d 8f41 313d
00000190: a453 533d 2e42 683d 4bd3 003e c969 013e
000001a0: 3668 1d3d d1ed 713d 52d5 c8bc 4ec8 383d
000001b0: 5d3f b23d e58b b8bc 5d0e 2abd bd47 4a3d
000001c0: 4e4c 4f3c 3b65 5fbd 2f32 a03d 9f45 8ebd
000001d0: 34e9 043e f825 eebb 8b60 923d 6285 143e
000001e0: 1776 a4bc 803e a2bd 518c b7bd 8ba3 8e3d
000001f0: 1297 aa3c 8081 9e3c 1448 0bbc bdaf be3c
00000200: a7bd 9ebd cf12 a43c ed2f 99bc 3299 b8bb
00000210: e1e4 423c cfe1 03bd 45ef 2fbd 50c2 16bd
00000220: bda2 213d 322e 31bd 8ff7 ea3c 6380 c43d
00000230: 1d2f d13d d0e8 9c3d cc63 e0ba d286 673c
00000240: f807 263d b3f7 923c 9077 063c 7285 d0bd
00000250: 7abc 1b3d 7691 0ebd 0ff7 8f3b 2814 ecbc
00000260: c031 38bd 4948 dbbb 0b79 5dbd 5eed 7c3d
00000270: 834d 6b3d cc0c debc e4bc ab3c a59f 18bd
00000280: 3bd5 65bc 1feb 2fbc a4cb dabb 7e02 0e3d
00000290: f7ce 763d 077d 8abd 3c39 0b3c d8af cebb
000002a0: c9c8 b6bd d850 a4bc 41fd c3bd a74b 2dbb
000002b0: 533b b2bc 1b01 67bd 4e3e 373d 11d2 013d
000002c0: 05a5 893d 9ed3 233d b620 85bd 0ddf 323d
000002d0: c6ee dd3c 2439 40bd 80c7 453c 809d 683a
000002e0: 3c87 a73c a53f cabd 067b 2f3c 2c13 b6bc
000002f0: 2c9d 80bd 16ee 47bb 103a a0bd 6057 40bd
00000300: dffd 323d d976 8bbd 7742 b93d 3607 28bd
00000310: 4d6c 8d3c d0b1 a83d e58b 50bd ff4d a83c
00000320: 6a23 623d a72c 6f3d 171a 8739 5870 e9bc
00000330: 280f 34bd b9d6 463d cd9c 7ebd b770 ed3d
00000340: f494 a83d af50 073d 33be 2ebd 5073 863d
00000350: 7368 7dbd 0393 95bd ddf4 0cbd 0051 89bc
00000360: 3805 873d 3e05 47bd d7d4 4c3d 7a74 243a
00000370: 8e26 32bd d3f3 863d 1cf2 15bc ee60 b13d
00000380: b137 5abd 1692 723d e271 663c a3e9 cabc
00000390: e075 76bd 26d0 a53c ac26 cdbc 49d6 823d
000003a0: 00ce ab3c 0ace 2e3d 353f 18bd 998d c6bd
000003b0: 941e 88bd 2475 873d c74d 86bc b9e7 d1bc
000003c0: 471c 843d b0f5 28bd 59c8 b5bd eb12 803d
000003d0: 5541 ff3c 9525 283d 08de b43d cc81 6e3d
000003e0: fec2 8a3d e9c4 35bb 2a21 a4bd bfd8 713d
000003f0: f04e 3f3d e634 7a3d 6062 babc 96b6 083c
0.01661609 0.009116511 0.007125865 0.10267369 0.12555069 0.12416192 0.017391117 0.12803338
0.06851514 0.09603258 0.05199888 0.0009008271 -0.027952954 0.10402106 0.05294783 0.070114106
0.12817548 0.10636465 0.10998352 -0.027400773 0.09555859 -0.0018975456 -0.01615309 0.016742233
0.045427654 0.08574786 -0.020059971 0.014906935 -0.0654875 0.120278016 0.08034439 0.11198093
0.026489455 0.12385758 0.10959876 0.060198545 0.047374025 -0.08958743 0.009972185 0.06842499
0.057876606 0.04363506 0.12338637 -0.022763865 0.11241156 0.009895457 0.119901136 0.0021703425
0.08663129 -0.025312323 -0.025290865 0.010873896 -0.06070812 -0.040901285 0.08270299 -0.039889943
-0.023754094 -0.019351173 0.09879912 0.0015543879 0.049389627 -0.040977165 0.025052138 0.040202513
0.08024399 0.090833746 0.0064768684 -0.051280428 0.08080445 0.110845454 0.06755488 -0.044513132
-0.01725198 -0.05477562 0.009203242 0.00038679133 0.030875884 0.10371717 0.14638935 0.08239216
0.083905794 0.011345775 0.096752815 0.038931634 0.06956116 0.09963926 -0.011466685 0.005325571
-0.013349591 -0.032085285 0.08272331 0.09837815 0.0673758 0.072683245 0.06362239 -0.044777032
0.09214572 0.098693036 0.086707234 0.043275412 0.051593438 0.05670374 0.12580602 0.1263801
0.03842946 0.05906469 -0.024515782 0.0451129 0.08703492 -0.022527644 -0.041517604 0.04938482
0.01265247 -0.0545399 0.07822072 -0.06946873 0.12979585 -0.00726771 0.0714732 0.14504007
-0.02007584 -0.07922077 -0.0896231 0.06964787 0.020823989 0.01934886 -0.0085010715 0.023277158
-0.07751017 0.0200285 -0.01869961 -0.0056334967 0.011895389 -0.03219777 -0.042952795 -0.036806405
0.03946184 -0.043256946 0.028682498 0.095948 0.10214064 0.07661593 -0.0017119586 0.014131265
0.040534943 0.017940378 0.008207217 -0.10181703 0.038021542 -0.03480669 0.0043934654 -0.028818205
-0.04496932 -0.0066919667 -0.054070514 0.06174981 0.057446968 -0.027105711 0.020964094 -0.037261624
-0.014027889 -0.01073721 -0.006677108 0.034670345 0.06025597 -0.06762128 0.008497532 -0.0063075833
-0.089250155 -0.02005808 -0.09569789 -0.0026442797 -0.021756804 -0.05639754 0.044737153 0.031694476
0.06720928 0.039996736 -0.0650038 0.04366975 0.027091395 -0.046929494 0.01207149 0.0008873567
0.020450227 -0.098754205 0.010710483 -0.022225939 -0.06279978 -0.00305069 -0.078235745 -0.046958327
0.04369914 -0.06809778 0.0904588 -0.041022502 0.017263556 0.0823704 -0.050914664 0.020545004
0.055209555 0.058392193 0.00025768645 -0.028495952 -0.043959767 0.04854462 -0.062161256 0.11593764
0.082315356 0.03303593 -0.042661857 0.06564963 -0.06186719 -0.07303431 -0.034413207 -0.016762257
0.06592792 -0.048588984 0.050007667 0.000627346 -0.0434938 0.065894745 -0.009151962 0.08661066
-0.053275768 0.05922135 0.014065238 -0.02476961 -0.060171008 0.020240854 -0.025042854 0.06388528
0.020972252 0.042676963 -0.037169654 -0.09694976 -0.06646457 0.0661414 -0.016394509 -0.02562319
0.06450706 -0.04124993 -0.08876104 0.06253608 0.031159082 0.041051466 0.088314116 0.058229253
0.06775473 -0.0027735776 -0.08014138 0.059044596 0.04670614 0.061085604 -0.022751987 0.008344313

layer2.bias f4 [128]
00000000: 9fc5 1e3d 3fd9 c23c 481f 643d e124 febc
00000010: fece 89bd 203b 3a3d 50ad 7d3d 2060 c23c
00000020: 043e 11bd fbb1 8b3d f440 403d 8ced ba3c
00000030: f7d3 4abd 5038 f2bc 2298 4c3d de15 9b3d
00000040: e942 79bd 1f19 d43c aa0e d73d 6a54 903d
00000050: e906 543d 50cf 67bd c2bb fb3c c046 b63d
00000060: e05d 5f3d 1446 90bd 8542 64bc 4c2e 9d3d
00000070: 43b6 f03d d6c8 553d 5304 553d 202f 393d
00000080: d824 783c 2f84 b43d b3cf b33d 33ed 86bc
00000090: 1218 c33d 6e1f c4bc 9920 7d3c 49b7 dd3d
000000a0: 39a4 b23d 9a68 9ebd c5d9 913a 52ae d03d
000000b0: 7024 dcbb e5e0 9f3d fa31 3a3d d678 cebc
000000c0: d351 bc3a 0fcd 1e3d ab15 0abd 026d 9d3d
000000d0: 409d 77bb d67c 1d3d 43d6 edbc 06ad b53d
000000e0: 673a 223b a4ef 463c f128 dabc 99cb 4d3c
000000f0: 57b6 383d 9952 d03d 4fef 1fbd f815 f93d
00000100: df4d 613d b6b3 5e3d 78ff 323d a4ed 27bd
00000110: ec94 a93d 1bdc 63bc 0827 74bd 28eb 2a3d
00000120: 1a7e f83b 1dc4 d43d 94fc 93bc 6d0e 953d
00000130: 6fe6 813c 33d6 c83d 8e1c 05bd 2681 10ba
00000140: a103 9a3d 05fe 0ebb e396 f33d 2f62 293c
00000150: e0b3 b2ba 5896 213d 560b 803d ff1c b3bb
00000160: 3d0d b33c c5dc 153d 8504 503d 0b22 3ebd
00000170: 63a6 b63d 0e04 b73c 8f29 e53d 8753 da3c
00000180: bad1 0e3d fce4 553d 2cc6 7f3d 4402 c03c
00000190: 8d0c 773b d591 e83c 2153 a0bc a829 40bd
000001a0: aae1 973c e892 0a3d acc7 6dbc 8f36 943d
000001b0: 7bfa 373c 0c2c bd3d 3e22 09bd 1b2c 9b3d
000001c0: af49 a0bc 3b62 92bd 4529 6f3d 05d1 f2bc
000001d0: cf8d 9a3d cdf2 583d d9f4 c73d b391 9a3c
000001e0: 71d5 673d d299 92bb c851 30bd 4eb0 3cbd
000001f0: 2c7c a3bd 39ba 80bc cc6b 7bbd c31a babc
0.038762685 0.023785232 0.055693895 -0.031023445 -0.06728934 0.045466542 0.06193286 0.023727477
-0.035459533 0.068210565 0.046936944 0.02281835 -0.04951855 -0.029567868 0.049949773 0.0757253
-0.060854826 0.025890885 0.10500844 0.07047351 0.051764403 -0.056594193 0.030729178 0.08900213
0.054532886 -0.07044616 -0.013931875 0.07674846 0.11753514 0.052193485 0.052006077 0.045210958
0.015145503 0.088142745 0.0877985 -0.016470527 0.095260754 -0.023940768 0.015449666 0.108259745
0.08722729 -0.07734795 0.0011127522 0.10189499 -0.006718211 0.07806567 0.045457818 -0.025204103
0.0014367647 0.038769778 -0.03371207 0.07686807 -0.0037782937 0.03844913 -0.029032832 0.08870892
0.0024754049 0.012142096 -0.02663085 0.0125607485 0.045095768 0.10172004 -0.03904658 0.12162393
0.055005904 0.054370604 0.043700665 -0.040998116 0.08280358 -0.013907458 -0.059607536 0.04172817
0.007583392 0.10388968 -0.018064775 0.07278142 0.01585695 0.0980648 -0.032497935 -0.00055124087
0.075202234 -0.0021818888 0.11894014 0.01033835 -0.0013633929 0.03945002 0.06252162 -0.005466103
0.021856898 0.036587495 0.05078556 -0.046419185 0.089184545 0.0223408 0.11189567 0.026651157
0.03486798 0.05222033 0.06244485 0.02343858 0.003769669 0.02838985 -0.019570889 -0.046914726
0.018540222 0.033831507 -0.0145129375 0.07236969 0.011229153 0.09236917 -0.03347992 0.07576772
-0.019566385 -0.07147642 0.058388967 -0.029640684 0.07546579 0.052965928 0.09763498 0.018868303
0.056600038 -0.004473903 -0.043046743 -0.046066575 -0.07982668 -0.015713798 -0.0613821 -0.02271784

layer3.weight f4 [98, 128]
00000000: b55e d4bc 94ad 1abb aaba 86bc dd19 9e3c
00000010: b029 883d 4dbf 3abc a056 d23d 6543 e33d
00000020: 5ee7 6a3d 5725 713c c307 973c 6dd7 ff3c
00000030: 9be2 ca3d e06c 003c 8e7e 373d fdc9 943d
00000040: 27c3 70bb 0ca3 8e3c ce67 f93b 0d68 c83b
00000050: 860b 0f3d 39ad 85ba 9ebc 843d f43e 54bd
00000060: e4ee 0abd e25f d1bc 059a c23d 69b1 af3d
00000070: c5ee 8f3d 7afb 37bd 0dac 3abd e789 5ebc
00000080: 6a03 303d 7c8b 0bbc 38f5 bbbc 6182 093d
00000090: f98f 35bb 00ce 35bd be7b b33d f82a 403d
000000a0: 943c 623d 9acc b13d a030 1939 f9f1 af3d
000000b0: 53ce 27bd d415 153c 7113 23bd d64a cb3d
000000c0: 1da9 143d c324 b13d 08bd 27bd 7152 a43d
000000d0: d16d d93d bb34 82bb 6cd5 e23d 8773 173d
000000e0: 9d09 67bc 24fa 863d 7aa3 0ebd e115 aa3d
000000f0: 0f8d a73d cc20 ef3c ccca 8c3d 1234 2e3d
00000100: 2efb 18bd 8ad2 eabc 092a 383d 7170 d33d
00000110: afdb 843d 3c95 11bc e4b9 483d af40 3b3d
00000120: 83c3 64bc d6cb 5dbd c666 3e3d 7902 21bd
00000130: d258 ea3d 9165 70bd 11bd a5bc 2318 b93d
00000140: d606 533b b5a4 f23c 9433 b23d f430 7dbc
00000150: b0ce 39bc f473 a83d 0140 8d3c 930f 213d
00000160: 2697 853d b697 ed3d 330a 463d 61ad 053b
00000170: 5d37 0abd 1cb8 fabc c227 3dbc 622f 933d
00000180: 89f5 713d f00e e6bb d362 c1bb df80 cabc
00000190: 0d30 593d 04c7 4a3d 9ac0 14bd 918d 9fbc
000001a0: 92de b63d dae9 603d 903a 7a3b 0b5b edbc
000001b0: 189f cbbc d7ff d33d 634f e33d d753 a23d
000001c0: bc5f 6e3d df12 cf3a 6cad 3e3d 53fd 12bd
000001d0: c2bf af3d cd8a 9c3d 600e be3d 2324 d6bc
000001e0: 863a c43d bb7c 913c 8bd3 173d 3e44 9d3b
000001f0: c8ab 06bd 9a32 1f3b e612 313a 14fc 5a3b
00000200: 5005 3f3d 0257 3bbd d935 9fbc acd8 603c
00000210: 9547 6abd 4265 8abc 9af8 0d3d 9af4 f53d
00000220: d279 a03d 7caa 2a3d 1f6b 47bc 3905 9d3d
00000230: a697 a83d e205 8b3d b0b1 5a3d 41aa 4bba
00000240: da87 963d 6aab 813d f75a 5c3d 66b1 013e
00000250: b8d7 993d b7d9 1b3d 9594 623d 41fd cfbc
00000260: 8e41 993d 34f6 6e3d bb7a c83d 66a3 18bc
00000270: 9f63 e2bc 4bc4 5bbd 3c93 db3d 993a 6c3d
00000280: 7edf cf3c 4764 1e3d 6d82 783d b262 d53d
00000290: a5db 5f3d 6ca5 57bd 7494 71bd d5d1 b83d
000002a0: bf48 9a3d d5d0 7f3c 333e 283d caf0 7b3d
000002b0: 87ad 853d 3088 d63c c541 fbbc 487e 9dbc
000002c0: 39bf 813a b0fd 8d3d b5d7 493c a58e 753c
000002d0: 298c ae3d 06d3 933d a101 853c fd55 f1bc
000002e0: dd7d 413d f64a a93b 888e 323d 0c87 53b8
000002f0: 2955 38bb 8b91 f73c 8d9e a8bc 48b3 da3d
00000300: d1e2 a63d a492 4a3d 3811 a9bc 6f39 a23d
00000310: 23b7 06bd fa28 50bd b7d0 2dbd 9811 09bd
00000320: 1b48 f03d 179b 7f3d 36b6 b03c 334f bc3d
00000330: 6f96 64bc 1120 193d b256 9abc bc8e 6a3d
00000340: 0a24 4e3d 6de7 94bc 032b 863d 40e8 383d
00000350: 27bd 1c3c 6d5c ae3d 50b6 9fba 0108 613d
00000360: e264 c43c 5174 2b3c 7a91 f03d 6fb1 033c
00000370: c10b fdbc fa43 0cbd 431a cf3d 71e5 29bd
00000380: 069e ddbb 95d8 9f3d 2731 6c3c 4655 b33d
00000390: d852 e83d a31d 68bd 5062 0dbc 734c f23c
000003a0: 88d4 b83d 7b41 57bd 2a18 08bc d146 583c
000003b0: aef4 4e3d 8570 143b d374 1dbc 3b5c 883c
000003c0: adc5 c9bc d0d6 ff3d 6b23 18bd 08ee b53d
000003d0: fd85 2dbd dae9 d73d 701e 8fbb e025 443d
000003e0: 637f f03d c9c0 dbbb 3698 153d 71b1 a73d
000003f0: 6306 9e3d 68d5 2abd 5bb7 863d a3e7 063d
-0.025924066 -0.0023601996 -0.01644643 0.019299442 0.06648576 -0.011398149 0.10270429 0.11096839
0.057349555 0.014718375 0.018436318 0.031230653 0.09906503 0.007838458 0.044798426 0.07265089
-0.0036737414 0.017411731 0.0076112514 0.0061159194 0.0349231 -0.0010198719 0.064812884 -0.05181785
-0.03391923 -0.025558416 0.09502033 0.0857876 0.070279635 -0.04491756 -0.045574237 -0.013582683
0.042972006 -0.008517142 -0.022944078 0.033571605 -0.0027704223 -0.04438591 0.08763836 0.04691598
0.055233553 0.08681603 0.00014609331 0.085910745 -0.04096825 0.0090994425 -0.039813463 0.09926383
0.03629409 0.0864959 -0.04095176 0.08023537 0.10616649 -0.003973571 0.11075863 0.03697541
-0.014101413 0.06590679 -0.034823872 0.08304954 0.08181202 0.029190443 0.06874618 0.042530127
-0.03734892 -0.028664846 0.044961963 0.10324181 0.06487214 -0.008885678 0.049005404 0.045715984
-0.013962629 -0.05414947 0.04648473 -0.039309 0.114427224 -0.05869061 -0.020231755 0.09037807
0.003220012 0.029619554 0.08701244 -0.015453566 -0.011340782 0.08225241 0.017242434 0.039321493
0.0652297 0.11601202 0.04834957 0.0020397531 -0.033744205 -0.030605368 -0.0115451235 0.07186772
0.05907205 -0.0070208237 -0.0059016733 -0.024719654 0.05302434 0.049506202 -0.03631649 -0.019476684
0.08929171 0.05491052 0.0038181879 -0.028974077 -0.024856135 0.10351532 0.11099126 0.079261474
0.05819677 0.0015798471 0.046552107 -0.03588612 0.08581497 0.07643662 0.092800856 -0.026140278
0.09581475 0.017759671 0.037066977 0.004799395 -0.032878667 0.0024291635 0.000675483 0.003341441
0.046635926 -0.045737274 -0.019434856 0.013723534 -0.057197172 -0.016893987 0.034660913 0.12009545
0.078357354 0.041666493 -0.012171536 0.07667012 0.0823205 0.067882314 0.053392112 -0.0007769205
0.073501304 0.06331523 0.05379769 0.12665328 0.07511848 0.038049426 0.05531748 -0.025389316
0.07483207 0.058340266 0.09789034 -0.009316301 -0.027635394 -0.053653996 0.10721442 0.05767307
0.025375124 0.03866985 0.06067126 0.10419215 0.05465283 -0.052647993 -0.058979467 0.09024397
0.075334065 0.015613754 0.041074943 0.06150893 0.06527238 0.026187986 -0.03067101 -0.019225255
0.0009898908 0.06933153 0.012319495 0.014987622 0.08522827 0.07217984 0.016236128 -0.029459948
0.047239173 0.0051664067 0.04359296 -5.0432092e-05 -0.0028126931 0.030220767 -0.020583415 0.106787264
0.081487305 0.049456254 -0.020638093 0.07921111 -0.032889497 -0.05082033 -0.042435374 -0.033464044
0.11732503 0.062403765 0.02157126 0.091947936 -0.013951882 0.037384097 -0.018840168 0.05726503
0.05032734 -0.018176759 0.065511726 0.045143366 0.009566582 0.085137226 -0.0012185071 0.054939274
0.023973886 0.010464744 0.117464975 0.008037909 -0.030889394 -0.034244515 0.10112431 -0.041478578
-0.0067632226 0.078049816 0.014416016 0.08756499 0.11343926 -0.05666889 -0.008629397 0.02957747
0.09024912 -0.05255268 -0.008306542 0.013200478 0.050526313 0.0022650075 -0.009610373 0.016645541
-0.024630392 0.12492144 -0.037143152 0.088832915 -0.04236411 0.105426505 -0.004367642 0.047887683
0.11743047 -0.0067063314 0.036522113 0.08188141 0.07716062 -0.041707426 0.06577941 0.03293575

layer3.bias f4 [98]
00000000: 83b0 b7bc 7577 db3c 51b2 46bd 1b51 683d
00000010: 9949 2cbc 2397 d13d 7064 1f3d 6ef0 ad3d
00000020: 07b0 67bd 318a 89bb d053 6fbd ced0 1ebd
00000030: 7655 20bd b625 d7bc afe9 0ebb c984 08bc
00000040: 562d 2abd 22e6 ebbb c01a ce3d 9236 1f3d
00000050: 1f0c 7b3c ed49 6d3d 446f 80bd 3d49 03bd
00000060: af03 34bd 821f 8f3c 4572 f1bc 24dc 0bbd
00000070: 0002 383d 2df1 783d 05b2 263d c1ef 223d
00000080: bd3a a03d 408c 953d 0b85 f6bc 4441 ac3d
00000090: 3191 9e3d 60f1 a03d f0cd c03d cdce 32bc
000000a0: 834b 963d 4f5f 7bbd ebba 623d cd62 c93d
000000b0: c9b6 133d 8139 ba3d bbfa 23bd f15c 883d
000000c0: 9281 cf3d 5ff9 86bb f63e b33d 82cf 57bd
000000d0: b763 0e3d 2893 a83c 743d 753d 503b c43d
000000e0: be3e 91bd 1b64 5cbd 8ea3 d53d 8204 733d
000000f0: 0eea aa3d 0de3 60bc 02ea a63d 48b2 823d
00000100: e95a c43d ed39 913d 0966 743d e9b3 1cbd
00000110: d9bc 38bd a63d 343d 6bc1 db3c e339 ce3d
00000120: e9ac c93d b44f 24bd 8312 0f3d fa8f f0bb
00000130: 9b3f 86bc d00a 36bd 49b0 993d 1f12 e4bc
00000140: 0d33 743d 0957 2bbd 57c8 3a3d 31ed ac3d
00000150: 33fd 6a3d d561 12bd 59e7 05bc d875 a03d
00000160: 28c2 7a3b 780b a2b9 c529 bf3d c166 79bd
00000170: 3b10 10bd 6b99 50bd 021a c73d 5504 883c
00000180: 3b88 c43d 404a 073b
-0.022423035 0.02679036 -0.0485099 0.056717973 -0.010515594 0.10233905 0.038914144 0.08493124
-0.056564357 -0.004197382 -0.05842954 -0.03877335 -0.039144002 -0.0262631 -0.0021806767 -0.00833244
-0.041547142 -0.007199065 0.10063696 0.0388704 0.015322714 0.05793183 -0.06271222 -0.032052267
-0.043948825 0.017471079 -0.029473433 -0.03414549 0.044923782 0.06077688 0.040697116 0.03977943
0.078237034 0.07302141 -0.030092737 0.08410886 0.07742537 0.07858539 0.094142795 -0.010913563
0.073386215 -0.06137019 0.05535404 0.09833298 0.03606299 0.09092999 -0.040034037 0.06658352
0.101321355 -0.004119083 0.08752243 -0.05268813 0.034763064 0.020577982 0.05987306 0.095816255
-0.07092045 -0.053806406 0.10431586 0.05933047 0.08345424 -0.013726008 0.08150102 0.06381661
0.09587652 0.070911266 0.05966762 -0.038257513 -0.045101974 0.044004105 0.026825627 0.10069635
0.09847433 -0.040115073 0.034929764 -0.007341382 -0.016387751 -0.044443905 0.07504327 -0.027840672
0.059619 -0.04183105 0.045601215 0.08443678 0.057370376 -0.03573783 -0.008172833 0.07834977
0.0038262699 -0.00030907593 0.09334139 -0.06088901 -0.03517173 -0.05092756 0.097217575 0.016603628
0.095962964 0.0020643622
