models/16-17/coin_model_weights.pth (torch, 197942 bytes, 6 tensors)

layer1.weight f4 [128, 82]
000000 f6 d8 b8 bd 1b 4c ae bd fd 44 6c bc e5 da ec 3c
       -0.09025757 -0.0851061 -0.014420745 0.02891297
000010 b2 bb 5d 3d 7c 34 f1 3d 50 bb 80 bd b8 fe 69 3d
       0.05413408 0.11777589 -0.06285727 0.057127684
000020 28 52 1c bd cb 6e 17 3d 34 62 ef 3d 75 3c 80 bd
       -0.038164288 0.036970895 0.11688653 -0.06261531
000030 76 83 c8 3d 9f f3 f9 bc f3 e4 e0 3d db 66 97 3c
       0.09790699 -0.030511675 0.109811686 0.018481662
000040 7c 9c 57 bd 51 bf 78 bd a4 0f f4 3d 50 af 43 3d
       -0.05263947 -0.06072933 0.11917046 0.047774613
000050 e8 b7 a9 3d 40 33 ed 3b 61 84 43 3d b0 85 01 bd
       0.082870305 0.0072387755 0.04773367 -0.031621635
000060 3d 76 30 3d 7c 9b 1b 3d d4 6c ab bd 0d 40 24 3b
       0.04308151 0.03799008 -0.08370367 0.0025062591
000070 8b 12 95 3d 2e 73 a3 3d d3 f0 6e 3d 5c c2 79 bc
       0.072789274 0.07980953 0.058335137 -0.015244093
000080 1f ee 04 3d 80 dc 9c bd 4b 02 5d 3d fc b0 c1 38
       0.032453652 -0.076592445 0.053957265 9.235923e-05
000090 bb a1 41 3d fe dd 50 bd 41 d3 f6 3c 05 4a bb bd
       0.04727338 -0.05099296 0.03013003 -0.091449775
0000a0 54 70 82 3a 0d ed 03 bd 8f 9f 4c bd 9d 96 87 3d
       0.0009951689 -0.03220849 -0.049956854 0.06620524
0000b0 6d 61 ff 3c 12 6e 6b bd 94 f9 11 bd 95 00 95 3d
       0.031174386 -0.057478018 -0.035638407 0.07275502
0000c0 90 eb 0e 3d ec 26 67 bd 7a da 8a 3d 09 65 38 bd
       0.03489262 -0.056433603 0.06779952 -0.04501823
0000d0 2b ee a3 bd 99 32 5b bc 13 d6 bf bd 08 93 22 3b
       -0.08004411 -0.013378763 -0.09367003 0.0024806876
0000e0 34 ac f5 bc d0 4d d3 3d b9 eb e7 3d ed fc 12 3d
       -0.02998934 0.10317576 0.113242574 0.03588574
0000f0 79 e5 c6 3d 85 72 7b bc 47 10 18 bd bb 82 8c bd
       0.09711737 -0.015347128 -0.0371249 -0.06860872
000100 2a 41 b6 3d 09 20 cc bd 38 f8 7a bd 8f 5d 91 3c
       0.08899148 -0.09967048 -0.061271876 0.017744808
000110 af 41 e4 bd 04 40 d2 bb 3d 5f 54 3d df 8d a5 3d
       -0.11145341 -0.0064163227 0.05184864 0.080837004
000120 ce 6f 34 bd a7 63 42 bd 9e 20 71 bd 90 3a f5 bd
       -0.044051938 -0.047458317 -0.058868997 -0.119740605
000130 f0 71 46 bd 5f da b9 3d 2a 91 60 3d 98 ae a3 3d
       -0.048448503 0.09074854 0.05482594 0.079922855
000140 30 20 c0 3d c8 24 08 bd 44 c2 a9 bd 49 f0 70 bd
       0.09381139 -0.033238202 -0.08289006 -0.058822904
000150 1d 2f 71 bc 60 68 f9 bc ee 8d ae 3d ef 07 78 3d
       -0.014720705 -0.030445278 0.08523165 0.06055444
000160 27 22 98 3d c9 86 1a 3d 42 b1 f0 3d b8 e6 a9 3d
       0.07428389 0.037726197 0.11752559 0.08295959
000170 81 1c a4 bc bc 09 d6 3c ee 44 7b bd b3 fb 23 bd
       -0.020033123 0.026127689 -0.061345033 -0.04003496
000180 1e 5c 2a bd 48 05 a0 3d 10 29 31 3d 45 c8 87 3d
       -0.041591756 0.07813507 0.04325205 0.06629995
000190 de a8 38 3d b2 13 92 3c b3 ca 37 3d 98 3b 3e bd
       0.04508292 0.017831657 0.044871043 -0.04644355
0001a0 92 96 b2 3d b8 6c 77 bd 44 84 56 3d 2d 2c 85 3c
       0.08720125 -0.060406417 0.052372232 0.016256416
0001b0 1f 69 d4 bd e5 cb 8e 3c 9d d6 79 bd 62 de 55 3c
       -0.10371613 0.017431209 -0.060995687 0.0130535085
0001c0 ad 7d 01 bd 4c ba 74 bd 2b 34 1b bd c3 a2 90 3c
       -0.031613994 -0.05974798 -0.037891548 0.017655736
0001d0 11 5b 38 bd 62 31 8b bd 6e 52 d1 3d 68 27 e7 3c
       -0.045008723 -0.067965284 0.102208 0.028217033
0001e0 94 53 ca bd ac 6c 01 bd 78 fc 07 3e 10 41 8f bc
       -0.098792225 -0.03159778 0.13279903 -0.017487079
0001f0 c6 df 80 bd a1 be a0 3c 86 b5 b8 3d 59 20 c0 3d
       -0.062926814 0.019622149 0.09018998 0.0938117
000200 6e bc dd 3c 1a 01 ae bd e3 5c 3f 3d 88 94 89 bd
       0.02706739 -0.08496304 0.046719443 -0.06717783
000210 50 4b 93 bc 18 ff 81 bd 00 26 6b bd a4 5f dc 3d
       -0.017980248 -0.063474834 -0.057409286 0.107604295
000220 66 ab 24 bd dc 4a ee 3d 92 ae 96 bc 1f 95 d6 3d
       -0.04020252 0.11635372 -0.018393788 0.10477661
000230 aa 53 00 bc 81 6e ba bd 5b 64 b7 3d 16 3f 81 3d
       -0.007832447 -0.09103108 0.08954688 0.06310861
000240 32 13 db bc 09 4e ce bd 60 c3 13 3d 94 b4 1c bd
       -0.026742551 -0.10073478 0.036074996 -0.03825815
000250 08 49 20 3d 72 a8 8e 3a 49 5e 91 3d c8 d2 8a bd
       0.039132148 0.0010883941 0.070980616 -0.067784846
000260 0b a3 aa bc a0 9c d4 bd 45 67 a3 bd af 22 90 bd
       -0.020829698 -0.10381436 -0.079786815 -0.07037865
000270 59 fa fc bd f0 dd e2 bd 2c 70 a5 bd 5e 2b ac bd
       -0.123524375 -0.110774875 -0.08078036 -0.08406709
000280 51 47 48 3d 55 13 90 bd cc 03 6c bd 76 c4 8a 3b
       0.048896138 -0.07034937 -0.05762081 0.0042348458
000290 c3 9e a5 bd fa d1 a0 bd 89 13 9b 3b f2 25 ba 3d
       -0.08086922 -0.0785255 0.0047325534 0.09089269
0002a0 47 7f 6c 3b f5 a1 00 3d fe 6b 5c bd 02 f4 61 bd
       0.0036086605 0.031404454 -0.053813927 -0.055164345
0002b0 eb 35 20 3d ce 99 bd 3d e4 4c 67 bc e1 02 17 3d
       0.03911392 0.092578515 -0.014117453 0.03686798
0002c0 31 99 c6 3d 5d 62 2d 3c 46 08 d3 bc ad a8 32 bd
       0.09697188 0.010582534 -0.025760781 -0.043617893
0002d0 9e 26 b4 bc 20 ff 72 3d 56 93 5b bd 16 9b 03 bd
       -0.02199107 0.059325337 -0.053607307 -0.032130323
0002e0 7c aa 1b 3d 3c 09 80 bd 28 a2 0a bc bb 87 88 bd
       0.038004383 -0.06251761 -0.008461513 -0.066665135
0002f0 f6 51 03 bd af a9 86 3d 1c c1 92 bb 45 b9 fa bc
       -0.032060586 0.06575333 -0.004478587 -0.030605922
000300 c1 07 e1 bd 63 3f db 3d 10 0f aa bd 8b bc d3 bc
       -0.10987807 0.107054494 -0.08303654 -0.02584674
000310 cb 35 c8 3d 4e fc 4b 3d 31 f8 6d 3d a9 61 fc 3c
       0.09775885 0.049801163 0.058098022 0.030808287
000320 67 f4 89 bd 95 25 99 3d dd a1 c1 3d 6a 36 24 bd
       -0.06736069 0.07477871 0.09454701 -0.040090956
000330 ec 96 b2 3d 8b 0d bd 3c b4 64 20 3d 2f 72 7a 3d
       0.08720192 0.023077747 0.039158538 0.06114405
000340 a1 87 10 bd 45 03 41 bc ac eb 80 bd 7c f3 39 3d
       -0.035285596 -0.011780565 -0.06294951 0.04539822
000350 9f 3e 14 bd 3d cc 9b 3d 6b 8a ac 3d 9f e4 dc 3d
       -0.036192533 0.07607315 0.08424839 0.107857935
000360 30 15 0b 3d 52 18 ca bb 3e ec 65 3c 4b 33 ab 3a
       0.033955753 -0.00616745 0.014033375 0.0013061551
000370 27 5a 7e bd 40 cb df 3d d5 fe f4 3d c1 07 b1 3d
       -0.062097695 0.10927439 0.11962668 0.08644057
000380 ba 70 41 bd 57 3a ba 3c 4a 06 50 3d e5 e3 8c 3d
       -0.047226645 0.022732897 0.050787248 0.06879405
000390 c6 f2 a1 bd e6 9d aa bc 0a f4 ca 3b 0a 1c 0d bb
       -0.079076335 -0.020827245 0.0061936425 -0.0021531605
0003a0 49 11 bc 3c 3d 88 42 3d d6 e7 22 3d 01 10 00 3e
       0.022957461 0.04749321 0.039771877 0.12506105
0003b0 2a a1 c5 bc a2 0f 1f bd b9 f2 d0 3d 94 51 b2 3d
       -0.0241247 -0.038833268 0.10202546 0.08706966
0003c0 ac 65 a6 bd d2 c6 89 3d 69 4f 9f 3d 79 f5 a0 3b
       -0.08124861 0.06727375 0.07778818 0.004912075
0003d0 ee c4 b3 bd 77 ce a0 3d d1 b5 c3 3d 98 30 53 3d
       -0.08777796 0.0785188 0.09556163 0.051560014
0003e0 8e 4e fe bc e0 5a 8f bd b1 8d b3 bc 89 d4 f2 3d
       -0.031043317 -0.06999755 -0.02191815 0.11856944
0003f0 03 59 c0 3d ce ee dd 3d 1f b3 a3 3c 8a 49 f4 3c
       0.09391978 0.10836564 0.019982873 0.029820222

layer1.bias f4 [128]
000000 f9 04 c5 3b 16 f6 c4 3c b6 f9 d7 3d b6 9a d2 3d
       0.0060125557 0.024043124 0.105456755 0.10283415
000010 6d eb a6 bd a0 f5 cc 3d 3e 00 20 3e 95 1b 74 bd
       -0.08150373 0.10007787 0.15625092 -0.059596617
000020 86 54 03 3e 12 d7 04 3e 59 4d 0d 3e 9e b4 a2 3d
       0.12825212 0.12972668 0.13799037 0.07944606
000030 d0 65 c7 bd 16 20 0e 3e 8f 2b 00 3e b0 c8 38 3d
       -0.09736216 0.13879427 0.12516616 0.045113266
000040 53 08 b1 3d d3 15 cb 3d 6d 1d 86 bd 29 70 a9 3c
       0.08644166 0.09916272 -0.06548581 0.020683365
000050 ba f2 bf 3b 7b 13 a4 3d 1a a5 bc bb c7 81 90 3b
       0.0058577927 0.08011528 -0.0057569863 0.004410002
000060 9e 0f d4 bc 56 c6 4a bd be 67 3f bd 30 e3 24 3d
       -0.025886353 -0.049505554 -0.046729796 0.040255725
000070 de 10 95 3c 87 8d 0e 3e 1b 26 b1 3c 8c 4c 8f bd
       0.01819652 0.13921176 0.021624615 -0.06997022
000080 39 df f0 bc c9 29 c6 3d 95 4b c9 3c 28 d9 06 3e
       -0.029403316 0.09675939 0.024572173 0.13168776
000090 ea c2 57 bd 13 bb 53 bd 8a 02 b1 bc 2d e1 0e 3e
       -0.05267612 -0.05169208 -0.021607656 0.13953085
0000a0 4d b3 cc 3d 0f 21 24 bd 20 62 f0 3d d5 e1 ed bc
       0.099951364 -0.04007059 0.11737466 -0.02903835
0000b0 54 a6 9e 39 eb 65 08 3e 55 3d 64 bd d5 de fb 3d
       0.00030260033 0.13320129 -0.055722553 0.12298361
0000c0 a7 48 51 3d ad 4e b6 3c 01 31 13 bd 52 93 13 3c
       0.051094677 0.022254312 -0.035935406 0.009007292
0000d0 cb 22 f7 3b 98 52 01 bd df 8c 0f bd 45 82 4c bc
       0.0075419894 -0.03157291 -0.035046455 -0.012482231
0000e0 b3 4f fe 3d 5f 1c 56 bc b1 02 a4 3d 85 93 ea bc
       0.12417545 -0.013068288 0.08008326 -0.028634796
0000f0 9c 8e 4f bd 7f da 65 3d 1d 08 00 3e f0 db 70 bd
       -0.050673112 0.056116577 0.12503095 -0.0588035
000100 9a f1 ce 3d b3 ec de bc bc 52 08 3e b5 8c af 3d
       0.101046756 -0.027212476 0.1331281 0.085717596
000110 ef a8 82 3c fe 84 38 3a 49 cf 86 3d af fa 4a 3a
       0.015949694 0.00070388603 0.06582505 0.0007743043
000120 b8 13 99 3d e0 81 d4 bc 02 fa 07 3e e9 4e 70 3d
       0.07474464 -0.025940835 0.13278964 0.058669005
000130 d5 66 52 3b e0 3d e5 3d 15 8e 55 bc eb 99 18 bd
       0.003210475 0.11193442 -0.013034363 -0.037256163
000140 8e c7 4c bd 86 49 15 3e e2 6f 8a bd fc 39 96 bd
       -0.049994998 0.14578828 -0.06759621 -0.073352784
000150 ea 1b 11 3e 3b a5 0f 3c b9 6c 9e 3b f0 18 d7 3c
       0.14170805 0.008767421 0.004834738 0.026257008
000160 1e 81 a3 3d 00 ba 26 3d 5f 39 65 bd 76 31 ff bc
       0.079836115 0.040704727 -0.055962916 -0.031151515
000170 a2 2c 0b bc 71 0c fc bc b0 ed b9 bc b7 3d 3e bd
       -0.008494528 -0.030767651 -0.022696346 -0.046445575
000180 bd cf da 3d 8f a5 0a 3e 76 c5 f1 3d 0c 74 14 3e
       0.10684154 0.13539718 0.11805241 0.14497393
000190 2f cf 2a 3c d4 df 25 3d 15 79 dd 3d ef 14 5e 3d
       0.010425373 0.040496662 0.1081411 0.054219183
0001a0 d4 a6 dd 3d 16 96 20 bd 56 ac 43 3d 12 d7 12 3e
       0.108228356 -0.039205633 0.047771774 0.14339855
0001b0 17 a4 23 3d 6d 41 65 bc 83 8f 6a 3c f6 5e b6 bd
       0.03995141 -0.0139926495 0.014316442 -0.08904831
0001c0 f7 ef 33 bd 22 69 e5 3d e3 a1 8a bc b2 55 82 bc
       -0.04393002 0.11201693 -0.016922897 -0.015910003
0001d0 af d2 bd bc f0 91 82 3c 4d 35 89 bd 2a 9b 57 bd
       -0.02317175 0.015938729 -0.066996194 -0.05263821
0001e0 2d 04 9b bd 67 1c 3a 3d 38 a6 44 3c 88 77 aa 3d
       -0.07569156 0.045437243 0.01200252 0.0832358
0001f0 a1 c5 d5 3d 8e 27 41 bd 0b 77 86 bc 3e 99 5c 3d
       0.10438085 -0.047156863 -0.016414186 0.05385708

layer2.weight f4 [128, 128]
000000 e3 b2 56 3d 82 66 b1 3d 45 5c 7a bd 1e bf 93 3d
       0.052416693 0.0866213 -0.06112315 0.07214187
000010 7a 1d 22 3d 68 77 e9 3d 52 68 75 bd cf 4b b9 3d
       0.039578892 0.11399728 -0.05991394 0.090476625
000020 41 78 99 3d 1f 0d ce 3d 4d b1 80 3d b2 d9 c8 3c
       0.0749364 0.100610964 0.062838174 0.024517868
000030 55 a7 a5 bd 29 aa c0 3d 0e 24 9f 3d 08 df 88 bc
       -0.08088557 0.094074555 0.07770549 -0.016707912
000040 3e e7 dc 3d 43 48 00 3d f7 82 9f 3d 0c 8c fc 3c
       0.107862934 0.031318914 0.077886514 0.030828498
000050 3c 42 d5 3d 62 47 73 3d 41 1d c4 3d b3 fc 28 bd
       0.10413024 0.059394248 0.09575892 -0.041256618
000060 98 5e 88 3c 4c 9a 9b bc 5c a2 49 bc 40 cc be 3d
       0.016646668 -0.018994473 -0.012306776 0.09316301
000070 b9 60 37 3d 50 d7 aa 3d 0d 1e cd 3d 9f 71 9e bd
       0.044769976 0.08341849 0.10015497 -0.07736515
000080 a0 04 94 3c 6f e7 d7 bc 63 c6 b8 3c cb 32 d6 3c
       0.018068612 -0.026355473 0.022555536 0.026147267
000090 97 55 34 3c 2a be 49 3d fa 21 94 3d a1 0c bf 3c
       0.011006734 0.04925362 0.07233043 0.023321452
0000a0 40 f1 83 bd 26 e3 07 bd ab 7e 42 3d 10 e9 ae 3d
       -0.06442499 -0.03317561 0.04748408 0.08540547
0000b0 61 1e 9b 3d 97 1e c2 3d b8 76 0c 3b 85 4c 88 bd
       0.07574154 0.09478491 0.0021433067 -0.0665522
0000c0 10 94 27 bd 5a b1 7b 3d 56 11 0a bd d0 21 22 3d
       -0.040912688 0.061448433 -0.03370794 0.039583027
0000d0 99 cd 28 39 84 4d 12 3d c8 23 2d bd 78 6d 3c bd
       0.0001609832 0.035718456 -0.04227045 -0.046002835
0000e0 6a 7b 33 bd 03 e0 38 3d 42 81 0c 3d 54 e7 d1 3d
       -0.04381887 0.04513551 0.034302957 0.102492005
0000f0 42 76 da bc 70 33 32 bd 49 1d ea bc 2b aa 85 bd
       -0.026667718 -0.043506086 -0.028578417 -0.065265976
000100 7b 87 7d 3d d8 e7 91 bd 63 8b ab 3d cb 88 3d 3c
       0.061896782 -0.07124299 0.08376195 0.0115682585
000110 70 f0 4c 3c 85 73 32 bd 05 1f f4 3d 56 5c 7b 3d
       0.012508497 -0.0435672 0.11919979 0.061367355
000120 a0 51 1a 3d 0a 8c 84 bc a5 61 c1 3d f4 57 9b 3d
       0.0376755 -0.016180057 0.09442452 0.07585135
000130 90 46 82 bd a1 bc 77 3d 95 89 77 3d 9a c5 8c 39
       -0.06361115 0.060482625 0.060433943 0.00026850105
000140 d9 84 e1 bc 22 cd a6 3d 94 af 4d ba a2 86 51 bd
       -0.027529167 0.08144595 -0.00078462926 -0.051153786
000150 09 29 f5 bc 82 37 b5 3d 10 31 b5 3d d8 21 3d 3d
       -0.029926794 0.08848478 0.088472486 0.046174854
000160 a6 27 a4 3d 65 f3 ff bc e4 1b 54 3c e4 12 65 bc
       0.08015375 -0.03124399 0.012946103 -0.013981555
000170 60 44 f0 3c 71 ca 06 bd aa 29 b2 3d ee 16 8b bd
       0.029329479 -0.032907907 0.08699353 -0.06791483
000180 02 78 8d 3d 92 ff 89 3d 70 48 a2 3d ff 6b e9 3c
       0.06907655 0.06738199 0.079239726 0.02849388
000190 ce c1 6c bc 81 49 b6 bc 79 60 b4 3d f0 dd 6f 3c
       -0.0144505035 -0.022251846 0.08807463 0.014640316
0001a0 b3 48 a5 3d f0 e9 c3 bb 2f bc cd 3d c2 36 02 bd
       0.08070507 -0.0059788153 0.10045659 -0.031790502
0001b0 e3 5d 8f 3d 58 97 82 3d 10 94 ee 3c 95 6e 2d 3d
       0.07000329 0.06376523 0.029123336 0.042341787
0001c0 a1 3c 8f 3d 12 bc 49 bd d3 95 b9 bb 9b 0f c0 3d
       0.06993986 -0.049251623 -0.0056636124 0.093779765
0001d0 50 19 6e 3d a8 f9 50 3d 8e 2b 28 3c 62 84 95 bc
       0.05812961 0.05101934 0.0102642905 -0.018251602
0001e0 b2 2a 11 3c 56 68 1c 3d d9 38 d1 3c e8 df 7b 3d
       0.008860277 0.03818544 0.025539802 0.06149283
0001f0 31 09 50 bd be f1 35 bd 5f d1 ee 3d 7b 9c 9d 3d
       -0.050790016 -0.044419996 0.11661028 0.07695862
000200 4c bd fc bc 80 d2 9f 3d cc 31 4e bd 9a 27 34 3d
       -0.030851983 0.078038216 -0.05034046 0.04398308
000210 15 ef c7 bc 1e d2 2b bd c8 92 c4 3b 7b 12 7b 3d
       -0.024405995 -0.04194843 0.005998943 0.06129692
000220 e7 be 52 bd 40 8a 83 3d 20 e5 ed 3a df ed 90 3d
       -0.05145159 0.064228535 0.001814995 0.0707662
000230 4f 34 91 3c e2 fd ab bd 19 49 88 bd 5d 43 11 bc
       0.017725138 -0.08398034 -0.06654567 -0.008866158
000240 f0 e5 b1 bd 9f bf 8c 39 f4 94 46 3d e2 77 77 bd
       -0.08686435 0.0002684565 0.048481897 -0.060417064
000250 16 ea 24 bc 44 35 92 bc 97 c6 39 3d 1d 40 56 bd
       -0.010065576 -0.017847665 0.045355406 -0.052307237
000260 24 b0 05 3b b9 54 9b 3d 3c a3 9a bb 52 4b 3e bd
       0.0020399177 0.07584519 -0.004719166 -0.04645855
000270 89 c9 b5 bc 80 cd 70 3d 6e c5 98 3d 61 08 02 3c
       -0.022190826 0.05878973 0.07459532 0.007936568
000280 ee e1 84 bd 25 6b 80 bd e7 b0 2b bd 59 90 24 3d
       -0.06488405 -0.06270436 -0.041916754 0.040176723
000290 ea 4e 46 bc e6 f8 87 bd 9f 78 25 bd 22 f2 a6 bd
       -0.0121037755 -0.066392705 -0.040398236 -0.08151652
0002a0 92 fd 0e 3b dc 9e bb 3c e6 b9 01 bd 5d 4c ad bd
       0.002181862 0.022902898 -0.031671427 -0.08461831
0002b0 23 c0 3d 3d c1 ad fe bc a3 a6 1b bd 07 4e 03 bd
       0.046325814 -0.031088712 -0.038000714 -0.032056835
0002c0 dd cc 9b 3d 3b b4 81 3d 3c 15 77 3d 28 27 2b bd
       0.07607434 0.06333204 0.060322985 -0.04178539
0002d0 4d a3 51 bd b4 24 ec 3c dd ef 6a bd 41 17 b3 bc
       -0.051181126 0.028826095 -0.057357658 -0.021861674
0002e0 98 f3 8c bd 11 57 07 bc e4 62 1c 3d ef bf 33 bd
       -0.06882399 -0.008260504 0.038180247 -0.043884214
0002f0 5d a6 b8 3c d3 c5 98 bd 92 52 99 bd 8c 4c 68 bd
       0.022540266 -0.07459607 -0.07486452 -0.056713626
000300 4a eb 2a bd 9f b7 36 bd 1a 30 9e bc c1 bf 5d bd
       -0.041728295 -0.04460871 -0.019310046 -0.05413795
000310 96 92 9d bd d6 0f 3e bd 87 d3 a1 3d 99 91 85 3d
       -0.07693975 -0.04640182 0.07901674 0.06521911
000320 60 c7 a4 bd 7b bb 29 3d e2 0f 76 bd ff 32 8f 3d
       -0.0804584 0.04143856 -0.06007374 0.069921486
000330 e1 ed dc 3c 6f 57 8b 3d 37 36 65 bd ae 54 9b 3d
       0.026968898 0.06803786 -0.055959906 0.07584511
000340 83 90 06 3b 05 91 bc bc 21 0d a2 bd ba 3c d7 3c
       0.0020532913 -0.02301837 -0.079126604 0.026274074
000350 fa 8f a8 3c bd 37 64 bd a8 aa 82 3d 5b 01 2b bd
       0.020576466 -0.05571722 0.06380206 -0.04174934
000360 86 f7 e0 bc 81 e9 de 3c 92 58 30 3d 88 60 a0 bd
       -0.027461778 0.027210953 0.043053217 -0.07830912
000370 9e a7 0f 3d 36 a9 43 3d 97 5f 68 bd 17 23 39 3d
       0.03507196 0.047768794 -0.056731787 0.04519948
000380 0c 40 df 3c fa 2e a9 bd 8c e6 40 bd 84 40 e9 bc
       0.02725222 -0.08260913 -0.047094867 -0.028473146
000390 f7 18 0b bd e5 a5 2c bd e2 39 0b 3c c6 4e 52 bd
       -0.033959355 -0.042150397 0.008497687 -0.051344655
0003a0 32 6f 89 bc ba 9d 2f bc cb b0 8a bd 26 01 2b 3c
       -0.016776655 -0.010718757 -0.06772002 0.0104372855
0003b0 7a 7a 44 3d f1 1f 8c 3d 1f 39 87 3d 95 a6 f8 bc
       0.047968365 0.0684203 0.06602692 -0.03035287
0003c0 34 68 eb 3c 84 f6 4d bb f1 33 59 3b e6 49 2c bb
       0.028736211 -0.0031427452 0.0033142532 -0.0026289164
0003d0 45 4a 93 3d 60 4b a0 3c 8b f2 3c bd 88 db f7 bc
       0.071919 0.019567192 -0.046129744 -0.030256048
0003e0 09 53 57 3d 84 14 84 3d ce ae 4b bd 4b 11 90 bd
       0.052569423 0.064492255 -0.049727254 -0.07034548
0003f0 b3 3e 31 bd 4b c7 4f bd 85 80 83 3d 4c 4b 11 3d
       -0.043272685 -0.05072717 0.064209975 0.0354722

layer2.bias f4 [128]
000000 f4 a9 3f bd ac 45 c8 bc 51 42 e8 3d 74 22 5d bd
       -0.04679294 -0.024447285 0.11340774 -0.053987935
000010 6d aa ba 39 6d 9a 8f 3c 63 c0 8d 3d 73 b8 89 bd
       0.00035603662 0.01752969 0.069214605 -0.06724634
000020 be b8 21 bc 10 0d 46 bd 18 bd 68 bd 08 c7 88 bd
       -0.009870706 -0.0483523 -0.05682096 -0.06678587
000030 62 55 9d 3d 56 ac 8a 3d ca d0 9e 3d b3 d5 31 3d
       0.07682301 0.06771152 0.07754667 0.04341669
000040 e9 c3 91 3d 6a c3 a0 3d 2f 6c 91 3d 1c 77 ea bc
       0.07117445 0.07849772 0.071007125 -0.028621249
000050 c9 39 90 3d c8 e0 77 bd f0 45 9e 3d db ad 75 3d
       0.07042272 -0.060517102 0.07728183 0.059980255
000060 12 e6 34 bc d0 e8 a0 3d 3e 06 95 3c 18 65 cd 3d
       -0.011041181 0.078569055 0.018191453 0.10029048
000070 93 6a 54 bd 5d 73 7f bc dc 42 88 3d e6 ed 37 bd
       -0.05185945 -0.01559147 0.066533774 -0.044904612
000080 cd da b7 3d 70 a7 99 3b f1 67 0d bd 1c e9 b6 3d
       0.0897728 0.0046891496 -0.034522954 0.08931181
000090 3e 16 40 3d ef a0 01 bb d8 f4 da 3d 14 5d 6d bd
       0.04689621 -0.0019779762 0.106912315 -0.057950094
0000a0 bf 22 9e 3d 41 91 3f 3d a3 6a 3f 3d 0d 50 21 bd
       0.07721471 0.046769384 0.046732556 -0.039382983
0000b0 a1 95 42 3d ac e4 5f 3d 04 6c 91 3d e4 46 2c bc
       0.04750598 0.054661438 0.071006805 -0.0105149485
0000c0 13 f5 7a bd a1 f7 a9 3c a8 cc 9d bd 8d b5 70 3d
       -0.061268877 0.020747961 -0.07705051 0.05876689
0000d0 fb f2 a5 bd ca ba df bc 23 bb 9e 3d cb 23 70 bd
       -0.081029855 -0.027310748 0.07750537 -0.058627885
0000e0 e3 63 70 3d b5 a8 d7 3c 5f 4a 19 bd 97 8c 85 3d
       0.05868901 0.026325563 -0.03742444 0.06520956
0000f0 bb 24 bd 3d 02 5a 8a 3d 3d 7a 2e 3d 9f eb fc 3c
       0.092355214 0.06755449 0.042597044 0.030874072
000100 e4 6f 8d 3d 57 56 6c 3d 8a 6b 9b 3b a3 27 52 bb
       0.06906107 0.057699528 0.0047430443 -0.0032067082
000110 a5 fc 31 39 42 d3 82 bd f8 a6 ad bd b4 99 bd 3d
       0.00016974153 -0.063879505 -0.084791124 0.09257832
000120 3c 3f a9 3c 58 fd e4 3c d5 fb cf bb 99 f5 d8 bb
       0.020660035 0.027952835 -0.0063471594 -0.0066210744
000130 f8 6c ae bc 49 2e 0f 3d 16 f9 d7 3b bb 15 ca 3c
       -0.021292195 0.03495625 0.0065909727 0.024668565
000140 ab 34 90 3c 1f 6e c3 3b ed f1 b3 3d 6c bf e7 3b
       0.017603239 0.005964055 0.08786378 0.00707238
000150 58 2d 36 bd 2b 93 9a 3c 76 ca a7 bc 85 3c 21 bd
       -0.044476837 0.018869003 -0.020482283 -0.039364357
000160 9e ab 8e 3d 81 14 82 3c a6 44 90 bd aa 0f 10 3b
       0.06966327 0.015878918 -0.07044344 0.0021981993
000170 c3 f7 aa 3d ab 7f dd 3d ef ee 54 bc 35 87 c0 3d
       0.08348038 0.10815366 -0.012996419 0.09400789
000180 75 f7 2b 3b c7 89 25 3d d6 1f 3f bd 0c a9 48 3d
       0.0026240025 0.040414598 -0.04666122 0.04898934
000190 7f d1 25 bd 50 21 95 ba 8d 90 1b 3d ea ae 2f bd
       -0.040482994 -0.0011377726 0.03797965 -0.04289142
0001a0 3e 9a ad 3d 8e e9 19 3c c3 95 39 bd 38 74 55 3c
       0.08476685 0.009394063 -0.04530884 0.013028197
0001b0 d5 2c 9a 3d c1 5f c7 bc f2 d6 0a 3d b2 03 6a 3c
       0.07528082 -0.024337651 0.033896394 0.014283108
0001c0 de f3 be bd 4d e0 ad 3b 24 7e a1 bd 1c 1c 98 3d
       -0.09323858 0.0053062798 -0.078853875 0.074272364
0001d0 48 51 b6 3c a4 55 da 3d cd ad 3e bc ed eb 46 3d
       0.022255555 0.10660866 -0.011638117 0.04856484
0001e0 bb 00 ac 3d 93 ac f6 bc 2e 68 a5 3d 80 93 b0 3d
       0.08398577 -0.030111587 0.08076511 0.086218834
0001f0 20 c4 f6 bc 4c f8 15 bd f4 6d dc bc e0 18 f7 bc
       -0.030122817 -0.036613747 -0.026907898 -0.030163229

layer3.weight f4 [168, 128]
000000 05 2f b7 bc dc 42 2f 3d 7e 44 6b bd 9c 58 8d bd
       -0.022361288 0.04278837 -0.057438366 -0.069016665
000010 59 86 a5 bb 8f cf b0 bd 0e e3 3e 3d 97 db 87 bd
       -0.005051416 -0.08633339 0.046603255 -0.0663368
000020 6f 36 4b bd 20 03 8c 3d 3f 5e d1 bd b6 3a 11 3d
       -0.04961246 0.068365335 -0.10223054 0.03545638
000030 fd 96 e1 bc 79 5e de bc 93 6e 8d 3a 7d 6b ad 3c
       -0.027537817 -0.027144657 0.00107904 0.021169418
000040 17 85 bb bd bd 17 7a bd 26 4f 3b bd ca d8 ad bc
       -0.09156244 -0.061057795 -0.04572978 -0.021221537
000050 b4 41 a3 3b 44 92 7f 3c b6 3b 25 bd 09 c7 4e bd
       0.0049821977 0.015598837 -0.040340148 -0.050482783
000060 7d 0c be ba 31 95 c5 3c 31 c9 64 3d c0 76 21 bd
       -0.0014499571 0.024118992 0.055855934 -0.03941989
000070 fd 85 7f 3d fe 9d 81 3d bf b8 d6 bc 23 46 b2 bd
       0.06238364 0.06328963 -0.02621114 -0.08704784
000080 f7 5c 7b bd c4 dd 3f bd ab d3 bd bd 73 4f 86 bd
       -0.061367955 -0.04684235 -0.09268888 -0.065581225
000090 b6 e8 99 3c 03 3a 03 bd bd e7 38 bd c0 d0 04 bd
       0.018787723 -0.032037746 -0.045142878 -0.032425642
0000a0 49 63 03 3d 21 d3 7d 3d 2c 0d 8a 3d 44 13 84 3c
       0.032077108 0.061968926 0.067407936 0.016122468
0000b0 40 17 61 bd be 63 70 bd 6a e4 f6 3c 37 ad 4e 3d
       -0.054953814 -0.05868887 0.030138213 0.05045816
0000c0 e3 8e 3e bc e5 63 a4 bd 8c f4 a5 bd 17 19 74 bc
       -0.011630747 -0.08026866 -0.08103284 -0.01489856
0000d0 71 91 86 3d bf 0e a7 bd 0f 4a 86 3d 03 60 75 bd
       0.065707095 -0.081571095 0.06557094 -0.059906017
0000e0 f5 34 5d bc 6f 1c 3a bd 08 ff 84 bc fa 04 78 bc
       -0.0135013955 -0.045437273 -0.01623489 -0.015137905
0000f0 3c f2 a3 bd ad 92 71 3d 99 fa 37 bd 59 a2 b2 3b
       -0.08005187 0.05897777 -0.044916723 0.0054514823
000100 3f 29 14 3b fa 1e cf 3b d3 40 6c 3c 94 1e a0 bc
       0.0022607592 0.0063208314 0.014419752 -0.01954583
000110 51 5c 4a 3d a3 94 34 bd da d2 9c bd 03 76 5e bd
       0.049404446 -0.044087064 -0.07657404 -0.054311763
000120 fa 42 48 bc 04 f6 84 bc 5d 0c f0 3c ea f7 87 3b
       -0.012223 -0.01623059 0.02930277 0.0041494267
000130 b1 0f 71 bd 35 54 d0 bd a4 bf 52 3d ec b8 ba bd
       -0.058852855 -0.10172311 0.051452294 -0.09117302
000140 29 ef a9 bc 09 50 84 3d 6f 2f 0b 3b 9a 44 b8 bd
       -0.020743923 0.06460578 0.002123799 -0.0899746
000150 56 7f 55 bd 08 d3 2d 3d 14 c0 8a 3d 4e fc c1 3b
       -0.05212339 0.042437583 0.06774917 0.0059199696
000160 3a 17 64 bd 76 11 86 bb 6b 6d aa 3d 45 06 4f 3c
       -0.055686213 -0.004091437 0.08321651 0.012635772
000170 c0 07 df bc 0f 00 61 bd cc c3 01 3d fd 94 55 bb
       -0.027225375 -0.054931697 0.031680867 -0.0032590025
000180 50 e1 af bc 29 48 45 3d 65 1f 98 bc 8b 80 19 bd
       -0.021469742 0.04816452 -0.018569658 -0.037476104
000190 f1 84 e4 bc 68 d5 3d 3b d1 b4 cc bd 28 6a 06 bd
       -0.027895423 0.0028966311 -0.099954255 -0.032816082
0001a0 c3 3a c6 bd f3 c2 f5 3b 62 5c 85 bd bb 6c f5 bd
       -0.09679177 0.0075000464 -0.06511761 -0.11983629
0001b0 8d a2 a4 3d 70 d2 13 bd 4b 6e aa bd d7 b2 8a bd
       0.080388166 -0.03608936 -0.08321818 -0.06772392
0001c0 f9 5c 4f bd 43 89 85 3d 8e d7 2d bd bd 50 85 3d
       -0.050625775 0.06520321 -0.042441897 0.0650954
0001d0 06 71 c7 bd fd 61 5e 3d b9 24 36 bd 85 f5 d6 bc
       -0.097383544 0.054292668 -0.044468615 -0.02624012
0001e0 76 e7 16 bc ee 2f b4 3c 26 bd dc 3c 87 12 30 3d
       -0.009210458 0.02199551 0.026945662 0.04298642
0001f0 65 da 33 bd 49 a1 e6 bc 9f 31 bd bd 78 0f c3 3b
       -0.04390945 -0.028153079 -0.0923798 0.0059527718
000200 f6 c0 a1 bd 47 32 0c 3d ac a3 fe bb c5 9a bd bc
       -0.078981325 0.034227636 -0.007770976 -0.023145089
000210 3f d3 14 3c 2d 19 81 3c 51 8a 83 bc e2 3b 53 bd
       0.009083568 0.015759075 -0.016057165 -0.05157078
000220 01 d2 84 3d e9 af 9b bd b4 6c 7c bd 38 b2 d8 3b
       0.064853676 -0.076019116 -0.061627105 0.006613042
000230 68 8a 3e bd 47 79 d7 3c 32 72 02 3c fe 2e 54 3d
       -0.046518713 0.026302947 0.007961797 0.051802628
000240 e6 9d fc 3b c9 fb 8e bc 74 52 bd bd f8 76 33 3d
       0.0077092526 -0.017454045 -0.09244242 0.04381463
000250 43 b0 37 bc 45 d1 3b 3c ad 69 1b 3b 71 21 ca bd
       -0.011211458 0.011463468 0.002371411 -0.0986966
000260 f5 62 27 bd 8a be e6 3c 99 7c ad bd e1 cb c6 bd
       -0.040865857 0.028167028 -0.08471031 -0.097068556
000270 bd 8d 3b 3d 49 cd 51 bd be f0 71 bd 53 6e 50 bd
       0.04578947 -0.051221166 -0.05906748 -0.050886463
000280 7d 98 84 bd 41 44 48 bd 4d 79 74 3d e1 e2 e7 bc
       -0.06474397 -0.048893217 0.059685994 -0.028306426
000290 9d cd 88 3d 69 02 a5 bd 65 2d 99 3d c2 04 05 3c
       0.066798426 -0.080571 0.074793614 0.00811881
0002a0 80 e9 5e 3d ea 5a b4 bc 36 85 74 bd a1 18 9d bd
       0.0544219 -0.022016007 -0.059697352 -0.07670713
0002b0 6b ee 22 bd 3a 6f 15 bd 4f 48 48 bd 13 cc 5e bd
       -0.039778154 -0.036483027 -0.048897084 -0.05439384
0002c0 a9 fa 99 bd c3 99 ce bd f0 dd 9f bd f0 b9 3a 3d
       -0.07518513 -0.100879215 -0.07806003 0.04558748
0002d0 37 04 75 3d 35 10 7e bd eb f9 7b 3c ef d1 7d 3d
       0.059818473 -0.062027175 0.015379409 0.061967786
0002e0 d5 4a 64 3d aa 3f 5a 3d a9 53 8f bd 0d 39 37 bd
       0.055735428 0.05328337 -0.06998379 -0.044732142
0002f0 7a 23 95 3c 25 2e 96 3d 82 6c 9c 3d a9 73 aa bd
       0.018205393 0.0733302 0.07637884 -0.08322842
000300 ac 87 99 3d 7a 89 e6 3c 21 4e 0e 3b 6d a1 89 3d
       0.074965805 0.028141726 0.002171405 0.06720243
000310 47 bb f0 bb 10 de 47 bd d9 04 81 3d a8 47 05 bd
       -0.007346544 -0.04879576 0.06299753 -0.03253904
000320 0d 07 b5 bd 56 be 25 3d ae 9f ee bc dc 40 ae bd
       -0.088392355 0.04046472 -0.029128876 -0.08508465
000330 d2 9f 18 3d 0a 7c 6a bc 3b a3 a8 bd 41 d8 7e bb
       0.03726179 -0.0143118 -0.08234259 -0.0038886222
000340 d1 89 5e bd e8 b8 2f bb b6 b5 02 3c 5b 53 aa 3c
       -0.05433065 -0.0026813094 0.007977894 0.0207917
000350 ab b4 9c 3d e6 54 a2 3c 89 f6 54 bd f5 5d b1 bd
       0.07651647 0.019815873 -0.051992927 -0.08660499
000360 63 1e 3b 3d ba 69 07 3d 49 80 45 bd da 87 10 3b
       0.045683276 0.033059813 -0.048218045 0.002205363
000370 72 7f bd bd 3d 42 87 bd 5c 22 96 bb 37 e8 bb bd
       -0.09252824 -0.06604431 -0.0045817327 -0.09175151
000380 a6 78 91 bd bd 30 31 bd 47 82 3f 3a d8 d0 1a 3d
       -0.0710309 -0.04325937 0.00073054846 0.037796825
000390 ca 8f 5d bd f6 af 25 bd 28 73 d0 bc 99 a8 24 bd
       -0.054092206 -0.040451013 -0.025445536 -0.04019985
0003a0 bc ae 16 3d f5 f7 52 3d 12 7c 2e bc 6c 28 4d 3d
       0.036787733 0.051506 -0.010649698 0.050087377
0003b0 28 b4 ca 3c 1a 0a 04 bd 44 39 03 bd 80 12 b4 3d
       0.024744108 -0.032236196 -0.032037035 0.08792591
0003c0 a5 e4 a7 bd fe d6 c1 bd fb 19 6d 3d 64 2f 7e 3d
       -0.08197907 -0.09464835 0.057886105 0.062056914
0003d0 6b e2 86 bd b0 4a 8d bd f7 32 a8 bd 53 65 fa bb
       -0.065861546 -0.06899011 -0.08212846 -0.0076414733
0003e0 3e 6c cc bd 9c 03 ac bd 48 e1 03 3d 9e c0 86 bc
       -0.09981583 -0.08399126 0.032197267 -0.016449269
0003f0 0e b0 89 3d f1 4b 0e 3d 68 37 72 3d 82 f5 de bb
       0.06723033 0.034740392 0.05913487 -0.006804169

layer3.bias f4 [168]
000000 98 ae 69 bc fe 3e f3 3b 03 50 ba bd ee 5d 7a bd
       -0.014262818 0.0074232807 -0.09097292 -0.061124735
000010 0f 89 a6 bd dc 13 2d bd af 51 16 bc af 9f c1 bc
       -0.081316106 -0.042255268 -0.009174748 -0.023635713
000020 a4 ef 52 3d 6f c0 a9 bd 9b 31 46 bc f5 8d a4 bd
       0.05149807 -0.08288657 -0.012096788 -0.08034889
000030 d7 36 91 ba a5 ee 04 3d 2f 93 6d ba a4 a3 f0 3b
       -0.0011078966 0.03245415 -0.00090627646 0.007343726
000040 f2 14 a1 bc c9 7c 99 3d 87 a3 43 bd f7 d2 05 3d
       -0.019663308 0.07494504 -0.047763374 0.032671895
000050 2b 60 a8 bd de e6 10 3b 65 0e a7 bd b8 3f 70 bd
       -0.082214676 0.0022110264 -0.081570424 -0.058654517
000060 95 da 75 3d 0c 1b bb bb 70 cc f7 bc ac d8 b1 bd
       0.06002291 -0.0057100113 -0.03024885 -0.08683905
000070 5b fc 83 bd cc 29 64 3d 4d 3c 85 3d 00 7b 7d bd
       -0.06444617 0.055703923 0.06505642 -0.06188488
000080 d4 e3 73 3b de 92 c2 bd c3 fe 83 3d 84 27 83 3d
       0.0037214654 -0.09500669 0.06445076 0.064040214
000090 84 13 0b 3d a8 e7 82 bc e6 97 ab bd a6 82 96 bd
       0.03395416 -0.015979603 -0.08378582 -0.07349138
0000a0 13 1b ab bb d5 fb c3 3c c6 d5 57 3d 53 7e 58 3d
       -0.0052217334 0.023923794 0.052694105 0.052854847
0000b0 4d 2e 80 3d f3 49 b0 bd ed fe bb bc 9c 75 9e bd
       0.06258831 -0.08607855 -0.022948707 -0.07737276
0000c0 dd 05 0e 3d 93 89 0b 3d 43 35 80 3d 1d 11 e8 bc
       0.03467356 0.034066748 0.06260159 -0.028328473
0000d0 54 83 95 bd 3d 34 48 3d da 25 0f bd d3 46 db bc
       -0.073004395 0.048877943 -0.034948207 -0.02676717
0000e0 da c9 d1 bc 33 27 17 3d 2e 02 cc 3c 9a 42 4d bc
       -0.025608946 0.036902618 0.024903383 -0.012528086
0000f0 b8 6b a0 3c 87 ff 54 bc 9e 92 a0 bd 12 14 8d 3d
       0.019582614 -0.013000376 -0.07840465 0.06888594
000100 95 94 a7 3c cc b7 bb 3c f8 b2 ba bb 2e 2d ad bd
       0.020456592 0.02291479 -0.0056976043 -0.08455883
000110 5b dd 82 3d 92 14 28 bc 7f df 68 bd 73 2f 9a 3d
       0.063898765 -0.010258811 -0.056853767 0.075285815
000120 3c 49 07 bd ec 8a 0b 3c 12 88 c0 bc da 81 30 bd
       -0.033028826 0.008517008 -0.023502383 -0.043092586
000130 4e 73 84 bd c4 fc 07 3c 98 a8 8f bd f4 b7 b2 bd
       -0.06467305 0.00830001 -0.070145786 -0.087264925
000140 72 f8 0a bc fc 43 0e bd 16 bf a6 bc 0b bd 18 bc
       -0.008482086 -0.034732804 -0.020354789 -0.009322415
000150 06 88 2c 3d 53 92 c8 bd 12 8c c1 bd cd 82 c9 bb
       0.04212191 -0.09793534 -0.094505444 -0.006149626
000160 9f fc 84 3d 4a 13 29 bd 72 ca 9f bd f0 cf 8b 3d
       0.06493496 -0.04127816 -0.07802285 0.0682677
000170 fc 50 48 bd 00 79 ed 3b 3e 4e a2 bd 46 15 8b bd
       -0.048905358 0.0072470903 -0.0792508 -0.06791167
000180 cd 97 9c bd e3 d6 b8 3b d5 54 9a bd 99 3a 96 3c
       -0.07646141 0.005640851 -0.07535712 0.018338488
000190 45 e5 71 bd 1b 49 f6 bc 60 11 7e bd 5f c7 98 3d
       -0.05905654 -0.030064156 -0.06202829 0.07459902
0001a0 2f 1c 33 bd b6 29 e1 3c 1b 43 01 3d 24 1e b4 bd
       -0.04372805 0.02748571 0.031558137 -0.08794811
0001b0 29 ed 38 bc 29 5f ff 3c c0 0a 7e bc 82 0d 25 bd
       -0.011287012 0.031173306 -0.015505493 -0.040296085
0001c0 ce 29 4a bd b9 9a a9 bd 83 92 15 bd 32 71 c0 bd
       -0.049356274 -0.08281464 -0.036516678 -0.0939659
0001d0 c5 e0 87 bc 7e d9 7d bd 17 63 6b bd 3e 93 1b bc
       -0.01658667 -0.061974995 -0.057467546 -0.0094955545
0001e0 3c 11 47 bd 43 f5 8d 3d 4c 80 1c 3c 2a d9 08 3d
       -0.04860042 0.069315456 0.009552073 0.03341023
0001f0 6c 48 95 3b f6 1d 4f 3d e7 7e 48 bd fb e9 c1 bd
       0.0045557525 0.050565682 -0.04894915 -0.09468456
000200 96 ba 76 3c 32 f1 d2 bc 11 d1 89 bd e6 c4 f8 bc
       0.015059134 -0.025749777 -0.067293294 -0.030367326
000210 e3 1a b2 bc b5 53 6b bd 74 e3 65 3c cc c8 62 3d
       -0.021741336 -0.057452876 0.01403128 0.055367276
000220 e5 9c f9 3c aa 40 9c bd 65 ba 20 bd 35 66 10 bd
       0.030470321 -0.07629521 -0.03924026 -0.035253722
000230 a9 02 21 3d 17 7e 8b bd 04 f4 a3 bc e4 e8 08 bd
       0.039309178 -0.06811159 -0.020013817 -0.033425227
000240 f9 a2 3c bd 72 90 90 bd 72 42 9d bc 2b 32 3d 3d
       -0.04605386 -0.07058801 -0.019196723 0.046190422
000250 34 87 4a 3d 20 d5 30 bd f8 47 32 3c 06 20 97 3a
       0.049445346 -0.043172 0.0108814165 0.001152993
000260 fa bb 31 3d b4 2c 8e 3d d2 92 93 bd c4 ee 6b bd
       0.04339216 0.0694212 -0.07205738 -0.05760075
000270 bd 7e 6d bc 5d 1d d8 bc be 21 86 3c fc 73 4f 3d
       -0.014495549 -0.026381189 0.016373511 0.05064772
000280 4f fc 53 bd b5 41 f4 3c e4 77 3a bc 1e 61 89 bd
       -0.051754292 0.029816488 -0.011381123 -0.06707977
000290 d1 75 e0 3c 4c 2f 02 bd 30 fc 3a bc d5 27 4d 3d
       0.02739993 -0.031783387 -0.011412665 0.050086815
