models/22-23/guerrilla_model_weights.pth (torch, 198120 bytes, 6 tensors)

layer1.weight f4 [128, 82]
26.280863 9.434482 9.810732 22.102541 20.406317 19.964285 19.263634 19.997047
17.749277 22.102858 26.281021 25.564837 15.511246 22.19839 26.19608 26.144732
25.308975 24.796095 26.280815 26.288168 14.554749 21.325079 25.54761 26.26158
26.158058 26.105183 26.164751 25.95777 26.13069 17.569035 24.43648 23.389639
16.550972 26.091656 26.247252 26.230032 26.127586 26.085371 26.1375 26.205189
26.23039 26.155893 26.101055 26.169289 26.09245 26.124146 26.116226 26.138033
26.152843 26.212603 26.101032 26.126745 26.154308 26.223618 26.14197 26.18623
26.21822 26.23195 26.210623 26.163296 26.17505 26.220573 26.095558 26.259644
26.181084 26.163818 26.146502 26.178944 26.190813 26.232231 26.206703 26.14537
26.240164 26.179506 25.903936 26.255396 26.08636 26.201323 26.210148 26.178253
26.23468 25.903948 26.254383 9.543745 9.932233 21.979374 20.415995 19.894596
19.371437 19.966925 17.822683 22.198835 26.18242 25.470003 15.401842 22.205046
26.303501 26.286919 25.393051 24.858217 26.265253 26.222006 14.534472 21.335932
25.518852 26.29838 26.256233 26.147312 26.2789 25.932491 26.069916 17.687962
24.313923 23.236229 16.633938 26.223244 26.159096 26.241983 26.117844 26.211605
26.245422 26.128632 26.2127 26.23467 26.147293 26.11486 26.16892 26.241423
26.105215 26.136744 26.201986 26.146452 26.107935 26.146856 26.14024 26.124964
26.218311 26.169167 26.177313 26.193632 26.179605 26.264803 26.227509 26.16452
26.199894 26.237692 26.11285 26.16424 26.194296 26.099054 26.19122 26.134956
26.26076 26.120031 26.253233 26.158285 25.964626 26.18833 26.130287 26.182276
26.206097 26.179531 26.198332 25.942871 26.278858 9.428476 9.810646 22.069334
20.463959 19.877523 19.308777 19.902155 17.759626 22.098688 26.15468 25.555193
15.382246 22.343096 26.174862 26.183092 25.341068 24.851288 26.245565 26.247934
14.509791 21.471628 25.516203 26.26909 26.207855 26.146412 26.288582 26.032158
25.988955 17.522743 24.356112 23.247852 16.616014 26.17909 26.13405 26.226622
26.26078 26.114393 26.126194 26.089062 26.105524 26.208376 26.094368 26.120712
26.230356 26.121628 26.134857 26.20428 26.13997 26.220188 26.144018 26.10245
26.142784 26.162138 26.184605 26.111807 26.124178 26.12651 26.124619 26.20381
26.10697 26.172047 26.114033 26.128525 26.15706 26.179663 26.193563 26.123083
26.212938 26.180523 26.121378 26.125158 26.19233 26.158766 25.946823 26.134386
26.03685 26.125797 26.11114 26.16 26.112303 25.96962 26.29905 9.439408
9.819887 22.01097 20.441341 19.952353 19.300274 20.03455 17.770893 22.139086
00000000: 353f d241 a3f3 1641 c2f8 1c41 01d2 b041
00000010: 2340 a341 dbb6 9f41 ec1b 9a41 f4f9 9f41
00000020: 85fe 8d41 a7d2 b041 883f d241 c984 cc41
00000030: 102e 7841 4d96 b141 9291 d141 6928 d141
00000040: c878 ca41 675e c641 1c3f d241 2b4e d241
00000050: 40e0 6841 c399 aa41 8161 cc41 b717 d241
00000060: b443 d141 6ad7 d041 6951 d141 83a9 cf41
00000070: a70b d141 628d 8c41 e97d c341 fb1d bb41
00000080: 6468 8441 b6bb d041 5ffa d141 1bd7 d141
00000090: 4c05 d141 d7ae d041 9a19 d141 3aa4 d141
000000a0: d7d7 d141 453f d141 f6ce d041 b45a d141
000000b0: 56bd d041 40fe d041 08ee d041 b11a d141
000000c0: 0639 d141 69b3 d141 eace d041 9303 d141
000000d0: 063c d141 f8c9 d141 c122 d141 667d d141
000000e0: eabe d141 09db d141 5baf d141 6e4e d141
000000f0: 8166 d141 bcc3 d141 b4c3 d041 c013 d241
00000100: dc72 d141 804f d141 092c d141 7a6e d141
00000110: c986 d141 9cdb d141 54a7 d141 b829 d141
00000120: dbeb d141 a16f d141 433b cf41 0d0b d241
00000130: deb0 d041 4f9c d141 62ae d141 106d d141
00000140: a0e0 d141 493b cf41 fa08 d241 2eb3 1841
00000150: 6dea 1e41 c2d5 af41 f553 a341 2228 9f41
00000160: b4f8 9a41 43bc 9f41 db94 8e41 3797 b141
00000170: 9975 d141 91c2 cb41 f26d 7641 efa3 b141
00000180: 926d d241 9c4b d241 f824 cb41 a1dd c641
00000190: 3d1f d241 abc6 d141 338d 6841 fdaf aa41
000001a0: 9c26 cc41 1563 d241 c40c d241 b22d d141
000001b0: 303b d241 be75 cf41 308f d041 f280 8d41
000001c0: ea82 c241 cce3 b941 4e12 8541 34c9 d141
000001d0: d445 d141 95ef d141 58f1 d041 5eb1 d141
000001e0: a0f6 d141 7007 d141 9cb3 d141 9be0 d141
000001f0: a82d d141 3ceb d041 f359 d141 6fee d141
00000200: 7bd7 d041 0d18 d141 ab9d d141 ef2b d141
00000210: 0ddd d041 c32c d141 361f d141 edff d041
00000220: 1abf d141 745a d141 236b d141 8f8c d141
00000230: d56f d141 511e d241 f0d1 d141 f050 d141
00000240: 6299 d141 cbe6 d141 1ee7 d041 5d50 d141
00000250: eb8d d141 ddca d041 9e87 d141 6414 d141
00000260: 0916 d241 d3f5 d041 9f06 d241 2b44 d141
00000270: 8eb7 cf41 b381 d141 d40a d141 4d75 d141
00000280: 16a6 d141 ae6f d141 2f96 d141 008b cf41
00000290: 1a3b d241 0adb 1641 68f8 1c41 ff8d b041
000002a0: 30b6 a341 2b05 9f41 6078 9a41 9d37 9f41
000002b0: b713 8e41 1dca b041 c93c d141 0971 cc41
000002c0: ae1d 7641 a9be b241 1e66 d141 f976 d141
000002d0: 82ba ca41 70cf c641 ebf6 d141 c5fb d141
000002e0: 1b28 6841 e5c5 ab41 2f21 cc41 1927 d241
000002f0: b0a9 d141 da2b d141 044f d241 dc41 d041
00000300: 61e9 cf41 942e 8c41 51d9 c241 9afb b941
00000310: 99ed 8441 c76e d141 8912 d141 1fd0 d141
00000320: 1416 d241 47ea d041 7202 d141 66b6 d041
00000330: 1dd8 d041 c1aa d141 44c1 d041 38f7 d041
00000340: c5d7 d141 18f9 d041 3014 d141 5ea2 d141
00000350: a91e d141 f2c2 d141 f326 d141 d1d1 d041
00000360: 6c24 d141 0f4c d141 127a d141 fbe4 d041
00000370: 51fe d041 1803 d141 38ff d041 67a1 d141
00000380: 13db d041 5a60 d141 8ae9 d041 3807 d141
00000390: a941 d141 f36f d141 6b8c d141 13fc d041
000003a0: 19b4 d141 b671 d141 95f8 d041 5300 d141
000003b0: e489 d141 2745 d141 1893 cf41 3913 d141
000003c0: 784b d041 a201 d141 9de3 d041 ae47 d141
000003d0: ffe5 d041 c8c1 cf41 7464 d241 d107 1741
000003e0: 421e 1d41 7716 b041 de87 a341 6b9e 9f41
000003f0: f666 9a41 c246 a041 ca2a 8e41 d91c b141

layer1.bias f4 [128]
26.24773 26.264702 26.214655 26.224443 26.205175 26.240993 26.265768 26.230505
26.165398 26.213497 26.150932 26.180475 26.228094 26.195564 26.231146 26.174446
26.145538 26.246386 26.152143 26.233715 26.252468 26.187466 26.155252 26.267645
26.175097 26.227213 26.131384 26.193623 26.236467 26.205585 26.2124 26.168804
26.158699 26.244192 26.124271 26.138872 26.2234 26.115894 26.118793 26.166239
26.20757 26.170383 26.128906 26.20921 26.157555 26.149418 26.259468 26.177263
26.229261 26.135105 26.230127 26.202967 26.184477 26.177944 26.236141 26.188715
26.209879 26.1093 26.227701 26.128408 26.136372 26.135698 26.20257 26.21126
26.163527 26.119738 26.188725 26.24646 26.115974 26.156134 26.250324 26.113287
26.268467 26.199944 26.104664 26.197767 26.121817 26.24766 26.208984 26.132706
26.177202 26.244476 26.199995 26.139019 26.119701 26.242811 26.176462 26.175905
26.202806 26.23701 26.17332 26.22204 26.173018 26.186476 26.145979 26.256144
26.19468 26.261679 26.121517 26.2336 26.19053 26.252108 26.181324 26.163616
26.14617 26.248722 26.19592 26.26711 26.22561 26.228165 26.183228 26.169327
26.15491 26.118526 26.135033 26.104239 26.119287 26.25567 26.157232 26.20183
26.264097 26.182161 26.248468 26.258505 26.14542 26.24229 26.21135 26.108036
00000000: 5afb d141 1c1e d241 9db7 d141 a9cb d141
00000010: 33a4 d141 8eed d141 4b20 d241 13d8 d141
00000020: bc52 d141 3eb5 d141 1c35 d141 9d71 d141
00000030: 23d3 d141 8490 d141 63d9 d141 4465 d141
00000040: 102a d141 99f8 d141 9737 d141 a6de d141
00000050: 0e05 d241 ee7f d141 f53d d141 2324 d241
00000060: 9966 d141 55d1 d141 130d d141 8a8c d141
00000070: 49e4 d141 0aa5 d141 ffb2 d141 b659 d141
00000080: 0445 d141 1bf4 d141 82fe d041 691c d141
00000090: 86c9 d141 5aed d041 4af3 d041 7554 d141
000000a0: 1aa9 d141 f25c d141 0008 d141 76ac d141
000000b0: ac42 d141 0232 d141 6413 d241 096b d141
000000c0: 87d5 d141 b214 d141 4dd7 d141 ad9f d141
000000d0: cf79 d141 6e6c d141 9ee3 d141 7d82 d141
000000e0: d5ad d141 d9df d041 55d2 d141 fb06 d141
000000f0: 4a17 d141 e915 d141 dd9e d141 a9b0 d141
00000100: e74e d141 39f5 d041 8282 d141 c0f8 d141
00000110: 84ed d041 c33f d141 aa00 d241 03e8 d041
00000120: d225 d241 7c99 d141 5ad6 d041 0795 d141
00000130: 7bf9 d041 35fb d141 00ac d141 c80f d141
00000140: e96a d141 b0f4 d141 9799 d141 b61c d141
00000150: 26f5 d041 47f1 d141 6569 d141 4168 d141
00000160: 599f d141 65e5 d141 f662 d141 bdc6 d141
00000170: 5762 d141 e77d d141 f72a d141 950c d241
00000180: b48e d141 eb17 d241 def8 d041 6ade d141
00000190: 3586 d141 5104 d241 5a73 d141 164f d141
000001a0: 5b2b d141 62fd d141 3f91 d141 0b23 d241
000001b0: 0dce d141 48d3 d141 4077 d141 c85a d141
000001c0: 413d d141 bef2 d041 8c14 d141 7bd5 d041
000001d0: 4df4 d041 9d0b d241 0342 d141 599d d141
000001e0: df1c d241 1175 d141 ddfc d141 6b11 d241
000001f0: d229 d141 36f0 d141 d8b0 d141 42dd d041

layer2.weight f4 [128, 128]
26.31408 26.253544 26.24746 26.193956 26.221157 26.269592 26.295214 26.243385
26.30185 26.304203 26.219496 26.19154 26.216179 26.19787 26.179426 26.297531
26.252989 26.260792 26.273905 26.279543 26.241976 26.199331 26.246246 26.241898
26.212942 26.254393 26.185753 26.32705 26.283403 26.320435 26.23022 26.277153
26.211048 26.260553 26.213707 26.23852 26.313562 26.313402 26.198858 26.29446
26.211552 26.275316 26.272377 26.286583 26.278683 26.296133 26.29017 26.214
26.314829 26.255386 26.2201 26.228218 26.237196 26.28554 26.279083 26.289604
26.236044 26.237185 26.237734 26.266092 26.328259 26.183321 26.286814 26.256275
26.284056 26.314632 26.224127 26.278402 26.223295 26.274364 26.261288 26.25245
26.214125 26.267595 26.234316 26.297081 26.21959 26.301573 26.294756 26.260645
26.196077 26.24642 26.303741 26.318115 26.219204 26.305435 26.264677 26.3139
26.287079 26.284409 26.300257 26.297586 26.255417 26.301865 26.275963 26.240808
26.268133 26.255915 26.325539 26.294395 26.210762 26.241426 26.271769 26.229927
26.203379 26.30605 26.298603 26.302576 26.190603 26.191122 26.238447 26.24584
26.199036 26.226145 26.22715 26.245913 26.190733 26.210264 26.237587 26.247187
26.199009 26.330418 26.29367 26.256979 26.317032 26.282436 26.212992 26.167933
26.332743 26.239037 26.249569 26.288033 26.288443 26.26996 26.278936 26.26525
26.257893 26.240711 26.216606 26.316536 26.228058 26.271868 26.179794 26.30704
26.288609 26.25525 26.312635 26.271772 26.312778 26.27283 26.253048 26.259611
26.305738 26.279247 26.310677 26.276789 26.263737 26.270325 26.31885 26.299875
26.204563 26.256985 26.269424 26.282444 26.26166 26.304031 26.21807 26.25509
26.261507 26.23634 26.262527 26.295816 26.323332 26.201233 26.284946 26.296137
26.315569 26.263386 26.193178 26.207657 26.263186 26.223118 26.299374 26.275972
26.297054 26.274633 26.216856 26.194954 26.25535 26.220057 26.29318 26.209332
26.31614 26.290426 26.260782 26.203608 26.207167 26.220407 26.290184 26.290493
26.286758 26.217365 26.198711 26.288074 26.295042 26.300531 26.279009 26.263096
26.232996 26.279062 26.31273 26.29349 26.261698 26.27931 26.296892 26.319527
26.201973 26.256182 26.24368 26.30371 26.220688 26.256403 26.321392 26.223156
26.315737 26.311064 26.261345 26.322025 26.184484 26.322931 26.200094 26.206425
26.302507 26.310331 26.338158 26.245409 26.22679 26.259954 26.250637 26.204132
26.294233 26.284552 26.269875 26.227875 26.228374 26.273085 26.184784 26.329027
26.250555 26.245459 26.242443 26.22211 26.31296 26.294046 26.306355 26.213818
00000000: 3c83 d241 4207 d241 ccfa d141 398d d141
00000010: eec4 d141 2028 d241 995c d241 74f2 d141
00000020: 306a d241 026f d241 87c1 d141 4688 d141
00000030: bcba d141 3d95 d141 776f d141 5861 d241
00000040: 1f06 d241 1a16 d241 f530 d241 813c d241
00000050: 91ef d141 3b98 d141 50f8 d141 68ef d141
00000060: 1bb4 d141 ff08 d241 6c7c d141 cc9d d241
00000070: 6944 d241 4090 d241 7ed7 d141 9c37 d241
00000080: 3ab0 d141 9d15 d241 acb5 d141 7de8 d141
00000090: 2d82 d241 d981 d241 4397 d141 0e5b d241
000000a0: 42b1 d141 d933 d241 d42d d241 ec4a d241
000000b0: be3a d241 7b5e d241 4552 d241 46b6 d141
000000c0: c584 d241 080b d241 c4c2 d141 64d3 d141
000000d0: c7e5 d141 c948 d241 903b d241 1c51 d241
000000e0: 6be3 d141 c1e5 d141 e1e6 d141 f520 d241
000000f0: 46a0 d241 7177 d141 654b d241 da0c d241
00000100: bf45 d241 5e84 d241 03cb d141 2b3a d241
00000110: 4fc9 d141 e631 d241 1e17 d241 0505 d241
00000120: 87b6 d141 0924 d241 e1df d141 6c60 d241
00000130: b8c1 d141 9f69 d241 a95b d241 cd15 d241
00000140: 9191 d141 abf8 d141 106e d241 808b d241
00000150: eec0 d141 8871 d241 0f1e d241 de82 d241
00000160: f04b d241 7846 d241 ed66 d241 7561 d241
00000170: 180b d241 386a d241 2c35 d241 2ded d141
00000180: 2325 d241 1d0c d241 b49a d241 ec5a d241
00000190: a4af d141 71ee d141 952c d241 e4d6 d141
000001a0: 85a0 d141 ca72 d241 8a63 d241 ad6b d241
000001b0: 5b86 d141 6b87 d141 57e8 d141 7bf7 d141
000001c0: a097 d141 25cf d141 34d1 d141 a1f7 d141
000001d0: 9f86 d141 9fae d141 94e6 d141 3dfa d141
000001e0: 9297 d141 b2a4 d241 7059 d241 4b0e d241
000001f0: 4889 d241 6e42 d241 35b4 d141 ed57 d141
00000200: 75a9 d241 8ce9 d141 1eff d141 e44d d241
00000210: bb4e d241 e128 d241 433b d241 3b1f d241
00000220: 2a10 d241 faec d141 9cbb d141 4488 d241
00000230: 10d3 d141 c92c d241 3870 d141 d174 d241
00000240: 124f d241 c10a d241 4780 d241 972c d241
00000250: 9280 d241 c12e d241 3e06 d241 af13 d241
00000260: 2772 d241 e63b d241 447c d241 dd36 d241
00000270: 221c d241 a029 d241 018d d241 2566 d241
00000280: f2a2 d141 4e0e d241 c827 d241 7242 d241
00000290: e117 d241 a86e d241 9bbe d141 6d0a d241
000002a0: 9117 d241 06e4 d141 a819 d241 d55d d241
000002b0: 2f96 d241 209c d141 9247 d241 7d5e d241
000002c0: 4986 d241 6a1b d241 a18b d141 48a9 d141
000002d0: 011b d241 f2c8 d141 1e65 d241 3135 d241
000002e0: 5e60 d241 7332 d241 1fbc d141 448f d141
000002f0: f50a d241 adc2 d141 6f58 d241 b6ac d141
00000300: 7487 d241 cb52 d241 1516 d241 fda0 d141
00000310: 47a8 d141 65c3 d141 4c52 d241 ee52 d241
00000320: 484b d241 2abd d141 f696 d141 fa4d d241
00000330: 3f5c d241 7d67 d241 693b d241 d21a d241
00000340: 2ddd d141 853b d241 7980 d241 1159 d241
00000350: f517 d241 073c d241 0960 d241 648e d241
00000360: a49d d141 a90c d241 0ef3 d141 006e d241
00000370: f8c3 d141 1d0d d241 3692 d241 06c9 d141
00000380: a186 d241 0f7d d241 3c17 d241 8293 d241
00000390: d379 d141 5d95 d241 cb99 d141 c2a6 d141
000003a0: 896b d241 8f7b d241 8cb4 d241 99f6 d141
000003b0: 77d0 d141 6314 d241 4e01 d241 10a2 d141
000003c0: 975a d241 c346 d241 b428 d241 b0d2 d141
000003d0: b6d3 d141 472f d241 707a d141 d9a1 d241
000003e0: 2301 d241 b3f6 d141 86f0 d141 e2c6 d141
000003f0: f180 d241 355a d241 6a73 d241 e6b5 d141

layer2.bias f4 [128]
26.37091 26.438568 26.463995 26.467503 -0.00502941 26.405807 26.461891 26.35192
-0.027090192 26.46019 26.396214 26.399502 26.447151 26.361828 26.418995 26.472008
26.390036 26.384052 26.475836 26.430243 26.414911 26.398954 26.468853 26.435352
26.425304 -0.041214302 26.401657 26.358498 26.35984 -0.05589627 26.440853 26.481514
26.362988 26.358498 26.438011 26.37225 26.471403 26.428492 26.441698 26.448286
26.368292 26.455894 26.469196 26.378933 26.437841 26.41338 26.481346 26.46391
26.424952 26.365505 26.455051 26.3886 26.42987 26.382895 26.458357 26.419489
26.434116 26.367363 26.40236 26.424164 26.415333 26.416813 26.460907 26.378757
26.434494 26.476782 26.462894 26.382595 26.372448 26.419107 26.488182 26.42979
26.395113 26.448818 26.403616 26.438477 26.386003 26.417435 26.418955 26.3681
26.448769 26.373482 26.438292 26.370737 26.41697 26.38061 26.371954 26.36757
26.360594 26.374128 26.462158 26.451845 26.334145 26.401417 26.438759 26.422245
26.47777 26.429844 26.471657 26.435137 26.459732 26.452072 26.4061 26.363184
26.42241 26.38248 -0.049432587 26.4703 26.446035 26.461655 26.474033 26.472317
26.372025 26.411404 26.370428 26.42421 26.35677 26.482056 26.424412 26.423384
26.373638 26.475018 26.31763 26.424469 26.42855 -0.033901516 26.410137 26.407995
00000000: a0f7 d241 3082 d341 43b6 d341 72bd d341
00000010: c0cd a4bb 183f d341 f4b1 d341 bbd0 d241
00000020: 40ec ddbc 78ae d341 722b d341 2e32 d341
00000030: c493 d341 06e5 d241 1a5a d341 acc6 d341
00000040: cb1e d341 8a12 d341 83ce d341 2371 d341
00000050: bd51 d341 0f31 d341 36c0 d341 9a7b d341
00000060: 0667 d341 54d0 28bd 9836 d341 34de d241
00000070: f4e0 d241 7df3 64bd de86 d341 24da d341
00000080: 66e7 d241 34de d241 0c81 d341 5efa d241
00000090: 6fc5 d341 8d6d d341 9988 d341 1796 d341
000000a0: 43f2 d241 aca5 d341 eac0 d341 0e08 d341
000000b0: b380 d341 9a4e d341 ccd9 d341 16b6 d341
000000c0: 4d66 d341 8eec d241 f2a3 d341 da1b d341
000000d0: 6070 d341 2b10 d341 b7aa d341 1d5b d341
000000e0: 1279 d341 5cf0 d241 0938 d341 b064 d341
000000f0: 9a52 d341 a255 d341 f0af d341 b207 d341
00000100: d879 d341 73d0 d341 02b4 d341 8e0f d341
00000110: c6fa d241 555a d341 cce7 d341 3670 d341
00000120: 3129 d341 2e97 d341 9b3a d341 0082 d341
00000130: 8916 d341 e856 d341 055a d341 def1 d241
00000140: 1497 d341 e4fc d241 9f81 d341 45f7 d241
00000150: f455 d341 7d0b d341 c3f9 d241 c9f0 d241
00000160: 7fe2 d241 37fe d241 80b2 d341 619d d341
00000170: 54ac d241 1a36 d341 9482 d341 c260 d341
00000180: 79d2 d341 5270 d341 f4c5 d341 297b d341
00000190: 88ad d341 d89d d341 b13f d341 cde7 d241
000001a0: 1861 d341 520f d341 d379 4abd 2dc3 d341
000001b0: 7b91 d341 78b1 d341 d2ca d341 4ec7 d341
000001c0: e8f9 d241 8e4a d341 a3f6 d241 c864 d341
000001d0: aada d241 40db d341 3265 d341 1763 d341
000001e0: 36fd d241 d6cc d341 828a d241 5065 d341
000001f0: ac6d d341 51dc 0abd f647 d341 9343 d341

layer3.weight f4 [168, 128]
1.5123211 1.5521476 1.4766356 1.481901 0.00971265 1.5652758 1.4536543 1.4966252
-0.019860607 1.4604602 1.4550877 1.4498878 1.4373956 1.5303861 1.4592986 1.4604111
1.4705104 1.5069134 1.5362681 1.4575124 1.458879 1.473916 1.5377711 1.4952284
1.5361009 -0.021593971 1.481008 1.5438806 1.449358 -0.01953316 1.5063167 1.4563956
1.5495055 1.5271778 1.4945644 1.5679902 1.5532402 1.5403335 1.5305601 1.5118668
1.4598966 1.4660954 1.55827 1.5307107 1.4590755 1.4874903 1.4995835 1.5685236
1.4682813 1.5316426 1.4548802 1.4842191 1.5577575 1.5130509 1.5100558 1.4880011
1.5429366 1.524156 1.5207769 1.5211399 1.4606605 1.5339358 1.465591 1.5294379
1.4577746 1.5712388 1.5301024 1.4959496 1.5615158 1.4673686 1.5063831 1.4725864
1.4448838 1.4995596 1.4618664 1.5398624 1.5450126 1.447989 1.472946 1.466454
1.5231388 1.4410954 1.4379001 1.5391961 1.536261 1.5172987 1.4812334 1.4677973
1.5702174 1.5606676 1.5116183 1.4869303 1.456173 1.4538751 1.4647245 1.5091256
1.5122293 1.4711843 1.5408671 1.5412016 1.5446364 1.5389627 1.4825163 1.515564
1.4953297 1.4479766 -0.010883237 1.4581981 1.5514723 1.5312294 1.5117767 1.5126089
1.5056504 1.539294 1.5294018 1.5149263 1.5247349 1.4775642 1.568289 1.4628472
1.4786818 1.4619994 1.5138382 1.4816076 1.478076 0.0613268 1.4603558 1.4993823
0.08254535 0.08255563 0.114159636 0.08963447 -0.0028153553 0.13519478 0.064271756 0.11685513
-0.062304813 0.036650624 0.0737876 0.09132767 0.1582564 0.12657803 0.10265324 0.041190445
0.13361585 0.1255526 0.14209767 0.07279976 0.03429261 0.046779476 0.09577101 0.06251193
0.11531405 -0.0072658593 0.092006095 0.04858106 0.061390463 -0.028335482 0.15752183 0.057973877
0.07960535 0.087929755 0.03935219 0.069604926 0.10579356 0.045503814 0.056443382 0.06290189
0.13858852 0.06204602 0.15019931 0.13178639 0.13124754 0.12350141 0.12211104 0.13478296
0.06285719 0.08851559 0.11910404 0.14082201 0.09442718 0.12596643 0.10948709 0.09886638
0.038470984 0.10359121 0.080564864 0.045488734 0.069473386 0.12436652 0.14641364 0.064612925
0.07865948 0.09187861 0.091239065 0.08471045 0.038865715 0.12457142 0.15015204 0.12917387
0.031389028 0.042426873 0.09024165 0.14390774 0.0902405 0.098847404 0.04875872 0.13550238
0.12652767 0.098315015 0.12945016 0.090834886 0.088330686 0.09315001 0.1282439 0.095637515
0.09351123 0.13665657 0.08992195 0.14350481 0.034679852 0.059682667 0.05085076 0.038744964
0.15046008 0.058163263 0.14944334 0.07697236 0.083514206 0.1340573 0.122289956 0.03929929
0.14659263 0.09851336 -0.060773455 0.108683705 0.080078095 0.08559862 0.06101605 0.050441563
0.10697289 0.09390633 0.15479006 0.1041444 0.04507709 0.05773035 0.042258292 0.07361907
0.033759918 0.03868187 0.13540308 0.102125004 0.09925491 0.027724367 0.096558996 0.13430846
00000000: bd93 c13f c6ac c63f 6502 bd3f efae bd3f
00000010: cf21 1f3c f55a c83f 5811 ba3f 6a91 bf3f
00000020: b6b2 a2bc 5cf0 ba3f 5040 ba3f ec95 b93f
00000030: 94fc b73f b1e3 c33f 4cca ba3f c0ee ba3f
00000040: af39 bc3f 8ae2 c03f 6fa4 c43f c48f ba3f
00000050: 8cbc ba3f 48a9 bc3f afd5 c43f a563 bf3f
00000060: f49e c43f d7e5 b0bc ac91 bd3f e19d c53f
00000070: 9084 b93f 0104 a0bc fcce c03f 2c6b ba3f
00000080: 3256 c63f 907a c33f e34d bf3f e7b3 c83f
00000090: 93d0 c63f a629 c53f 65e9 c33f da84 c13f
000000a0: e4dd ba3f 04a9 bb3f 6475 c73f 54ee c33f
000000b0: fcc2 ba3f 1566 be3f 5af2 bf3f 62c5 c83f
000000c0: a4f0 bb3f dd0c c43f 8439 ba3f e4fa bd3f
000000d0: 9964 c73f a7ab c13f 8249 c13f d276 be3f
000000e0: f27e c53f 8b17 c33f d1a8 c23f b6b4 c23f
000000f0: ecf6 ba3f 0258 c43f 7c98 bb3f 9fc4 c33f
00000100: 5c98 ba3f 5a1e c93f 65da c33f 477b bf3f
00000110: c0df c73f bcd2 bb3f 29d1 c03f b67d bc3f
00000120: f4f1 b83f 92f1 bf3f 701e bb3f 361a c53f
00000130: f9c2 c53f b457 b93f 7f89 bc3f c4b4 bb3f
00000140: 36f6 c23f d075 b83f 1c0d b83f 6104 c53f
00000150: 33a4 c43f d836 c23f 0e99 bd3f c8e0 bb3f
00000160: e2fc c83f f5c3 c73f b57c c13f bb53 be3f
00000170: e063 ba3f 9418 ba3f 187c bb3f 072b c13f
00000180: bb90 c13f c44f bc3f 223b c53f 1846 c53f
00000190: a5b6 c53f bbfc c43f 18c3 bd3f 00fe c13f
000001a0: f766 bf3f 4c57 b93f 9b4f 32bc 3ca6 ba3f
000001b0: a596 c63f 53ff c33f e681 c13f 2b9d c13f
000001c0: 27b9 c03f 9607 c53f 70c3 c33f 1be9 c13f
000001d0: 832a c33f d320 bd3f b2bd c83f 943e bb3f
000001e0: 7245 bd3f cc22 bb3f 73c5 c13f 51a5 bd3f
000001f0: 9831 bd3f d031 7b3d f0ec ba3f c2eb bf3f
00000200: 890d a93d ed12 a93d 87cc e93d 4792 b73d
00000210: d381 38bb 8070 0a3e e9a0 833d be51 ef3d
00000220: 5533 7fbd f71e 163d f41d 973d 000a bb3d
00000230: f70d 223e ac9d 013e dd3b d23d 50b7 283d
00000240: 98d2 083e dc90 003e 0d82 113e 0a18 953d
00000250: 6876 0c3d d69b 3f3d 9723 c43d 4106 803d
00000260: c629 ec3d 7216 eebb b16d bc3d effc 463d
00000270: 9174 7b3d d01f e8bc 674d 213e 0476 6d3d
00000280: 2108 a33d 8414 b43d c32f 213d 078d 8e3d
00000290: 4baa d83d 3562 3a3d 2d31 673d b5d2 803d
000002a0: 26ea 0d3e f823 7e3d d9cd 193e 03f3 063e
000002b0: c165 063e 4fee fc3d 5a15 fa3d 8b04 0a3e
000002c0: 45bb 803d a947 b53d d2ec f33d a533 103e
000002d0: 0a63 c13d 58fd 003e c43a e03d 757a ca3d
000002e0: c093 1d3d a127 d43d 31ff a43d 6552 3a3d
000002f0: 1048 8e3d e0b3 fe3d 75ed 153e c853 843d
00000300: 3918 a13d da2a bc3d 8cdb ba3d ac7c ad3d
00000310: a831 1f3d 4d1f ff3d 75c1 193e 2846 043e
00000320: c891 003d cdc7 2d3d 9dd0 b83d 8d5c 133e
00000330: 03d0 b83d 8270 ca3d 39b7 473d 23c1 0a3e
00000340: 7890 013e 6259 c93d 958e 043e a407 ba3d
00000350: b8e6 b43d 6fc5 be3d 5e52 033e 9add c33d
00000360: d182 bf3d b3ef 0b3e 0029 b83d edf2 123e
00000370: 760c 0e3d d075 743d e348 503d 0ab3 1e3d
00000380: 3512 1a3e 9a3c 6e3d ad07 193e afa3 9d3d
00000390: 7f09 ab3d 5146 093e 2873 fa3d 4bf8 203d
000003a0: 611c 163e 5fc1 c93d 96ed 78bd 9095 de3d
000003b0: fcff a33d 544e af3d f7eb 793d d09b 4e3d
000003c0: 9a14 db3d f651 c03d 4981 1e3e a949 d53d
000003d0: c1a2 383d a976 6c3d 0817 2d3d 98c5 963d
000003e0: d747 0a3d e170 1e3d 1ba7 0a3e ea26 d13d
000003f0: 2946 cb3d 361e e33c b9c0 c53d 2888 093e

layer3.bias f4 [168]
0.6220661 0.118506484 0.62670285 22.666449 1.0520939 2.635573 0.59228075 1.3538108
1.2506046 0.6313921 22.745335 1.2472985 0.6749494 1.4859836 1.4262305 1.0241541
22.767174 0.4186037 1.8895879 1.7372962 0.78945076 22.60678 1.4699054 0.62327075
1.1093482 1.1198514 22.64816 2.2035437 1.1684326 7.047607 3.2344904 5.082373
3.175788 3.6603281 0.880978 0.97393066 1.0018771 22.833847 0.94324815 1.3293964
0.4545782 1.1811804 0.79969084 22.598444 0.8267596 1.5536995 1.0308653 0.5305716
1.0526066 0.9815888 21.775837 1.3585811 1.8458563 4.94602 1.108079 2.2440212
2.7435703 1.3842032 19.776382 1.012527 1.8452284 22.663532 0.9927235 3.024964
1.176487 22.16106 1.7503088 1.0677776 0.65315443 0.79697585 0.47502312 1.4741176
22.47772 1.3167031 1.0513753 21.142237 1.7490013 1.0915037 3.2763507 3.853085
1.5094527 3.1069639 1.616111 1.8404078 18.685349 2.8816466 2.6677895 2.5815399
1.4618543 4.993354 3.0545962 1.3148968 2.0535903 4.181876 0.6903703 22.351374
3.5947723 2.2133086 2.501545 0.42899138 1.2608576 0.98709637 1.4091756 1.0539849
4.844345 2.6010199 1.1542062 2.5383549 2.35521 5.3789797 22.203655 1.2481929
11.46569 1.6111693 2.3914752 23.499517 0.7232858 0.9660623 0.9884576 0.67262024
5.1722856 2.9219258 0.6387732 2.0011768 21.938875 3.0298617 0.3570862 3.4811747
2.6076932 3.1770074 0.9501494 11.224714 15.612215 2.2979624 1.9816906 7.733102
2.3420737 24.214912 0.81635034 2.2439404 2.0482028 1.7373077 0.68617237 22.268991
1.7217908 5.1583304 0.52577585 21.793102 1.6629728 0.8996642 0.8932675 0.9290676
5.4313235 19.854874 1.1175249 3.8694384 2.5416865 2.1163814 1.0331426 20.921135
1.0717157 5.855984 2.919133 1.2660657 0.67927545 3.411382 2.723899 0.87617576
00000000: b93f 1f3f 87b3 f23d 996f 203f e354 b541
00000010: 03ab 863f 3aad 2840 b69f 173f ac49 ad3f
00000020: d013 a03f eaa2 213f 72f6 b541 7aa7 9f3f
00000030: 7cc9 2c3f b634 be3f b98e b63f 7b17 833f
00000040: 2c23 b641 3953 d63e 04de f13f b95f de3f
00000050: 7219 4a3f afda b441 dc25 bc3f ac8e 1f3f
00000060: 1fff 8d3f 4a57 8f3f 6f2f b541 dc06 0d40
00000070: 338f 953f ff85 e140 e401 4f40 cda2 a240
00000080: 1c40 4b40 d142 6a40 c687 613f 8553 793f
00000090: 823d 803f b8ab b641 b678 713f a929 aa3f
000000a0: 79be e83e eb30 973f 8ab8 4c3f 9dc9 b441
000000b0: 84a6 533f a0df c63f 65f3 833f 8ad3 073f
000000c0: d0bb 863f 6749 7b3f ea34 ae41 fce5 ad3f
000000d0: 0545 ec3f cc45 9e40 88d5 8d3f 0b9e 0f40
000000e0: a896 2f40 922d b13f 0836 9e41 7c9a 813f
000000f0: 7230 ec3f ea4e b541 2123 7e3f 0399 4140
00000100: 2097 963f da49 b141 1e0a e03f f0ac 883f
00000110: 2135 273f 9c06 4c3f 3b36 f33e e3af bc3f
00000120: 5fd2 b341 ba89 a83f 7793 863f 4d23 a941
00000130: 46df df3f 65b6 8b3f bbaf 5140 f298 7640
00000140: bf35 c13f 7fd8 4640 badc ce3f 7c92 eb3f
00000150: 987b 9541 e66c 3840 10bd 2a40 f337 2540
00000160: 0b1e bb3f 8ec9 9f40 817e 4340 8a4e a83f
00000170: 066e 0340 eed1 8540 1cbc 303f 9dcf b241
00000180: c010 6640 d9a6 0d40 5019 2040 c2a4 db3e
00000190: c863 a13f 59b2 7c3f de5f b43f fae8 863f
000001a0: e004 9b40 1c77 2640 07bd 933f 6874 2240
000001b0: c3bb 1640 9a20 ac40 16a1 b141 c9c4 9f3f
000001c0: 7773 3741 cc3a ce3f ee0d 1940 03ff bb41
000001d0: 4229 393f dc4f 773f 8f0b 7d3f d730 2c3f
000001e0: 5d83 a540 d500 3b40 a486 233f 4813 0040
000001f0: d182 af41 41e9 4140 01d4 b63e 91cb 5e40
00000200: 72e4 2640 1754 4b40 fe3c 733f 6e98 3341
00000210: a2cb 7941 d111 1340 0aa8 fd3f 9275 f740
00000220: 89e4 1540 24b8 c141 56fc 503f b89c 0f40
00000230: c115 0340 1960 de3f fea8 2f3f e526 b241
00000240: a463 dc3f 0b11 a540 3f99 063f 4658 ae41
00000250: 4bdc d43f 6550 663f 2ead 643f 60d7 6d3f
00000260: 67cd ad40 c8d6 9e41 0e0b 8f3f e1a4 7740
00000270: feaa 2240 cb72 0740 043e 843f 7c5e a741
00000280: fb2d 893f 3964 bb40 13d3 3a40 710e a23f
00000290: ffe4 2d3f 1554 5a40 5c54 2e40 0e4d 603f
