models/24-25/coin_model_weights.pth (torch, 161910 bytes, 6 tensors)

layer1.weight f4 [128, 82]
-0.6638673 4.7081556 4.486457 4.4976673 8.759924 2.3760805 4.412292 4.6587405
2.3146808 -1.1870812 -5.216024 0.8081771 6.8750534 0.5612222 0.6474254 -11.680565
6.5062137 3.3899834 1.367636 -0.62818474 4.936463 5.1540947 1.4196106 -0.42443323
3.066988 6.942301 2.7537005 3.7042966 8.37353 7.053901 3.8970242 5.5791583
8.321505 10.368963 9.516471 7.6303935 14.066496 16.430538 14.893255 14.580787
10.201512 7.442458 8.2964945 14.293028 14.822376 14.627998 12.080174 5.944019
6.471233 7.7532825 14.097325 14.506061 14.724846 16.957163 13.529659 13.495954
15.324553 14.639653 14.455304 15.198784 17.165789 15.415721 14.497394 15.72556
16.08653 16.583641 15.374673 16.445402 15.394334 14.5347805 14.557594 15.7765255
16.414404 15.65026 16.134567 14.119654 15.034681 14.456895 15.656617 15.777993
15.1800375 8.191109 -0.51082104 4.70058 4.547824 4.470397 8.839025 2.3796346
4.4908195 4.6916127 2.3779118 -1.0999411 -4.762708 0.7557919 6.8470864 0.59813446
0.68689907 -11.717486 6.5370426 3.3842149 1.4636174 -0.60215086 4.8578186 5.120881
1.534811 -0.38510078 3.1225443 6.950533 2.768149 3.7161767 8.364475 7.006152
3.83256 5.543941 8.395731 10.375103 9.502849 7.5779486 13.951991 16.42966
14.889135 14.6205845 10.205561 7.4212804 8.256645 14.189857 14.8221245 14.662158
12.034732 5.819095 6.454049 7.7560596 14.078366 14.527537 14.789927 16.84916
13.435286 13.34636 15.331891 14.656289 14.468107 15.1716585 17.169434 15.436752
14.313804 15.762701 15.991367 16.460606 15.368174 16.376312 15.460711 14.495034
14.495552 15.651461 16.427017 15.597348 16.214123 14.176151 14.883818 14.4515705
15.6488695 15.713457 15.29703 8.114353 -0.64343137 4.6970162 4.421777 4.3465242
8.785677 2.3725371 4.4477754 4.6745644 2.3339074 -1.1836728 -5.0633154 0.9073763
6.7959814 0.56045616 0.6300589 -11.657715 6.550464 3.2971418 1.4427034 -0.6648334
4.8265114 5.183814 1.4414086 -0.48469174 3.0208678 6.9739437 2.6948383 3.7557142
8.330484 7.0889983 3.8325605 5.629978 8.397795 10.359879 9.576516 7.5541744
14.010227 16.400867 14.828596 14.551042 10.326353 7.4481006 8.298713 14.279577
14.831379 14.68923 12.078904 5.9455714 6.51929 7.6928105 14.008553 14.465572
14.662418 16.910143 13.455244 13.416052 15.294472 14.634836 14.480898 15.291226
17.13648 15.405157 14.443544 15.704619 15.977008 16.581455 15.33954 16.341244
15.488968 14.450056 14.563602 15.763174 16.347876 15.6411915 16.077827 14.159689
14.922656 14.5449505 15.65909 15.712039 15.28205 8.208088 -0.58374673 4.770386
4.41158 4.412122 8.894082 2.4489574 4.4054394 4.674758 2.458147 -1.1513133
00000000: 35f3 29bf 36a9 9640 0e91 8f40 e4ec 8f40
00000010: a628 0c41 b411 1840 7f31 8d40 6714 9540
00000020: bb23 1440 47f2 97bf abe9 a6c0 b2e4 4e3f
00000030: 7000 dc40 42ac 0f3f acbd 253f 98e3 3ac1
00000040: e732 d040 7df5 5840 b20e af3f b7d0 20bf
00000050: 81f7 9d40 58ee a440 cdb5 b53f 504f d9be
00000060: 8849 4440 5427 de40 a13c 3040 3213 6d40
00000070: fbf9 0541 8fb9 e140 d868 7940 7788 b240
00000080: e224 0541 46e7 2541 7743 1841 2f2c f440
00000090: 5e10 6141 be71 8341 c64a 6e41 e74a 6941
000000a0: 6539 2341 9e28 ee40 71be 0441 3eb0 6441
000000b0: 7428 6d41 480c 6a41 6548 4141 6735 be40
000000c0: 5714 cf40 e41a f840 a58e 6141 d318 6841
000000d0: f898 6b41 45a8 8741 7c79 5841 6def 5741
000000e0: 5e31 7541 053c 6a41 ed48 6741 382e 7341
000000f0: 8953 8941 cba6 7641 53f5 6741 e59b 7b41
00000100: 37b1 8041 4cab 8441 a9fe 7541 2f90 8341
00000110: 314f 7641 768e 6841 e8eb 6841 a66c 7c41
00000120: b350 8341 7767 7a41 9813 8141 1aea 6141
00000130: 0e8e 7041 714f 6741 8181 7a41 a972 7c41
00000140: 6fe1 7241 c80e 0341 2bc5 02bf 276b 9640
00000150: c687 9140 7e0d 8f40 a56c 0d41 ef4b 1840
00000160: cbb4 8f40 b121 9640 b52f 1840 dfca 8cbf
00000170: 1b68 98c0 947b 413f 551b db40 571f 193f
00000180: 9ed8 2f3f d37a 3bc1 742f d140 fa96 5840
00000190: d157 bb3f 8f26 1abf 4073 9b40 42de a340
000001a0: b074 c43f ee2b c5be c4d7 4740 c46a de40
000001b0: 5a29 3140 d7d5 6d40 e4d4 0541 6632 e040
000001c0: aa48 7540 f767 b140 ea54 0641 6c00 2641
000001d0: ab0b 1841 8e7e f240 5b3b 5f41 f26f 8341
000001e0: e639 6e41 eaed 6941 fa49 2341 217b ed40
000001f0: 381b 0441 a709 6341 6c27 6d41 3398 6a41
00000200: 438e 4041 0736 ba40 9287 ce40 a431 f840
00000210: fd40 6141 cb70 6841 8aa3 6c41 14cb 8641
00000220: eef6 5641 b18a 5541 6d4f 7541 2980 6a41
00000230: 5e7d 6741 1dbf 7241 005b 8941 f0fc 7641
00000240: 5705 6541 0634 7c41 a4dc 7f41 52af 8341
00000250: 0ae4 7541 b002 8341 125f 7741 a9eb 6741
00000260: c8ed 6741 626c 7a41 886a 8341 bd8e 7941
00000270: 86b6 8141 84d1 6241 1e24 6e41 a239 6741
00000280: c561 7a41 526a 7b41 a3c0 7441 64d4 0141
00000290: ebb7 24bf f54d 9640 327f 8d40 ba16 8b40
000002a0: 2292 0c41 a6d7 1740 2d54 8e40 0896 9540
000002b0: bd5e 1540 9782 97bf ae06 a2c0 d049 683f
000002c0: ae78 d940 0e7a 0f3f 8a4b 213f 0086 3ac1
000002d0: 679d d140 5f04 5340 81aa b83f 8632 2abf
000002e0: c872 9a40 cee1 a540 1480 b83f 8429 f8be
000002f0: e655 4140 8c2a df40 3b78 2c40 9f5d 7040
00000300: aa49 0541 13d9 e240 ac48 7540 c828 b440
00000310: 5e5d 0641 10c2 2541 6939 1941 ccbb f140
00000320: e429 6041 fa34 8341 ee41 6d41 11d1 6841
00000330: be38 2541 d756 ee40 87c7 0441 2679 6441
00000340: 544d 6d41 1607 6b41 3143 4141 1f42 be40
00000350: 069e d040 812b f640 0823 6041 fc72 6741
00000360: 4499 6a41 f947 8741 ae48 5741 26a8 5641
00000370: 28b6 7441 4a28 6a41 c2b1 6741 dda8 7441
00000380: 8317 8941 867b 7641 c218 6741 1f46 7b41
00000390: d3a1 7f41 d2a6 8441 c16e 7541 deba 8241
000003a0: d0d2 7741 6e33 6741 8404 6941 f635 7c41
000003b0: 73c8 8241 5242 7a41 649f 8041 168e 6241
000003c0: 33c3 6e41 1eb8 6841 a28b 7a41 8364 7b41
000003d0: 4783 7441 5454 0341 6d70 15bf 01a7 9840
000003e0: aa2b 8d40 1a30 8d40 294e 0e41 b8bb 1c40
000003f0: 5cf9 8c40 9e97 9540 4852 1d40 3c5e 93bf

layer1.bias f4 [128]
6.4860325 6.4948087 6.536823 6.5754423 6.433564 6.590633 6.542083 6.4231234
6.526627 6.493722 6.442271 6.4385743 6.448831 6.5624566 6.5312953 6.484904
6.5230365 6.5484376 6.491046 6.5135865 6.4256816 6.500482 6.4863114 6.415581
6.5169806 6.410945 6.459008 6.544881 6.4276977 6.432568 6.4476075 6.5184712
6.5533824 6.552424 6.450576 6.492223 6.4996285 6.4996266 6.455201 6.56115
6.4770584 6.598429 6.4709845 6.454962 6.4616513 6.4054246 6.4938607 6.4718575
6.532561 6.5163894 6.4597416 6.511122 6.4712663 6.4784937 6.444376 6.494455
6.509978 6.4433236 6.436579 6.532712 6.5053368 6.552127 6.517647 6.4372535
6.4324574 6.5292163 6.5526857 6.559918 6.4307237 6.4641566 6.565836 6.575541
6.4242554 6.4435472 6.5528007 6.5204663 6.4654727 6.5748544 6.4488173 6.419884
6.4171834 6.445895 6.535987 6.5642447 6.520194 6.436391 6.5238004 6.4869623
6.4586635 6.4635744 6.531151 6.468295 6.437131 6.4501047 6.456713 6.467361
6.546864 6.399346 6.4782333 6.4108043 6.5809135 6.4641232 6.4363475 6.601085
6.505643 6.4946737 6.407831 6.460053 6.4523506 6.471996 6.4404798 6.55527
6.5375896 6.5420203 6.5300264 6.5759497 6.4873896 6.4960623 6.527182 6.472544
6.4626875 6.425542 6.555857 6.405144 6.5340433 6.508846 6.540341 6.4666505
00000000: 948d cf40 79d5 cf40 a72d d140 066a d240
00000010: c2df cd40 77e6 d240 be58 d140 3a8a cd40
00000020: 21da d040 92cc cf40 1627 ce40 cd08 ce40
00000030: d35c ce40 a5ff d140 5f00 d140 5584 cf40
00000040: b7bc d040 cd8c d140 a6b6 cf40 4d6f d040
00000050: 2f9f cd40 f303 d040 dd8f cf40 714c cd40
00000060: 1b8b d040 7626 cd40 32b0 ce40 aa6f d140
00000070: b3af cd40 99d7 cd40 cd52 ce40 5197 d040
00000080: 4fb5 d140 75ad d140 1e6b ce40 4ac0 cf40
00000090: f5fc cf40 f1fc cf40 0291 ce40 f1f4 d140
000000a0: 1044 cf40 5526 d340 4e12 cf40 0c8f ce40
000000b0: d9c5 ce40 3df9 cc40 b5cd cf40 7519 cf40
000000c0: bd0a d140 4386 d040 34b6 ce40 1d5b d040
000000d0: 9d14 cf40 d24f cf40 5438 ce40 93d2 cf40
000000e0: bd51 d040 b52f ce40 75f8 cd40 fa0b d140
000000f0: b82b d040 06ab d140 9090 d040 fbfd cd40
00000100: b1d6 cd40 57ef d040 9aaf d140 d9ea d140
00000110: 7dc8 cd40 5fda ce40 541b d240 d56a d240
00000120: 8093 cd40 8a31 ce40 8bb0 d140 a9a7 d040
00000130: 27e5 ce40 3565 d240 b65c ce40 b16f cd40
00000140: 9159 cd40 c644 ce40 ce26 d140 4b0e d240
00000150: 6ea5 d040 eaf6 cd40 f9c2 d040 3295 cf40
00000160: 5fad ce40 9ad5 ce40 30ff d040 46fc ce40
00000170: fafc cd40 4267 ce40 659d ce40 9ff4 ce40
00000180: e97f d140 71c7 cc40 b04d cf40 4f25 cd40
00000190: d896 d240 19da ce40 8ff6 cd40 173c d340
000001a0: 3a2e d040 5ed4 cf40 f40c cd40 c1b8 ce40
000001b0: a879 ce40 971a cf40 6918 ce40 c6c4 d140
000001c0: ef33 d140 3b58 d140 faf5 d040 2e6e d240
000001d0: b298 cf40 bedf cf40 adde d040 151f cf40
000001e0: 56ce ce40 0a9e cd40 95c9 d140 f1f6 cc40
000001f0: e216 d140 7748 d040 794a d140 cdee ce40

layer2.weight f4 [128, 128]
15.326713 15.347214 15.324776 15.332596 15.313151 15.31792 15.322926 15.269893
15.251892 15.34035 15.248789 15.349283 15.276815 15.293072 15.267985 15.19644
15.27932 15.285857 15.298081 15.304735 15.305626 15.274038 15.269796 15.243074
15.310812 15.341646 15.332927 15.297592 15.315078 15.266929 15.313342 15.256674
15.326362 15.312076 15.224479 15.286882 15.22319 15.228117 15.217096 15.224131
15.219443 15.315626 15.249542 15.1950655 15.270155 15.277732 15.309737 15.281966
15.336909 15.31234 15.293352 15.24607 15.296104 15.324747 15.230614 15.323402
15.284073 15.241402 15.314696 15.267204 15.354273 15.258797 15.290751 15.304157
15.333855 15.224102 15.225441 15.328258 15.295028 15.330386 15.319503 15.342029
15.225776 15.219814 15.360758 15.30929 15.265524 15.267916 15.294688 15.3370495
15.245344 15.304525 15.285781 15.331744 15.23109 15.269831 15.336678 15.339702
15.274529 15.246901 15.338543 15.317912 15.210144 15.255373 15.326597 15.280078
15.266116 15.258381 15.313321 15.327768 15.281565 15.305883 15.298427 15.239594
15.232004 15.227599 15.376217 15.3193 15.2957945 15.230697 15.349235 15.234829
15.330203 15.330446 15.217411 15.323732 15.322258 15.264605 15.279173 15.3541355
15.271433 15.243063 15.269173 15.318358 15.238497 15.279524 15.286396 15.313948
15.186621 15.203527 15.201648 15.252461 15.308794 15.176864 15.190103 15.243538
15.195337 15.250808 15.233053 15.3261175 15.252402 15.235408 15.310891 15.311641
15.326009 15.266337 15.232494 15.255443 15.268091 15.255669 15.318514 15.265627
15.221638 15.287129 15.310509 15.290443 15.224723 15.309892 15.188576 15.290389
15.306506 15.248003 15.247866 15.293192 15.1815 15.326341 15.275244 15.301899
15.186449 15.19744 15.253021 15.221023 15.285264 15.292219 15.291105 15.280028
15.214972 15.248333 15.298711 15.2004 15.179839 15.302364 15.234723 15.271077
15.332763 15.29441 15.212607 15.221942 15.242381 15.218959 15.26691 15.206315
15.20021 15.297027 15.285865 15.26093 15.166765 15.296913 15.237014 15.31938
15.265159 15.271525 15.263829 15.267232 15.242419 15.27328 15.187404 15.304671
15.233977 15.279535 15.249681 15.315176 15.290045 15.282031 15.223687 15.185561
15.229465 15.272544 15.271045 15.299633 15.209852 15.16109 15.276213 15.224785
15.279277 15.332178 15.283023 15.173259 15.200793 15.272517 15.283204 15.201285
15.237256 15.252402 15.287089 15.235721 15.331984 15.326208 15.223669 15.1957035
15.269544 15.279975 15.283047 15.216756 15.277612 15.298923 15.29854 15.307174
15.198436 15.234865 15.269443 15.315433 15.160136 15.300001 15.2699995 15.326876
00000000: 373a 7541 308e 7541 4832 7541 5052 7541
00000010: ab02 7541 3316 7541 b42a 7541 7b51 7441
00000020: c007 7441 1372 7541 0afb 7341 aa96 7541
00000030: d66d 7441 6cb0 7441 ab49 7441 9e24 7341
00000040: 1878 7441 df92 7441 f1c4 7441 32e0 7441
00000050: d8e3 7441 7662 7441 1651 7441 a2e3 7341
00000060: 16f9 7441 6277 7541 ab53 7541 f0c2 7441
00000070: 8f0a 7541 5745 7441 7303 7541 561b 7441
00000080: c738 7541 43fe 7441 7797 7341 1297 7441
00000090: 3092 7341 5ea6 7341 3a79 7341 0a96 7341
000000a0: d782 7341 ce0c 7541 20fe 7341 fd1e 7341
000000b0: 8e52 7441 9771 7441 aff4 7441 ef82 7441
000000c0: fb63 7541 58ff 7441 92b1 7441 e7ef 7341
000000d0: d8bc 7441 2a32 7541 98b0 7341 a82c 7541
000000e0: 908b 7441 c8dc 7341 ff08 7541 7846 7441
000000f0: 1aab 7541 0824 7441 eba6 7441 d4dd 7441
00000100: 7857 7541 ec95 7341 689b 7341 8b40 7541
00000110: 6fb8 7441 4349 7541 af1c 7541 f378 7541
00000120: c79c 7341 5c84 7341 aac5 7541 daf2 7441
00000130: 963f 7441 6249 7441 0bb7 7441 8e64 7541
00000140: eeec 7341 56df 7441 8f92 7441 d34e 7541
00000150: 8bb2 7341 3a51 7441 0863 7541 6b6f 7541
00000160: 7964 7441 4ef3 7341 ac6a 7541 2b16 7541
00000170: c05c 7341 0216 7441 be39 7541 337b 7441
00000180: 0342 7441 5422 7441 5d03 7541 8a3e 7541
00000190: 4a81 7441 e6e4 7441 5bc6 7441 61d5 7341
000001a0: 4ab6 7341 3fa4 7341 fc04 7641 da1b 7541
000001b0: 93bb 7441 efb0 7341 7796 7541 dcc1 7341
000001c0: 8348 7541 8249 7541 847a 7341 022e 7541
000001d0: f827 7541 d23b 7441 7e77 7441 8aaa 7541
000001e0: ca57 7441 96e3 7341 884e 7441 ff17 7541
000001f0: e2d0 7341 ee78 7441 1495 7441 ee05 7541
00000200: 66fc 7241 a641 7341 f339 7341 150a 7441
00000210: d2f0 7441 6fd4 7241 a90a 7341 88e5 7341
00000220: 1a20 7341 4f03 7441 96ba 7341 c737 7541
00000230: d709 7441 3bc4 7341 69f9 7441 7bfc 7441
00000240: 5537 7541 eb42 7441 4cb8 7341 4b16 7441
00000250: 1a4a 7441 3817 7441 a218 7541 0240 7441
00000260: d48b 7341 1598 7441 d8f7 7441 a8a5 7441
00000270: 7798 7341 51f5 7441 6804 7341 6fa5 7441
00000280: 73e7 7441 d2f7 7341 42f7 7341 eab0 7441
00000290: 6de7 7241 b138 7541 6667 7441 94d4 7441
000002a0: b2fb 7241 b728 7341 600c 7441 4f89 7341
000002b0: 7190 7441 eeac 7441 5ea8 7441 ff7a 7441
000002c0: 8670 7341 2cf9 7341 85c7 7441 d734 7341
000002d0: 9fe0 7241 7cd6 7441 6dc1 7341 5556 7441
000002e0: ff52 7541 e7b5 7441 d766 7341 138d 7341
000002f0: cbe0 7341 db80 7341 4345 7441 114d 7341
00000300: 0f34 7341 9fc0 7441 e792 7441 c52c 7441
00000310: 12ab 7241 28c0 7441 cfca 7341 2e1c 7541
00000320: 173e 7441 2b58 7441 a538 7441 9546 7441
00000330: f3e0 7341 5b5f 7441 9bff 7241 efdf 7441
00000340: 5fbe 7341 fa78 7441 b2fe 7341 f60a 7541
00000350: 06a4 7441 3383 7441 3994 7341 0ff8 7241
00000360: e3ab 7341 575c 7441 3356 7441 4ccb 7441
00000370: 8e5b 7341 d393 7241 5e6b 7441 b898 7341
00000380: eb77 7441 9a50 7541 4387 7441 abc5 7241
00000390: 7336 7341 3b5c 7441 0188 7441 7738 7341
000003a0: cdcb 7341 d709 7441 eb97 7441 83c5 7341
000003b0: ce4f 7541 2638 7541 2694 7341 9a21 7341
000003c0: 0d50 7441 c77a 7441 5c87 7441 d577 7341
000003d0: 1971 7441 63c8 7441 d2c6 7441 2fea 7441
000003e0: cb2c 7341 02c2 7341 a34f 7441 030c 7541
000003f0: eb8f 7241 cecc 7441 eb51 7441 e23a 7541

layer2.bias f4 [128]
8.545263 9.555447 9.027861 9.237598 9.158433 8.479696 8.461353 9.092494
8.048954 8.923071 9.126431 9.562797 9.529166 8.085971 9.0806875 9.290875
9.591586 8.429983 8.222572 8.534942 -0.00020459588 8.507185 9.5369215 8.712259
9.635783 8.669696 8.959244 8.467673 9.624961 9.666239 8.233406 8.403334
9.607048 8.543433 9.560694 8.963545 9.165032 8.148605 7.894923 9.395875
8.583944 8.638801 9.213778 9.690607 9.161042 9.213934 8.634204 8.378688
8.14579 8.490161 9.492866 9.34401 9.655776 9.006446 9.7160635 9.351766
8.267861 9.214045 9.610805 9.508559 9.261275 9.240087 9.776376 8.886628
8.10555 9.441919 8.657055 8.353836 8.90665 9.15277 8.928179 8.972831
9.530377 9.662076 8.296118 9.102482 8.877559 9.68749 8.210499 9.533518
-0.05889333 8.231407 8.3283825 9.623392 8.130877 8.636633 9.522482 9.506146
9.914292 8.464867 9.770811 8.439695 9.729591 8.931616 9.018057 -0.025684968
-0.051380523 8.462732 8.994377 9.529925 9.556609 7.9715233 8.5725355 8.069117
8.576361 9.032764 8.308786 8.726431 8.999396 8.9158535 9.021056 9.414809
9.088023 8.440113 8.7862215 8.259235 8.56905 9.508803 9.075851 8.547015
9.159015 8.330843 8.540915 9.623587 9.136686 -0.035034034 -0.0465679 9.688872
00000000: 66b9 0841 1ce3 1841 1e72 1041 34cd 1341
00000010: f188 1241 d6ac 0741 b461 0741 db7a 1141
00000020: 84c8 0041 e6c4 0e41 dd05 1241 3701 1941
00000030: 7777 1841 2360 0141 7f4a 1141 6da7 1441
00000040: 2377 1941 36e1 0641 a88f 0341 1f8f 0841
00000050: ca88 56b9 6e1d 0841 3b97 1841 6a65 0b41
00000060: 2b2c 1a41 13b7 0a41 1059 0f41 977b 0741
00000070: d7ff 1941 eaa8 1a41 08bc 0341 0e74 0641
00000080: 78b6 1941 e7b1 0841 9af8 1841 ae6a 0f41
00000090: f9a3 1241 b060 0241 36a3 fc40 8155 1641
000000a0: d657 0941 8738 0a41 a26b 1341 ba0c 1b41
000000b0: a193 1241 466c 1341 b325 0a41 1b0f 0641
000000c0: 2855 0241 b3d7 0741 c7e2 1741 1181 1541
000000d0: 0f7e 1a41 671a 1041 ff74 1b41 d5a0 1541
000000e0: 2949 0441 ba6c 1341 dbc5 1941 0f23 1841
000000f0: 2f2e 1441 65d7 1341 096c 1c41 a12f 0e41
00000100: 55b0 0141 1a12 1741 4c83 0a41 50a9 0541
00000110: a381 0e41 bf71 1241 d2d9 0e41 b790 0f41
00000120: 6d7c 1841 dd97 1a41 e6bc 0441 c4a3 1141
00000130: 7b0a 0e41 f6ff 1a41 345e 0341 4a89 1841
00000140: 223a 71bd d8b3 0341 0e41 0541 6af9 1941
00000150: 1218 0241 a62f 0a41 165c 1841 2d19 1841
00000160: f1a0 1e41 1870 0741 3e55 1c41 fe08 0741
00000170: 68ac 1b41 e6e7 0e41 f649 1041 4869 d2bc
00000180: 6274 52bd 5a67 0741 f8e8 0f41 937a 1841
00000190: dfe7 1841 b816 ff40 1b29 0941 1a1b 0141
000001a0: c638 0941 3486 1041 caf0 0441 769f 0b41
000001b0: 87fd 0f41 56a7 0e41 3f56 1041 0fa3 1641
000001c0: 8b68 1141 b40a 0741 5d94 0c41 d425 0441
000001d0: d41a 0941 0f24 1841 b036 1141 93c0 0841
000001e0: 538b 1241 224b 0541 96a7 0841 36fa 1941
000001f0: de2f 1241 d97f 0fbd fbbd 3ebd 9f05 1b41

layer3.weight f4 [98, 128]
4.84951 4.883013 4.8511133 4.9208913 4.867372 4.857032 4.813701 4.8426094
4.8325343 4.8429365 4.9284263 4.917487 4.935562 4.8413315 4.87795 4.898175
4.9083986 4.81339 4.8306828 4.874982 -0.012503959 4.8521605 4.888705 4.87848
4.857597 4.8657713 4.916217 4.8544645 4.8953147 4.877025 4.8870173 4.8602533
4.849412 4.8546762 4.906741 4.8084373 4.914755 4.9127054 4.914981 4.8782225
4.862067 4.8466196 4.85742 4.9171495 4.872047 4.86966 4.8850317 4.868514
4.918529 4.9058523 4.8971405 4.8331776 4.829669 4.86633 4.9116225 4.889277
4.8909745 4.899654 4.898089 4.913459 4.9604363 4.913224 4.813797 4.822482
4.90983 4.8539906 4.8480525 4.858737 4.81821 4.8170156 4.843017 4.8709526
4.8696556 4.825447 4.8259335 4.911237 4.9291115 4.8922415 4.816345 4.815337
-0.02668692 4.868935 4.848404 4.9351296 4.806213 4.7972484 4.7948756 4.899788
4.7790165 4.887578 4.931926 4.9357305 4.8962183 4.9150124 4.863331 -0.04800178
0.0009663469 4.7897425 4.9199953 4.8810096 4.8189898 4.818081 4.830026 4.8531456
4.8638043 4.846552 4.8603244 4.8338842 4.869932 4.866773 4.8132524 4.8633842
4.8175044 4.914298 4.800276 4.917402 4.8146615 4.952132 4.9401183 4.7973557
4.898022 4.8578053 4.8101983 4.8384066 4.823308 0.00097816 -0.024908904 4.91101
5.27819 5.3341646 5.2606254 5.305776 5.246572 5.3154716 5.235563 5.327974
5.29264 5.2998056 5.2911625 5.246905 5.301957 5.2292304 5.239776 5.2996726
5.273587 5.3318405 5.3241024 5.2291064 0.05409647 5.2820106 5.2788463 5.269443
5.2787204 5.248822 5.3008876 5.2121253 5.2804236 5.329106 5.253812 5.2863064
5.2359796 5.2531457 5.3325553 5.2395153 5.269548 5.3156157 5.250278 5.3133636
5.338355 5.3429475 5.2705345 5.3124523 5.2594523 5.286337 5.2645397 5.2742424
5.3261943 5.2194743 5.209331 5.219737 5.3532996 5.25798 5.3484144 5.228515
5.2243543 5.2744684 5.3216205 5.2688556 5.2504263 5.319181 5.3435025 5.2629905
5.2477565 5.2158995 5.315429 5.3519125 5.210672 5.245056 5.299239 5.277792
5.2153144 5.23159 5.290836 5.2343225 5.228199 5.25588 5.2882514 4.912462
0.024749303 5.2963595 5.334083 5.2182903 5.2611065 5.293109 5.278119 5.220438
4.9952636 5.2826114 5.3324847 5.2795067 5.316192 5.2405415 5.2589664 0.05245918
0.016565453 5.2188244 5.2545547 5.2115784 5.253753 5.342277 5.265722 5.2747283
5.3223834 5.3104167 5.2835855 5.2619357 5.3132043 5.214505 5.2310233 4.9871907
5.3173213 5.332881 5.247941 5.2884316 5.2905455 5.338569 5.336946 5.225139
5.2667003 5.295194 5.310952 5.2847624 5.328115 -0.04462234 -0.05151382 4.9882216
00000000: 302f 9b40 a441 9c40 523c 9b40 f177 9d40
00000010: 83c1 9b40 ce6c 9b40 d709 9a40 a8f6 9a40
00000020: 1fa4 9a40 56f9 9a40 abb5 9d40 0e5c 9d40
00000030: 20f0 9d40 30ec 9a40 2b18 9c40 d9bd 9c40
00000040: 9a11 9d40 4a07 9a40 f494 9a40 daff 9b40
00000050: 68dd 4cbc e644 9b40 4570 9c40 821c 9c40
00000060: 6f71 9b40 66b4 9b40 a651 9d40 c657 9b40
00000070: 6ba6 9c40 9710 9c40 7262 9c40 3287 9b40
00000080: 622e 9b40 8259 9b40 0604 9d40 b8de 9940
00000090: ac45 9d40 e234 9d40 8647 9d40 661a 9c40
000000a0: 0e96 9b40 8217 9b40 fc6f 9b40 4a59 9d40
000000b0: cfe7 9b40 41d4 9b40 2e52 9c40 deca 9b40
000000c0: 9764 9d40 befc 9c40 60b5 9c40 64a9 9a40
000000d0: a68c 9a40 fab8 9b40 032c 9d40 f574 9c40
000000e0: dd82 9c40 f7c9 9c40 25bd 9c40 0e3b 9d40
000000f0: e5bb 9e40 2239 9d40 a00a 9a40 c651 9a40
00000100: 541d 9d40 e453 9b40 3f23 9b40 c67a 9b40
00000110: c72e 9a40 fe24 9a40 fff9 9a40 d8de 9b40
00000120: 38d4 9b40 106a 9a40 0c6e 9a40 da28 9d40
00000130: 48bb 9d40 3e8d 9c40 801f 9a40 3e17 9a40
00000140: 879e dabc 51ce 9b40 2026 9b40 95ec 9d40
00000150: 7fcc 9940 0f83 9940 9f6f 9940 10cb 9c40
00000160: b4ed 9840 0a67 9c40 56d2 9d40 81f1 9d40
00000170: d2ad 9c40 c847 9d40 68a0 9b40 849d 44bd
00000180: 7152 7d3a 9245 9940 9a70 9d40 3b31 9c40
00000190: 2a35 9a40 b82d 9a40 938f 9a40 f84c 9b40
000001a0: 49a4 9b40 f416 9b40 c787 9b40 2eaf 9a40
000001b0: 7cd6 9b40 9bbc 9b40 2a06 9a40 d8a0 9b40
000001c0: ff28 9a40 ee41 9d40 dc9b 9940 5b5b 9d40
000001d0: b511 9a40 de77 9e40 7315 9e40 f083 9940
000001e0: 99bc 9c40 2473 9b40 25ed 9940 3ad4 9a40
000001f0: 8a58 9a40 9a35 803a c20d ccbc fe26 9d40
00000200: efe6 a840 7ab1 aa40 0b57 a840 ebc8 a940
00000210: ebe3 a740 5818 aa40 bb89 a740 c37e aa40
00000220: 4f5d a940 0298 a940 3451 a940 a5e6 a740
00000230: a2a9 a940 db55 a740 3fac a740 eb96 a940
00000240: 3ac1 a840 709e aa40 0c5f aa40 d754 a740
00000250: 4394 5d3d 3b06 a940 4fec a840 479f a840
00000260: 47eb a840 5af6 a740 dfa0 a940 bbc9 a640
00000270: 3bf9 a840 0988 aa40 3a1f a840 6c29 a940
00000280: 258d a740 c519 a840 4ba4 aa40 1caa a740
00000290: 23a0 a840 8619 aa40 4702 a840 1307 aa40
000002a0: ced3 aa40 6df9 aa40 38a8 a840 9cff a940
000002b0: 6f4d a840 ac29 a940 1c77 a840 98c6 a840
000002c0: 2f70 aa40 ef05 a740 d7b2 a640 1608 a740
000002d0: 3b4e ab40 5f41 a840 3626 ab40 ff4f a740
000002e0: e92d a740 72c8 a840 b74a aa40 779a a840
000002f0: 7e03 a840 bb36 aa40 f9fd aa40 6b6a a840
00000300: 9fed a740 a6e8 a640 ff17 aa40 de42 ab40
00000310: d3bd a640 80d7 a740 5e93 a940 ace3 a840
00000320: dbe3 a640 2f69 a740 874e a940 927f a740
00000330: 684d a740 2b30 a840 5b39 a940 e432 9d40
00000340: 0dbf ca3c c77b a940 cfb0 aa40 3cfc a640
00000350: fc5a a840 2661 a940 5ae6 a840 d40d a740
00000360: 33d9 9f40 270b a940 b7a3 aa40 b8f1 a840
00000370: 3f1e aa40 84b2 a740 7449 a840 70df 563d
00000380: 46b4 873c 9c00 a740 5025 a840 40c5 a640
00000390: bf1e a840 eff3 aa40 cb80 a840 93ca a840
000003a0: f750 aa40 efee a940 2213 a940 c761 a840
000003b0: c505 aa40 3add a640 8b64 a740 1197 9f40
000003c0: 7f27 aa40 f6a6 aa40 22ef a740 d53a a940
000003d0: 264c a940 8fd5 aa40 43c8 aa40 5734 a740
000003e0: cf88 a840 3b72 a940 52f3 a940 c61c a940
000003f0: eb7f aa40 eac5 36bd 2800 53bd 839f 9f40

layer3.bias f4 [98]
0.32847038 6.0345645 1.4718342 0.636796 0.909919 3.7889144 4.847925 2.0123124
3.5131285 0.4379514 3.0984564 -1.666489 -2.2352977 0.68146974 3.4659362 1.6533045
1.5381241 0.6904111 3.564008 0.8832379 0.6511772 1.0217055 -3.6535816 -1.7585241
2.7554042 9.621133 2.7156706 2.1311398 1.3936483 1.845517 1.0816582 0.7905634
2.2600198 1.9622891 3.623303 -1.5252929 3.3275416 0.35133207 0.5153335 2.2543306
2.4998925 2.3245192 2.5459385 2.8127568 1.0514374 2.1167197 3.227722 1.3577015
1.5414579 1.2261684 1.6607432 3.697511 1.3998101 2.6613915 1.7059035 4.8222384
1.9208628 1.6646006 3.2040956 1.2671318 4.30162 2.523708 1.1220928 1.8131588
3.9502373 3.042615 -1.9451 3.0085087 2.2329767 2.1085832 1.2108959 2.948627
5.596551 0.6942649 1.7387311 2.1420472 2.3432775 2.2677338 1.3818684 3.6352422
3.3367438 0.95423377 1.1924574 1.4294658 3.0256684 0.88178414 1.1606104 1.5902658
3.7602615 1.5675247 2.9055228 2.3682015 1.7987053 2.2438688 1.4743228 3.1244392
1.4294236 3.8912313
00000000: 452d a83e 271b c140 1065 bc3f 1005 233f
00000010: 74f0 683f 937d 7240 3422 9b40 bac9 0040
00000020: 19d7 6040 2a3b e03e 1c4d 4640 834f d5bf
00000030: 1e0f 0fc0 cd74 2e3f e6d1 5d40 7b9f d33f
00000040: 40e1 c43f c8be 303f b518 6440 e11b 623f
00000050: 8db3 263f 3fc7 823f 48d4 69c0 5117 e1bf
00000060: 8b58 3040 29f0 1941 8ccd 2d40 9864 0840
00000070: 1163 b23f e739 ec3f c773 8a3f 5d62 4a3f
00000080: 2aa4 1040 4a2c fb3f 32e4 6740 cc3c c3bf
00000090: 71f6 5440 cce1 b33e e5ec 033f f446 1040
000000a0: 3dfe 1f40 ecc4 1440 a8f0 2240 3504 3440
000000b0: 8095 863f 5678 0740 ff92 4e40 2ac9 ad3f
000000c0: 7e4e c53f 16f3 9c3f 3c93 d43f 05a4 6c40
000000d0: fa2c b33f 3d54 2a40 0c5b da3f c74f 9a40
000000e0: d5de f53f a211 d53f e70f 4d40 6031 a23f
000000f0: dfa6 8940 6f84 2140 bda0 8f3f 9615 e83f
00000100: b0d0 7c40 34ba 4240 09f9 f8bf 688b 4040
00000110: 17e9 0e40 07f3 0640 a3fe 9a3f 4eb6 3c40
00000120: f216 b340 58bb 313f be8e de3f 4d17 0940
00000130: 42f8 1540 8d22 1140 10e1 b03f cfa7 6840
00000140: 368d 5540 aa48 743f 72a2 983f bcf8 b63f
00000150: 8da4 4140 9bbc 613f e28e 943f d48d cb3f
00000160: 20a8 7040 a6a4 c83f 16f4 3940 9d90 1740
00000170: fa3b e63f 8c9b 0f40 9cb6 bc3f d0f6 4740
00000180: 5af7 b63f ef09 7940
